…
I0715 01:36:25.945215 23843 net.cpp:296] The NetState phase (0) differed from the phase (1) specified by a rule in layer seg-loss-acc
I0715 01:36:25.945394 23843 net.cpp:53] Initializing net from parameters: 
name: "Allconv5_SEG"
state {
  phase: TRAIN
  level: 0
  stage: ""
}
layer {
  name: "data"
  type: "ImageSegData"
  top: "data"
  top: "seg-label"
  include {
    phase: TRAIN
  }
  transform_param {
    mirror: true
    crop_size: 224
    mean_value: 104
    mean_value: 117
    mean_value: 124
  }
  image_data_param {
    source: "all_shuffle_train.txt"
    batch_size: 16
    shuffle: true
    new_height: 256
    new_width: 256
  }
}
layer {
  name: "conv1"
  type: "Convolution"
  bottom: "data"
  top: "conv1"
  param {
    lr_mult: 1
    decay_mult: 1
  }
  param {
    lr_mult: 2
    decay_mult: 0
  }
  convolution_param {
    num_output: 32
    pad: 1
    kernel_size: 3
    stride: 2
    weight_filler {
      type: "gaussian"
      std: 0.01
    }
    bias_filler {
      type: "constant"
      value: 0
    }
  }
}
layer {
  name: "relu1"
  type: "ReLU"
  bottom: "conv1"
  top: "conv1"
}
layer {
  name: "conv2"
  type: "Convolution"
  bottom: "conv1"
  top: "conv2"
  param {
    lr_mult: 1
    decay_mult: 1
  }
  param {
    lr_mult: 2
    decay_mult: 0
  }
  convolution_param {
    num_output: 64
    pad: 1
    kernel_size: 3
    stride: 2
    weight_filler {
      type: "gaussian"
      std: 0.01
    }
    bias_filler {
      type: "constant"
      value: 0
    }
  }
}
layer {
  name: "relu2"
  type: "ReLU"
  bottom: "conv2"
  top: "conv2"
}
layer {
  name: "conv3"
  type: "Convolution"
  bottom: "conv2"
  top: "conv3"
  param {
    lr_mult: 1
    decay_mult: 1
  }
  param {
    lr_mult: 2
    decay_mult: 0
  }
  convolution_param {
    num_output: 128
    pad: 1
    kernel_size: 3
    stride: 2
    weight_filler {
      type: "gaussian"
      std: 0.01
    }
    bias_filler {
      type: "constant"
      value: 0
    }
  }
}
layer {
  name: "relu3"
  type: "ReLU"
  bottom: "conv3"
  top: "conv3"
}
layer {
  name: "conv4"
  type: "Convolution"
  bottom: "conv3"
  top: "conv4"
  param {
    lr_mult: 1
    decay_mult: 1
  }
  param {
    lr_mult: 2
    decay_mult: 0
  }
  convolution_param {
    num_output: 256
    pad: 1
    kernel_size: 3
    stride: 2
    weight_filler {
      type: "gaussian"
      std: 0.01
    }
    bias_filler {
      type: "constant"
      value: 0
    }
  }
}
layer {
  name: "relu4"
  type: "ReLU"
  bottom: "conv4"
  top: "conv4"
}
layer {
  name: "conv5"
  type: "Convolution"
  bottom: "conv4"
  top: "conv5"
  param {
    lr_mult: 1
    decay_mult: 1
  }
  param {
    lr_mult: 2
    decay_mult: 0
  }
  convolution_param {
    num_output: 512
    pad: 1
    kernel_size: 3
    stride: 2
    weight_filler {
      type: "gaussian"
      std: 0.01
    }
    bias_filler {
      type: "constant"
      value: 0
    }
  }
}
layer {
  name: "relu5"
  type: "ReLU"
  bottom: "conv5"
  top: "conv5"
}
layer {
  name: "deconv5_1"
  type: "Deconvolution"
  bottom: "conv5"
  top: "deconv5_1"
  param {
    lr_mult: 1
    decay_mult: 1
  }
  convolution_param {
    num_output: 64
    bias_term: false
    pad: 1
    kernel_size: 4
    stride: 2
    weight_filler {
      type: "msra"
    }
  }
}
layer {
  name: "deconv5_2"
  type: "Deconvolution"
  bottom: "deconv5_1"
  top: "deconv5_2"
  param {
    lr_mult: 1
    decay_mult: 1
  }
  convolution_param {
    num_output: 32
    bias_term: false
    pad: 1
    kernel_size: 4
    stride: 2
    weight_filler {
      type: "msra"
    }
  }
}
layer {
  name: "deconv5_3"
  type: "Deconvolution"
  bottom: "deconv5_2"
  top: "deconv5_3"
  param {
    lr_mult: 1
    decay_mult: 1
  }
  convolution_param {
    num_output: 16
    bias_term: false
    pad: 1
    kernel_size: 4
    stride: 2
    weight_filler {
      type: "msra"
    }
  }
}
layer {
  name: "deconv5_4"
  type: "Deconvolution"
  bottom: "deconv5_3"
  top: "deconv5_4"
  param {
    lr_mult: 1
    decay_mult: 1
  }
  convolution_param {
    num_output: 8
    bias_term: false
    pad: 1
    kernel_size: 4
    stride: 2
    weight_filler {
      type: "msra"
    }
  }
}
layer {
  name: "deconv5_5"
  type: "Deconvolution"
  bottom: "deconv5_4"
  top: "deconv5_5"
  param {
    lr_mult: 1
    decay_mult: 1
  }
  convolution_param {
    num_output: 2
    bias_term: false
    pad: 1
    kernel_size: 4
    stride: 2
    weight_filler {
      type: "msra"
    }
  }
}
layer {
  name: "upscore"
  type: "Crop"
  bottom: "deconv5_5"
  bottom: "data"
  top: "upscore"
  crop_param {
    axis: 2
    offset: 0
    offset: 0
  }
}
layer {
  name: "loss"
  type: "SoftmaxWithLoss"
  bottom: "upscore"
  bottom: "seg-label"
  top: "loss"
  include {
    phase: TEST
  }
  include {
    phase: TRAIN
  }
  loss_param {
    ignore_label: 255
  }
}
layer {
  name: "seg-loss-acc"
  type: "Accuracy"
  bottom: "upscore"
  bottom: "seg-label"
  top: "seg-loss-acc"
  include {
    phase: TEST
  }
  include {
    phase: TRAIN
  }
  accuracy_param {
    ignore_label: 255
  }
}
I0715 01:36:25.945554 23843 layer_factory.hpp:77] Creating layer data
I0715 01:36:25.945619 23843 net.cpp:86] Creating Layer data
I0715 01:36:25.945631 23843 net.cpp:382] data -> data
I0715 01:36:25.945667 23843 net.cpp:382] data -> seg-label
I0715 01:36:25.945735 23843 image_seg_data_layer.cpp:38] Opening file all_shuffle_train.txt
I0715 01:36:25.947830 23843 image_seg_data_layer.cpp:51] Shuffling data
I0715 01:36:25.948066 23843 image_seg_data_layer.cpp:56] A total of 1532 images.
I0715 01:36:25.958892 23843 image_seg_data_layer.cpp:92] output data size: 16,3,224,224
I0715 01:36:25.958959 23843 image_seg_data_layer.cpp:105] output label size: 16,1,224,224
I0715 01:36:25.990095 23843 net.cpp:124] Setting up data
I0715 01:36:25.990135 23843 net.cpp:131] Top shape: 16 3 224 224 (2408448)
I0715 01:36:25.990142 23843 net.cpp:131] Top shape: 16 1 224 224 (802816)
I0715 01:36:25.990146 23843 net.cpp:139] Memory required for data: 12845056
I0715 01:36:25.990156 23843 layer_factory.hpp:77] Creating layer data_data_0_split
I0715 01:36:25.990177 23843 net.cpp:86] Creating Layer data_data_0_split
I0715 01:36:25.990185 23843 net.cpp:408] data_data_0_split <- data
I0715 01:36:25.990200 23843 net.cpp:382] data_data_0_split -> data_data_0_split_0
I0715 01:36:25.990213 23843 net.cpp:382] data_data_0_split -> data_data_0_split_1
I0715 01:36:25.990286 23843 net.cpp:124] Setting up data_data_0_split
I0715 01:36:25.990304 23843 net.cpp:131] Top shape: 16 3 224 224 (2408448)
I0715 01:36:25.990317 23843 net.cpp:131] Top shape: 16 3 224 224 (2408448)
I0715 01:36:25.990322 23843 net.cpp:139] Memory required for data: 32112640
I0715 01:36:25.990326 23843 layer_factory.hpp:77] Creating layer seg-label_data_1_split
I0715 01:36:25.990334 23843 net.cpp:86] Creating Layer seg-label_data_1_split
I0715 01:36:25.990337 23843 net.cpp:408] seg-label_data_1_split <- seg-label
I0715 01:36:25.990352 23843 net.cpp:382] seg-label_data_1_split -> seg-label_data_1_split_0
I0715 01:36:25.990360 23843 net.cpp:382] seg-label_data_1_split -> seg-label_data_1_split_1
I0715 01:36:25.990397 23843 net.cpp:124] Setting up seg-label_data_1_split
I0715 01:36:25.990413 23843 net.cpp:131] Top shape: 16 1 224 224 (802816)
I0715 01:36:25.990420 23843 net.cpp:131] Top shape: 16 1 224 224 (802816)
I0715 01:36:25.990432 23843 net.cpp:139] Memory required for data: 38535168
I0715 01:36:25.990458 23843 layer_factory.hpp:77] Creating layer conv1
I0715 01:36:25.990483 23843 net.cpp:86] Creating Layer conv1
I0715 01:36:25.990496 23843 net.cpp:408] conv1 <- data_data_0_split_0
I0715 01:36:25.990514 23843 net.cpp:382] conv1 -> conv1
I0715 01:36:27.174202 23843 net.cpp:124] Setting up conv1
I0715 01:36:27.174239 23843 net.cpp:131] Top shape: 16 32 112 112 (6422528)
I0715 01:36:27.174245 23843 net.cpp:139] Memory required for data: 64225280
I0715 01:36:27.174266 23843 layer_factory.hpp:77] Creating layer relu1
I0715 01:36:27.174291 23843 net.cpp:86] Creating Layer relu1
I0715 01:36:27.174299 23843 net.cpp:408] relu1 <- conv1
I0715 01:36:27.174306 23843 net.cpp:369] relu1 -> conv1 (in-place)
I0715 01:36:27.174813 23843 net.cpp:124] Setting up relu1
I0715 01:36:27.174832 23843 net.cpp:131] Top shape: 16 32 112 112 (6422528)
I0715 01:36:27.174837 23843 net.cpp:139] Memory required for data: 89915392
I0715 01:36:27.174841 23843 layer_factory.hpp:77] Creating layer conv2
I0715 01:36:27.174855 23843 net.cpp:86] Creating Layer conv2
I0715 01:36:27.174860 23843 net.cpp:408] conv2 <- conv1
I0715 01:36:27.174876 23843 net.cpp:382] conv2 -> conv2
I0715 01:36:27.178967 23843 net.cpp:124] Setting up conv2
I0715 01:36:27.178997 23843 net.cpp:131] Top shape: 16 64 56 56 (3211264)
I0715 01:36:27.179002 23843 net.cpp:139] Memory required for data: 102760448
I0715 01:36:27.179013 23843 layer_factory.hpp:77] Creating layer relu2
I0715 01:36:27.179025 23843 net.cpp:86] Creating Layer relu2
I0715 01:36:27.179030 23843 net.cpp:408] relu2 <- conv2
I0715 01:36:27.179045 23843 net.cpp:369] relu2 -> conv2 (in-place)
I0715 01:36:27.179531 23843 net.cpp:124] Setting up relu2
I0715 01:36:27.179544 23843 net.cpp:131] Top shape: 16 64 56 56 (3211264)
I0715 01:36:27.179548 23843 net.cpp:139] Memory required for data: 115605504
I0715 01:36:27.179553 23843 layer_factory.hpp:77] Creating layer conv3
I0715 01:36:27.179572 23843 net.cpp:86] Creating Layer conv3
I0715 01:36:27.179579 23843 net.cpp:408] conv3 <- conv2
I0715 01:36:27.179586 23843 net.cpp:382] conv3 -> conv3
I0715 01:36:27.183495 23843 net.cpp:124] Setting up conv3
I0715 01:36:27.183509 23843 net.cpp:131] Top shape: 16 128 28 28 (1605632)
I0715 01:36:27.183514 23843 net.cpp:139] Memory required for data: 122028032
I0715 01:36:27.183534 23843 layer_factory.hpp:77] Creating layer relu3
I0715 01:36:27.183544 23843 net.cpp:86] Creating Layer relu3
I0715 01:36:27.183549 23843 net.cpp:408] relu3 <- conv3
I0715 01:36:27.183563 23843 net.cpp:369] relu3 -> conv3 (in-place)
I0715 01:36:27.184368 23843 net.cpp:124] Setting up relu3
I0715 01:36:27.184383 23843 net.cpp:131] Top shape: 16 128 28 28 (1605632)
I0715 01:36:27.184388 23843 net.cpp:139] Memory required for data: 128450560
I0715 01:36:27.184401 23843 layer_factory.hpp:77] Creating layer conv4
I0715 01:36:27.184413 23843 net.cpp:86] Creating Layer conv4
I0715 01:36:27.184419 23843 net.cpp:408] conv4 <- conv3
I0715 01:36:27.184437 23843 net.cpp:382] conv4 -> conv4
I0715 01:36:27.189831 23843 net.cpp:124] Setting up conv4
I0715 01:36:27.189852 23843 net.cpp:131] Top shape: 16 256 14 14 (802816)
I0715 01:36:27.189857 23843 net.cpp:139] Memory required for data: 131661824
I0715 01:36:27.189867 23843 layer_factory.hpp:77] Creating layer relu4
I0715 01:36:27.189877 23843 net.cpp:86] Creating Layer relu4
I0715 01:36:27.189882 23843 net.cpp:408] relu4 <- conv4
I0715 01:36:27.189889 23843 net.cpp:369] relu4 -> conv4 (in-place)
I0715 01:36:27.190697 23843 net.cpp:124] Setting up relu4
I0715 01:36:27.190712 23843 net.cpp:131] Top shape: 16 256 14 14 (802816)
I0715 01:36:27.190716 23843 net.cpp:139] Memory required for data: 134873088
I0715 01:36:27.190721 23843 layer_factory.hpp:77] Creating layer conv5
I0715 01:36:27.190733 23843 net.cpp:86] Creating Layer conv5
I0715 01:36:27.190738 23843 net.cpp:408] conv5 <- conv4
I0715 01:36:27.190745 23843 net.cpp:382] conv5 -> conv5
I0715 01:36:27.206545 23843 net.cpp:124] Setting up conv5
I0715 01:36:27.206574 23843 net.cpp:131] Top shape: 16 512 7 7 (401408)
I0715 01:36:27.206579 23843 net.cpp:139] Memory required for data: 136478720
I0715 01:36:27.206616 23843 layer_factory.hpp:77] Creating layer relu5
I0715 01:36:27.206627 23843 net.cpp:86] Creating Layer relu5
I0715 01:36:27.206632 23843 net.cpp:408] relu5 <- conv5
I0715 01:36:27.206646 23843 net.cpp:369] relu5 -> conv5 (in-place)
I0715 01:36:27.207204 23843 net.cpp:124] Setting up relu5
I0715 01:36:27.207216 23843 net.cpp:131] Top shape: 16 512 7 7 (401408)
I0715 01:36:27.207221 23843 net.cpp:139] Memory required for data: 138084352
I0715 01:36:27.207226 23843 layer_factory.hpp:77] Creating layer deconv5_1
I0715 01:36:27.207238 23843 net.cpp:86] Creating Layer deconv5_1
I0715 01:36:27.207243 23843 net.cpp:408] deconv5_1 <- conv5
I0715 01:36:27.207254 23843 net.cpp:382] deconv5_1 -> deconv5_1
I0715 01:36:27.215875 23843 net.cpp:124] Setting up deconv5_1
I0715 01:36:27.215909 23843 net.cpp:131] Top shape: 16 64 14 14 (200704)
I0715 01:36:27.215914 23843 net.cpp:139] Memory required for data: 138887168
I0715 01:36:27.215922 23843 layer_factory.hpp:77] Creating layer deconv5_2
I0715 01:36:27.215941 23843 net.cpp:86] Creating Layer deconv5_2
I0715 01:36:27.215956 23843 net.cpp:408] deconv5_2 <- deconv5_1
I0715 01:36:27.215972 23843 net.cpp:382] deconv5_2 -> deconv5_2
I0715 01:36:27.218263 23843 net.cpp:124] Setting up deconv5_2
I0715 01:36:27.218283 23843 net.cpp:131] Top shape: 16 32 28 28 (401408)
I0715 01:36:27.218288 23843 net.cpp:139] Memory required for data: 140492800
I0715 01:36:27.218294 23843 layer_factory.hpp:77] Creating layer deconv5_3
I0715 01:36:27.218307 23843 net.cpp:86] Creating Layer deconv5_3
I0715 01:36:27.218314 23843 net.cpp:408] deconv5_3 <- deconv5_2
I0715 01:36:27.218335 23843 net.cpp:382] deconv5_3 -> deconv5_3
I0715 01:36:27.220374 23843 net.cpp:124] Setting up deconv5_3
I0715 01:36:27.220389 23843 net.cpp:131] Top shape: 16 16 56 56 (802816)
I0715 01:36:27.220393 23843 net.cpp:139] Memory required for data: 143704064
I0715 01:36:27.220399 23843 layer_factory.hpp:77] Creating layer deconv5_4
I0715 01:36:27.220412 23843 net.cpp:86] Creating Layer deconv5_4
I0715 01:36:27.220417 23843 net.cpp:408] deconv5_4 <- deconv5_3
I0715 01:36:27.220427 23843 net.cpp:382] deconv5_4 -> deconv5_4
I0715 01:36:27.222436 23843 net.cpp:124] Setting up deconv5_4
I0715 01:36:27.222458 23843 net.cpp:131] Top shape: 16 8 112 112 (1605632)
I0715 01:36:27.222463 23843 net.cpp:139] Memory required for data: 150126592
I0715 01:36:27.222470 23843 layer_factory.hpp:77] Creating layer deconv5_5
I0715 01:36:27.222481 23843 net.cpp:86] Creating Layer deconv5_5
I0715 01:36:27.222497 23843 net.cpp:408] deconv5_5 <- deconv5_4
I0715 01:36:27.222510 23843 net.cpp:382] deconv5_5 -> deconv5_5
I0715 01:36:27.224725 23843 net.cpp:124] Setting up deconv5_5
I0715 01:36:27.224745 23843 net.cpp:131] Top shape: 16 2 224 224 (1605632)
I0715 01:36:27.224750 23843 net.cpp:139] Memory required for data: 156549120
I0715 01:36:27.224756 23843 layer_factory.hpp:77] Creating layer upscore
I0715 01:36:27.224766 23843 net.cpp:86] Creating Layer upscore
I0715 01:36:27.224774 23843 net.cpp:408] upscore <- deconv5_5
I0715 01:36:27.224792 23843 net.cpp:408] upscore <- data_data_0_split_1
I0715 01:36:27.224802 23843 net.cpp:382] upscore -> upscore
I0715 01:36:27.225040 23843 net.cpp:124] Setting up upscore
I0715 01:36:27.225059 23843 net.cpp:131] Top shape: 16 2 224 224 (1605632)
I0715 01:36:27.225064 23843 net.cpp:139] Memory required for data: 162971648
I0715 01:36:27.225069 23843 layer_factory.hpp:77] Creating layer upscore_upscore_0_split
I0715 01:36:27.225076 23843 net.cpp:86] Creating Layer upscore_upscore_0_split
I0715 01:36:27.225083 23843 net.cpp:408] upscore_upscore_0_split <- upscore
I0715 01:36:27.225136 23843 net.cpp:382] upscore_upscore_0_split -> upscore_upscore_0_split_0
I0715 01:36:27.225147 23843 net.cpp:382] upscore_upscore_0_split -> upscore_upscore_0_split_1
I0715 01:36:27.225224 23843 net.cpp:124] Setting up upscore_upscore_0_split
I0715 01:36:27.225234 23843 net.cpp:131] Top shape: 16 2 224 224 (1605632)
I0715 01:36:27.225248 23843 net.cpp:131] Top shape: 16 2 224 224 (1605632)
I0715 01:36:27.225265 23843 net.cpp:139] Memory required for data: 175816704
I0715 01:36:27.225272 23843 layer_factory.hpp:77] Creating layer loss
I0715 01:36:27.225293 23843 net.cpp:86] Creating Layer loss
I0715 01:36:27.225302 23843 net.cpp:408] loss <- upscore_upscore_0_split_0
I0715 01:36:27.225308 23843 net.cpp:408] loss <- seg-label_data_1_split_0
I0715 01:36:27.225329 23843 net.cpp:382] loss -> loss
…
