…
I0715 11:01:15.109941 30284 net.cpp:296] The NetState phase (0) differed from the phase (1) specified by a rule in layer seg-loss-acc
I0715 11:01:15.110373 30284 net.cpp:53] Initializing net from parameters: 
name: "ResNet-18"
state {
  phase: TRAIN
  level: 0
  stage: ""
}
layer {
  name: "data"
  type: "ImageSegData"
  top: "data"
  top: "seg-label"
  include {
    phase: TRAIN
  }
  transform_param {
    mirror: true
    crop_size: 224
    mean_value: 104
    mean_value: 117
    mean_value: 124
  }
  image_data_param {
    source: "all_shuffle_train.txt"
    batch_size: 32
    shuffle: true
    new_height: 256
    new_width: 256
  }
}
layer {
  name: "conv1"
  type: "Convolution"
  bottom: "data"
  top: "conv1"
  convolution_param {
    num_output: 64
    bias_term: false
    pad: 3
    kernel_size: 7
    stride: 2
    weight_filler {
      type: "msra"
    }
  }
}
layer {
  name: "bn_conv1"
  type: "BatchNorm"
  bottom: "conv1"
  top: "conv1"
  batch_norm_param {
    moving_average_fraction: 0.9
  }
}
layer {
  name: "scale_conv1"
  type: "Scale"
  bottom: "conv1"
  top: "conv1"
  scale_param {
    bias_term: true
  }
}
layer {
  name: "conv1_relu"
  type: "ReLU"
  bottom: "conv1"
  top: "conv1"
}
layer {
  name: "pool1"
  type: "Pooling"
  bottom: "conv1"
  top: "pool1"
  pooling_param {
    pool: MAX
    kernel_size: 3
    stride: 2
  }
}
layer {
  name: "res2a_branch1"
  type: "Convolution"
  bottom: "pool1"
  top: "res2a_branch1"
  convolution_param {
    num_output: 64
    bias_term: false
    pad: 0
    kernel_size: 1
    stride: 1
    weight_filler {
      type: "msra"
    }
  }
}
layer {
  name: "bn2a_branch1"
  type: "BatchNorm"
  bottom: "res2a_branch1"
  top: "res2a_branch1"
  batch_norm_param {
    moving_average_fraction: 0.9
  }
}
layer {
  name: "scale2a_branch1"
  type: "Scale"
  bottom: "res2a_branch1"
  top: "res2a_branch1"
  scale_param {
    bias_term: true
  }
}
layer {
  name: "res2a_branch2a"
  type: "Convolution"
  bottom: "pool1"
  top: "res2a_branch2a"
  convolution_param {
    num_output: 64
    bias_term: false
    pad: 1
    kernel_size: 3
    stride: 1
    weight_filler {
      type: "msra"
    }
  }
}
layer {
  name: "bn2a_branch2a"
  type: "BatchNorm"
  bottom: "res2a_branch2a"
  top: "res2a_branch2a"
  batch_norm_param {
    moving_average_fraction: 0.9
  }
}
layer {
  name: "scale2a_branch2a"
  type: "Scale"
  bottom: "res2a_branch2a"
  top: "res2a_branch2a"
  scale_param {
    bias_term: true
  }
}
layer {
  name: "res2a_branch2a_relu"
  type: "ReLU"
  bottom: "res2a_branch2a"
  top: "res2a_branch2a"
}
layer {
  name: "res2a_branch2b"
  type: "Convolution"
  bottom: "res2a_branch2a"
  top: "res2a_branch2b"
  convolution_param {
    num_output: 64
    bias_term: false
    pad: 1
    kernel_size: 3
    stride: 1
    weight_filler {
      type: "msra"
    }
  }
}
layer {
  name: "bn2a_branch2b"
  type: "BatchNorm"
  bottom: "res2a_branch2b"
  top: "res2a_branch2b"
  batch_norm_param {
    moving_average_fraction: 0.9
  }
}
layer {
  name: "scale2a_branch2b"
  type: "Scale"
  bottom: "res2a_branch2b"
  top: "res2a_branch2b"
  scale_param {
    bias_term: true
  }
}
layer {
  name: "res2a"
  type: "Eltwise"
  bottom: "res2a_branch1"
  bottom: "res2a_branch2b"
  top: "res2a"
  eltwise_param {
    operation: SUM
  }
}
layer {
  name: "res2a_relu"
  type: "ReLU"
  bottom: "res2a"
  top: "res2a"
}
layer {
  name: "res2b_branch2a"
  type: "Convolution"
  bottom: "res2a"
  top: "res2b_branch2a"
  convolution_param {
    num_output: 64
    bias_term: false
    pad: 1
    kernel_size: 3
    stride: 1
    weight_filler {
      type: "msra"
    }
  }
}
layer {
  name: "bn2b_branch2a"
  type: "BatchNorm"
  bottom: "res2b_branch2a"
  top: "res2b_branch2a"
  batch_norm_param {
    moving_average_fraction: 0.9
  }
}
layer {
  name: "scale2b_branch2a"
  type: "Scale"
  bottom: "res2b_branch2a"
  top: "res2b_branch2a"
  scale_param {
    bias_term: true
  }
}
layer {
  name: "res2b_branch2a_relu"
  type: "ReLU"
  bottom: "res2b_branch2a"
  top: "res2b_branch2a"
}
layer {
  name: "res2b_branch2b"
  type: "Convolution"
  bottom: "res2b_branch2a"
  top: "res2b_branch2b"
  convolution_param {
    num_output: 64
    bias_term: false
    pad: 1
    kernel_size: 3
    stride: 1
    weight_filler {
      type: "msra"
    }
  }
}
layer {
  name: "bn2b_branch2b"
  type: "BatchNorm"
  bottom: "res2b_branch2b"
  top: "res2b_branch2b"
  batch_norm_param {
    moving_average_fraction: 0.9
  }
}
layer {
  name: "scale2b_branch2b"
  type: "Scale"
  bottom: "res2b_branch2b"
  top: "res2b_branch2b"
  scale_param {
    bias_term: true
  }
}
layer {
  name: "res2b"
  type: "Eltwise"
  bottom: "res2a"
  bottom: "res2b_branch2b"
  top: "res2b"
  eltwise_param {
    operation: SUM
  }
}
layer {
  name: "res2b_relu"
  type: "ReLU"
  bottom: "res2b"
  top: "res2b"
}
layer {
  name: "res3a_branch1"
  type: "Convolution"
  bottom: "res2b"
  top: "res3a_branch1"
  convolution_param {
    num_output: 128
    bias_term: false
    pad: 0
    kernel_size: 1
    stride: 2
    weight_filler {
      type: "msra"
    }
  }
}
layer {
  name: "bn3a_branch1"
  type: "BatchNorm"
  bottom: "res3a_branch1"
  top: "res3a_branch1"
  batch_norm_param {
    moving_average_fraction: 0.9
  }
}
layer {
  name: "scale3a_branch1"
  type: "Scale"
  bottom: "res3a_branch1"
  top: "res3a_branch1"
  scale_param {
    bias_term: true
  }
}
layer {
  name: "res3a_branch2a"
  type: "Convolution"
  bottom: "res2b"
  top: "res3a_branch2a"
  convolution_param {
    num_output: 128
    bias_term: false
    pad: 1
    kernel_size: 3
    stride: 2
    weight_filler {
      type: "msra"
    }
  }
}
layer {
  name: "bn3a_branch2a"
  type: "BatchNorm"
  bottom: "res3a_branch2a"
  top: "res3a_branch2a"
  batch_norm_param {
    moving_average_fraction: 0.9
  }
}
layer {
  name: "scale3a_branch2a"
  type: "Scale"
  bottom: "res3a_branch2a"
  top: "res3a_branch2a"
  scale_param {
    bias_term: true
  }
}
layer {
  name: "res3a_branch2a_relu"
  type: "ReLU"
  bottom: "res3a_branch2a"
  top: "res3a_branch2a"
}
layer {
  name: "res3a_branch2b"
  type: "Convolution"
  bottom: "res3a_branch2a"
  top: "res3a_branch2b"
  convolution_param {
    num_output: 128
    bias_term: false
    pad: 1
    kernel_size: 3
    stride: 1
    weight_filler {
      type: "msra"
    }
  }
}
layer {
  name: "bn3a_branch2b"
  type: "BatchNorm"
  bottom: "res3a_branch2b"
  top: "res3a_branch2b"
  batch_norm_param {
    moving_average_fraction: 0.9
  }
}
layer {
  name: "scale3a_branch2b"
  type: "Scale"
  bottom: "res3a_branch2b"
  top: "res3a_branch2b"
  scale_param {
    bias_term: true
  }
}
layer {
  name: "res3a"
  type: "Eltwise"
  bottom: "res3a_branch1"
  bottom: "res3a_branch2b"
  top: "res3a"
  eltwise_param {
    operation: SUM
  }
}
layer {
  name: "res3a_relu"
  type: "ReLU"
  bottom: "res3a"
  top: "res3a"
}
layer {
  name: "res3b_branch2a"
  type: "Convolution"
  bottom: "res3a"
  top: "res3b_branch2a"
  convolution_param {
    num_output: 128
    bias_term: false
    pad: 1
    kernel_size: 3
    stride: 1
    weight_filler {
      type: "msra"
    }
  }
}
layer {
  name: "bn3b_branch2a"
  type: "BatchNorm"
  bottom: "res3b_branch2a"
  top: "res3b_branch2a"
  batch_norm_param {
    moving_average_fraction: 0.9
  }
}
layer {
  name: "scale3b_branch2a"
  type: "Scale"
  bottom: "res3b_branch2a"
  top: "res3b_branch2a"
  scale_param {
    bias_term: true
  }
}
layer {
  name: "res3b_branch2a_relu"
  type: "ReLU"
  bottom: "res3b_branch2a"
  top: "res3b_branch2a"
}
layer {
  name: "res3b_branch2b"
  type: "Convolution"
  bottom: "res3b_branch2a"
  top: "res3b_branch2b"
  convolution_param {
    num_output: 128
    bias_term: false
    pad: 1
    kernel_size: 3
    stride: 1
    weight_filler {
      type: "msra"
    }
  }
}
layer {
  name: "bn3b_branch2b"
  type: "BatchNorm"
  bottom: "res3b_branch2b"
  top: "res3b_branch2b"
  batch_norm_param {
    moving_average_fraction: 0.9
  }
}
layer {
  name: "scale3b_branch2b"
  type: "Scale"
  bottom: "res3b_branch2b"
  top: "res3b_branch2b"
  scale_param {
    bias_term: true
  }
}
layer {
  name: "res3b"
  type: "Eltwise"
  bottom: "res3a"
  bottom: "res3b_branch2b"
  top: "res3b"
  eltwise_param {
    operation: SUM
  }
}
layer {
  name: "res3b_relu"
  type: "ReLU"
  bottom: "res3b"
  top: "res3b"
}
layer {
  name: "res4a_branch1"
  type: "Convolution"
  bottom: "res3b"
  top: "res4a_branch1"
  convolution_param {
    num_output: 256
    bias_term: false
    pad: 0
    kernel_size: 1
    stride: 2
    weight_filler {
      type: "msra"
    }
  }
}
layer {
  name: "bn4a_branch1"
  type: "BatchNorm"
  bottom: "res4a_branch1"
  top: "res4a_branch1"
  batch_norm_param {
    moving_average_fraction: 0.9
  }
}
layer {
  name: "scale4a_branch1"
  type: "Scale"
  bottom: "res4a_branch1"
  top: "res4a_branch1"
  scale_param {
    bias_term: true
  }
}
layer {
  name: "res4a_branch2a"
  type: "Convolution"
  bottom: "res3b"
  top: "res4a_branch2a"
  convolution_param {
    num_output: 256
    bias_term: false
    pad: 1
    kernel_size: 3
    stride: 2
    weight_filler {
      type: "msra"
    }
  }
}
layer {
  name: "bn4a_branch2a"
  type: "BatchNorm"
  bottom: "res4a_branch2a"
  top: "res4a_branch2a"
  batch_norm_param {
    moving_average_fraction: 0.9
  }
}
layer {
  name: "scale4a_branch2a"
  type: "Scale"
  bottom: "res4a_branch2a"
  top: "res4a_branch2a"
  scale_param {
    bias_term: true
  }
}
layer {
  name: "res4a_branch2a_relu"
  type: "ReLU"
  bottom: "res4a_branch2a"
  top: "res4a_branch2a"
}
layer {
  name: "res4a_branch2b"
  type: "Convolution"
  bottom: "res4a_branch2a"
  top: "res4a_branch2b"
  convolution_param {
    num_output: 256
    bias_term: false
    pad: 1
    kernel_size: 3
    stride: 1
    weight_filler {
      type: "msra"
    }
  }
}
layer {
  name: "bn4a_branch2b"
  type: "BatchNorm"
  bottom: "res4a_branch2b"
  top: "res4a_branch2b"
  batch_norm_param {
    moving_average_fraction: 0.9
  }
}
layer {
  name: "scale4a_branch2b"
  type: "Scale"
  bottom: "res4a_branch2b"
  top: "res4a_branch2b"
  scale_param {
    bias_term: true
  }
}
layer {
  name: "res4a"
  type: "Eltwise"
  bottom: "res4a_branch1"
  bottom: "res4a_branch2b"
  top: "res4a"
  eltwise_param {
    operation: SUM
  }
}
layer {
  name: "res4a_relu"
  type: "ReLU"
  bottom: "res4a"
  top: "res4a"
}
layer {
  name: "res4b_branch2a"
  type: "Convolution"
  bottom: "res4a"
  top: "res4b_branch2a"
  convolution_param {
    num_output: 256
    bias_term: false
    pad: 1
    kernel_size: 3
    stride: 1
    weight_filler {
      type: "msra"
    }
  }
}
layer {
  name: "bn4b_branch2a"
  type: "BatchNorm"
  bottom: "res4b_branch2a"
  top: "res4b_branch2a"
  batch_norm_param {
    moving_average_fraction: 0.9
  }
}
layer {
  name: "scale4b_branch2a"
  type: "Scale"
  bottom: "res4b_branch2a"
  top: "res4b_branch2a"
  scale_param {
    bias_term: true
  }
}
layer {
  name: "res4b_branch2a_relu"
  type: "ReLU"
  bottom: "res4b_branch2a"
  top: "res4b_branch2a"
}
layer {
  name: "res4b_branch2b"
  type: "Convolution"
  bottom: "res4b_branch2a"
  top: "res4b_branch2b"
  convolution_param {
    num_output: 256
    bias_term: false
    pad: 1
    kernel_size: 3
    stride: 1
    weight_filler {
      type: "msra"
    }
  }
}
layer {
  name: "bn4b_branch2b"
  type: "BatchNorm"
  bottom: "res4b_branch2b"
  top: "res4b_branch2b"
  batch_norm_param {
    moving_average_fraction: 0.9
  }
}
layer {
  name: "scale4b_branch2b"
  type: "Scale"
  bottom: "res4b_branch2b"
  top: "res4b_branch2b"
  scale_param {
    bias_term: true
  }
}
layer {
  name: "res4b"
  type: "Eltwise"
  bottom: "res4a"
  bottom: "res4b_branch2b"
  top: "res4b"
  eltwise_param {
    operation: SUM
  }
}
layer {
  name: "res4b_relu"
  type: "ReLU"
  bottom: "res4b"
  top: "res4b"
}
layer {
  name: "res5a_branch1"
  type: "Convolution"
  bottom: "res4b"
  top: "res5a_branch1"
  convolution_param {
    num_output: 512
    bias_term: false
    pad: 0
    kernel_size: 1
    stride: 2
    weight_filler {
      type: "msra"
    }
  }
}
layer {
  name: "bn5a_branch1"
  type: "BatchNorm"
  bottom: "res5a_branch1"
  top: "res5a_branch1"
  batch_norm_param {
    moving_average_fraction: 0.9
  }
}
layer {
  name: "scale5a_branch1"
  type: "Scale"
  bottom: "res5a_branch1"
  top: "res5a_branch1"
  scale_param {
    bias_term: true
  }
}
layer {
  name: "res5a_branch2a"
  type: "Convolution"
  bottom: "res4b"
  top: "res5a_branch2a"
  convolution_param {
    num_output: 512
    bias_term: false
    pad: 1
    kernel_size: 3
    stride: 2
    weight_filler {
      type: "msra"
    }
  }
}
layer {
  name: "bn5a_branch2a"
  type: "BatchNorm"
  bottom: "res5a_branch2a"
  top: "res5a_branch2a"
  batch_norm_param {
    moving_average_fraction: 0.9
  }
}
layer {
  name: "scale5a_branch2a"
  type: "Scale"
  bottom: "res5a_branch2a"
  top: "res5a_branch2a"
  scale_param {
    bias_term: true
  }
}
layer {
  name: "res5a_branch2a_relu"
  type: "ReLU"
  bottom: "res5a_branch2a"
  top: "res5a_branch2a"
}
layer {
  name: "res5a_branch2b"
  type: "Convolution"
  bottom: "res5a_branch2a"
  top: "res5a_branch2b"
  convolution_param {
    num_output: 512
    bias_term: false
    pad: 1
    kernel_size: 3
    stride: 1
    weight_filler {
      type: "msra"
    }
  }
}
layer {
  name: "bn5a_branch2b"
  type: "BatchNorm"
  bottom: "res5a_branch2b"
  top: "res5a_branch2b"
  batch_norm_param {
    moving_average_fraction: 0.9
  }
}
layer {
  name: "scale5a_branch2b"
  type: "Scale"
  bottom: "res5a_branch2b"
  top: "res5a_branch2b"
  scale_param {
    bias_term: true
  }
}
layer {
  name: "res5a"
  type: "Eltwise"
  bottom: "res5a_branch1"
  bottom: "res5a_branch2b"
  top: "res5a"
  eltwise_param {
    operation: SUM
  }
}
layer {
  name: "res5a_relu"
  type: "ReLU"
  bottom: "res5a"
  top: "res5a"
}
layer {
  name: "res5b_branch2a"
  type: "Convolution"
  bottom: "res5a"
  top: "res5b_branch2a"
  convolution_param {
    num_output: 512
    bias_term: false
    pad: 1
    kernel_size: 3
    stride: 1
    weight_filler {
      type: "msra"
    }
  }
}
layer {
  name: "bn5b_branch2a"
  type: "BatchNorm"
  bottom: "res5b_branch2a"
  top: "res5b_branch2a"
  batch_norm_param {
    moving_average_fraction: 0.9
  }
}
layer {
  name: "scale5b_branch2a"
  type: "Scale"
  bottom: "res5b_branch2a"
  top: "res5b_branch2a"
  scale_param {
    bias_term: true
  }
}
layer {
  name: "res5b_branch2a_relu"
  type: "ReLU"
  bottom: "res5b_branch2a"
  top: "res5b_branch2a"
}
layer {
  name: "res5b_branch2b"
  type: "Convolution"
  bottom: "res5b_branch2a"
  top: "res5b_branch2b"
  convolution_param {
    num_output: 512
    bias_term: false
    pad: 1
    kernel_size: 3
    stride: 1
    weight_filler {
      type: "msra"
    }
  }
}
layer {
  name: "bn5b_branch2b"
  type: "BatchNorm"
  bottom: "res5b_branch2b"
  top: "res5b_branch2b"
  batch_norm_param {
    moving_average_fraction: 0.9
  }
}
layer {
  name: "scale5b_branch2b"
  type: "Scale"
  bottom: "res5b_branch2b"
  top: "res5b_branch2b"
  scale_param {
    bias_term: true
  }
}
layer {
  name: "res5b"
  type: "Eltwise"
  bottom: "res5a"
  bottom: "res5b_branch2b"
  top: "res5b"
  eltwise_param {
    operation: SUM
  }
}
layer {
  name: "res5b_relu"
  type: "ReLU"
  bottom: "res5b"
  top: "res5b"
}
layer {
  name: "deconv5_1"
  type: "Deconvolution"
  bottom: "res5b"
  top: "deconv5_1"
  param {
    lr_mult: 1
    decay_mult: 1
  }
  convolution_param {
    num_output: 64
    bias_term: false
    pad: 1
    kernel_size: 4
    stride: 2
    weight_filler {
      type: "msra"
    }
  }
}
layer {
  name: "deconv_res4b"
  type: "Convolution"
  bottom: "res4b"
  top: "deconv_res4b"
  param {
    lr_mult: 1
    decay_mult: 1
  }
  param {
    lr_mult: 2
    decay_mult: 0
  }
  convolution_param {
    num_output: 64
    pad: 1
    kernel_size: 3
    stride: 1
    weight_filler {
      type: "gaussian"
      std: 0.01
    }
    bias_filler {
      type: "constant"
      value: 0
    }
  }
}
layer {
  name: "bn_deconv_res4b"
  type: "BatchNorm"
  bottom: "deconv_res4b"
  top: "deconv_res4b"
  batch_norm_param {
    moving_average_fraction: 0.9
  }
}
layer {
  name: "scale_deconv_res4b"
  type: "Scale"
  bottom: "deconv_res4b"
  top: "deconv_res4b"
  scale_param {
    bias_term: true
  }
}
layer {
  name: "relu_res4b"
  type: "ReLU"
  bottom: "deconv_res4b"
  top: "deconv_res4b"
}
layer {
  name: "concat1"
  type: "Concat"
  bottom: "deconv_res4b"
  bottom: "deconv5_1"
  top: "concat1"
}
layer {
  name: "deconv5_2"
  type: "Deconvolution"
  bottom: "concat1"
  top: "deconv5_2"
  param {
    lr_mult: 1
    decay_mult: 1
  }
  convolution_param {
    num_output: 32
    bias_term: false
    pad: 1
    kernel_size: 4
    stride: 2
    weight_filler {
      type: "msra"
    }
  }
}
layer {
  name: "deconv_res3b"
  type: "Convolution"
  bottom: "res3b"
  top: "deconv_res3b"
  param {
    lr_mult: 1
    decay_mult: 1
  }
  param {
    lr_mult: 2
    decay_mult: 0
  }
  convolution_param {
    num_output: 32
    pad: 1
    kernel_size: 3
    stride: 1
    weight_filler {
      type: "gaussian"
      std: 0.01
    }
    bias_filler {
      type: "constant"
      value: 0
    }
  }
}
layer {
  name: "bn_deconv_res3b"
  type: "BatchNorm"
  bottom: "deconv_res3b"
  top: "deconv_res3b"
  batch_norm_param {
    moving_average_fraction: 0.9
  }
}
layer {
  name: "scale_deconv_res3b"
  type: "Scale"
  bottom: "deconv_res3b"
  top: "deconv_res3b"
  scale_param {
    bias_term: true
  }
}
layer {
  name: "relu_deconv_res3b"
  type: "ReLU"
  bottom: "deconv_res3b"
  top: "deconv_res3b"
}
layer {
  name: "concat2"
  type: "Concat"
  bottom: "deconv_res3b"
  bottom: "deconv5_2"
  top: "concat2"
}
layer {
  name: "deconv5_3"
  type: "Deconvolution"
  bottom: "concat2"
  top: "deconv5_3"
  param {
    lr_mult: 1
    decay_mult: 1
  }
  convolution_param {
    num_output: 16
    bias_term: false
    pad: 1
    kernel_size: 4
    stride: 2
    weight_filler {
      type: "msra"
    }
  }
}
layer {
  name: "deconv_res2b"
  type: "Convolution"
  bottom: "res2b"
  top: "deconv_res2b"
  param {
    lr_mult: 1
    decay_mult: 1
  }
  param {
    lr_mult: 2
    decay_mult: 0
  }
  convolution_param {
    num_output: 16
    pad: 1
    kernel_size: 3
    stride: 1
    weight_filler {
      type: "gaussian"
      std: 0.01
    }
    bias_filler {
      type: "constant"
      value: 0
    }
  }
}
layer {
  name: "bn_deconv_res2b"
  type: "BatchNorm"
  bottom: "deconv_res2b"
  top: "deconv_res2b"
  batch_norm_param {
    moving_average_fraction: 0.9
  }
}
layer {
  name: "scale_deconv_res2b"
  type: "Scale"
  bottom: "deconv_res2b"
  top: "deconv_res2b"
  scale_param {
    bias_term: true
  }
}
layer {
  name: "relu_deconv_res2b"
  type: "ReLU"
  bottom: "deconv_res2b"
  top: "deconv_res2b"
}
layer {
  name: "concat3"
  type: "Concat"
  bottom: "deconv_res2b"
  bottom: "deconv5_3"
  top: "concat3"
}
layer {
  name: "deconv5_4"
  type: "Deconvolution"
  bottom: "concat3"
  top: "deconv5_4"
  param {
    lr_mult: 1
    decay_mult: 1
  }
  convolution_param {
    num_output: 8
    bias_term: false
    pad: 1
    kernel_size: 4
    stride: 2
    weight_filler {
      type: "msra"
    }
  }
}
layer {
  name: "deconv_conv1"
  type: "Convolution"
  bottom: "conv1"
  top: "deconv_conv1"
  param {
    lr_mult: 1
    decay_mult: 1
  }
  param {
    lr_mult: 2
    decay_mult: 0
  }
  convolution_param {
    num_output: 8
    pad: 1
    kernel_size: 3
    stride: 1
    weight_filler {
      type: "gaussian"
      std: 0.01
    }
    bias_filler {
      type: "constant"
      value: 0
    }
  }
}
layer {
  name: "bn_deconv_conv1"
  type: "BatchNorm"
  bottom: "deconv_conv1"
  top: "deconv_conv1"
  batch_norm_param {
    moving_average_fraction: 0.9
  }
}
layer {
  name: "scale_deconv_conv1"
  type: "Scale"
  bottom: "deconv_conv1"
  top: "deconv_conv1"
  scale_param {
    bias_term: true
  }
}
layer {
  name: "relu_deconv_conv1"
  type: "ReLU"
  bottom: "deconv_conv1"
  top: "deconv_conv1"
}
layer {
  name: "concat4"
  type: "Concat"
  bottom: "deconv_conv1"
  bottom: "deconv5_4"
  top: "concat4"
}
layer {
  name: "deconv5_5"
  type: "Deconvolution"
  bottom: "concat4"
  top: "deconv5_5"
  param {
    lr_mult: 1
    decay_mult: 1
  }
  convolution_param {
    num_output: 2
    bias_term: false
    pad: 1
    kernel_size: 4
    stride: 2
    weight_filler {
      type: "msra"
    }
  }
}
layer {
  name: "loss"
  type: "SoftmaxWithLoss"
  bottom: "deconv5_5"
  bottom: "seg-label"
  top: "loss"
  include {
    phase: TEST
  }
  include {
    phase: TRAIN
  }
  loss_param {
    ignore_label: 255
  }
}
layer {
  name: "seg-loss-acc"
  type: "Accuracy"
  bottom: "deconv5_5"
  bottom: "seg-label"
  top: "seg-loss-acc"
  include {
    phase: TEST
  }
  include {
    phase: TRAIN
  }
  accuracy_param {
    ignore_label: 255
  }
}
I0715 11:01:15.110824 30284 layer_factory.hpp:77] Creating layer data
I0715 11:01:15.110852 30284 net.cpp:86] Creating Layer data
I0715 11:01:15.110859 30284 net.cpp:382] data -> data
I0715 11:01:15.110879 30284 net.cpp:382] data -> seg-label
I0715 11:01:15.110934 30284 image_seg_data_layer.cpp:38] Opening file all_shuffle_train.txt
I0715 11:01:15.113133 30284 image_seg_data_layer.cpp:51] Shuffling data
I0715 11:01:15.113363 30284 image_seg_data_layer.cpp:56] A total of 1532 images.
I0715 11:01:15.118635 30284 image_seg_data_layer.cpp:92] output data size: 32,3,224,224
I0715 11:01:15.118695 30284 image_seg_data_layer.cpp:105] output label size: 32,1,224,224
I0715 11:01:15.176146 30284 net.cpp:124] Setting up data
I0715 11:01:15.176174 30284 net.cpp:131] Top shape: 32 3 224 224 (4816896)
I0715 11:01:15.176180 30284 net.cpp:131] Top shape: 32 1 224 224 (1605632)
I0715 11:01:15.176185 30284 net.cpp:139] Memory required for data: 25690112
I0715 11:01:15.176193 30284 layer_factory.hpp:77] Creating layer seg-label_data_1_split
I0715 11:01:15.176214 30284 net.cpp:86] Creating Layer seg-label_data_1_split
I0715 11:01:15.176223 30284 net.cpp:408] seg-label_data_1_split <- seg-label
I0715 11:01:15.176236 30284 net.cpp:382] seg-label_data_1_split -> seg-label_data_1_split_0
I0715 11:01:15.176247 30284 net.cpp:382] seg-label_data_1_split -> seg-label_data_1_split_1
I0715 11:01:15.176365 30284 net.cpp:124] Setting up seg-label_data_1_split
I0715 11:01:15.176376 30284 net.cpp:131] Top shape: 32 1 224 224 (1605632)
I0715 11:01:15.176383 30284 net.cpp:131] Top shape: 32 1 224 224 (1605632)
I0715 11:01:15.176386 30284 net.cpp:139] Memory required for data: 38535168
I0715 11:01:15.176390 30284 layer_factory.hpp:77] Creating layer conv1
I0715 11:01:15.176430 30284 net.cpp:86] Creating Layer conv1
I0715 11:01:15.176437 30284 net.cpp:408] conv1 <- data
I0715 11:01:15.176445 30284 net.cpp:382] conv1 -> conv1
I0715 11:01:15.882969 30284 net.cpp:124] Setting up conv1
I0715 11:01:15.882998 30284 net.cpp:131] Top shape: 32 64 112 112 (25690112)
I0715 11:01:15.883003 30284 net.cpp:139] Memory required for data: 141295616
I0715 11:01:15.883030 30284 layer_factory.hpp:77] Creating layer bn_conv1
I0715 11:01:15.883044 30284 net.cpp:86] Creating Layer bn_conv1
I0715 11:01:15.883060 30284 net.cpp:408] bn_conv1 <- conv1
I0715 11:01:15.883071 30284 net.cpp:369] bn_conv1 -> conv1 (in-place)
I0715 11:01:15.883280 30284 net.cpp:124] Setting up bn_conv1
I0715 11:01:15.883291 30284 net.cpp:131] Top shape: 32 64 112 112 (25690112)
I0715 11:01:15.883296 30284 net.cpp:139] Memory required for data: 244056064
I0715 11:01:15.883314 30284 layer_factory.hpp:77] Creating layer scale_conv1
I0715 11:01:15.883327 30284 net.cpp:86] Creating Layer scale_conv1
I0715 11:01:15.883333 30284 net.cpp:408] scale_conv1 <- conv1
I0715 11:01:15.883348 30284 net.cpp:369] scale_conv1 -> conv1 (in-place)
I0715 11:01:15.883438 30284 layer_factory.hpp:77] Creating layer scale_conv1
I0715 11:01:15.883587 30284 net.cpp:124] Setting up scale_conv1
I0715 11:01:15.883596 30284 net.cpp:131] Top shape: 32 64 112 112 (25690112)
I0715 11:01:15.883601 30284 net.cpp:139] Memory required for data: 346816512
I0715 11:01:15.883610 30284 layer_factory.hpp:77] Creating layer conv1_relu
I0715 11:01:15.883626 30284 net.cpp:86] Creating Layer conv1_relu
I0715 11:01:15.883630 30284 net.cpp:408] conv1_relu <- conv1
I0715 11:01:15.883636 30284 net.cpp:369] conv1_relu -> conv1 (in-place)
I0715 11:01:15.884100 30284 net.cpp:124] Setting up conv1_relu
I0715 11:01:15.884111 30284 net.cpp:131] Top shape: 32 64 112 112 (25690112)
I0715 11:01:15.884116 30284 net.cpp:139] Memory required for data: 449576960
I0715 11:01:15.884120 30284 layer_factory.hpp:77] Creating layer conv1_conv1_relu_0_split
I0715 11:01:15.884135 30284 net.cpp:86] Creating Layer conv1_conv1_relu_0_split
I0715 11:01:15.884140 30284 net.cpp:408] conv1_conv1_relu_0_split <- conv1
I0715 11:01:15.884146 30284 net.cpp:382] conv1_conv1_relu_0_split -> conv1_conv1_relu_0_split_0
I0715 11:01:15.884155 30284 net.cpp:382] conv1_conv1_relu_0_split -> conv1_conv1_relu_0_split_1
I0715 11:01:15.884203 30284 net.cpp:124] Setting up conv1_conv1_relu_0_split
I0715 11:01:15.884212 30284 net.cpp:131] Top shape: 32 64 112 112 (25690112)
I0715 11:01:15.884218 30284 net.cpp:131] Top shape: 32 64 112 112 (25690112)
I0715 11:01:15.884222 30284 net.cpp:139] Memory required for data: 655097856
I0715 11:01:15.884233 30284 layer_factory.hpp:77] Creating layer pool1
I0715 11:01:15.884241 30284 net.cpp:86] Creating Layer pool1
I0715 11:01:15.884248 30284 net.cpp:408] pool1 <- conv1_conv1_relu_0_split_0
I0715 11:01:15.884254 30284 net.cpp:382] pool1 -> pool1
I0715 11:01:15.884305 30284 net.cpp:124] Setting up pool1
I0715 11:01:15.884313 30284 net.cpp:131] Top shape: 32 64 56 56 (6422528)
I0715 11:01:15.884317 30284 net.cpp:139] Memory required for data: 680787968
I0715 11:01:15.884321 30284 layer_factory.hpp:77] Creating layer pool1_pool1_0_split
I0715 11:01:15.884337 30284 net.cpp:86] Creating Layer pool1_pool1_0_split
I0715 11:01:15.884343 30284 net.cpp:408] pool1_pool1_0_split <- pool1
I0715 11:01:15.884349 30284 net.cpp:382] pool1_pool1_0_split -> pool1_pool1_0_split_0
I0715 11:01:15.884358 30284 net.cpp:382] pool1_pool1_0_split -> pool1_pool1_0_split_1
I0715 11:01:15.884395 30284 net.cpp:124] Setting up pool1_pool1_0_split
I0715 11:01:15.884405 30284 net.cpp:131] Top shape: 32 64 56 56 (6422528)
I0715 11:01:15.884415 30284 net.cpp:131] Top shape: 32 64 56 56 (6422528)
I0715 11:01:15.884421 30284 net.cpp:139] Memory required for data: 732168192
I0715 11:01:15.884428 30284 layer_factory.hpp:77] Creating layer res2a_branch1
I0715 11:01:15.884443 30284 net.cpp:86] Creating Layer res2a_branch1
I0715 11:01:15.884449 30284 net.cpp:408] res2a_branch1 <- pool1_pool1_0_split_0
I0715 11:01:15.884459 30284 net.cpp:382] res2a_branch1 -> res2a_branch1
I0715 11:01:15.890746 30284 net.cpp:124] Setting up res2a_branch1
I0715 11:01:15.890774 30284 net.cpp:131] Top shape: 32 64 56 56 (6422528)
I0715 11:01:15.890779 30284 net.cpp:139] Memory required for data: 757858304
I0715 11:01:15.890799 30284 layer_factory.hpp:77] Creating layer bn2a_branch1
I0715 11:01:15.890810 30284 net.cpp:86] Creating Layer bn2a_branch1
I0715 11:01:15.890816 30284 net.cpp:408] bn2a_branch1 <- res2a_branch1
I0715 11:01:15.890826 30284 net.cpp:369] bn2a_branch1 -> res2a_branch1 (in-place)
I0715 11:01:15.891070 30284 net.cpp:124] Setting up bn2a_branch1
I0715 11:01:15.891080 30284 net.cpp:131] Top shape: 32 64 56 56 (6422528)
I0715 11:01:15.891083 30284 net.cpp:139] Memory required for data: 783548416
I0715 11:01:15.891104 30284 layer_factory.hpp:77] Creating layer scale2a_branch1
I0715 11:01:15.891113 30284 net.cpp:86] Creating Layer scale2a_branch1
I0715 11:01:15.891117 30284 net.cpp:408] scale2a_branch1 <- res2a_branch1
I0715 11:01:15.891124 30284 net.cpp:369] scale2a_branch1 -> res2a_branch1 (in-place)
I0715 11:01:15.891185 30284 layer_factory.hpp:77] Creating layer scale2a_branch1
I0715 11:01:15.891343 30284 net.cpp:124] Setting up scale2a_branch1
I0715 11:01:15.891353 30284 net.cpp:131] Top shape: 32 64 56 56 (6422528)
I0715 11:01:15.891357 30284 net.cpp:139] Memory required for data: 809238528
I0715 11:01:15.891363 30284 layer_factory.hpp:77] Creating layer res2a_branch2a
I0715 11:01:15.891384 30284 net.cpp:86] Creating Layer res2a_branch2a
I0715 11:01:15.891391 30284 net.cpp:408] res2a_branch2a <- pool1_pool1_0_split_1
I0715 11:01:15.891397 30284 net.cpp:382] res2a_branch2a -> res2a_branch2a
I0715 11:01:15.894896 30284 net.cpp:124] Setting up res2a_branch2a
I0715 11:01:15.894937 30284 net.cpp:131] Top shape: 32 64 56 56 (6422528)
I0715 11:01:15.894944 30284 net.cpp:139] Memory required for data: 834928640
I0715 11:01:15.894958 30284 layer_factory.hpp:77] Creating layer bn2a_branch2a
I0715 11:01:15.894975 30284 net.cpp:86] Creating Layer bn2a_branch2a
I0715 11:01:15.894994 30284 net.cpp:408] bn2a_branch2a <- res2a_branch2a
I0715 11:01:15.895010 30284 net.cpp:369] bn2a_branch2a -> res2a_branch2a (in-place)
I0715 11:01:15.895246 30284 net.cpp:124] Setting up bn2a_branch2a
I0715 11:01:15.895257 30284 net.cpp:131] Top shape: 32 64 56 56 (6422528)
I0715 11:01:15.895262 30284 net.cpp:139] Memory required for data: 860618752
I0715 11:01:15.895270 30284 layer_factory.hpp:77] Creating layer scale2a_branch2a
I0715 11:01:15.895278 30284 net.cpp:86] Creating Layer scale2a_branch2a
I0715 11:01:15.895283 30284 net.cpp:408] scale2a_branch2a <- res2a_branch2a
I0715 11:01:15.895288 30284 net.cpp:369] scale2a_branch2a -> res2a_branch2a (in-place)
I0715 11:01:15.895334 30284 layer_factory.hpp:77] Creating layer scale2a_branch2a
I0715 11:01:15.895452 30284 net.cpp:124] Setting up scale2a_branch2a
I0715 11:01:15.895462 30284 net.cpp:131] Top shape: 32 64 56 56 (6422528)
I0715 11:01:15.895467 30284 net.cpp:139] Memory required for data: 886308864
I0715 11:01:15.895476 30284 layer_factory.hpp:77] Creating layer res2a_branch2a_relu
I0715 11:01:15.895485 30284 net.cpp:86] Creating Layer res2a_branch2a_relu
I0715 11:01:15.895491 30284 net.cpp:408] res2a_branch2a_relu <- res2a_branch2a
I0715 11:01:15.895498 30284 net.cpp:369] res2a_branch2a_relu -> res2a_branch2a (in-place)
I0715 11:01:15.895979 30284 net.cpp:124] Setting up res2a_branch2a_relu
I0715 11:01:15.895990 30284 net.cpp:131] Top shape: 32 64 56 56 (6422528)
I0715 11:01:15.895994 30284 net.cpp:139] Memory required for data: 911998976
I0715 11:01:15.895998 30284 layer_factory.hpp:77] Creating layer res2a_branch2b
I0715 11:01:15.896014 30284 net.cpp:86] Creating Layer res2a_branch2b
I0715 11:01:15.896020 30284 net.cpp:408] res2a_branch2b <- res2a_branch2a
I0715 11:01:15.896028 30284 net.cpp:382] res2a_branch2b -> res2a_branch2b
I0715 11:01:15.898980 30284 net.cpp:124] Setting up res2a_branch2b
I0715 11:01:15.899001 30284 net.cpp:131] Top shape: 32 64 56 56 (6422528)
I0715 11:01:15.899005 30284 net.cpp:139] Memory required for data: 937689088
I0715 11:01:15.899014 30284 layer_factory.hpp:77] Creating layer bn2a_branch2b
I0715 11:01:15.899024 30284 net.cpp:86] Creating Layer bn2a_branch2b
I0715 11:01:15.899030 30284 net.cpp:408] bn2a_branch2b <- res2a_branch2b
I0715 11:01:15.899060 30284 net.cpp:369] bn2a_branch2b -> res2a_branch2b (in-place)
I0715 11:01:15.899281 30284 net.cpp:124] Setting up bn2a_branch2b
I0715 11:01:15.899291 30284 net.cpp:131] Top shape: 32 64 56 56 (6422528)
I0715 11:01:15.899296 30284 net.cpp:139] Memory required for data: 963379200
I0715 11:01:15.899312 30284 layer_factory.hpp:77] Creating layer scale2a_branch2b
I0715 11:01:15.899322 30284 net.cpp:86] Creating Layer scale2a_branch2b
I0715 11:01:15.899328 30284 net.cpp:408] scale2a_branch2b <- res2a_branch2b
I0715 11:01:15.899334 30284 net.cpp:369] scale2a_branch2b -> res2a_branch2b (in-place)
I0715 11:01:15.899386 30284 layer_factory.hpp:77] Creating layer scale2a_branch2b
I0715 11:01:15.899518 30284 net.cpp:124] Setting up scale2a_branch2b
I0715 11:01:15.899528 30284 net.cpp:131] Top shape: 32 64 56 56 (6422528)
I0715 11:01:15.899533 30284 net.cpp:139] Memory required for data: 989069312
I0715 11:01:15.899564 30284 layer_factory.hpp:77] Creating layer res2a
I0715 11:01:15.899585 30284 net.cpp:86] Creating Layer res2a
I0715 11:01:15.899591 30284 net.cpp:408] res2a <- res2a_branch1
I0715 11:01:15.899596 30284 net.cpp:408] res2a <- res2a_branch2b
I0715 11:01:15.899605 30284 net.cpp:382] res2a -> res2a
I0715 11:01:15.899636 30284 net.cpp:124] Setting up res2a
I0715 11:01:15.899644 30284 net.cpp:131] Top shape: 32 64 56 56 (6422528)
I0715 11:01:15.899648 30284 net.cpp:139] Memory required for data: 1014759424
I0715 11:01:15.899652 30284 layer_factory.hpp:77] Creating layer res2a_relu
I0715 11:01:15.899658 30284 net.cpp:86] Creating Layer res2a_relu
I0715 11:01:15.899663 30284 net.cpp:408] res2a_relu <- res2a
I0715 11:01:15.899670 30284 net.cpp:369] res2a_relu -> res2a (in-place)
I0715 11:01:15.900143 30284 net.cpp:124] Setting up res2a_relu
I0715 11:01:15.900154 30284 net.cpp:131] Top shape: 32 64 56 56 (6422528)
I0715 11:01:15.900158 30284 net.cpp:139] Memory required for data: 1040449536
I0715 11:01:15.900162 30284 layer_factory.hpp:77] Creating layer res2a_res2a_relu_0_split
I0715 11:01:15.900171 30284 net.cpp:86] Creating Layer res2a_res2a_relu_0_split
I0715 11:01:15.900176 30284 net.cpp:408] res2a_res2a_relu_0_split <- res2a
I0715 11:01:15.900183 30284 net.cpp:382] res2a_res2a_relu_0_split -> res2a_res2a_relu_0_split_0
I0715 11:01:15.900190 30284 net.cpp:382] res2a_res2a_relu_0_split -> res2a_res2a_relu_0_split_1
I0715 11:01:15.900229 30284 net.cpp:124] Setting up res2a_res2a_relu_0_split
I0715 11:01:15.900240 30284 net.cpp:131] Top shape: 32 64 56 56 (6422528)
I0715 11:01:15.900245 30284 net.cpp:131] Top shape: 32 64 56 56 (6422528)
I0715 11:01:15.900249 30284 net.cpp:139] Memory required for data: 1091829760
I0715 11:01:15.900254 30284 layer_factory.hpp:77] Creating layer res2b_branch2a
I0715 11:01:15.900262 30284 net.cpp:86] Creating Layer res2b_branch2a
I0715 11:01:15.900269 30284 net.cpp:408] res2b_branch2a <- res2a_res2a_relu_0_split_0
I0715 11:01:15.900276 30284 net.cpp:382] res2b_branch2a -> res2b_branch2a
I0715 11:01:15.902695 30284 net.cpp:124] Setting up res2b_branch2a
I0715 11:01:15.902711 30284 net.cpp:131] Top shape: 32 64 56 56 (6422528)
I0715 11:01:15.902716 30284 net.cpp:139] Memory required for data: 1117519872
I0715 11:01:15.902724 30284 layer_factory.hpp:77] Creating layer bn2b_branch2a
I0715 11:01:15.902734 30284 net.cpp:86] Creating Layer bn2b_branch2a
I0715 11:01:15.902739 30284 net.cpp:408] bn2b_branch2a <- res2b_branch2a
I0715 11:01:15.902745 30284 net.cpp:369] bn2b_branch2a -> res2b_branch2a (in-place)
I0715 11:01:15.902948 30284 net.cpp:124] Setting up bn2b_branch2a
I0715 11:01:15.902958 30284 net.cpp:131] Top shape: 32 64 56 56 (6422528)
I0715 11:01:15.902962 30284 net.cpp:139] Memory required for data: 1143209984
I0715 11:01:15.902978 30284 layer_factory.hpp:77] Creating layer scale2b_branch2a
I0715 11:01:15.902985 30284 net.cpp:86] Creating Layer scale2b_branch2a
I0715 11:01:15.902990 30284 net.cpp:408] scale2b_branch2a <- res2b_branch2a
I0715 11:01:15.902998 30284 net.cpp:369] scale2b_branch2a -> res2b_branch2a (in-place)
I0715 11:01:15.903064 30284 layer_factory.hpp:77] Creating layer scale2b_branch2a
I0715 11:01:15.903196 30284 net.cpp:124] Setting up scale2b_branch2a
I0715 11:01:15.903206 30284 net.cpp:131] Top shape: 32 64 56 56 (6422528)
I0715 11:01:15.903210 30284 net.cpp:139] Memory required for data: 1168900096
I0715 11:01:15.903218 30284 layer_factory.hpp:77] Creating layer res2b_branch2a_relu
I0715 11:01:15.903232 30284 net.cpp:86] Creating Layer res2b_branch2a_relu
I0715 11:01:15.903237 30284 net.cpp:408] res2b_branch2a_relu <- res2b_branch2a
I0715 11:01:15.903245 30284 net.cpp:369] res2b_branch2a_relu -> res2b_branch2a (in-place)
I0715 11:01:15.904078 30284 net.cpp:124] Setting up res2b_branch2a_relu
I0715 11:01:15.904089 30284 net.cpp:131] Top shape: 32 64 56 56 (6422528)
I0715 11:01:15.904094 30284 net.cpp:139] Memory required for data: 1194590208
I0715 11:01:15.904098 30284 layer_factory.hpp:77] Creating layer res2b_branch2b
I0715 11:01:15.904145 30284 net.cpp:86] Creating Layer res2b_branch2b
I0715 11:01:15.904153 30284 net.cpp:408] res2b_branch2b <- res2b_branch2a
I0715 11:01:15.904162 30284 net.cpp:382] res2b_branch2b -> res2b_branch2b
I0715 11:01:15.906661 30284 net.cpp:124] Setting up res2b_branch2b
I0715 11:01:15.906679 30284 net.cpp:131] Top shape: 32 64 56 56 (6422528)
I0715 11:01:15.906684 30284 net.cpp:139] Memory required for data: 1220280320
I0715 11:01:15.906690 30284 layer_factory.hpp:77] Creating layer bn2b_branch2b
I0715 11:01:15.906698 30284 net.cpp:86] Creating Layer bn2b_branch2b
I0715 11:01:15.906702 30284 net.cpp:408] bn2b_branch2b <- res2b_branch2b
I0715 11:01:15.906709 30284 net.cpp:369] bn2b_branch2b -> res2b_branch2b (in-place)
I0715 11:01:15.906904 30284 net.cpp:124] Setting up bn2b_branch2b
I0715 11:01:15.906914 30284 net.cpp:131] Top shape: 32 64 56 56 (6422528)
I0715 11:01:15.906919 30284 net.cpp:139] Memory required for data: 1245970432
I0715 11:01:15.906932 30284 layer_factory.hpp:77] Creating layer scale2b_branch2b
I0715 11:01:15.906942 30284 net.cpp:86] Creating Layer scale2b_branch2b
I0715 11:01:15.906949 30284 net.cpp:408] scale2b_branch2b <- res2b_branch2b
I0715 11:01:15.906955 30284 net.cpp:369] scale2b_branch2b -> res2b_branch2b (in-place)
I0715 11:01:15.907001 30284 layer_factory.hpp:77] Creating layer scale2b_branch2b
I0715 11:01:15.907119 30284 net.cpp:124] Setting up scale2b_branch2b
I0715 11:01:15.907130 30284 net.cpp:131] Top shape: 32 64 56 56 (6422528)
I0715 11:01:15.907133 30284 net.cpp:139] Memory required for data: 1271660544
I0715 11:01:15.907140 30284 layer_factory.hpp:77] Creating layer res2b
I0715 11:01:15.907147 30284 net.cpp:86] Creating Layer res2b
I0715 11:01:15.907152 30284 net.cpp:408] res2b <- res2a_res2a_relu_0_split_1
I0715 11:01:15.907158 30284 net.cpp:408] res2b <- res2b_branch2b
I0715 11:01:15.907164 30284 net.cpp:382] res2b -> res2b
I0715 11:01:15.907191 30284 net.cpp:124] Setting up res2b
I0715 11:01:15.907199 30284 net.cpp:131] Top shape: 32 64 56 56 (6422528)
I0715 11:01:15.907203 30284 net.cpp:139] Memory required for data: 1297350656
I0715 11:01:15.907208 30284 layer_factory.hpp:77] Creating layer res2b_relu
I0715 11:01:15.907214 30284 net.cpp:86] Creating Layer res2b_relu
I0715 11:01:15.907218 30284 net.cpp:408] res2b_relu <- res2b
I0715 11:01:15.907224 30284 net.cpp:369] res2b_relu -> res2b (in-place)
I0715 11:01:15.908051 30284 net.cpp:124] Setting up res2b_relu
I0715 11:01:15.908063 30284 net.cpp:131] Top shape: 32 64 56 56 (6422528)
I0715 11:01:15.908068 30284 net.cpp:139] Memory required for data: 1323040768
I0715 11:01:15.908072 30284 layer_factory.hpp:77] Creating layer res2b_res2b_relu_0_split
I0715 11:01:15.908082 30284 net.cpp:86] Creating Layer res2b_res2b_relu_0_split
I0715 11:01:15.908087 30284 net.cpp:408] res2b_res2b_relu_0_split <- res2b
I0715 11:01:15.908097 30284 net.cpp:382] res2b_res2b_relu_0_split -> res2b_res2b_relu_0_split_0
I0715 11:01:15.908104 30284 net.cpp:382] res2b_res2b_relu_0_split -> res2b_res2b_relu_0_split_1
I0715 11:01:15.908113 30284 net.cpp:382] res2b_res2b_relu_0_split -> res2b_res2b_relu_0_split_2
I0715 11:01:15.908167 30284 net.cpp:124] Setting up res2b_res2b_relu_0_split
I0715 11:01:15.908176 30284 net.cpp:131] Top shape: 32 64 56 56 (6422528)
I0715 11:01:15.908182 30284 net.cpp:131] Top shape: 32 64 56 56 (6422528)
I0715 11:01:15.908187 30284 net.cpp:131] Top shape: 32 64 56 56 (6422528)
I0715 11:01:15.908190 30284 net.cpp:139] Memory required for data: 1400111104
I0715 11:01:15.908195 30284 layer_factory.hpp:77] Creating layer res3a_branch1
I0715 11:01:15.908210 30284 net.cpp:86] Creating Layer res3a_branch1
I0715 11:01:15.908216 30284 net.cpp:408] res3a_branch1 <- res2b_res2b_relu_0_split_0
I0715 11:01:15.908223 30284 net.cpp:382] res3a_branch1 -> res3a_branch1
I0715 11:01:15.910708 30284 net.cpp:124] Setting up res3a_branch1
I0715 11:01:15.910725 30284 net.cpp:131] Top shape: 32 128 28 28 (3211264)
I0715 11:01:15.910730 30284 net.cpp:139] Memory required for data: 1412956160
I0715 11:01:15.910737 30284 layer_factory.hpp:77] Creating layer bn3a_branch1
I0715 11:01:15.910766 30284 net.cpp:86] Creating Layer bn3a_branch1
I0715 11:01:15.910773 30284 net.cpp:408] bn3a_branch1 <- res3a_branch1
I0715 11:01:15.910782 30284 net.cpp:369] bn3a_branch1 -> res3a_branch1 (in-place)
I0715 11:01:15.911931 30284 net.cpp:124] Setting up bn3a_branch1
I0715 11:01:15.911949 30284 net.cpp:131] Top shape: 32 128 28 28 (3211264)
I0715 11:01:15.911953 30284 net.cpp:139] Memory required for data: 1425801216
I0715 11:01:15.911964 30284 layer_factory.hpp:77] Creating layer scale3a_branch1
I0715 11:01:15.911974 30284 net.cpp:86] Creating Layer scale3a_branch1
I0715 11:01:15.911979 30284 net.cpp:408] scale3a_branch1 <- res3a_branch1
I0715 11:01:15.911985 30284 net.cpp:369] scale3a_branch1 -> res3a_branch1 (in-place)
I0715 11:01:15.912037 30284 layer_factory.hpp:77] Creating layer scale3a_branch1
I0715 11:01:15.912155 30284 net.cpp:124] Setting up scale3a_branch1
I0715 11:01:15.912165 30284 net.cpp:131] Top shape: 32 128 28 28 (3211264)
I0715 11:01:15.912169 30284 net.cpp:139] Memory required for data: 1438646272
I0715 11:01:15.912176 30284 layer_factory.hpp:77] Creating layer res3a_branch2a
I0715 11:01:15.912190 30284 net.cpp:86] Creating Layer res3a_branch2a
I0715 11:01:15.912196 30284 net.cpp:408] res3a_branch2a <- res2b_res2b_relu_0_split_1
I0715 11:01:15.912204 30284 net.cpp:382] res3a_branch2a -> res3a_branch2a
I0715 11:01:15.916215 30284 net.cpp:124] Setting up res3a_branch2a
I0715 11:01:15.916240 30284 net.cpp:131] Top shape: 32 128 28 28 (3211264)
I0715 11:01:15.916245 30284 net.cpp:139] Memory required for data: 1451491328
I0715 11:01:15.916254 30284 layer_factory.hpp:77] Creating layer bn3a_branch2a
I0715 11:01:15.916270 30284 net.cpp:86] Creating Layer bn3a_branch2a
I0715 11:01:15.916280 30284 net.cpp:408] bn3a_branch2a <- res3a_branch2a
I0715 11:01:15.916294 30284 net.cpp:369] bn3a_branch2a -> res3a_branch2a (in-place)
I0715 11:01:15.916507 30284 net.cpp:124] Setting up bn3a_branch2a
I0715 11:01:15.916517 30284 net.cpp:131] Top shape: 32 128 28 28 (3211264)
I0715 11:01:15.916522 30284 net.cpp:139] Memory required for data: 1464336384
I0715 11:01:15.916537 30284 layer_factory.hpp:77] Creating layer scale3a_branch2a
I0715 11:01:15.916551 30284 net.cpp:86] Creating Layer scale3a_branch2a
I0715 11:01:15.916561 30284 net.cpp:408] scale3a_branch2a <- res3a_branch2a
I0715 11:01:15.916574 30284 net.cpp:369] scale3a_branch2a -> res3a_branch2a (in-place)
I0715 11:01:15.916640 30284 layer_factory.hpp:77] Creating layer scale3a_branch2a
I0715 11:01:15.916771 30284 net.cpp:124] Setting up scale3a_branch2a
I0715 11:01:15.916782 30284 net.cpp:131] Top shape: 32 128 28 28 (3211264)
I0715 11:01:15.916787 30284 net.cpp:139] Memory required for data: 1477181440
I0715 11:01:15.916798 30284 layer_factory.hpp:77] Creating layer res3a_branch2a_relu
I0715 11:01:15.916812 30284 net.cpp:86] Creating Layer res3a_branch2a_relu
I0715 11:01:15.916821 30284 net.cpp:408] res3a_branch2a_relu <- res3a_branch2a
I0715 11:01:15.916836 30284 net.cpp:369] res3a_branch2a_relu -> res3a_branch2a (in-place)
I0715 11:01:15.917763 30284 net.cpp:124] Setting up res3a_branch2a_relu
I0715 11:01:15.917778 30284 net.cpp:131] Top shape: 32 128 28 28 (3211264)
I0715 11:01:15.917783 30284 net.cpp:139] Memory required for data: 1490026496
I0715 11:01:15.917790 30284 layer_factory.hpp:77] Creating layer res3a_branch2b
I0715 11:01:15.917809 30284 net.cpp:86] Creating Layer res3a_branch2b
I0715 11:01:15.917819 30284 net.cpp:408] res3a_branch2b <- res3a_branch2a
I0715 11:01:15.917832 30284 net.cpp:382] res3a_branch2b -> res3a_branch2b
I0715 11:01:15.921787 30284 net.cpp:124] Setting up res3a_branch2b
I0715 11:01:15.921804 30284 net.cpp:131] Top shape: 32 128 28 28 (3211264)
I0715 11:01:15.921809 30284 net.cpp:139] Memory required for data: 1502871552
I0715 11:01:15.921818 30284 layer_factory.hpp:77] Creating layer bn3a_branch2b
I0715 11:01:15.921831 30284 net.cpp:86] Creating Layer bn3a_branch2b
I0715 11:01:15.921842 30284 net.cpp:408] bn3a_branch2b <- res3a_branch2b
I0715 11:01:15.921854 30284 net.cpp:369] bn3a_branch2b -> res3a_branch2b (in-place)
I0715 11:01:15.922092 30284 net.cpp:124] Setting up bn3a_branch2b
I0715 11:01:15.922103 30284 net.cpp:131] Top shape: 32 128 28 28 (3211264)
I0715 11:01:15.922108 30284 net.cpp:139] Memory required for data: 1515716608
I0715 11:01:15.922122 30284 layer_factory.hpp:77] Creating layer scale3a_branch2b
I0715 11:01:15.922142 30284 net.cpp:86] Creating Layer scale3a_branch2b
I0715 11:01:15.922158 30284 net.cpp:408] scale3a_branch2b <- res3a_branch2b
I0715 11:01:15.922186 30284 net.cpp:369] scale3a_branch2b -> res3a_branch2b (in-place)
I0715 11:01:15.922273 30284 layer_factory.hpp:77] Creating layer scale3a_branch2b
I0715 11:01:15.922423 30284 net.cpp:124] Setting up scale3a_branch2b
I0715 11:01:15.922433 30284 net.cpp:131] Top shape: 32 128 28 28 (3211264)
I0715 11:01:15.922437 30284 net.cpp:139] Memory required for data: 1528561664
I0715 11:01:15.922454 30284 layer_factory.hpp:77] Creating layer res3a
I0715 11:01:15.922467 30284 net.cpp:86] Creating Layer res3a
I0715 11:01:15.922477 30284 net.cpp:408] res3a <- res3a_branch1
I0715 11:01:15.922489 30284 net.cpp:408] res3a <- res3a_branch2b
I0715 11:01:15.922505 30284 net.cpp:382] res3a -> res3a
I0715 11:01:15.922549 30284 net.cpp:124] Setting up res3a
I0715 11:01:15.922562 30284 net.cpp:131] Top shape: 32 128 28 28 (3211264)
I0715 11:01:15.922570 30284 net.cpp:139] Memory required for data: 1541406720
I0715 11:01:15.922577 30284 layer_factory.hpp:77] Creating layer res3a_relu
I0715 11:01:15.922587 30284 net.cpp:86] Creating Layer res3a_relu
I0715 11:01:15.922597 30284 net.cpp:408] res3a_relu <- res3a
I0715 11:01:15.922608 30284 net.cpp:369] res3a_relu -> res3a (in-place)
I0715 11:01:15.923115 30284 net.cpp:124] Setting up res3a_relu
I0715 11:01:15.923127 30284 net.cpp:131] Top shape: 32 128 28 28 (3211264)
I0715 11:01:15.923133 30284 net.cpp:139] Memory required for data: 1554251776
I0715 11:01:15.923141 30284 layer_factory.hpp:77] Creating layer res3a_res3a_relu_0_split
I0715 11:01:15.923152 30284 net.cpp:86] Creating Layer res3a_res3a_relu_0_split
I0715 11:01:15.923162 30284 net.cpp:408] res3a_res3a_relu_0_split <- res3a
I0715 11:01:15.923177 30284 net.cpp:382] res3a_res3a_relu_0_split -> res3a_res3a_relu_0_split_0
I0715 11:01:15.923192 30284 net.cpp:382] res3a_res3a_relu_0_split -> res3a_res3a_relu_0_split_1
I0715 11:01:15.923252 30284 net.cpp:124] Setting up res3a_res3a_relu_0_split
I0715 11:01:15.923264 30284 net.cpp:131] Top shape: 32 128 28 28 (3211264)
I0715 11:01:15.923270 30284 net.cpp:131] Top shape: 32 128 28 28 (3211264)
I0715 11:01:15.923276 30284 net.cpp:139] Memory required for data: 1579941888
I0715 11:01:15.923285 30284 layer_factory.hpp:77] Creating layer res3b_branch2a
I0715 11:01:15.923306 30284 net.cpp:86] Creating Layer res3b_branch2a
I0715 11:01:15.923316 30284 net.cpp:408] res3b_branch2a <- res3a_res3a_relu_0_split_0
I0715 11:01:15.923329 30284 net.cpp:382] res3b_branch2a -> res3b_branch2a
I0715 11:01:15.927639 30284 net.cpp:124] Setting up res3b_branch2a
I0715 11:01:15.927656 30284 net.cpp:131] Top shape: 32 128 28 28 (3211264)
I0715 11:01:15.927660 30284 net.cpp:139] Memory required for data: 1592786944
I0715 11:01:15.927670 30284 layer_factory.hpp:77] Creating layer bn3b_branch2a
I0715 11:01:15.927683 30284 net.cpp:86] Creating Layer bn3b_branch2a
I0715 11:01:15.927695 30284 net.cpp:408] bn3b_branch2a <- res3b_branch2a
I0715 11:01:15.927706 30284 net.cpp:369] bn3b_branch2a -> res3b_branch2a (in-place)
I0715 11:01:15.927917 30284 net.cpp:124] Setting up bn3b_branch2a
I0715 11:01:15.927927 30284 net.cpp:131] Top shape: 32 128 28 28 (3211264)
I0715 11:01:15.927932 30284 net.cpp:139] Memory required for data: 1605632000
I0715 11:01:15.927945 30284 layer_factory.hpp:77] Creating layer scale3b_branch2a
I0715 11:01:15.927959 30284 net.cpp:86] Creating Layer scale3b_branch2a
I0715 11:01:15.927969 30284 net.cpp:408] scale3b_branch2a <- res3b_branch2a
I0715 11:01:15.927983 30284 net.cpp:369] scale3b_branch2a -> res3b_branch2a (in-place)
I0715 11:01:15.928046 30284 layer_factory.hpp:77] Creating layer scale3b_branch2a
I0715 11:01:15.928197 30284 net.cpp:124] Setting up scale3b_branch2a
I0715 11:01:15.928208 30284 net.cpp:131] Top shape: 32 128 28 28 (3211264)
I0715 11:01:15.928213 30284 net.cpp:139] Memory required for data: 1618477056
I0715 11:01:15.928225 30284 layer_factory.hpp:77] Creating layer res3b_branch2a_relu
I0715 11:01:15.928237 30284 net.cpp:86] Creating Layer res3b_branch2a_relu
I0715 11:01:15.928246 30284 net.cpp:408] res3b_branch2a_relu <- res3b_branch2a
I0715 11:01:15.928259 30284 net.cpp:369] res3b_branch2a_relu -> res3b_branch2a (in-place)
I0715 11:01:15.928773 30284 net.cpp:124] Setting up res3b_branch2a_relu
I0715 11:01:15.928784 30284 net.cpp:131] Top shape: 32 128 28 28 (3211264)
I0715 11:01:15.928788 30284 net.cpp:139] Memory required for data: 1631322112
I0715 11:01:15.928795 30284 layer_factory.hpp:77] Creating layer res3b_branch2b
I0715 11:01:15.928810 30284 net.cpp:86] Creating Layer res3b_branch2b
I0715 11:01:15.928822 30284 net.cpp:408] res3b_branch2b <- res3b_branch2a
I0715 11:01:15.928836 30284 net.cpp:382] res3b_branch2b -> res3b_branch2b
I0715 11:01:15.932848 30284 net.cpp:124] Setting up res3b_branch2b
I0715 11:01:15.932866 30284 net.cpp:131] Top shape: 32 128 28 28 (3211264)
I0715 11:01:15.932871 30284 net.cpp:139] Memory required for data: 1644167168
I0715 11:01:15.932880 30284 layer_factory.hpp:77] Creating layer bn3b_branch2b
I0715 11:01:15.932891 30284 net.cpp:86] Creating Layer bn3b_branch2b
I0715 11:01:15.932901 30284 net.cpp:408] bn3b_branch2b <- res3b_branch2b
I0715 11:01:15.932917 30284 net.cpp:369] bn3b_branch2b -> res3b_branch2b (in-place)
I0715 11:01:15.933158 30284 net.cpp:124] Setting up bn3b_branch2b
I0715 11:01:15.933171 30284 net.cpp:131] Top shape: 32 128 28 28 (3211264)
I0715 11:01:15.933174 30284 net.cpp:139] Memory required for data: 1657012224
I0715 11:01:15.933187 30284 layer_factory.hpp:77] Creating layer scale3b_branch2b
I0715 11:01:15.933203 30284 net.cpp:86] Creating Layer scale3b_branch2b
I0715 11:01:15.933214 30284 net.cpp:408] scale3b_branch2b <- res3b_branch2b
I0715 11:01:15.933225 30284 net.cpp:369] scale3b_branch2b -> res3b_branch2b (in-place)
I0715 11:01:15.933292 30284 layer_factory.hpp:77] Creating layer scale3b_branch2b
I0715 11:01:15.933429 30284 net.cpp:124] Setting up scale3b_branch2b
I0715 11:01:15.933439 30284 net.cpp:131] Top shape: 32 128 28 28 (3211264)
I0715 11:01:15.933444 30284 net.cpp:139] Memory required for data: 1669857280
I0715 11:01:15.933473 30284 layer_factory.hpp:77] Creating layer res3b
I0715 11:01:15.933488 30284 net.cpp:86] Creating Layer res3b
I0715 11:01:15.933499 30284 net.cpp:408] res3b <- res3a_res3a_relu_0_split_1
I0715 11:01:15.933509 30284 net.cpp:408] res3b <- res3b_branch2b
I0715 11:01:15.933522 30284 net.cpp:382] res3b -> res3b
I0715 11:01:15.933568 30284 net.cpp:124] Setting up res3b
I0715 11:01:15.933578 30284 net.cpp:131] Top shape: 32 128 28 28 (3211264)
I0715 11:01:15.933583 30284 net.cpp:139] Memory required for data: 1682702336
I0715 11:01:15.933589 30284 layer_factory.hpp:77] Creating layer res3b_relu
I0715 11:01:15.933603 30284 net.cpp:86] Creating Layer res3b_relu
I0715 11:01:15.933612 30284 net.cpp:408] res3b_relu <- res3b
I0715 11:01:15.933624 30284 net.cpp:369] res3b_relu -> res3b (in-place)
I0715 11:01:15.934471 30284 net.cpp:124] Setting up res3b_relu
I0715 11:01:15.934486 30284 net.cpp:131] Top shape: 32 128 28 28 (3211264)
I0715 11:01:15.934495 30284 net.cpp:139] Memory required for data: 1695547392
I0715 11:01:15.934504 30284 layer_factory.hpp:77] Creating layer res3b_res3b_relu_0_split
I0715 11:01:15.934516 30284 net.cpp:86] Creating Layer res3b_res3b_relu_0_split
I0715 11:01:15.934526 30284 net.cpp:408] res3b_res3b_relu_0_split <- res3b
I0715 11:01:15.934541 30284 net.cpp:382] res3b_res3b_relu_0_split -> res3b_res3b_relu_0_split_0
I0715 11:01:15.934557 30284 net.cpp:382] res3b_res3b_relu_0_split -> res3b_res3b_relu_0_split_1
I0715 11:01:15.934583 30284 net.cpp:382] res3b_res3b_relu_0_split -> res3b_res3b_relu_0_split_2
I0715 11:01:15.934667 30284 net.cpp:124] Setting up res3b_res3b_relu_0_split
I0715 11:01:15.934693 30284 net.cpp:131] Top shape: 32 128 28 28 (3211264)
I0715 11:01:15.934702 30284 net.cpp:131] Top shape: 32 128 28 28 (3211264)
I0715 11:01:15.934711 30284 net.cpp:131] Top shape: 32 128 28 28 (3211264)
I0715 11:01:15.934718 30284 net.cpp:139] Memory required for data: 1734082560
I0715 11:01:15.934725 30284 layer_factory.hpp:77] Creating layer res4a_branch1
I0715 11:01:15.934748 30284 net.cpp:86] Creating Layer res4a_branch1
I0715 11:01:15.934759 30284 net.cpp:408] res4a_branch1 <- res3b_res3b_relu_0_split_0
I0715 11:01:15.934772 30284 net.cpp:382] res4a_branch1 -> res4a_branch1
I0715 11:01:15.937264 30284 net.cpp:124] Setting up res4a_branch1
I0715 11:01:15.937279 30284 net.cpp:131] Top shape: 32 256 14 14 (1605632)
I0715 11:01:15.937284 30284 net.cpp:139] Memory required for data: 1740505088
I0715 11:01:15.937294 30284 layer_factory.hpp:77] Creating layer bn4a_branch1
I0715 11:01:15.937309 30284 net.cpp:86] Creating Layer bn4a_branch1
I0715 11:01:15.937319 30284 net.cpp:408] bn4a_branch1 <- res4a_branch1
I0715 11:01:15.937330 30284 net.cpp:369] bn4a_branch1 -> res4a_branch1 (in-place)
I0715 11:01:15.937546 30284 net.cpp:124] Setting up bn4a_branch1
I0715 11:01:15.937556 30284 net.cpp:131] Top shape: 32 256 14 14 (1605632)
I0715 11:01:15.937559 30284 net.cpp:139] Memory required for data: 1746927616
I0715 11:01:15.937573 30284 layer_factory.hpp:77] Creating layer scale4a_branch1
I0715 11:01:15.937587 30284 net.cpp:86] Creating Layer scale4a_branch1
I0715 11:01:15.937597 30284 net.cpp:408] scale4a_branch1 <- res4a_branch1
I0715 11:01:15.937609 30284 net.cpp:369] scale4a_branch1 -> res4a_branch1 (in-place)
I0715 11:01:15.937680 30284 layer_factory.hpp:77] Creating layer scale4a_branch1
I0715 11:01:15.937817 30284 net.cpp:124] Setting up scale4a_branch1
I0715 11:01:15.937829 30284 net.cpp:131] Top shape: 32 256 14 14 (1605632)
I0715 11:01:15.937834 30284 net.cpp:139] Memory required for data: 1753350144
I0715 11:01:15.937844 30284 layer_factory.hpp:77] Creating layer res4a_branch2a
I0715 11:01:15.937862 30284 net.cpp:86] Creating Layer res4a_branch2a
I0715 11:01:15.937875 30284 net.cpp:408] res4a_branch2a <- res3b_res3b_relu_0_split_1
I0715 11:01:15.937888 30284 net.cpp:382] res4a_branch2a -> res4a_branch2a
I0715 11:01:15.944505 30284 net.cpp:124] Setting up res4a_branch2a
I0715 11:01:15.944532 30284 net.cpp:131] Top shape: 32 256 14 14 (1605632)
I0715 11:01:15.944540 30284 net.cpp:139] Memory required for data: 1759772672
I0715 11:01:15.944551 30284 layer_factory.hpp:77] Creating layer bn4a_branch2a
I0715 11:01:15.944563 30284 net.cpp:86] Creating Layer bn4a_branch2a
I0715 11:01:15.944573 30284 net.cpp:408] bn4a_branch2a <- res4a_branch2a
I0715 11:01:15.944586 30284 net.cpp:369] bn4a_branch2a -> res4a_branch2a (in-place)
I0715 11:01:15.944893 30284 net.cpp:124] Setting up bn4a_branch2a
I0715 11:01:15.944907 30284 net.cpp:131] Top shape: 32 256 14 14 (1605632)
I0715 11:01:15.944914 30284 net.cpp:139] Memory required for data: 1766195200
I0715 11:01:15.944926 30284 layer_factory.hpp:77] Creating layer scale4a_branch2a
I0715 11:01:15.944941 30284 net.cpp:86] Creating Layer scale4a_branch2a
I0715 11:01:15.944948 30284 net.cpp:408] scale4a_branch2a <- res4a_branch2a
I0715 11:01:15.944967 30284 net.cpp:369] scale4a_branch2a -> res4a_branch2a (in-place)
I0715 11:01:15.945050 30284 layer_factory.hpp:77] Creating layer scale4a_branch2a
I0715 11:01:15.945230 30284 net.cpp:124] Setting up scale4a_branch2a
I0715 11:01:15.945243 30284 net.cpp:131] Top shape: 32 256 14 14 (1605632)
I0715 11:01:15.945251 30284 net.cpp:139] Memory required for data: 1772617728
I0715 11:01:15.945262 30284 layer_factory.hpp:77] Creating layer res4a_branch2a_relu
I0715 11:01:15.945276 30284 net.cpp:86] Creating Layer res4a_branch2a_relu
I0715 11:01:15.945283 30284 net.cpp:408] res4a_branch2a_relu <- res4a_branch2a
I0715 11:01:15.945291 30284 net.cpp:369] res4a_branch2a_relu -> res4a_branch2a (in-place)
I0715 11:01:15.946563 30284 net.cpp:124] Setting up res4a_branch2a_relu
I0715 11:01:15.946583 30284 net.cpp:131] Top shape: 32 256 14 14 (1605632)
I0715 11:01:15.946612 30284 net.cpp:139] Memory required for data: 1779040256
I0715 11:01:15.946630 30284 layer_factory.hpp:77] Creating layer res4a_branch2b
I0715 11:01:15.946660 30284 net.cpp:86] Creating Layer res4a_branch2b
I0715 11:01:15.946683 30284 net.cpp:408] res4a_branch2b <- res4a_branch2a
I0715 11:01:15.946697 30284 net.cpp:382] res4a_branch2b -> res4a_branch2b
I0715 11:01:15.956343 30284 net.cpp:124] Setting up res4a_branch2b
I0715 11:01:15.956369 30284 net.cpp:131] Top shape: 32 256 14 14 (1605632)
I0715 11:01:15.956374 30284 net.cpp:139] Memory required for data: 1785462784
I0715 11:01:15.956383 30284 layer_factory.hpp:77] Creating layer bn4a_branch2b
I0715 11:01:15.956405 30284 net.cpp:86] Creating Layer bn4a_branch2b
I0715 11:01:15.956413 30284 net.cpp:408] bn4a_branch2b <- res4a_branch2b
I0715 11:01:15.956423 30284 net.cpp:369] bn4a_branch2b -> res4a_branch2b (in-place)
I0715 11:01:15.956663 30284 net.cpp:124] Setting up bn4a_branch2b
I0715 11:01:15.956674 30284 net.cpp:131] Top shape: 32 256 14 14 (1605632)
I0715 11:01:15.956678 30284 net.cpp:139] Memory required for data: 1791885312
I0715 11:01:15.956692 30284 layer_factory.hpp:77] Creating layer scale4a_branch2b
I0715 11:01:15.956724 30284 net.cpp:86] Creating Layer scale4a_branch2b
I0715 11:01:15.956735 30284 net.cpp:408] scale4a_branch2b <- res4a_branch2b
I0715 11:01:15.956749 30284 net.cpp:369] scale4a_branch2b -> res4a_branch2b (in-place)
I0715 11:01:15.956815 30284 layer_factory.hpp:77] Creating layer scale4a_branch2b
I0715 11:01:15.956974 30284 net.cpp:124] Setting up scale4a_branch2b
I0715 11:01:15.956996 30284 net.cpp:131] Top shape: 32 256 14 14 (1605632)
I0715 11:01:15.957010 30284 net.cpp:139] Memory required for data: 1798307840
I0715 11:01:15.957017 30284 layer_factory.hpp:77] Creating layer res4a
I0715 11:01:15.957026 30284 net.cpp:86] Creating Layer res4a
I0715 11:01:15.957031 30284 net.cpp:408] res4a <- res4a_branch1
I0715 11:01:15.957041 30284 net.cpp:408] res4a <- res4a_branch2b
I0715 11:01:15.957056 30284 net.cpp:382] res4a -> res4a
I0715 11:01:15.957121 30284 net.cpp:124] Setting up res4a
I0715 11:01:15.957144 30284 net.cpp:131] Top shape: 32 256 14 14 (1605632)
I0715 11:01:15.957159 30284 net.cpp:139] Memory required for data: 1804730368
I0715 11:01:15.957166 30284 layer_factory.hpp:77] Creating layer res4a_relu
I0715 11:01:15.957175 30284 net.cpp:86] Creating Layer res4a_relu
I0715 11:01:15.957181 30284 net.cpp:408] res4a_relu <- res4a
I0715 11:01:15.957206 30284 net.cpp:369] res4a_relu -> res4a (in-place)
I0715 11:01:15.957747 30284 net.cpp:124] Setting up res4a_relu
I0715 11:01:15.957767 30284 net.cpp:131] Top shape: 32 256 14 14 (1605632)
I0715 11:01:15.957772 30284 net.cpp:139] Memory required for data: 1811152896
I0715 11:01:15.957777 30284 layer_factory.hpp:77] Creating layer res4a_res4a_relu_0_split
I0715 11:01:15.957784 30284 net.cpp:86] Creating Layer res4a_res4a_relu_0_split
I0715 11:01:15.957789 30284 net.cpp:408] res4a_res4a_relu_0_split <- res4a
I0715 11:01:15.957803 30284 net.cpp:382] res4a_res4a_relu_0_split -> res4a_res4a_relu_0_split_0
I0715 11:01:15.957823 30284 net.cpp:382] res4a_res4a_relu_0_split -> res4a_res4a_relu_0_split_1
I0715 11:01:15.957933 30284 net.cpp:124] Setting up res4a_res4a_relu_0_split
I0715 11:01:15.957954 30284 net.cpp:131] Top shape: 32 256 14 14 (1605632)
I0715 11:01:15.957962 30284 net.cpp:131] Top shape: 32 256 14 14 (1605632)
I0715 11:01:15.957965 30284 net.cpp:139] Memory required for data: 1823997952
I0715 11:01:15.957969 30284 layer_factory.hpp:77] Creating layer res4b_branch2a
I0715 11:01:15.957990 30284 net.cpp:86] Creating Layer res4b_branch2a
I0715 11:01:15.958007 30284 net.cpp:408] res4b_branch2a <- res4a_res4a_relu_0_split_0
I0715 11:01:15.958030 30284 net.cpp:382] res4b_branch2a -> res4b_branch2a
I0715 11:01:15.967804 30284 net.cpp:124] Setting up res4b_branch2a
I0715 11:01:15.967837 30284 net.cpp:131] Top shape: 32 256 14 14 (1605632)
I0715 11:01:15.967842 30284 net.cpp:139] Memory required for data: 1830420480
I0715 11:01:15.967854 30284 layer_factory.hpp:77] Creating layer bn4b_branch2a
I0715 11:01:15.967911 30284 net.cpp:86] Creating Layer bn4b_branch2a
I0715 11:01:15.967941 30284 net.cpp:408] bn4b_branch2a <- res4b_branch2a
I0715 11:01:15.967964 30284 net.cpp:369] bn4b_branch2a -> res4b_branch2a (in-place)
I0715 11:01:15.968221 30284 net.cpp:124] Setting up bn4b_branch2a
I0715 11:01:15.968240 30284 net.cpp:131] Top shape: 32 256 14 14 (1605632)
I0715 11:01:15.968245 30284 net.cpp:139] Memory required for data: 1836843008
I0715 11:01:15.968253 30284 layer_factory.hpp:77] Creating layer scale4b_branch2a
I0715 11:01:15.968271 30284 net.cpp:86] Creating Layer scale4b_branch2a
I0715 11:01:15.968281 30284 net.cpp:408] scale4b_branch2a <- res4b_branch2a
I0715 11:01:15.968297 30284 net.cpp:369] scale4b_branch2a -> res4b_branch2a (in-place)
I0715 11:01:15.968369 30284 layer_factory.hpp:77] Creating layer scale4b_branch2a
I0715 11:01:15.968518 30284 net.cpp:124] Setting up scale4b_branch2a
I0715 11:01:15.968528 30284 net.cpp:131] Top shape: 32 256 14 14 (1605632)
I0715 11:01:15.968535 30284 net.cpp:139] Memory required for data: 1843265536
I0715 11:01:15.968549 30284 layer_factory.hpp:77] Creating layer res4b_branch2a_relu
I0715 11:01:15.968564 30284 net.cpp:86] Creating Layer res4b_branch2a_relu
I0715 11:01:15.968575 30284 net.cpp:408] res4b_branch2a_relu <- res4b_branch2a
I0715 11:01:15.968586 30284 net.cpp:369] res4b_branch2a_relu -> res4b_branch2a (in-place)
I0715 11:01:15.969136 30284 net.cpp:124] Setting up res4b_branch2a_relu
I0715 11:01:15.969148 30284 net.cpp:131] Top shape: 32 256 14 14 (1605632)
I0715 11:01:15.969156 30284 net.cpp:139] Memory required for data: 1849688064
I0715 11:01:15.969164 30284 layer_factory.hpp:77] Creating layer res4b_branch2b
I0715 11:01:15.969184 30284 net.cpp:86] Creating Layer res4b_branch2b
I0715 11:01:15.969195 30284 net.cpp:408] res4b_branch2b <- res4b_branch2a
I0715 11:01:15.969209 30284 net.cpp:382] res4b_branch2b -> res4b_branch2b
I0715 11:01:15.980397 30284 net.cpp:124] Setting up res4b_branch2b
I0715 11:01:15.980430 30284 net.cpp:131] Top shape: 32 256 14 14 (1605632)
I0715 11:01:15.980439 30284 net.cpp:139] Memory required for data: 1856110592
I0715 11:01:15.980463 30284 layer_factory.hpp:77] Creating layer bn4b_branch2b
I0715 11:01:15.980482 30284 net.cpp:86] Creating Layer bn4b_branch2b
I0715 11:01:15.980496 30284 net.cpp:408] bn4b_branch2b <- res4b_branch2b
I0715 11:01:15.980511 30284 net.cpp:369] bn4b_branch2b -> res4b_branch2b (in-place)
I0715 11:01:15.980839 30284 net.cpp:124] Setting up bn4b_branch2b
I0715 11:01:15.980857 30284 net.cpp:131] Top shape: 32 256 14 14 (1605632)
I0715 11:01:15.980865 30284 net.cpp:139] Memory required for data: 1862533120
I0715 11:01:15.980880 30284 layer_factory.hpp:77] Creating layer scale4b_branch2b
I0715 11:01:15.980893 30284 net.cpp:86] Creating Layer scale4b_branch2b
I0715 11:01:15.980902 30284 net.cpp:408] scale4b_branch2b <- res4b_branch2b
I0715 11:01:15.980916 30284 net.cpp:369] scale4b_branch2b -> res4b_branch2b (in-place)
I0715 11:01:15.980998 30284 layer_factory.hpp:77] Creating layer scale4b_branch2b
I0715 11:01:15.981180 30284 net.cpp:124] Setting up scale4b_branch2b
I0715 11:01:15.981194 30284 net.cpp:131] Top shape: 32 256 14 14 (1605632)
I0715 11:01:15.981202 30284 net.cpp:139] Memory required for data: 1868955648
I0715 11:01:15.981215 30284 layer_factory.hpp:77] Creating layer res4b
I0715 11:01:15.981228 30284 net.cpp:86] Creating Layer res4b
I0715 11:01:15.981237 30284 net.cpp:408] res4b <- res4a_res4a_relu_0_split_1
I0715 11:01:15.981247 30284 net.cpp:408] res4b <- res4b_branch2b
I0715 11:01:15.981261 30284 net.cpp:382] res4b -> res4b
I0715 11:01:15.981302 30284 net.cpp:124] Setting up res4b
I0715 11:01:15.981317 30284 net.cpp:131] Top shape: 32 256 14 14 (1605632)
I0715 11:01:15.981324 30284 net.cpp:139] Memory required for data: 1875378176
I0715 11:01:15.981333 30284 layer_factory.hpp:77] Creating layer res4b_relu
I0715 11:01:15.981348 30284 net.cpp:86] Creating Layer res4b_relu
I0715 11:01:15.981360 30284 net.cpp:408] res4b_relu <- res4b
I0715 11:01:15.981369 30284 net.cpp:369] res4b_relu -> res4b (in-place)
I0715 11:01:15.982671 30284 net.cpp:124] Setting up res4b_relu
I0715 11:01:15.982686 30284 net.cpp:131] Top shape: 32 256 14 14 (1605632)
I0715 11:01:15.982695 30284 net.cpp:139] Memory required for data: 1881800704
I0715 11:01:15.982704 30284 layer_factory.hpp:77] Creating layer res4b_res4b_relu_0_split
I0715 11:01:15.982718 30284 net.cpp:86] Creating Layer res4b_res4b_relu_0_split
I0715 11:01:15.982728 30284 net.cpp:408] res4b_res4b_relu_0_split <- res4b
I0715 11:01:15.982746 30284 net.cpp:382] res4b_res4b_relu_0_split -> res4b_res4b_relu_0_split_0
I0715 11:01:15.982764 30284 net.cpp:382] res4b_res4b_relu_0_split -> res4b_res4b_relu_0_split_1
I0715 11:01:15.982779 30284 net.cpp:382] res4b_res4b_relu_0_split -> res4b_res4b_relu_0_split_2
I0715 11:01:15.982859 30284 net.cpp:124] Setting up res4b_res4b_relu_0_split
I0715 11:01:15.982870 30284 net.cpp:131] Top shape: 32 256 14 14 (1605632)
I0715 11:01:15.982879 30284 net.cpp:131] Top shape: 32 256 14 14 (1605632)
I0715 11:01:15.982892 30284 net.cpp:131] Top shape: 32 256 14 14 (1605632)
I0715 11:01:15.982899 30284 net.cpp:139] Memory required for data: 1901068288
I0715 11:01:15.982908 30284 layer_factory.hpp:77] Creating layer res5a_branch1
I0715 11:01:15.982930 30284 net.cpp:86] Creating Layer res5a_branch1
I0715 11:01:15.982941 30284 net.cpp:408] res5a_branch1 <- res4b_res4b_relu_0_split_0
I0715 11:01:15.982955 30284 net.cpp:382] res5a_branch1 -> res5a_branch1
I0715 11:01:15.986615 30284 net.cpp:124] Setting up res5a_branch1
I0715 11:01:15.986634 30284 net.cpp:131] Top shape: 32 512 7 7 (802816)
I0715 11:01:15.986639 30284 net.cpp:139] Memory required for data: 1904279552
I0715 11:01:15.986656 30284 layer_factory.hpp:77] Creating layer bn5a_branch1
I0715 11:01:15.986675 30284 net.cpp:86] Creating Layer bn5a_branch1
I0715 11:01:15.986691 30284 net.cpp:408] bn5a_branch1 <- res5a_branch1
I0715 11:01:15.986704 30284 net.cpp:369] bn5a_branch1 -> res5a_branch1 (in-place)
I0715 11:01:15.986933 30284 net.cpp:124] Setting up bn5a_branch1
I0715 11:01:15.986943 30284 net.cpp:131] Top shape: 32 512 7 7 (802816)
I0715 11:01:15.986950 30284 net.cpp:139] Memory required for data: 1907490816
I0715 11:01:15.986968 30284 layer_factory.hpp:77] Creating layer scale5a_branch1
I0715 11:01:15.986984 30284 net.cpp:86] Creating Layer scale5a_branch1
I0715 11:01:15.986994 30284 net.cpp:408] scale5a_branch1 <- res5a_branch1
I0715 11:01:15.987006 30284 net.cpp:369] scale5a_branch1 -> res5a_branch1 (in-place)
I0715 11:01:15.987066 30284 layer_factory.hpp:77] Creating layer scale5a_branch1
I0715 11:01:15.987210 30284 net.cpp:124] Setting up scale5a_branch1
I0715 11:01:15.987221 30284 net.cpp:131] Top shape: 32 512 7 7 (802816)
I0715 11:01:15.987227 30284 net.cpp:139] Memory required for data: 1910702080
I0715 11:01:15.987241 30284 layer_factory.hpp:77] Creating layer res5a_branch2a
I0715 11:01:15.987260 30284 net.cpp:86] Creating Layer res5a_branch2a
I0715 11:01:15.987272 30284 net.cpp:408] res5a_branch2a <- res4b_res4b_relu_0_split_1
I0715 11:01:15.987287 30284 net.cpp:382] res5a_branch2a -> res5a_branch2a
I0715 11:01:16.002970 30284 net.cpp:124] Setting up res5a_branch2a
I0715 11:01:16.003005 30284 net.cpp:131] Top shape: 32 512 7 7 (802816)
I0715 11:01:16.003010 30284 net.cpp:139] Memory required for data: 1913913344
I0715 11:01:16.003018 30284 layer_factory.hpp:77] Creating layer bn5a_branch2a
I0715 11:01:16.003029 30284 net.cpp:86] Creating Layer bn5a_branch2a
I0715 11:01:16.003043 30284 net.cpp:408] bn5a_branch2a <- res5a_branch2a
I0715 11:01:16.003052 30284 net.cpp:369] bn5a_branch2a -> res5a_branch2a (in-place)
I0715 11:01:16.003330 30284 net.cpp:124] Setting up bn5a_branch2a
I0715 11:01:16.003350 30284 net.cpp:131] Top shape: 32 512 7 7 (802816)
I0715 11:01:16.003355 30284 net.cpp:139] Memory required for data: 1917124608
I0715 11:01:16.003362 30284 layer_factory.hpp:77] Creating layer scale5a_branch2a
I0715 11:01:16.003371 30284 net.cpp:86] Creating Layer scale5a_branch2a
I0715 11:01:16.003376 30284 net.cpp:408] scale5a_branch2a <- res5a_branch2a
I0715 11:01:16.003389 30284 net.cpp:369] scale5a_branch2a -> res5a_branch2a (in-place)
I0715 11:01:16.003495 30284 layer_factory.hpp:77] Creating layer scale5a_branch2a
I0715 11:01:16.003674 30284 net.cpp:124] Setting up scale5a_branch2a
I0715 11:01:16.003690 30284 net.cpp:131] Top shape: 32 512 7 7 (802816)
I0715 11:01:16.003695 30284 net.cpp:139] Memory required for data: 1920335872
I0715 11:01:16.003702 30284 layer_factory.hpp:77] Creating layer res5a_branch2a_relu
I0715 11:01:16.003710 30284 net.cpp:86] Creating Layer res5a_branch2a_relu
I0715 11:01:16.003713 30284 net.cpp:408] res5a_branch2a_relu <- res5a_branch2a
I0715 11:01:16.003727 30284 net.cpp:369] res5a_branch2a_relu -> res5a_branch2a (in-place)
I0715 11:01:16.004583 30284 net.cpp:124] Setting up res5a_branch2a_relu
I0715 11:01:16.004595 30284 net.cpp:131] Top shape: 32 512 7 7 (802816)
I0715 11:01:16.004600 30284 net.cpp:139] Memory required for data: 1923547136
I0715 11:01:16.004612 30284 layer_factory.hpp:77] Creating layer res5a_branch2b
I0715 11:01:16.004623 30284 net.cpp:86] Creating Layer res5a_branch2b
I0715 11:01:16.004628 30284 net.cpp:408] res5a_branch2b <- res5a_branch2a
I0715 11:01:16.004643 30284 net.cpp:382] res5a_branch2b -> res5a_branch2b
I0715 11:01:16.034803 30284 net.cpp:124] Setting up res5a_branch2b
I0715 11:01:16.034842 30284 net.cpp:131] Top shape: 32 512 7 7 (802816)
I0715 11:01:16.034848 30284 net.cpp:139] Memory required for data: 1926758400
I0715 11:01:16.034858 30284 layer_factory.hpp:77] Creating layer bn5a_branch2b
I0715 11:01:16.034870 30284 net.cpp:86] Creating Layer bn5a_branch2b
I0715 11:01:16.034884 30284 net.cpp:408] bn5a_branch2b <- res5a_branch2b
I0715 11:01:16.034895 30284 net.cpp:369] bn5a_branch2b -> res5a_branch2b (in-place)
I0715 11:01:16.035156 30284 net.cpp:124] Setting up bn5a_branch2b
I0715 11:01:16.035176 30284 net.cpp:131] Top shape: 32 512 7 7 (802816)
I0715 11:01:16.035179 30284 net.cpp:139] Memory required for data: 1929969664
I0715 11:01:16.035187 30284 layer_factory.hpp:77] Creating layer scale5a_branch2b
I0715 11:01:16.035195 30284 net.cpp:86] Creating Layer scale5a_branch2b
I0715 11:01:16.035200 30284 net.cpp:408] scale5a_branch2b <- res5a_branch2b
I0715 11:01:16.035215 30284 net.cpp:369] scale5a_branch2b -> res5a_branch2b (in-place)
I0715 11:01:16.035280 30284 layer_factory.hpp:77] Creating layer scale5a_branch2b
I0715 11:01:16.035454 30284 net.cpp:124] Setting up scale5a_branch2b
I0715 11:01:16.035473 30284 net.cpp:131] Top shape: 32 512 7 7 (802816)
I0715 11:01:16.035478 30284 net.cpp:139] Memory required for data: 1933180928
I0715 11:01:16.035485 30284 layer_factory.hpp:77] Creating layer res5a
I0715 11:01:16.035492 30284 net.cpp:86] Creating Layer res5a
I0715 11:01:16.035496 30284 net.cpp:408] res5a <- res5a_branch1
I0715 11:01:16.035511 30284 net.cpp:408] res5a <- res5a_branch2b
I0715 11:01:16.035516 30284 net.cpp:382] res5a -> res5a
I0715 11:01:16.035588 30284 net.cpp:124] Setting up res5a
I0715 11:01:16.035609 30284 net.cpp:131] Top shape: 32 512 7 7 (802816)
I0715 11:01:16.035614 30284 net.cpp:139] Memory required for data: 1936392192
I0715 11:01:16.035617 30284 layer_factory.hpp:77] Creating layer res5a_relu
I0715 11:01:16.035624 30284 net.cpp:86] Creating Layer res5a_relu
I0715 11:01:16.035629 30284 net.cpp:408] res5a_relu <- res5a
I0715 11:01:16.035642 30284 net.cpp:369] res5a_relu -> res5a (in-place)
I0715 11:01:16.036142 30284 net.cpp:124] Setting up res5a_relu
I0715 11:01:16.036161 30284 net.cpp:131] Top shape: 32 512 7 7 (802816)
I0715 11:01:16.036165 30284 net.cpp:139] Memory required for data: 1939603456
I0715 11:01:16.036170 30284 layer_factory.hpp:77] Creating layer res5a_res5a_relu_0_split
I0715 11:01:16.036178 30284 net.cpp:86] Creating Layer res5a_res5a_relu_0_split
I0715 11:01:16.036183 30284 net.cpp:408] res5a_res5a_relu_0_split <- res5a
I0715 11:01:16.036196 30284 net.cpp:382] res5a_res5a_relu_0_split -> res5a_res5a_relu_0_split_0
I0715 11:01:16.036206 30284 net.cpp:382] res5a_res5a_relu_0_split -> res5a_res5a_relu_0_split_1
I0715 11:01:16.036283 30284 net.cpp:124] Setting up res5a_res5a_relu_0_split
I0715 11:01:16.036311 30284 net.cpp:131] Top shape: 32 512 7 7 (802816)
I0715 11:01:16.036317 30284 net.cpp:131] Top shape: 32 512 7 7 (802816)
I0715 11:01:16.036321 30284 net.cpp:139] Memory required for data: 1946025984
I0715 11:01:16.036325 30284 layer_factory.hpp:77] Creating layer res5b_branch2a
I0715 11:01:16.036337 30284 net.cpp:86] Creating Layer res5b_branch2a
I0715 11:01:16.036350 30284 net.cpp:408] res5b_branch2a <- res5a_res5a_relu_0_split_0
I0715 11:01:16.036360 30284 net.cpp:382] res5b_branch2a -> res5b_branch2a
I0715 11:01:16.066603 30284 net.cpp:124] Setting up res5b_branch2a
I0715 11:01:16.066640 30284 net.cpp:131] Top shape: 32 512 7 7 (802816)
I0715 11:01:16.066645 30284 net.cpp:139] Memory required for data: 1949237248
I0715 11:01:16.066656 30284 layer_factory.hpp:77] Creating layer bn5b_branch2a
I0715 11:01:16.066668 30284 net.cpp:86] Creating Layer bn5b_branch2a
I0715 11:01:16.066682 30284 net.cpp:408] bn5b_branch2a <- res5b_branch2a
I0715 11:01:16.066694 30284 net.cpp:369] bn5b_branch2a -> res5b_branch2a (in-place)
I0715 11:01:16.066965 30284 net.cpp:124] Setting up bn5b_branch2a
I0715 11:01:16.066983 30284 net.cpp:131] Top shape: 32 512 7 7 (802816)
I0715 11:01:16.066987 30284 net.cpp:139] Memory required for data: 1952448512
I0715 11:01:16.066996 30284 layer_factory.hpp:77] Creating layer scale5b_branch2a
I0715 11:01:16.067004 30284 net.cpp:86] Creating Layer scale5b_branch2a
I0715 11:01:16.067008 30284 net.cpp:408] scale5b_branch2a <- res5b_branch2a
I0715 11:01:16.067023 30284 net.cpp:369] scale5b_branch2a -> res5b_branch2a (in-place)
I0715 11:01:16.067090 30284 layer_factory.hpp:77] Creating layer scale5b_branch2a
I0715 11:01:16.067267 30284 net.cpp:124] Setting up scale5b_branch2a
I0715 11:01:16.067284 30284 net.cpp:131] Top shape: 32 512 7 7 (802816)
I0715 11:01:16.067289 30284 net.cpp:139] Memory required for data: 1955659776
I0715 11:01:16.067296 30284 layer_factory.hpp:77] Creating layer res5b_branch2a_relu
I0715 11:01:16.067303 30284 net.cpp:86] Creating Layer res5b_branch2a_relu
I0715 11:01:16.067307 30284 net.cpp:408] res5b_branch2a_relu <- res5b_branch2a
I0715 11:01:16.067322 30284 net.cpp:369] res5b_branch2a_relu -> res5b_branch2a (in-place)
I0715 11:01:16.067823 30284 net.cpp:124] Setting up res5b_branch2a_relu
I0715 11:01:16.067842 30284 net.cpp:131] Top shape: 32 512 7 7 (802816)
I0715 11:01:16.067847 30284 net.cpp:139] Memory required for data: 1958871040
I0715 11:01:16.067852 30284 layer_factory.hpp:77] Creating layer res5b_branch2b
I0715 11:01:16.067862 30284 net.cpp:86] Creating Layer res5b_branch2b
I0715 11:01:16.067867 30284 net.cpp:408] res5b_branch2b <- res5b_branch2a
I0715 11:01:16.067883 30284 net.cpp:382] res5b_branch2b -> res5b_branch2b
I0715 11:01:16.097684 30284 net.cpp:124] Setting up res5b_branch2b
I0715 11:01:16.097724 30284 net.cpp:131] Top shape: 32 512 7 7 (802816)
I0715 11:01:16.097729 30284 net.cpp:139] Memory required for data: 1962082304
I0715 11:01:16.097739 30284 layer_factory.hpp:77] Creating layer bn5b_branch2b
I0715 11:01:16.097753 30284 net.cpp:86] Creating Layer bn5b_branch2b
I0715 11:01:16.097766 30284 net.cpp:408] bn5b_branch2b <- res5b_branch2b
I0715 11:01:16.097777 30284 net.cpp:369] bn5b_branch2b -> res5b_branch2b (in-place)
I0715 11:01:16.098048 30284 net.cpp:124] Setting up bn5b_branch2b
I0715 11:01:16.098067 30284 net.cpp:131] Top shape: 32 512 7 7 (802816)
I0715 11:01:16.098070 30284 net.cpp:139] Memory required for data: 1965293568
I0715 11:01:16.098079 30284 layer_factory.hpp:77] Creating layer scale5b_branch2b
I0715 11:01:16.098088 30284 net.cpp:86] Creating Layer scale5b_branch2b
I0715 11:01:16.098093 30284 net.cpp:408] scale5b_branch2b <- res5b_branch2b
I0715 11:01:16.098107 30284 net.cpp:369] scale5b_branch2b -> res5b_branch2b (in-place)
I0715 11:01:16.098177 30284 layer_factory.hpp:77] Creating layer scale5b_branch2b
I0715 11:01:16.098356 30284 net.cpp:124] Setting up scale5b_branch2b
I0715 11:01:16.098374 30284 net.cpp:131] Top shape: 32 512 7 7 (802816)
I0715 11:01:16.098379 30284 net.cpp:139] Memory required for data: 1968504832
I0715 11:01:16.098412 30284 layer_factory.hpp:77] Creating layer res5b
I0715 11:01:16.098421 30284 net.cpp:86] Creating Layer res5b
I0715 11:01:16.098429 30284 net.cpp:408] res5b <- res5a_res5a_relu_0_split_1
I0715 11:01:16.098438 30284 net.cpp:408] res5b <- res5b_branch2b
I0715 11:01:16.098459 30284 net.cpp:382] res5b -> res5b
I0715 11:01:16.098527 30284 net.cpp:124] Setting up res5b
I0715 11:01:16.098549 30284 net.cpp:131] Top shape: 32 512 7 7 (802816)
I0715 11:01:16.098554 30284 net.cpp:139] Memory required for data: 1971716096
I0715 11:01:16.098559 30284 layer_factory.hpp:77] Creating layer res5b_relu
I0715 11:01:16.098567 30284 net.cpp:86] Creating Layer res5b_relu
I0715 11:01:16.098570 30284 net.cpp:408] res5b_relu <- res5b
I0715 11:01:16.098587 30284 net.cpp:369] res5b_relu -> res5b (in-place)
I0715 11:01:16.099475 30284 net.cpp:124] Setting up res5b_relu
I0715 11:01:16.099488 30284 net.cpp:131] Top shape: 32 512 7 7 (802816)
I0715 11:01:16.099493 30284 net.cpp:139] Memory required for data: 1974927360
I0715 11:01:16.099498 30284 layer_factory.hpp:77] Creating layer deconv5_1
I0715 11:01:16.099509 30284 net.cpp:86] Creating Layer deconv5_1
I0715 11:01:16.099514 30284 net.cpp:408] deconv5_1 <- res5b
I0715 11:01:16.099522 30284 net.cpp:382] deconv5_1 -> deconv5_1
I0715 11:01:16.107657 30284 net.cpp:124] Setting up deconv5_1
I0715 11:01:16.107682 30284 net.cpp:131] Top shape: 32 64 14 14 (401408)
I0715 11:01:16.107687 30284 net.cpp:139] Memory required for data: 1976532992
I0715 11:01:16.107694 30284 layer_factory.hpp:77] Creating layer deconv_res4b
I0715 11:01:16.107707 30284 net.cpp:86] Creating Layer deconv_res4b
I0715 11:01:16.107719 30284 net.cpp:408] deconv_res4b <- res4b_res4b_relu_0_split_2
I0715 11:01:16.107730 30284 net.cpp:382] deconv_res4b -> deconv_res4b
I0715 11:01:16.112135 30284 net.cpp:124] Setting up deconv_res4b
I0715 11:01:16.112159 30284 net.cpp:131] Top shape: 32 64 14 14 (401408)
I0715 11:01:16.112164 30284 net.cpp:139] Memory required for data: 1978138624
I0715 11:01:16.112190 30284 layer_factory.hpp:77] Creating layer bn_deconv_res4b
I0715 11:01:16.112210 30284 net.cpp:86] Creating Layer bn_deconv_res4b
I0715 11:01:16.112218 30284 net.cpp:408] bn_deconv_res4b <- deconv_res4b
I0715 11:01:16.112228 30284 net.cpp:369] bn_deconv_res4b -> deconv_res4b (in-place)
I0715 11:01:16.112500 30284 net.cpp:124] Setting up bn_deconv_res4b
I0715 11:01:16.112519 30284 net.cpp:131] Top shape: 32 64 14 14 (401408)
I0715 11:01:16.112522 30284 net.cpp:139] Memory required for data: 1979744256
I0715 11:01:16.112530 30284 layer_factory.hpp:77] Creating layer scale_deconv_res4b
I0715 11:01:16.112537 30284 net.cpp:86] Creating Layer scale_deconv_res4b
I0715 11:01:16.112542 30284 net.cpp:408] scale_deconv_res4b <- deconv_res4b
I0715 11:01:16.112557 30284 net.cpp:369] scale_deconv_res4b -> deconv_res4b (in-place)
I0715 11:01:16.112629 30284 layer_factory.hpp:77] Creating layer scale_deconv_res4b
I0715 11:01:16.112812 30284 net.cpp:124] Setting up scale_deconv_res4b
I0715 11:01:16.112830 30284 net.cpp:131] Top shape: 32 64 14 14 (401408)
I0715 11:01:16.112835 30284 net.cpp:139] Memory required for data: 1981349888
I0715 11:01:16.112843 30284 layer_factory.hpp:77] Creating layer relu_res4b
I0715 11:01:16.112848 30284 net.cpp:86] Creating Layer relu_res4b
I0715 11:01:16.112854 30284 net.cpp:408] relu_res4b <- deconv_res4b
I0715 11:01:16.112867 30284 net.cpp:369] relu_res4b -> deconv_res4b (in-place)
I0715 11:01:16.113757 30284 net.cpp:124] Setting up relu_res4b
I0715 11:01:16.113770 30284 net.cpp:131] Top shape: 32 64 14 14 (401408)
I0715 11:01:16.113773 30284 net.cpp:139] Memory required for data: 1982955520
I0715 11:01:16.113777 30284 layer_factory.hpp:77] Creating layer concat1
I0715 11:01:16.113785 30284 net.cpp:86] Creating Layer concat1
I0715 11:01:16.113788 30284 net.cpp:408] concat1 <- deconv_res4b
I0715 11:01:16.113795 30284 net.cpp:408] concat1 <- deconv5_1
I0715 11:01:16.113802 30284 net.cpp:382] concat1 -> concat1
I0715 11:01:16.113853 30284 net.cpp:124] Setting up concat1
I0715 11:01:16.113867 30284 net.cpp:131] Top shape: 32 128 14 14 (802816)
I0715 11:01:16.113893 30284 net.cpp:139] Memory required for data: 1986166784
I0715 11:01:16.113899 30284 layer_factory.hpp:77] Creating layer deconv5_2
I0715 11:01:16.113919 30284 net.cpp:86] Creating Layer deconv5_2
I0715 11:01:16.113924 30284 net.cpp:408] deconv5_2 <- concat1
I0715 11:01:16.113932 30284 net.cpp:382] deconv5_2 -> deconv5_2
I0715 11:01:16.117612 30284 net.cpp:124] Setting up deconv5_2
I0715 11:01:16.117633 30284 net.cpp:131] Top shape: 32 32 28 28 (802816)
I0715 11:01:16.117641 30284 net.cpp:139] Memory required for data: 1989378048
I0715 11:01:16.117653 30284 layer_factory.hpp:77] Creating layer deconv_res3b
I0715 11:01:16.117672 30284 net.cpp:86] Creating Layer deconv_res3b
I0715 11:01:16.117691 30284 net.cpp:408] deconv_res3b <- res3b_res3b_relu_0_split_2
I0715 11:01:16.117733 30284 net.cpp:382] deconv_res3b -> deconv_res3b
I0715 11:01:16.120369 30284 net.cpp:124] Setting up deconv_res3b
I0715 11:01:16.120388 30284 net.cpp:131] Top shape: 32 32 28 28 (802816)
I0715 11:01:16.120393 30284 net.cpp:139] Memory required for data: 1992589312
I0715 11:01:16.120400 30284 layer_factory.hpp:77] Creating layer bn_deconv_res3b
I0715 11:01:16.120409 30284 net.cpp:86] Creating Layer bn_deconv_res3b
I0715 11:01:16.120414 30284 net.cpp:408] bn_deconv_res3b <- deconv_res3b
I0715 11:01:16.120422 30284 net.cpp:369] bn_deconv_res3b -> deconv_res3b (in-place)
I0715 11:01:16.120666 30284 net.cpp:124] Setting up bn_deconv_res3b
I0715 11:01:16.120677 30284 net.cpp:131] Top shape: 32 32 28 28 (802816)
I0715 11:01:16.120682 30284 net.cpp:139] Memory required for data: 1995800576
I0715 11:01:16.120689 30284 layer_factory.hpp:77] Creating layer scale_deconv_res3b
I0715 11:01:16.120697 30284 net.cpp:86] Creating Layer scale_deconv_res3b
I0715 11:01:16.120702 30284 net.cpp:408] scale_deconv_res3b <- deconv_res3b
I0715 11:01:16.120708 30284 net.cpp:369] scale_deconv_res3b -> deconv_res3b (in-place)
I0715 11:01:16.120777 30284 layer_factory.hpp:77] Creating layer scale_deconv_res3b
I0715 11:01:16.120934 30284 net.cpp:124] Setting up scale_deconv_res3b
I0715 11:01:16.120946 30284 net.cpp:131] Top shape: 32 32 28 28 (802816)
I0715 11:01:16.120967 30284 net.cpp:139] Memory required for data: 1999011840
I0715 11:01:16.120975 30284 layer_factory.hpp:77] Creating layer relu_deconv_res3b
I0715 11:01:16.120983 30284 net.cpp:86] Creating Layer relu_deconv_res3b
I0715 11:01:16.120998 30284 net.cpp:408] relu_deconv_res3b <- deconv_res3b
I0715 11:01:16.121008 30284 net.cpp:369] relu_deconv_res3b -> deconv_res3b (in-place)
I0715 11:01:16.121906 30284 net.cpp:124] Setting up relu_deconv_res3b
I0715 11:01:16.121922 30284 net.cpp:131] Top shape: 32 32 28 28 (802816)
I0715 11:01:16.121925 30284 net.cpp:139] Memory required for data: 2002223104
I0715 11:01:16.121930 30284 layer_factory.hpp:77] Creating layer concat2
I0715 11:01:16.121937 30284 net.cpp:86] Creating Layer concat2
I0715 11:01:16.121942 30284 net.cpp:408] concat2 <- deconv_res3b
I0715 11:01:16.121948 30284 net.cpp:408] concat2 <- deconv5_2
I0715 11:01:16.121953 30284 net.cpp:382] concat2 -> concat2
I0715 11:01:16.122009 30284 net.cpp:124] Setting up concat2
I0715 11:01:16.122023 30284 net.cpp:131] Top shape: 32 64 28 28 (1605632)
I0715 11:01:16.122031 30284 net.cpp:139] Memory required for data: 2008645632
I0715 11:01:16.122038 30284 layer_factory.hpp:77] Creating layer deconv5_3
I0715 11:01:16.122053 30284 net.cpp:86] Creating Layer deconv5_3
I0715 11:01:16.122059 30284 net.cpp:408] deconv5_3 <- concat2
I0715 11:01:16.122076 30284 net.cpp:382] deconv5_3 -> deconv5_3
I0715 11:01:16.124410 30284 net.cpp:124] Setting up deconv5_3
I0715 11:01:16.124424 30284 net.cpp:131] Top shape: 32 16 56 56 (1605632)
I0715 11:01:16.124429 30284 net.cpp:139] Memory required for data: 2015068160
I0715 11:01:16.124435 30284 layer_factory.hpp:77] Creating layer deconv_res2b
I0715 11:01:16.124446 30284 net.cpp:86] Creating Layer deconv_res2b
I0715 11:01:16.124451 30284 net.cpp:408] deconv_res2b <- res2b_res2b_relu_0_split_2
I0715 11:01:16.124469 30284 net.cpp:382] deconv_res2b -> deconv_res2b
I0715 11:01:16.126950 30284 net.cpp:124] Setting up deconv_res2b
I0715 11:01:16.126962 30284 net.cpp:131] Top shape: 32 16 56 56 (1605632)
I0715 11:01:16.126967 30284 net.cpp:139] Memory required for data: 2021490688
I0715 11:01:16.126974 30284 layer_factory.hpp:77] Creating layer bn_deconv_res2b
I0715 11:01:16.126983 30284 net.cpp:86] Creating Layer bn_deconv_res2b
I0715 11:01:16.126988 30284 net.cpp:408] bn_deconv_res2b <- deconv_res2b
I0715 11:01:16.126994 30284 net.cpp:369] bn_deconv_res2b -> deconv_res2b (in-place)
I0715 11:01:16.127269 30284 net.cpp:124] Setting up bn_deconv_res2b
I0715 11:01:16.127279 30284 net.cpp:131] Top shape: 32 16 56 56 (1605632)
I0715 11:01:16.127283 30284 net.cpp:139] Memory required for data: 2027913216
I0715 11:01:16.127292 30284 layer_factory.hpp:77] Creating layer scale_deconv_res2b
I0715 11:01:16.127298 30284 net.cpp:86] Creating Layer scale_deconv_res2b
I0715 11:01:16.127302 30284 net.cpp:408] scale_deconv_res2b <- deconv_res2b
I0715 11:01:16.127310 30284 net.cpp:369] scale_deconv_res2b -> deconv_res2b (in-place)
I0715 11:01:16.127387 30284 layer_factory.hpp:77] Creating layer scale_deconv_res2b
I0715 11:01:16.127565 30284 net.cpp:124] Setting up scale_deconv_res2b
I0715 11:01:16.127575 30284 net.cpp:131] Top shape: 32 16 56 56 (1605632)
I0715 11:01:16.127580 30284 net.cpp:139] Memory required for data: 2034335744
I0715 11:01:16.127586 30284 layer_factory.hpp:77] Creating layer relu_deconv_res2b
I0715 11:01:16.127594 30284 net.cpp:86] Creating Layer relu_deconv_res2b
I0715 11:01:16.127599 30284 net.cpp:408] relu_deconv_res2b <- deconv_res2b
I0715 11:01:16.127604 30284 net.cpp:369] relu_deconv_res2b -> deconv_res2b (in-place)
I0715 11:01:16.128463 30284 net.cpp:124] Setting up relu_deconv_res2b
I0715 11:01:16.128475 30284 net.cpp:131] Top shape: 32 16 56 56 (1605632)
I0715 11:01:16.128479 30284 net.cpp:139] Memory required for data: 2040758272
I0715 11:01:16.128484 30284 layer_factory.hpp:77] Creating layer concat3
I0715 11:01:16.128490 30284 net.cpp:86] Creating Layer concat3
I0715 11:01:16.128494 30284 net.cpp:408] concat3 <- deconv_res2b
I0715 11:01:16.128499 30284 net.cpp:408] concat3 <- deconv5_3
I0715 11:01:16.128505 30284 net.cpp:382] concat3 -> concat3
I0715 11:01:16.128578 30284 net.cpp:124] Setting up concat3
I0715 11:01:16.128600 30284 net.cpp:131] Top shape: 32 32 56 56 (3211264)
I0715 11:01:16.128613 30284 net.cpp:139] Memory required for data: 2053603328
I0715 11:01:16.128618 30284 layer_factory.hpp:77] Creating layer deconv5_4
I0715 11:01:16.128628 30284 net.cpp:86] Creating Layer deconv5_4
I0715 11:01:16.128640 30284 net.cpp:408] deconv5_4 <- concat3
I0715 11:01:16.128651 30284 net.cpp:382] deconv5_4 -> deconv5_4
I0715 11:01:16.130864 30284 net.cpp:124] Setting up deconv5_4
I0715 11:01:16.130879 30284 net.cpp:131] Top shape: 32 8 112 112 (3211264)
I0715 11:01:16.130884 30284 net.cpp:139] Memory required for data: 2066448384
I0715 11:01:16.130890 30284 layer_factory.hpp:77] Creating layer deconv_conv1
I0715 11:01:16.130903 30284 net.cpp:86] Creating Layer deconv_conv1
I0715 11:01:16.130908 30284 net.cpp:408] deconv_conv1 <- conv1_conv1_relu_0_split_1
I0715 11:01:16.130915 30284 net.cpp:382] deconv_conv1 -> deconv_conv1
I0715 11:01:16.133147 30284 net.cpp:124] Setting up deconv_conv1
I0715 11:01:16.133160 30284 net.cpp:131] Top shape: 32 8 112 112 (3211264)
I0715 11:01:16.133167 30284 net.cpp:139] Memory required for data: 2079293440
I0715 11:01:16.133181 30284 layer_factory.hpp:77] Creating layer bn_deconv_conv1
I0715 11:01:16.133188 30284 net.cpp:86] Creating Layer bn_deconv_conv1
I0715 11:01:16.133193 30284 net.cpp:408] bn_deconv_conv1 <- deconv_conv1
I0715 11:01:16.133206 30284 net.cpp:369] bn_deconv_conv1 -> deconv_conv1 (in-place)
I0715 11:01:16.133466 30284 net.cpp:124] Setting up bn_deconv_conv1
I0715 11:01:16.133476 30284 net.cpp:131] Top shape: 32 8 112 112 (3211264)
I0715 11:01:16.133481 30284 net.cpp:139] Memory required for data: 2092138496
I0715 11:01:16.133496 30284 layer_factory.hpp:77] Creating layer scale_deconv_conv1
I0715 11:01:16.133523 30284 net.cpp:86] Creating Layer scale_deconv_conv1
I0715 11:01:16.133532 30284 net.cpp:408] scale_deconv_conv1 <- deconv_conv1
I0715 11:01:16.133560 30284 net.cpp:369] scale_deconv_conv1 -> deconv_conv1 (in-place)
I0715 11:01:16.133661 30284 layer_factory.hpp:77] Creating layer scale_deconv_conv1
I0715 11:01:16.133857 30284 net.cpp:124] Setting up scale_deconv_conv1
I0715 11:01:16.133869 30284 net.cpp:131] Top shape: 32 8 112 112 (3211264)
I0715 11:01:16.133873 30284 net.cpp:139] Memory required for data: 2104983552
I0715 11:01:16.133888 30284 layer_factory.hpp:77] Creating layer relu_deconv_conv1
I0715 11:01:16.133894 30284 net.cpp:86] Creating Layer relu_deconv_conv1
I0715 11:01:16.133899 30284 net.cpp:408] relu_deconv_conv1 <- deconv_conv1
I0715 11:01:16.133913 30284 net.cpp:369] relu_deconv_conv1 -> deconv_conv1 (in-place)
I0715 11:01:16.134783 30284 net.cpp:124] Setting up relu_deconv_conv1
I0715 11:01:16.134796 30284 net.cpp:131] Top shape: 32 8 112 112 (3211264)
I0715 11:01:16.134809 30284 net.cpp:139] Memory required for data: 2117828608
I0715 11:01:16.134814 30284 layer_factory.hpp:77] Creating layer concat4
I0715 11:01:16.134819 30284 net.cpp:86] Creating Layer concat4
I0715 11:01:16.134824 30284 net.cpp:408] concat4 <- deconv_conv1
I0715 11:01:16.134829 30284 net.cpp:408] concat4 <- deconv5_4
I0715 11:01:16.134847 30284 net.cpp:382] concat4 -> concat4
I0715 11:01:16.134929 30284 net.cpp:124] Setting up concat4
I0715 11:01:16.134939 30284 net.cpp:131] Top shape: 32 16 112 112 (6422528)
I0715 11:01:16.134943 30284 net.cpp:139] Memory required for data: 2143518720
I0715 11:01:16.134955 30284 layer_factory.hpp:77] Creating layer deconv5_5
I0715 11:01:16.134966 30284 net.cpp:86] Creating Layer deconv5_5
I0715 11:01:16.134971 30284 net.cpp:408] deconv5_5 <- concat4
I0715 11:01:16.134999 30284 net.cpp:382] deconv5_5 -> deconv5_5
I0715 11:01:16.137159 30284 net.cpp:124] Setting up deconv5_5
I0715 11:01:16.137172 30284 net.cpp:131] Top shape: 32 2 224 224 (3211264)
I0715 11:01:16.137177 30284 net.cpp:139] Memory required for data: 2156363776
I0715 11:01:16.137183 30284 layer_factory.hpp:77] Creating layer deconv5_5_deconv5_5_0_split
I0715 11:01:16.137190 30284 net.cpp:86] Creating Layer deconv5_5_deconv5_5_0_split
I0715 11:01:16.137195 30284 net.cpp:408] deconv5_5_deconv5_5_0_split <- deconv5_5
I0715 11:01:16.137210 30284 net.cpp:382] deconv5_5_deconv5_5_0_split -> deconv5_5_deconv5_5_0_split_0
I0715 11:01:16.137219 30284 net.cpp:382] deconv5_5_deconv5_5_0_split -> deconv5_5_deconv5_5_0_split_1
I0715 11:01:16.137284 30284 net.cpp:124] Setting up deconv5_5_deconv5_5_0_split
I0715 11:01:16.137296 30284 net.cpp:131] Top shape: 32 2 224 224 (3211264)
I0715 11:01:16.137302 30284 net.cpp:131] Top shape: 32 2 224 224 (3211264)
I0715 11:01:16.137306 30284 net.cpp:139] Memory required for data: 2182053888
I0715 11:01:16.137310 30284 layer_factory.hpp:77] Creating layer loss
I0715 11:01:16.137318 30284 net.cpp:86] Creating Layer loss
I0715 11:01:16.137322 30284 net.cpp:408] loss <- deconv5_5_deconv5_5_0_split_0
I0715 11:01:16.137329 30284 net.cpp:408] loss <- seg-label_data_1_split_0
I0715 11:01:16.137337 30284 net.cpp:382] loss -> loss
…
