…
I0627 22:13:11.616205 19117 net.cpp:296] The NetState phase (0) differed from the phase (1) specified by a rule in layer data
I0627 22:13:11.616377 19117 net.cpp:53] Initializing net from parameters: 
name: "simpleconv3"
state {
  phase: TRAIN
  level: 0
  stage: ""
}
layer {
  name: "data"
  type: "ImageData"
  top: "data"
  top: "label"
  include {
    phase: TRAIN
  }
  transform_param {
    mirror: true
    crop_size: 48
    mean_value: 104.008
    mean_value: 116.669
    mean_value: 122.675
    min_side_min: 48
    min_side_max: 60
  }
  image_data_param {
    source: "train_shuffle.txt"
    batch_size: 96
    shuffle: true
  }
}
layer {
  name: "conv1"
  type: "Convolution"
  bottom: "data"
  top: "conv1"
  param {
    lr_mult: 1
    decay_mult: 1
  }
  param {
    lr_mult: 2
    decay_mult: 0
  }
  convolution_param {
    num_output: 12
    pad: 1
    kernel_size: 3
    stride: 2
    weight_filler {
      type: "xavier"
      std: 0.01
    }
    bias_filler {
      type: "constant"
      value: 0.2
    }
  }
}
layer {
  name: "conv1/bn"
  type: "BatchNorm"
  bottom: "conv1"
  top: "conv1"
  param {
    lr_mult: 0
    decay_mult: 0
  }
  param {
    lr_mult: 0
    decay_mult: 0
  }
  param {
    lr_mult: 0
    decay_mult: 0
  }
}
layer {
  name: "conv1/scale"
  type: "Scale"
  bottom: "conv1"
  top: "conv1"
  param {
    lr_mult: 1
    decay_mult: 0
  }
  param {
    lr_mult: 1
    decay_mult: 0
  }
  scale_param {
    filler {
      value: 1
    }
    bias_term: true
    bias_filler {
      value: 0
    }
  }
}
layer {
  name: "relu1"
  type: "ReLU"
  bottom: "conv1"
  top: "conv1"
}
layer {
  name: "conv2"
  type: "Convolution"
  bottom: "conv1"
  top: "conv2"
  param {
    lr_mult: 1
    decay_mult: 1
  }
  param {
    lr_mult: 2
    decay_mult: 0
  }
  convolution_param {
    num_output: 24
    pad: 1
    kernel_size: 3
    stride: 2
    weight_filler {
      type: "xavier"
      std: 0.1
    }
    bias_filler {
      type: "constant"
      value: 0.2
    }
  }
}
layer {
  name: "conv2/bn"
  type: "BatchNorm"
  bottom: "conv2"
  top: "conv2"
  param {
    lr_mult: 0
    decay_mult: 0
  }
  param {
    lr_mult: 0
    decay_mult: 0
  }
  param {
    lr_mult: 0
    decay_mult: 0
  }
}
layer {
  name: "conv2/scale"
  type: "Scale"
  bottom: "conv2"
  top: "conv2"
  param {
    lr_mult: 1
    decay_mult: 0
  }
  param {
    lr_mult: 1
    decay_mult: 0
  }
  scale_param {
    filler {
      value: 1
    }
    bias_term: true
    bias_filler {
      value: 0
    }
  }
}
layer {
  name: "relu2"
  type: "ReLU"
  bottom: "conv2"
  top: "conv2"
}
layer {
  name: "conv3"
  type: "Convolution"
  bottom: "conv2"
  top: "conv3"
  param {
    lr_mult: 1
    decay_mult: 1
  }
  param {
    lr_mult: 2
    decay_mult: 0
  }
  convolution_param {
    num_output: 48
    pad: 1
    kernel_size: 3
    stride: 2
    weight_filler {
      type: "xavier"
      std: 0.1
    }
    bias_filler {
      type: "constant"
      value: 0.2
    }
  }
}
layer {
  name: "conv3/bn"
  type: "BatchNorm"
  bottom: "conv3"
  top: "conv3"
  param {
    lr_mult: 0
    decay_mult: 0
  }
  param {
    lr_mult: 0
    decay_mult: 0
  }
  param {
    lr_mult: 0
    decay_mult: 0
  }
}
layer {
  name: "conv3/scale"
  type: "Scale"
  bottom: "conv3"
  top: "conv3"
  param {
    lr_mult: 1
    decay_mult: 0
  }
  param {
    lr_mult: 1
    decay_mult: 0
  }
  scale_param {
    filler {
      value: 1
    }
    bias_term: true
    bias_filler {
      value: 0
    }
  }
}
layer {
  name: "relu3"
  type: "ReLU"
  bottom: "conv3"
  top: "conv3"
}
layer {
  name: "ip1"
  type: "InnerProduct"
  bottom: "conv3"
  top: "ip1"
  param {
    lr_mult: 1
    decay_mult: 1
  }
  param {
    lr_mult: 2
    decay_mult: 0
  }
  inner_product_param {
    num_output: 128
    weight_filler {
      type: "xavier"
    }
    bias_filler {
      type: "constant"
      value: 0
    }
  }
}
layer {
  name: "ip2"
  type: "InnerProduct"
  bottom: "ip1"
  top: "ip2"
  param {
    lr_mult: 1
    decay_mult: 1
  }
  param {
    lr_mult: 2
    decay_mult: 1
  }
  inner_product_param {
    num_output: 2
    weight_filler {
      type: "xavier"
    }
    bias_filler {
      type: "constant"
      value: 0
    }
  }
}
layer {
  name: "loss"
  type: "SoftmaxWithLoss"
  bottom: "ip2"
  bottom: "label"
  top: "loss"
}
layer {
  name: "acc"
  type: "Accuracy"
  bottom: "ip2"
  bottom: "label"
  top: "acc"
}
I0627 22:13:11.616504 19117 layer_factory.hpp:77] Creating layer data
I0627 22:13:11.616544 19117 net.cpp:86] Creating Layer data
I0627 22:13:11.616554 19117 net.cpp:382] data -> data
I0627 22:13:11.616582 19117 net.cpp:382] data -> label
I0627 22:13:11.616652 19117 image_data_layer.cpp:38] Opening file train_shuffle.txt
I0627 22:13:11.617014 19117 image_data_layer.cpp:53] Shuffling data
I0627 22:13:11.617125 19117 image_data_layer.cpp:63] A total of 900 images.
I0627 22:13:11.618399 19117 image_data_layer.cpp:90] output data size: 96,3,48,48
I0627 22:13:11.625761 19117 net.cpp:124] Setting up data
I0627 22:13:11.625799 19117 net.cpp:131] Top shape: 96 3 48 48 (663552)
I0627 22:13:11.625807 19117 net.cpp:131] Top shape: 96 (96)
I0627 22:13:11.625810 19117 net.cpp:139] Memory required for data: 2654592
I0627 22:13:11.625818 19117 layer_factory.hpp:77] Creating layer label_data_1_split
I0627 22:13:11.625834 19117 net.cpp:86] Creating Layer label_data_1_split
I0627 22:13:11.625844 19117 net.cpp:408] label_data_1_split <- label
I0627 22:13:11.625869 19117 net.cpp:382] label_data_1_split -> label_data_1_split_0
I0627 22:13:11.625886 19117 net.cpp:382] label_data_1_split -> label_data_1_split_1
I0627 22:13:11.625941 19117 net.cpp:124] Setting up label_data_1_split
I0627 22:13:11.625949 19117 net.cpp:131] Top shape: 96 (96)
I0627 22:13:11.625954 19117 net.cpp:131] Top shape: 96 (96)
I0627 22:13:11.625967 19117 net.cpp:139] Memory required for data: 2655360
I0627 22:13:11.625970 19117 layer_factory.hpp:77] Creating layer conv1
I0627 22:13:11.625993 19117 net.cpp:86] Creating Layer conv1
I0627 22:13:11.626001 19117 net.cpp:408] conv1 <- data
I0627 22:13:11.626008 19117 net.cpp:382] conv1 -> conv1
I0627 22:13:12.213145 19117 net.cpp:124] Setting up conv1
I0627 22:13:12.213196 19117 net.cpp:131] Top shape: 96 12 24 24 (663552)
I0627 22:13:12.213209 19117 net.cpp:139] Memory required for data: 5309568
I0627 22:13:12.213235 19117 layer_factory.hpp:77] Creating layer conv1/bn
I0627 22:13:12.213253 19117 net.cpp:86] Creating Layer conv1/bn
I0627 22:13:12.213263 19117 net.cpp:408] conv1/bn <- conv1
I0627 22:13:12.213275 19117 net.cpp:369] conv1/bn -> conv1 (in-place)
I0627 22:13:12.213503 19117 net.cpp:124] Setting up conv1/bn
I0627 22:13:12.213521 19117 net.cpp:131] Top shape: 96 12 24 24 (663552)
I0627 22:13:12.213526 19117 net.cpp:139] Memory required for data: 7963776
I0627 22:13:12.213536 19117 layer_factory.hpp:77] Creating layer conv1/scale
I0627 22:13:12.213547 19117 net.cpp:86] Creating Layer conv1/scale
I0627 22:13:12.213562 19117 net.cpp:408] conv1/scale <- conv1
I0627 22:13:12.213573 19117 net.cpp:369] conv1/scale -> conv1 (in-place)
I0627 22:13:12.213636 19117 layer_factory.hpp:77] Creating layer conv1/scale
I0627 22:13:12.213793 19117 net.cpp:124] Setting up conv1/scale
I0627 22:13:12.213802 19117 net.cpp:131] Top shape: 96 12 24 24 (663552)
I0627 22:13:12.213806 19117 net.cpp:139] Memory required for data: 10617984
I0627 22:13:12.213812 19117 layer_factory.hpp:77] Creating layer relu1
I0627 22:13:12.213850 19117 net.cpp:86] Creating Layer relu1
I0627 22:13:12.213858 19117 net.cpp:408] relu1 <- conv1
I0627 22:13:12.213866 19117 net.cpp:369] relu1 -> conv1 (in-place)
I0627 22:13:12.214344 19117 net.cpp:124] Setting up relu1
I0627 22:13:12.214365 19117 net.cpp:131] Top shape: 96 12 24 24 (663552)
I0627 22:13:12.214370 19117 net.cpp:139] Memory required for data: 13272192
I0627 22:13:12.214375 19117 layer_factory.hpp:77] Creating layer conv2
I0627 22:13:12.214388 19117 net.cpp:86] Creating Layer conv2
I0627 22:13:12.214395 19117 net.cpp:408] conv2 <- conv1
I0627 22:13:12.214414 19117 net.cpp:382] conv2 -> conv2
I0627 22:13:12.217662 19117 net.cpp:124] Setting up conv2
I0627 22:13:12.217679 19117 net.cpp:131] Top shape: 96 24 12 12 (331776)
I0627 22:13:12.217684 19117 net.cpp:139] Memory required for data: 14599296
I0627 22:13:12.217695 19117 layer_factory.hpp:77] Creating layer conv2/bn
I0627 22:13:12.217703 19117 net.cpp:86] Creating Layer conv2/bn
I0627 22:13:12.217707 19117 net.cpp:408] conv2/bn <- conv2
I0627 22:13:12.217718 19117 net.cpp:369] conv2/bn -> conv2 (in-place)
I0627 22:13:12.217905 19117 net.cpp:124] Setting up conv2/bn
I0627 22:13:12.217922 19117 net.cpp:131] Top shape: 96 24 12 12 (331776)
I0627 22:13:12.217926 19117 net.cpp:139] Memory required for data: 15926400
I0627 22:13:12.217934 19117 layer_factory.hpp:77] Creating layer conv2/scale
I0627 22:13:12.217947 19117 net.cpp:86] Creating Layer conv2/scale
I0627 22:13:12.217954 19117 net.cpp:408] conv2/scale <- conv2
I0627 22:13:12.217974 19117 net.cpp:369] conv2/scale -> conv2 (in-place)
I0627 22:13:12.218027 19117 layer_factory.hpp:77] Creating layer conv2/scale
I0627 22:13:12.218171 19117 net.cpp:124] Setting up conv2/scale
I0627 22:13:12.218181 19117 net.cpp:131] Top shape: 96 24 12 12 (331776)
I0627 22:13:12.218185 19117 net.cpp:139] Memory required for data: 17253504
I0627 22:13:12.218207 19117 layer_factory.hpp:77] Creating layer relu2
I0627 22:13:12.218214 19117 net.cpp:86] Creating Layer relu2
I0627 22:13:12.218217 19117 net.cpp:408] relu2 <- conv2
I0627 22:13:12.218225 19117 net.cpp:369] relu2 -> conv2 (in-place)
I0627 22:13:12.218714 19117 net.cpp:124] Setting up relu2
I0627 22:13:12.218725 19117 net.cpp:131] Top shape: 96 24 12 12 (331776)
I0627 22:13:12.218729 19117 net.cpp:139] Memory required for data: 18580608
I0627 22:13:12.218734 19117 layer_factory.hpp:77] Creating layer conv3
I0627 22:13:12.218744 19117 net.cpp:86] Creating Layer conv3
I0627 22:13:12.218749 19117 net.cpp:408] conv3 <- conv2
I0627 22:13:12.218757 19117 net.cpp:382] conv3 -> conv3
I0627 22:13:12.221681 19117 net.cpp:124] Setting up conv3
I0627 22:13:12.221698 19117 net.cpp:131] Top shape: 96 48 6 6 (165888)
I0627 22:13:12.221702 19117 net.cpp:139] Memory required for data: 19244160
I0627 22:13:12.221710 19117 layer_factory.hpp:77] Creating layer conv3/bn
I0627 22:13:12.221717 19117 net.cpp:86] Creating Layer conv3/bn
I0627 22:13:12.221722 19117 net.cpp:408] conv3/bn <- conv3
I0627 22:13:12.221730 19117 net.cpp:369] conv3/bn -> conv3 (in-place)
I0627 22:13:12.221912 19117 net.cpp:124] Setting up conv3/bn
I0627 22:13:12.221922 19117 net.cpp:131] Top shape: 96 48 6 6 (165888)
I0627 22:13:12.221926 19117 net.cpp:139] Memory required for data: 19907712
I0627 22:13:12.221940 19117 layer_factory.hpp:77] Creating layer conv3/scale
I0627 22:13:12.221947 19117 net.cpp:86] Creating Layer conv3/scale
I0627 22:13:12.221951 19117 net.cpp:408] conv3/scale <- conv3
I0627 22:13:12.221959 19117 net.cpp:369] conv3/scale -> conv3 (in-place)
I0627 22:13:12.222007 19117 layer_factory.hpp:77] Creating layer conv3/scale
I0627 22:13:12.222138 19117 net.cpp:124] Setting up conv3/scale
I0627 22:13:12.222156 19117 net.cpp:131] Top shape: 96 48 6 6 (165888)
I0627 22:13:12.222159 19117 net.cpp:139] Memory required for data: 20571264
I0627 22:13:12.222167 19117 layer_factory.hpp:77] Creating layer relu3
I0627 22:13:12.222172 19117 net.cpp:86] Creating Layer relu3
I0627 22:13:12.222178 19117 net.cpp:408] relu3 <- conv3
I0627 22:13:12.222187 19117 net.cpp:369] relu3 -> conv3 (in-place)
I0627 22:13:12.223003 19117 net.cpp:124] Setting up relu3
I0627 22:13:12.223016 19117 net.cpp:131] Top shape: 96 48 6 6 (165888)
I0627 22:13:12.223019 19117 net.cpp:139] Memory required for data: 21234816
I0627 22:13:12.223023 19117 layer_factory.hpp:77] Creating layer ip1
I0627 22:13:12.223031 19117 net.cpp:86] Creating Layer ip1
I0627 22:13:12.223037 19117 net.cpp:408] ip1 <- conv3
I0627 22:13:12.223044 19117 net.cpp:382] ip1 -> ip1
I0627 22:13:12.225252 19117 net.cpp:124] Setting up ip1
I0627 22:13:12.225268 19117 net.cpp:131] Top shape: 96 128 (12288)
I0627 22:13:12.225272 19117 net.cpp:139] Memory required for data: 21283968
I0627 22:13:12.225291 19117 layer_factory.hpp:77] Creating layer ip2
I0627 22:13:12.225304 19117 net.cpp:86] Creating Layer ip2
I0627 22:13:12.225311 19117 net.cpp:408] ip2 <- ip1
I0627 22:13:12.225332 19117 net.cpp:382] ip2 -> ip2
I0627 22:13:12.225494 19117 net.cpp:124] Setting up ip2
I0627 22:13:12.225505 19117 net.cpp:131] Top shape: 96 2 (192)
I0627 22:13:12.225509 19117 net.cpp:139] Memory required for data: 21284736
I0627 22:13:12.225523 19117 layer_factory.hpp:77] Creating layer ip2_ip2_0_split
I0627 22:13:12.225535 19117 net.cpp:86] Creating Layer ip2_ip2_0_split
I0627 22:13:12.225539 19117 net.cpp:408] ip2_ip2_0_split <- ip2
I0627 22:13:12.225545 19117 net.cpp:382] ip2_ip2_0_split -> ip2_ip2_0_split_0
I0627 22:13:12.225553 19117 net.cpp:382] ip2_ip2_0_split -> ip2_ip2_0_split_1
I0627 22:13:12.225594 19117 net.cpp:124] Setting up ip2_ip2_0_split
I0627 22:13:12.225608 19117 net.cpp:131] Top shape: 96 2 (192)
I0627 22:13:12.225617 19117 net.cpp:131] Top shape: 96 2 (192)
I0627 22:13:12.225623 19117 net.cpp:139] Memory required for data: 21286272
I0627 22:13:12.225630 19117 layer_factory.hpp:77] Creating layer loss
I0627 22:13:12.225644 19117 net.cpp:86] Creating Layer loss
I0627 22:13:12.225654 19117 net.cpp:408] loss <- ip2_ip2_0_split_0
I0627 22:13:12.225662 19117 net.cpp:408] loss <- label_data_1_split_0
I0627 22:13:12.225673 19117 net.cpp:382] loss -> loss
…
I0627 22:13:12.226825 19117 net.cpp:296] The NetState phase (1) differed from the phase (0) specified by a rule in layer data
I0627 22:13:12.226971 19117 net.cpp:53] Initializing net from parameters: 
name: "simpleconv3"
state {
  phase: TEST
}
layer {
  name: "data"
  type: "ImageData"
  top: "data"
  top: "label"
  include {
    phase: TEST
  }
  transform_param {
    mirror: false
    crop_size: 48
    mean_value: 104.008
    mean_value: 116.669
    mean_value: 122.675
    min_side_min: 48
    min_side_max: 48
  }
  image_data_param {
    source: "val_shuffle.txt"
    batch_size: 16
    shuffle: false
  }
}
layer {
  name: "conv1"
  type: "Convolution"
  bottom: "data"
  top: "conv1"
  param {
    lr_mult: 1
    decay_mult: 1
  }
  param {
    lr_mult: 2
    decay_mult: 0
  }
  convolution_param {
    num_output: 12
    pad: 1
    kernel_size: 3
    stride: 2
    weight_filler {
      type: "xavier"
      std: 0.01
    }
    bias_filler {
      type: "constant"
      value: 0.2
    }
  }
}
layer {
  name: "conv1/bn"
  type: "BatchNorm"
  bottom: "conv1"
  top: "conv1"
  param {
    lr_mult: 0
    decay_mult: 0
  }
  param {
    lr_mult: 0
    decay_mult: 0
  }
  param {
    lr_mult: 0
    decay_mult: 0
  }
}
layer {
  name: "conv1/scale"
  type: "Scale"
  bottom: "conv1"
  top: "conv1"
  param {
    lr_mult: 1
    decay_mult: 0
  }
  param {
    lr_mult: 1
    decay_mult: 0
  }
  scale_param {
    filler {
      value: 1
    }
    bias_term: true
    bias_filler {
      value: 0
    }
  }
}
layer {
  name: "relu1"
  type: "ReLU"
  bottom: "conv1"
  top: "conv1"
}
layer {
  name: "conv2"
  type: "Convolution"
  bottom: "conv1"
  top: "conv2"
  param {
    lr_mult: 1
    decay_mult: 1
  }
  param {
    lr_mult: 2
    decay_mult: 0
  }
  convolution_param {
    num_output: 24
    pad: 1
    kernel_size: 3
    stride: 2
    weight_filler {
      type: "xavier"
      std: 0.1
    }
    bias_filler {
      type: "constant"
      value: 0.2
    }
  }
}
layer {
  name: "conv2/bn"
  type: "BatchNorm"
  bottom: "conv2"
  top: "conv2"
  param {
    lr_mult: 0
    decay_mult: 0
  }
  param {
    lr_mult: 0
    decay_mult: 0
  }
  param {
    lr_mult: 0
    decay_mult: 0
  }
}
layer {
  name: "conv2/scale"
  type: "Scale"
  bottom: "conv2"
  top: "conv2"
  param {
    lr_mult: 1
    decay_mult: 0
  }
  param {
    lr_mult: 1
    decay_mult: 0
  }
  scale_param {
    filler {
      value: 1
    }
    bias_term: true
    bias_filler {
      value: 0
    }
  }
}
layer {
  name: "relu2"
  type: "ReLU"
  bottom: "conv2"
  top: "conv2"
}
layer {
  name: "conv3"
  type: "Convolution"
  bottom: "conv2"
  top: "conv3"
  param {
    lr_mult: 1
    decay_mult: 1
  }
  param {
    lr_mult: 2
    decay_mult: 0
  }
  convolution_param {
    num_output: 48
    pad: 1
    kernel_size: 3
    stride: 2
    weight_filler {
      type: "xavier"
      std: 0.1
    }
    bias_filler {
      type: "constant"
      value: 0.2
    }
  }
}
layer {
  name: "conv3/bn"
  type: "BatchNorm"
  bottom: "conv3"
  top: "conv3"
  param {
    lr_mult: 0
    decay_mult: 0
  }
  param {
    lr_mult: 0
    decay_mult: 0
  }
  param {
    lr_mult: 0
    decay_mult: 0
  }
}
layer {
  name: "conv3/scale"
  type: "Scale"
  bottom: "conv3"
  top: "conv3"
  param {
    lr_mult: 1
    decay_mult: 0
  }
  param {
    lr_mult: 1
    decay_mult: 0
  }
  scale_param {
    filler {
      value: 1
    }
    bias_term: true
    bias_filler {
      value: 0
    }
  }
}
layer {
  name: "relu3"
  type: "ReLU"
  bottom: "conv3"
  top: "conv3"
}
layer {
  name: "ip1"
  type: "InnerProduct"
  bottom: "conv3"
  top: "ip1"
  param {
    lr_mult: 1
    decay_mult: 1
  }
  param {
    lr_mult: 2
    decay_mult: 0
  }
  inner_product_param {
    num_output: 128
    weight_filler {
      type: "xavier"
    }
    bias_filler {
      type: "constant"
      value: 0
    }
  }
}
layer {
  name: "ip2"
  type: "InnerProduct"
  bottom: "ip1"
  top: "ip2"
  param {
    lr_mult: 1
    decay_mult: 1
  }
  param {
    lr_mult: 2
    decay_mult: 1
  }
  inner_product_param {
    num_output: 2
    weight_filler {
      type: "xavier"
    }
    bias_filler {
      type: "constant"
      value: 0
    }
  }
}
layer {
  name: "loss"
  type: "SoftmaxWithLoss"
  bottom: "ip2"
  bottom: "label"
  top: "loss"
}
layer {
  name: "acc"
  type: "Accuracy"
  bottom: "ip2"
  bottom: "label"
  top: "acc"
}
I0627 22:13:12.227047 19117 layer_factory.hpp:77] Creating layer data
I0627 22:13:12.227067 19117 net.cpp:86] Creating Layer data
I0627 22:13:12.227077 19117 net.cpp:382] data -> data
I0627 22:13:12.227085 19117 net.cpp:382] data -> label
I0627 22:13:12.227094 19117 image_data_layer.cpp:38] Opening file val_shuffle.txt
I0627 22:13:12.227156 19117 image_data_layer.cpp:63] A total of 100 images.
I0627 22:13:12.227388 19117 image_data_layer.cpp:90] output data size: 16,3,48,48
I0627 22:13:12.229239 19117 net.cpp:124] Setting up data
I0627 22:13:12.229264 19117 net.cpp:131] Top shape: 16 3 48 48 (110592)
I0627 22:13:12.229270 19117 net.cpp:131] Top shape: 16 (16)
I0627 22:13:12.229274 19117 net.cpp:139] Memory required for data: 442432
I0627 22:13:12.229280 19117 layer_factory.hpp:77] Creating layer label_data_1_split
I0627 22:13:12.229291 19117 net.cpp:86] Creating Layer label_data_1_split
I0627 22:13:12.229296 19117 net.cpp:408] label_data_1_split <- label
I0627 22:13:12.229305 19117 net.cpp:382] label_data_1_split -> label_data_1_split_0
I0627 22:13:12.229315 19117 net.cpp:382] label_data_1_split -> label_data_1_split_1
I0627 22:13:12.229398 19117 net.cpp:124] Setting up label_data_1_split
I0627 22:13:12.229408 19117 net.cpp:131] Top shape: 16 (16)
I0627 22:13:12.229411 19117 net.cpp:131] Top shape: 16 (16)
I0627 22:13:12.229415 19117 net.cpp:139] Memory required for data: 442560
I0627 22:13:12.229419 19117 layer_factory.hpp:77] Creating layer conv1
I0627 22:13:12.229435 19117 net.cpp:86] Creating Layer conv1
I0627 22:13:12.229440 19117 net.cpp:408] conv1 <- data
I0627 22:13:12.229451 19117 net.cpp:382] conv1 -> conv1
I0627 22:13:12.231983 19117 net.cpp:124] Setting up conv1
I0627 22:13:12.231999 19117 net.cpp:131] Top shape: 16 12 24 24 (110592)
I0627 22:13:12.232003 19117 net.cpp:139] Memory required for data: 884928
I0627 22:13:12.232015 19117 layer_factory.hpp:77] Creating layer conv1/bn
I0627 22:13:12.232024 19117 net.cpp:86] Creating Layer conv1/bn
I0627 22:13:12.232029 19117 net.cpp:408] conv1/bn <- conv1
I0627 22:13:12.232038 19117 net.cpp:369] conv1/bn -> conv1 (in-place)
I0627 22:13:12.232252 19117 net.cpp:124] Setting up conv1/bn
I0627 22:13:12.232262 19117 net.cpp:131] Top shape: 16 12 24 24 (110592)
I0627 22:13:12.232266 19117 net.cpp:139] Memory required for data: 1327296
I0627 22:13:12.232276 19117 layer_factory.hpp:77] Creating layer conv1/scale
I0627 22:13:12.232286 19117 net.cpp:86] Creating Layer conv1/scale
I0627 22:13:12.232291 19117 net.cpp:408] conv1/scale <- conv1
I0627 22:13:12.232300 19117 net.cpp:369] conv1/scale -> conv1 (in-place)
I0627 22:13:12.232365 19117 layer_factory.hpp:77] Creating layer conv1/scale
I0627 22:13:12.232506 19117 net.cpp:124] Setting up conv1/scale
I0627 22:13:12.232515 19117 net.cpp:131] Top shape: 16 12 24 24 (110592)
I0627 22:13:12.232519 19117 net.cpp:139] Memory required for data: 1769664
I0627 22:13:12.232527 19117 layer_factory.hpp:77] Creating layer relu1
I0627 22:13:12.232549 19117 net.cpp:86] Creating Layer relu1
I0627 22:13:12.232558 19117 net.cpp:408] relu1 <- conv1
I0627 22:13:12.232573 19117 net.cpp:369] relu1 -> conv1 (in-place)
I0627 22:13:12.233099 19117 net.cpp:124] Setting up relu1
I0627 22:13:12.233111 19117 net.cpp:131] Top shape: 16 12 24 24 (110592)
I0627 22:13:12.233116 19117 net.cpp:139] Memory required for data: 2212032
I0627 22:13:12.233120 19117 layer_factory.hpp:77] Creating layer conv2
I0627 22:13:12.233130 19117 net.cpp:86] Creating Layer conv2
I0627 22:13:12.233135 19117 net.cpp:408] conv2 <- conv1
I0627 22:13:12.233142 19117 net.cpp:382] conv2 -> conv2
I0627 22:13:12.235214 19117 net.cpp:124] Setting up conv2
I0627 22:13:12.235227 19117 net.cpp:131] Top shape: 16 24 12 12 (55296)
I0627 22:13:12.235232 19117 net.cpp:139] Memory required for data: 2433216
I0627 22:13:12.235241 19117 layer_factory.hpp:77] Creating layer conv2/bn
I0627 22:13:12.235250 19117 net.cpp:86] Creating Layer conv2/bn
I0627 22:13:12.235255 19117 net.cpp:408] conv2/bn <- conv2
I0627 22:13:12.235265 19117 net.cpp:369] conv2/bn -> conv2 (in-place)
I0627 22:13:12.235568 19117 net.cpp:124] Setting up conv2/bn
I0627 22:13:12.235577 19117 net.cpp:131] Top shape: 16 24 12 12 (55296)
I0627 22:13:12.235582 19117 net.cpp:139] Memory required for data: 2654400
I0627 22:13:12.235591 19117 layer_factory.hpp:77] Creating layer conv2/scale
I0627 22:13:12.235601 19117 net.cpp:86] Creating Layer conv2/scale
I0627 22:13:12.235605 19117 net.cpp:408] conv2/scale <- conv2
I0627 22:13:12.235613 19117 net.cpp:369] conv2/scale -> conv2 (in-place)
I0627 22:13:12.235674 19117 layer_factory.hpp:77] Creating layer conv2/scale
I0627 22:13:12.235827 19117 net.cpp:124] Setting up conv2/scale
I0627 22:13:12.235837 19117 net.cpp:131] Top shape: 16 24 12 12 (55296)
I0627 22:13:12.235841 19117 net.cpp:139] Memory required for data: 2875584
I0627 22:13:12.235855 19117 layer_factory.hpp:77] Creating layer relu2
I0627 22:13:12.235862 19117 net.cpp:86] Creating Layer relu2
I0627 22:13:12.235867 19117 net.cpp:408] relu2 <- conv2
I0627 22:13:12.235872 19117 net.cpp:369] relu2 -> conv2 (in-place)
I0627 22:13:12.236678 19117 net.cpp:124] Setting up relu2
I0627 22:13:12.236691 19117 net.cpp:131] Top shape: 16 24 12 12 (55296)
I0627 22:13:12.236696 19117 net.cpp:139] Memory required for data: 3096768
I0627 22:13:12.236708 19117 layer_factory.hpp:77] Creating layer conv3
I0627 22:13:12.236719 19117 net.cpp:86] Creating Layer conv3
I0627 22:13:12.236724 19117 net.cpp:408] conv3 <- conv2
I0627 22:13:12.236740 19117 net.cpp:382] conv3 -> conv3
I0627 22:13:12.238883 19117 net.cpp:124] Setting up conv3
I0627 22:13:12.238898 19117 net.cpp:131] Top shape: 16 48 6 6 (27648)
I0627 22:13:12.238903 19117 net.cpp:139] Memory required for data: 3207360
I0627 22:13:12.238909 19117 layer_factory.hpp:77] Creating layer conv3/bn
I0627 22:13:12.238917 19117 net.cpp:86] Creating Layer conv3/bn
I0627 22:13:12.238922 19117 net.cpp:408] conv3/bn <- conv3
I0627 22:13:12.238929 19117 net.cpp:369] conv3/bn -> conv3 (in-place)
I0627 22:13:12.239131 19117 net.cpp:124] Setting up conv3/bn
I0627 22:13:12.239142 19117 net.cpp:131] Top shape: 16 48 6 6 (27648)
I0627 22:13:12.239146 19117 net.cpp:139] Memory required for data: 3317952
I0627 22:13:12.239157 19117 layer_factory.hpp:77] Creating layer conv3/scale
I0627 22:13:12.239166 19117 net.cpp:86] Creating Layer conv3/scale
I0627 22:13:12.239171 19117 net.cpp:408] conv3/scale <- conv3
I0627 22:13:12.239179 19117 net.cpp:369] conv3/scale -> conv3 (in-place)
I0627 22:13:12.239246 19117 layer_factory.hpp:77] Creating layer conv3/scale
I0627 22:13:12.239403 19117 net.cpp:124] Setting up conv3/scale
I0627 22:13:12.239413 19117 net.cpp:131] Top shape: 16 48 6 6 (27648)
I0627 22:13:12.239418 19117 net.cpp:139] Memory required for data: 3428544
I0627 22:13:12.239431 19117 layer_factory.hpp:77] Creating layer relu3
I0627 22:13:12.239439 19117 net.cpp:86] Creating Layer relu3
I0627 22:13:12.239444 19117 net.cpp:408] relu3 <- conv3
I0627 22:13:12.239449 19117 net.cpp:369] relu3 -> conv3 (in-place)
I0627 22:13:12.239936 19117 net.cpp:124] Setting up relu3
I0627 22:13:12.239956 19117 net.cpp:131] Top shape: 16 48 6 6 (27648)
I0627 22:13:12.239962 19117 net.cpp:139] Memory required for data: 3539136
I0627 22:13:12.239975 19117 layer_factory.hpp:77] Creating layer ip1
I0627 22:13:12.239984 19117 net.cpp:86] Creating Layer ip1
I0627 22:13:12.239989 19117 net.cpp:408] ip1 <- conv3
I0627 22:13:12.240000 19117 net.cpp:382] ip1 -> ip1
I0627 22:13:12.241516 19117 net.cpp:124] Setting up ip1
I0627 22:13:12.241530 19117 net.cpp:131] Top shape: 16 128 (2048)
I0627 22:13:12.241535 19117 net.cpp:139] Memory required for data: 3547328
I0627 22:13:12.241547 19117 layer_factory.hpp:77] Creating layer ip2
I0627 22:13:12.241560 19117 net.cpp:86] Creating Layer ip2
I0627 22:13:12.241569 19117 net.cpp:408] ip2 <- ip1
I0627 22:13:12.241585 19117 net.cpp:382] ip2 -> ip2
I0627 22:13:12.241695 19117 net.cpp:124] Setting up ip2
I0627 22:13:12.241704 19117 net.cpp:131] Top shape: 16 2 (32)
I0627 22:13:12.241709 19117 net.cpp:139] Memory required for data: 3547456
I0627 22:13:12.241715 19117 layer_factory.hpp:77] Creating layer ip2_ip2_0_split
I0627 22:13:12.241724 19117 net.cpp:86] Creating Layer ip2_ip2_0_split
I0627 22:13:12.241729 19117 net.cpp:408] ip2_ip2_0_split <- ip2
I0627 22:13:12.241734 19117 net.cpp:382] ip2_ip2_0_split -> ip2_ip2_0_split_0
I0627 22:13:12.241741 19117 net.cpp:382] ip2_ip2_0_split -> ip2_ip2_0_split_1
I0627 22:13:12.241778 19117 net.cpp:124] Setting up ip2_ip2_0_split
I0627 22:13:12.241786 19117 net.cpp:131] Top shape: 16 2 (32)
I0627 22:13:12.241791 19117 net.cpp:131] Top shape: 16 2 (32)
I0627 22:13:12.241796 19117 net.cpp:139] Memory required for data: 3547712
I0627 22:13:12.241799 19117 layer_factory.hpp:77] Creating layer loss
I0627 22:13:12.241806 19117 net.cpp:86] Creating Layer loss
I0627 22:13:12.241809 19117 net.cpp:408] loss <- ip2_ip2_0_split_0
I0627 22:13:12.241814 19117 net.cpp:408] loss <- label_data_1_split_0
I0627 22:13:12.241822 19117 net.cpp:382] loss -> loss
…
