…
I0124 17:12:19.098951 26037 net.cpp:294] The NetState phase (0) differed from the phase (1) specified by a rule in layer seg-loss-acc
I0124 17:12:19.099133 26037 net.cpp:51] Initializing net from parameters: 
name: "Allconv5_SEG"
state {
  phase: TRAIN
  level: 0
  stage: ""
}
layer {
  name: "data"
  type: "ImageSegData"
  top: "data"
  top: "seg-label"
  include {
    phase: TRAIN
  }
  transform_param {
    mirror: true
    crop_size: 224
    mean_value: 104
    mean_value: 117
    mean_value: 124
  }
  image_data_param {
    source: "all_train.txt"
    batch_size: 16
    shuffle: true
    new_height: 256
    new_width: 256
  }
}
layer {
  name: "conv1"
  type: "Convolution"
  bottom: "data"
  top: "conv1"
  param {
    lr_mult: 1
    decay_mult: 1
  }
  param {
    lr_mult: 2
    decay_mult: 0
  }
  convolution_param {
    num_output: 32
    pad: 1
    kernel_size: 3
    stride: 2
    weight_filler {
      type: "gaussian"
      std: 0.01
    }
    bias_filler {
      type: "constant"
      value: 0
    }
  }
}
layer {
  name: "relu1"
  type: "ReLU"
  bottom: "conv1"
  top: "conv1"
}
layer {
  name: "conv2"
  type: "Convolution"
  bottom: "conv1"
  top: "conv2"
  param {
    lr_mult: 1
    decay_mult: 1
  }
  param {
    lr_mult: 2
    decay_mult: 0
  }
  convolution_param {
    num_output: 64
    pad: 1
    kernel_size: 3
    stride: 2
    weight_filler {
      type: "gaussian"
      std: 0.01
    }
    bias_filler {
      type: "constant"
      value: 0
    }
  }
}
layer {
  name: "relu2"
  type: "ReLU"
  bottom: "conv2"
  top: "conv2"
}
layer {
  name: "conv3"
  type: "Convolution"
  bottom: "conv2"
  top: "conv3"
  param {
    lr_mult: 1
    decay_mult: 1
  }
  param {
    lr_mult: 2
    decay_mult: 0
  }
  convolution_param {
    num_output: 128
    pad: 1
    kernel_size: 3
    stride: 2
    weight_filler {
      type: "gaussian"
      std: 0.01
    }
    bias_filler {
      type: "constant"
      value: 0
    }
  }
}
layer {
  name: "relu3"
  type: "ReLU"
  bottom: "conv3"
  top: "conv3"
}
layer {
  name: "conv4"
  type: "Convolution"
  bottom: "conv3"
  top: "conv4"
  param {
    lr_mult: 1
    decay_mult: 1
  }
  param {
    lr_mult: 2
    decay_mult: 0
  }
  convolution_param {
    num_output: 256
    pad: 1
    kernel_size: 3
    stride: 2
    weight_filler {
      type: "gaussian"
      std: 0.01
    }
    bias_filler {
      type: "constant"
      value: 0
    }
  }
}
layer {
  name: "relu4"
  type: "ReLU"
  bottom: "conv4"
  top: "conv4"
}
layer {
  name: "conv5"
  type: "Convolution"
  bottom: "conv4"
  top: "conv5"
  param {
    lr_mult: 1
    decay_mult: 1
  }
  param {
    lr_mult: 2
    decay_mult: 0
  }
  convolution_param {
    num_output: 512
    pad: 1
    kernel_size: 3
    stride: 2
    weight_filler {
      type: "gaussian"
      std: 0.01
    }
    bias_filler {
      type: "constant"
      value: 0
    }
  }
}
layer {
  name: "relu5"
  type: "ReLU"
  bottom: "conv5"
  top: "conv5"
}
layer {
  name: "deconv5_1"
  type: "Deconvolution"
  bottom: "conv5"
  top: "deconv5_1"
  param {
    lr_mult: 1
    decay_mult: 1
  }
  convolution_param {
    num_output: 64
    bias_term: false
    pad: 1
    kernel_size: 4
    stride: 2
    weight_filler {
      type: "msra"
    }
  }
}
layer {
  name: "deconv5_2"
  type: "Deconvolution"
  bottom: "deconv5_1"
  top: "deconv5_2"
  param {
    lr_mult: 1
    decay_mult: 1
  }
  convolution_param {
    num_output: 32
    bias_term: false
    pad: 1
    kernel_size: 4
    stride: 2
    weight_filler {
      type: "msra"
    }
  }
}
layer {
  name: "deconv5_3"
  type: "Deconvolution"
  bottom: "deconv5_2"
  top: "deconv5_3"
  param {
    lr_mult: 1
    decay_mult: 1
  }
  convolution_param {
    num_output: 16
    bias_term: false
    pad: 1
    kernel_size: 4
    stride: 2
    weight_filler {
      type: "msra"
    }
  }
}
layer {
  name: "deconv5_4"
  type: "Deconvolution"
  bottom: "deconv5_3"
  top: "deconv5_4"
  param {
    lr_mult: 1
    decay_mult: 1
  }
  convolution_param {
    num_output: 8
    bias_term: false
    pad: 1
    kernel_size: 4
    stride: 2
    weight_filler {
      type: "msra"
    }
  }
}
layer {
  name: "deconv5_5"
  type: "Deconvolution"
  bottom: "deconv5_4"
  top: "deconv5_5"
  param {
    lr_mult: 1
    decay_mult: 1
  }
  convolution_param {
    num_output: 2
    bias_term: false
    pad: 1
    kernel_size: 4
    stride: 2
    weight_filler {
      type: "msra"
    }
  }
}
layer {
  name: "upscore"
  type: "Crop"
  bottom: "deconv5_5"
  bottom: "data"
  top: "upscore"
  crop_param {
    axis: 2
    offset: 0
    offset: 0
  }
}
layer {
  name: "loss"
  type: "SoftmaxWithLoss"
  bottom: "upscore"
  bottom: "seg-label"
  top: "loss"
  include {
    phase: TEST
  }
  include {
    phase: TRAIN
  }
  loss_param {
    ignore_label: 255
  }
}
layer {
  name: "seg-loss-acc"
  type: "Accuracy"
  bottom: "upscore"
  bottom: "seg-label"
  top: "seg-loss-acc"
  include {
    phase: TEST
  }
  include {
    phase: TRAIN
  }
  accuracy_param {
    ignore_label: 255
  }
}
I0124 17:12:19.099359 26037 layer_factory.hpp:77] Creating layer data
I0124 17:12:19.099401 26037 net.cpp:84] Creating Layer data
I0124 17:12:19.099416 26037 net.cpp:380] data -> data
I0124 17:12:19.099447 26037 net.cpp:380] data -> seg-label
I0124 17:12:19.099953 26037 image_seg_data_layer.cpp:38] Opening file all_train.txt
I0124 17:12:19.104312 26037 image_seg_data_layer.cpp:51] Shuffling data
I0124 17:12:19.104607 26037 image_seg_data_layer.cpp:56] A total of 1532 images.
I0124 17:12:19.758728 26037 image_seg_data_layer.cpp:92] output data size: 16,3,224,224
I0124 17:12:19.758841 26037 image_seg_data_layer.cpp:105] output label size: 16,1,224,224
I0124 17:12:19.827520 26037 net.cpp:122] Setting up data
I0124 17:12:19.827564 26037 net.cpp:129] Top shape: 16 3 224 224 (2408448)
I0124 17:12:19.827569 26037 net.cpp:129] Top shape: 16 1 224 224 (802816)
I0124 17:12:19.827572 26037 net.cpp:137] Memory required for data: 12845056
I0124 17:12:19.827580 26037 layer_factory.hpp:77] Creating layer data_data_0_split
I0124 17:12:19.827597 26037 net.cpp:84] Creating Layer data_data_0_split
I0124 17:12:19.827603 26037 net.cpp:406] data_data_0_split <- data
I0124 17:12:19.827621 26037 net.cpp:380] data_data_0_split -> data_data_0_split_0
I0124 17:12:19.827632 26037 net.cpp:380] data_data_0_split -> data_data_0_split_1
I0124 17:12:19.827692 26037 net.cpp:122] Setting up data_data_0_split
I0124 17:12:19.827705 26037 net.cpp:129] Top shape: 16 3 224 224 (2408448)
I0124 17:12:19.827709 26037 net.cpp:129] Top shape: 16 3 224 224 (2408448)
I0124 17:12:19.827713 26037 net.cpp:137] Memory required for data: 32112640
I0124 17:12:19.827716 26037 layer_factory.hpp:77] Creating layer seg-label_data_1_split
I0124 17:12:19.827723 26037 net.cpp:84] Creating Layer seg-label_data_1_split
I0124 17:12:19.827726 26037 net.cpp:406] seg-label_data_1_split <- seg-label
I0124 17:12:19.827733 26037 net.cpp:380] seg-label_data_1_split -> seg-label_data_1_split_0
I0124 17:12:19.827740 26037 net.cpp:380] seg-label_data_1_split -> seg-label_data_1_split_1
I0124 17:12:19.827774 26037 net.cpp:122] Setting up seg-label_data_1_split
I0124 17:12:19.827785 26037 net.cpp:129] Top shape: 16 1 224 224 (802816)
I0124 17:12:19.827827 26037 net.cpp:129] Top shape: 16 1 224 224 (802816)
I0124 17:12:19.827831 26037 net.cpp:137] Memory required for data: 38535168
I0124 17:12:19.827836 26037 layer_factory.hpp:77] Creating layer conv1
I0124 17:12:19.827883 26037 net.cpp:84] Creating Layer conv1
I0124 17:12:19.827888 26037 net.cpp:406] conv1 <- data_data_0_split_0
I0124 17:12:19.827896 26037 net.cpp:380] conv1 -> conv1
I0124 17:12:19.837929 26037 net.cpp:122] Setting up conv1
I0124 17:12:19.837954 26037 net.cpp:129] Top shape: 16 32 112 112 (6422528)
I0124 17:12:19.837958 26037 net.cpp:137] Memory required for data: 64225280
I0124 17:12:19.837976 26037 layer_factory.hpp:77] Creating layer relu1
I0124 17:12:19.837994 26037 net.cpp:84] Creating Layer relu1
I0124 17:12:19.838032 26037 net.cpp:406] relu1 <- conv1
I0124 17:12:19.838038 26037 net.cpp:367] relu1 -> conv1 (in-place)
I0124 17:12:19.838045 26037 net.cpp:122] Setting up relu1
I0124 17:12:19.838050 26037 net.cpp:129] Top shape: 16 32 112 112 (6422528)
I0124 17:12:19.838059 26037 net.cpp:137] Memory required for data: 89915392
I0124 17:12:19.838063 26037 layer_factory.hpp:77] Creating layer conv2
I0124 17:12:19.838074 26037 net.cpp:84] Creating Layer conv2
I0124 17:12:19.838078 26037 net.cpp:406] conv2 <- conv1
I0124 17:12:19.838083 26037 net.cpp:380] conv2 -> conv2
I0124 17:12:19.844583 26037 net.cpp:122] Setting up conv2
I0124 17:12:19.844606 26037 net.cpp:129] Top shape: 16 64 56 56 (3211264)
I0124 17:12:19.844610 26037 net.cpp:137] Memory required for data: 102760448
I0124 17:12:19.844620 26037 layer_factory.hpp:77] Creating layer relu2
I0124 17:12:19.844627 26037 net.cpp:84] Creating Layer relu2
I0124 17:12:19.844631 26037 net.cpp:406] relu2 <- conv2
I0124 17:12:19.844637 26037 net.cpp:367] relu2 -> conv2 (in-place)
I0124 17:12:19.844652 26037 net.cpp:122] Setting up relu2
I0124 17:12:19.844656 26037 net.cpp:129] Top shape: 16 64 56 56 (3211264)
I0124 17:12:19.844660 26037 net.cpp:137] Memory required for data: 115605504
I0124 17:12:19.844662 26037 layer_factory.hpp:77] Creating layer conv3
I0124 17:12:19.844671 26037 net.cpp:84] Creating Layer conv3
I0124 17:12:19.844674 26037 net.cpp:406] conv3 <- conv2
I0124 17:12:19.844681 26037 net.cpp:380] conv3 -> conv3
I0124 17:12:19.848789 26037 net.cpp:122] Setting up conv3
I0124 17:12:19.848811 26037 net.cpp:129] Top shape: 16 128 28 28 (1605632)
I0124 17:12:19.848815 26037 net.cpp:137] Memory required for data: 122028032
I0124 17:12:19.848825 26037 layer_factory.hpp:77] Creating layer relu3
I0124 17:12:19.848834 26037 net.cpp:84] Creating Layer relu3
I0124 17:12:19.848851 26037 net.cpp:406] relu3 <- conv3
I0124 17:12:19.848857 26037 net.cpp:367] relu3 -> conv3 (in-place)
I0124 17:12:19.848863 26037 net.cpp:122] Setting up relu3
I0124 17:12:19.848868 26037 net.cpp:129] Top shape: 16 128 28 28 (1605632)
I0124 17:12:19.848877 26037 net.cpp:137] Memory required for data: 128450560
I0124 17:12:19.848881 26037 layer_factory.hpp:77] Creating layer conv4
I0124 17:12:19.848891 26037 net.cpp:84] Creating Layer conv4
I0124 17:12:19.848902 26037 net.cpp:406] conv4 <- conv3
I0124 17:12:19.848909 26037 net.cpp:380] conv4 -> conv4
I0124 17:12:19.851783 26037 net.cpp:122] Setting up conv4
I0124 17:12:19.851799 26037 net.cpp:129] Top shape: 16 256 14 14 (802816)
I0124 17:12:19.851802 26037 net.cpp:137] Memory required for data: 131661824
I0124 17:12:19.851809 26037 layer_factory.hpp:77] Creating layer relu4
I0124 17:12:19.851814 26037 net.cpp:84] Creating Layer relu4
I0124 17:12:19.851817 26037 net.cpp:406] relu4 <- conv4
I0124 17:12:19.851824 26037 net.cpp:367] relu4 -> conv4 (in-place)
I0124 17:12:19.851830 26037 net.cpp:122] Setting up relu4
I0124 17:12:19.851833 26037 net.cpp:129] Top shape: 16 256 14 14 (802816)
I0124 17:12:19.851836 26037 net.cpp:137] Memory required for data: 134873088
I0124 17:12:19.851856 26037 layer_factory.hpp:77] Creating layer conv5
I0124 17:12:19.851869 26037 net.cpp:84] Creating Layer conv5
I0124 17:12:19.851876 26037 net.cpp:406] conv5 <- conv4
I0124 17:12:19.851886 26037 net.cpp:380] conv5 -> conv5
I0124 17:12:19.866202 26037 net.cpp:122] Setting up conv5
I0124 17:12:19.866228 26037 net.cpp:129] Top shape: 16 512 7 7 (401408)
I0124 17:12:19.866232 26037 net.cpp:137] Memory required for data: 136478720
I0124 17:12:19.866245 26037 layer_factory.hpp:77] Creating layer relu5
I0124 17:12:19.866251 26037 net.cpp:84] Creating Layer relu5
I0124 17:12:19.866255 26037 net.cpp:406] relu5 <- conv5
I0124 17:12:19.866261 26037 net.cpp:367] relu5 -> conv5 (in-place)
I0124 17:12:19.866268 26037 net.cpp:122] Setting up relu5
I0124 17:12:19.866273 26037 net.cpp:129] Top shape: 16 512 7 7 (401408)
I0124 17:12:19.866276 26037 net.cpp:137] Memory required for data: 138084352
I0124 17:12:19.866278 26037 layer_factory.hpp:77] Creating layer deconv5_1
I0124 17:12:19.866289 26037 net.cpp:84] Creating Layer deconv5_1
I0124 17:12:19.866292 26037 net.cpp:406] deconv5_1 <- conv5
I0124 17:12:19.866298 26037 net.cpp:380] deconv5_1 -> deconv5_1
I0124 17:12:19.873436 26037 net.cpp:122] Setting up deconv5_1
I0124 17:12:19.873461 26037 net.cpp:129] Top shape: 16 64 14 14 (200704)
I0124 17:12:19.873463 26037 net.cpp:137] Memory required for data: 138887168
I0124 17:12:19.873471 26037 layer_factory.hpp:77] Creating layer deconv5_2
I0124 17:12:19.873482 26037 net.cpp:84] Creating Layer deconv5_2
I0124 17:12:19.873487 26037 net.cpp:406] deconv5_2 <- deconv5_1
I0124 17:12:19.873493 26037 net.cpp:380] deconv5_2 -> deconv5_2
I0124 17:12:19.873966 26037 net.cpp:122] Setting up deconv5_2
I0124 17:12:19.873981 26037 net.cpp:129] Top shape: 16 32 28 28 (401408)
I0124 17:12:19.873984 26037 net.cpp:137] Memory required for data: 140492800
I0124 17:12:19.873988 26037 layer_factory.hpp:77] Creating layer deconv5_3
I0124 17:12:19.873997 26037 net.cpp:84] Creating Layer deconv5_3
I0124 17:12:19.874001 26037 net.cpp:406] deconv5_3 <- deconv5_2
I0124 17:12:19.874006 26037 net.cpp:380] deconv5_3 -> deconv5_3
I0124 17:12:19.874251 26037 net.cpp:122] Setting up deconv5_3
I0124 17:12:19.874265 26037 net.cpp:129] Top shape: 16 16 56 56 (802816)
I0124 17:12:19.874269 26037 net.cpp:137] Memory required for data: 143704064
I0124 17:12:19.874274 26037 layer_factory.hpp:77] Creating layer deconv5_4
I0124 17:12:19.874284 26037 net.cpp:84] Creating Layer deconv5_4
I0124 17:12:19.874289 26037 net.cpp:406] deconv5_4 <- deconv5_3
I0124 17:12:19.874294 26037 net.cpp:380] deconv5_4 -> deconv5_4
I0124 17:12:19.874466 26037 net.cpp:122] Setting up deconv5_4
I0124 17:12:19.874480 26037 net.cpp:129] Top shape: 16 8 112 112 (1605632)
I0124 17:12:19.874482 26037 net.cpp:137] Memory required for data: 150126592
I0124 17:12:19.874486 26037 layer_factory.hpp:77] Creating layer deconv5_5
I0124 17:12:19.874495 26037 net.cpp:84] Creating Layer deconv5_5
I0124 17:12:19.874497 26037 net.cpp:406] deconv5_5 <- deconv5_4
I0124 17:12:19.874503 26037 net.cpp:380] deconv5_5 -> deconv5_5
I0124 17:12:19.874651 26037 net.cpp:122] Setting up deconv5_5
I0124 17:12:19.874663 26037 net.cpp:129] Top shape: 16 2 224 224 (1605632)
I0124 17:12:19.874666 26037 net.cpp:137] Memory required for data: 156549120
I0124 17:12:19.874670 26037 layer_factory.hpp:77] Creating layer upscore
I0124 17:12:19.874677 26037 net.cpp:84] Creating Layer upscore
I0124 17:12:19.874681 26037 net.cpp:406] upscore <- deconv5_5
I0124 17:12:19.874686 26037 net.cpp:406] upscore <- data_data_0_split_1
I0124 17:12:19.874691 26037 net.cpp:380] upscore -> upscore
I0124 17:12:19.874786 26037 net.cpp:122] Setting up upscore
I0124 17:12:19.874799 26037 net.cpp:129] Top shape: 16 2 224 224 (1605632)
I0124 17:12:19.874802 26037 net.cpp:137] Memory required for data: 162971648
I0124 17:12:19.874805 26037 layer_factory.hpp:77] Creating layer upscore_upscore_0_split
I0124 17:12:19.874814 26037 net.cpp:84] Creating Layer upscore_upscore_0_split
I0124 17:12:19.874817 26037 net.cpp:406] upscore_upscore_0_split <- upscore
I0124 17:12:19.874824 26037 net.cpp:380] upscore_upscore_0_split -> upscore_upscore_0_split_0
I0124 17:12:19.874841 26037 net.cpp:380] upscore_upscore_0_split -> upscore_upscore_0_split_1
I0124 17:12:19.874873 26037 net.cpp:122] Setting up upscore_upscore_0_split
I0124 17:12:19.874913 26037 net.cpp:129] Top shape: 16 2 224 224 (1605632)
I0124 17:12:19.874918 26037 net.cpp:129] Top shape: 16 2 224 224 (1605632)
I0124 17:12:19.874920 26037 net.cpp:137] Memory required for data: 175816704
I0124 17:12:19.874924 26037 layer_factory.hpp:77] Creating layer loss
I0124 17:12:19.874933 26037 net.cpp:84] Creating Layer loss
I0124 17:12:19.874938 26037 net.cpp:406] loss <- upscore_upscore_0_split_0
I0124 17:12:19.874943 26037 net.cpp:406] loss <- seg-label_data_1_split_0
I0124 17:12:19.874953 26037 net.cpp:380] loss -> loss
…
