…
I0715 02:27:22.447162 24530 net.cpp:296] The NetState phase (0) differed from the phase (1) specified by a rule in layer seg-loss-acc
I0715 02:27:22.447379 24530 net.cpp:53] Initializing net from parameters: 
name: "Allconv5_SEG"
state {
  phase: TRAIN
  level: 0
  stage: ""
}
layer {
  name: "data"
  type: "ImageSegData"
  top: "data"
  top: "seg-label"
  include {
    phase: TRAIN
  }
  transform_param {
    mirror: true
    crop_size: 224
    mean_value: 104
    mean_value: 117
    mean_value: 124
  }
  image_data_param {
    source: "all_shuffle_train.txt"
    batch_size: 16
    shuffle: true
    new_height: 256
    new_width: 256
  }
}
layer {
  name: "conv1"
  type: "Convolution"
  bottom: "data"
  top: "conv1"
  param {
    lr_mult: 1
    decay_mult: 1
  }
  param {
    lr_mult: 2
    decay_mult: 0
  }
  convolution_param {
    num_output: 32
    pad: 1
    kernel_size: 3
    stride: 2
    weight_filler {
      type: "gaussian"
      std: 0.01
    }
    bias_filler {
      type: "constant"
      value: 0
    }
  }
}
layer {
  name: "relu1"
  type: "ReLU"
  bottom: "conv1"
  top: "conv1"
}
layer {
  name: "conv2"
  type: "Convolution"
  bottom: "conv1"
  top: "conv2"
  param {
    lr_mult: 1
    decay_mult: 1
  }
  param {
    lr_mult: 2
    decay_mult: 0
  }
  convolution_param {
    num_output: 64
    pad: 1
    kernel_size: 3
    stride: 2
    weight_filler {
      type: "gaussian"
      std: 0.01
    }
    bias_filler {
      type: "constant"
      value: 0
    }
  }
}
layer {
  name: "relu2"
  type: "ReLU"
  bottom: "conv2"
  top: "conv2"
}
layer {
  name: "conv3"
  type: "Convolution"
  bottom: "conv2"
  top: "conv3"
  param {
    lr_mult: 1
    decay_mult: 1
  }
  param {
    lr_mult: 2
    decay_mult: 0
  }
  convolution_param {
    num_output: 128
    pad: 1
    kernel_size: 3
    stride: 2
    weight_filler {
      type: "gaussian"
      std: 0.01
    }
    bias_filler {
      type: "constant"
      value: 0
    }
  }
}
layer {
  name: "relu3"
  type: "ReLU"
  bottom: "conv3"
  top: "conv3"
}
layer {
  name: "conv4"
  type: "Convolution"
  bottom: "conv3"
  top: "conv4"
  param {
    lr_mult: 1
    decay_mult: 1
  }
  param {
    lr_mult: 2
    decay_mult: 0
  }
  convolution_param {
    num_output: 256
    pad: 1
    kernel_size: 3
    stride: 2
    weight_filler {
      type: "gaussian"
      std: 0.01
    }
    bias_filler {
      type: "constant"
      value: 0
    }
  }
}
layer {
  name: "relu4"
  type: "ReLU"
  bottom: "conv4"
  top: "conv4"
}
layer {
  name: "conv5"
  type: "Convolution"
  bottom: "conv4"
  top: "conv5"
  param {
    lr_mult: 1
    decay_mult: 1
  }
  param {
    lr_mult: 2
    decay_mult: 0
  }
  convolution_param {
    num_output: 512
    pad: 1
    kernel_size: 3
    stride: 2
    weight_filler {
      type: "gaussian"
      std: 0.01
    }
    bias_filler {
      type: "constant"
      value: 0
    }
  }
}
layer {
  name: "relu5"
  type: "ReLU"
  bottom: "conv5"
  top: "conv5"
}
layer {
  name: "deconv5_1"
  type: "Deconvolution"
  bottom: "conv5"
  top: "deconv5_1"
  param {
    lr_mult: 1
    decay_mult: 1
  }
  convolution_param {
    num_output: 64
    bias_term: false
    pad: 1
    kernel_size: 4
    stride: 2
    weight_filler {
      type: "msra"
    }
  }
}
layer {
  name: "conv4_deconv"
  type: "Convolution"
  bottom: "conv4"
  top: "conv4_deconv"
  param {
    lr_mult: 1
    decay_mult: 1
  }
  param {
    lr_mult: 2
    decay_mult: 0
  }
  convolution_param {
    num_output: 64
    pad: 1
    kernel_size: 3
    stride: 1
    weight_filler {
      type: "gaussian"
      std: 0.01
    }
    bias_filler {
      type: "constant"
      value: 0
    }
  }
}
layer {
  name: "relu4_deconv"
  type: "ReLU"
  bottom: "conv4_deconv"
  top: "conv4_deconv"
}
layer {
  name: "concat1"
  type: "Concat"
  bottom: "conv4_deconv"
  bottom: "deconv5_1"
  top: "concat1"
}
layer {
  name: "deconv5_2"
  type: "Deconvolution"
  bottom: "concat1"
  top: "deconv5_2"
  param {
    lr_mult: 1
    decay_mult: 1
  }
  convolution_param {
    num_output: 32
    bias_term: false
    pad: 1
    kernel_size: 4
    stride: 2
    weight_filler {
      type: "msra"
    }
  }
}
layer {
  name: "conv3_deconv"
  type: "Convolution"
  bottom: "conv3"
  top: "conv3_deconv"
  param {
    lr_mult: 1
    decay_mult: 1
  }
  param {
    lr_mult: 2
    decay_mult: 0
  }
  convolution_param {
    num_output: 32
    pad: 1
    kernel_size: 3
    stride: 1
    weight_filler {
      type: "gaussian"
      std: 0.01
    }
    bias_filler {
      type: "constant"
      value: 0
    }
  }
}
layer {
  name: "relu3_deconv"
  type: "ReLU"
  bottom: "conv3_deconv"
  top: "conv3_deconv"
}
layer {
  name: "concat2"
  type: "Concat"
  bottom: "conv3_deconv"
  bottom: "deconv5_2"
  top: "concat2"
}
layer {
  name: "deconv5_3"
  type: "Deconvolution"
  bottom: "concat2"
  top: "deconv5_3"
  param {
    lr_mult: 1
    decay_mult: 1
  }
  convolution_param {
    num_output: 16
    bias_term: false
    pad: 1
    kernel_size: 4
    stride: 2
    weight_filler {
      type: "msra"
    }
  }
}
layer {
  name: "conv2_deconv"
  type: "Convolution"
  bottom: "conv2"
  top: "conv2_deconv"
  param {
    lr_mult: 1
    decay_mult: 1
  }
  param {
    lr_mult: 2
    decay_mult: 0
  }
  convolution_param {
    num_output: 16
    pad: 1
    kernel_size: 3
    stride: 1
    weight_filler {
      type: "gaussian"
      std: 0.01
    }
    bias_filler {
      type: "constant"
      value: 0
    }
  }
}
layer {
  name: "relu2_deconv"
  type: "ReLU"
  bottom: "conv2_deconv"
  top: "conv2_deconv"
}
layer {
  name: "concat3"
  type: "Concat"
  bottom: "conv2_deconv"
  bottom: "deconv5_3"
  top: "concat3"
}
layer {
  name: "deconv5_4"
  type: "Deconvolution"
  bottom: "concat3"
  top: "deconv5_4"
  param {
    lr_mult: 1
    decay_mult: 1
  }
  convolution_param {
    num_output: 8
    bias_term: false
    pad: 1
    kernel_size: 4
    stride: 2
    weight_filler {
      type: "msra"
    }
  }
}
layer {
  name: "conv1_deconv"
  type: "Convolution"
  bottom: "conv1"
  top: "conv1_deconv"
  param {
    lr_mult: 1
    decay_mult: 1
  }
  param {
    lr_mult: 2
    decay_mult: 0
  }
  convolution_param {
    num_output: 8
    pad: 1
    kernel_size: 3
    stride: 1
    weight_filler {
      type: "gaussian"
      std: 0.01
    }
    bias_filler {
      type: "constant"
      value: 0
    }
  }
}
layer {
  name: "relu1_deconv"
  type: "ReLU"
  bottom: "conv1_deconv"
  top: "conv1_deconv"
}
layer {
  name: "concat4"
  type: "Concat"
  bottom: "conv1_deconv"
  bottom: "deconv5_4"
  top: "concat4"
}
layer {
  name: "deconv5_5"
  type: "Deconvolution"
  bottom: "concat4"
  top: "deconv5_5"
  param {
    lr_mult: 1
    decay_mult: 1
  }
  convolution_param {
    num_output: 2
    bias_term: false
    pad: 1
    kernel_size: 4
    stride: 2
    weight_filler {
      type: "msra"
    }
  }
}
layer {
  name: "upscore"
  type: "Crop"
  bottom: "deconv5_5"
  bottom: "data"
  top: "upscore"
  crop_param {
    axis: 2
    offset: 0
    offset: 0
  }
}
layer {
  name: "loss"
  type: "SoftmaxWithLoss"
  bottom: "upscore"
  bottom: "seg-label"
  top: "loss"
  include {
    phase: TEST
  }
  include {
    phase: TRAIN
  }
  loss_param {
    ignore_label: 255
  }
}
layer {
  name: "seg-loss-acc"
  type: "Accuracy"
  bottom: "upscore"
  bottom: "seg-label"
  top: "seg-loss-acc"
  include {
    phase: TEST
  }
  include {
    phase: TRAIN
  }
  accuracy_param {
    ignore_label: 255
  }
}
I0715 02:27:22.447576 24530 layer_factory.hpp:77] Creating layer data
I0715 02:27:22.447604 24530 net.cpp:86] Creating Layer data
I0715 02:27:22.447613 24530 net.cpp:382] data -> data
I0715 02:27:22.447633 24530 net.cpp:382] data -> seg-label
I0715 02:27:22.447700 24530 image_seg_data_layer.cpp:38] Opening file all_shuffle_train.txt
I0715 02:27:22.449873 24530 image_seg_data_layer.cpp:51] Shuffling data
I0715 02:27:22.450139 24530 image_seg_data_layer.cpp:56] A total of 1532 images.
I0715 02:27:22.455035 24530 image_seg_data_layer.cpp:92] output data size: 16,3,224,224
I0715 02:27:22.455097 24530 image_seg_data_layer.cpp:105] output label size: 16,1,224,224
I0715 02:27:22.486619 24530 net.cpp:124] Setting up data
I0715 02:27:22.486654 24530 net.cpp:131] Top shape: 16 3 224 224 (2408448)
I0715 02:27:22.486662 24530 net.cpp:131] Top shape: 16 1 224 224 (802816)
I0715 02:27:22.486666 24530 net.cpp:139] Memory required for data: 12845056
I0715 02:27:22.486675 24530 layer_factory.hpp:77] Creating layer data_data_0_split
I0715 02:27:22.486688 24530 net.cpp:86] Creating Layer data_data_0_split
I0715 02:27:22.486703 24530 net.cpp:408] data_data_0_split <- data
I0715 02:27:22.486717 24530 net.cpp:382] data_data_0_split -> data_data_0_split_0
I0715 02:27:22.486739 24530 net.cpp:382] data_data_0_split -> data_data_0_split_1
I0715 02:27:22.486816 24530 net.cpp:124] Setting up data_data_0_split
I0715 02:27:22.486825 24530 net.cpp:131] Top shape: 16 3 224 224 (2408448)
I0715 02:27:22.486830 24530 net.cpp:131] Top shape: 16 3 224 224 (2408448)
I0715 02:27:22.486835 24530 net.cpp:139] Memory required for data: 32112640
I0715 02:27:22.486838 24530 layer_factory.hpp:77] Creating layer seg-label_data_1_split
I0715 02:27:22.486853 24530 net.cpp:86] Creating Layer seg-label_data_1_split
I0715 02:27:22.486858 24530 net.cpp:408] seg-label_data_1_split <- seg-label
I0715 02:27:22.486865 24530 net.cpp:382] seg-label_data_1_split -> seg-label_data_1_split_0
I0715 02:27:22.486872 24530 net.cpp:382] seg-label_data_1_split -> seg-label_data_1_split_1
I0715 02:27:22.486917 24530 net.cpp:124] Setting up seg-label_data_1_split
I0715 02:27:22.486933 24530 net.cpp:131] Top shape: 16 1 224 224 (802816)
I0715 02:27:22.486938 24530 net.cpp:131] Top shape: 16 1 224 224 (802816)
I0715 02:27:22.486943 24530 net.cpp:139] Memory required for data: 38535168
I0715 02:27:22.486946 24530 layer_factory.hpp:77] Creating layer conv1
I0715 02:27:22.486973 24530 net.cpp:86] Creating Layer conv1
I0715 02:27:22.486979 24530 net.cpp:408] conv1 <- data_data_0_split_0
I0715 02:27:22.486985 24530 net.cpp:382] conv1 -> conv1
I0715 02:27:23.086119 24530 net.cpp:124] Setting up conv1
I0715 02:27:23.086159 24530 net.cpp:131] Top shape: 16 32 112 112 (6422528)
I0715 02:27:23.086165 24530 net.cpp:139] Memory required for data: 64225280
I0715 02:27:23.086187 24530 layer_factory.hpp:77] Creating layer relu1
I0715 02:27:23.086211 24530 net.cpp:86] Creating Layer relu1
I0715 02:27:23.086218 24530 net.cpp:408] relu1 <- conv1
I0715 02:27:23.086226 24530 net.cpp:369] relu1 -> conv1 (in-place)
I0715 02:27:23.086728 24530 net.cpp:124] Setting up relu1
I0715 02:27:23.086741 24530 net.cpp:131] Top shape: 16 32 112 112 (6422528)
I0715 02:27:23.086745 24530 net.cpp:139] Memory required for data: 89915392
I0715 02:27:23.086757 24530 layer_factory.hpp:77] Creating layer conv1_relu1_0_split
I0715 02:27:23.086764 24530 net.cpp:86] Creating Layer conv1_relu1_0_split
I0715 02:27:23.086768 24530 net.cpp:408] conv1_relu1_0_split <- conv1
I0715 02:27:23.086774 24530 net.cpp:382] conv1_relu1_0_split -> conv1_relu1_0_split_0
I0715 02:27:23.086792 24530 net.cpp:382] conv1_relu1_0_split -> conv1_relu1_0_split_1
I0715 02:27:23.086861 24530 net.cpp:124] Setting up conv1_relu1_0_split
I0715 02:27:23.086870 24530 net.cpp:131] Top shape: 16 32 112 112 (6422528)
I0715 02:27:23.086876 24530 net.cpp:131] Top shape: 16 32 112 112 (6422528)
I0715 02:27:23.086889 24530 net.cpp:139] Memory required for data: 141295616
I0715 02:27:23.086892 24530 layer_factory.hpp:77] Creating layer conv2
I0715 02:27:23.086936 24530 net.cpp:86] Creating Layer conv2
I0715 02:27:23.086943 24530 net.cpp:408] conv2 <- conv1_relu1_0_split_0
I0715 02:27:23.086951 24530 net.cpp:382] conv2 -> conv2
I0715 02:27:23.091169 24530 net.cpp:124] Setting up conv2
I0715 02:27:23.091190 24530 net.cpp:131] Top shape: 16 64 56 56 (3211264)
I0715 02:27:23.091202 24530 net.cpp:139] Memory required for data: 154140672
I0715 02:27:23.091217 24530 layer_factory.hpp:77] Creating layer relu2
I0715 02:27:23.091225 24530 net.cpp:86] Creating Layer relu2
I0715 02:27:23.091230 24530 net.cpp:408] relu2 <- conv2
I0715 02:27:23.091248 24530 net.cpp:369] relu2 -> conv2 (in-place)
I0715 02:27:23.091748 24530 net.cpp:124] Setting up relu2
I0715 02:27:23.091759 24530 net.cpp:131] Top shape: 16 64 56 56 (3211264)
I0715 02:27:23.091763 24530 net.cpp:139] Memory required for data: 166985728
I0715 02:27:23.091775 24530 layer_factory.hpp:77] Creating layer conv2_relu2_0_split
I0715 02:27:23.091785 24530 net.cpp:86] Creating Layer conv2_relu2_0_split
I0715 02:27:23.091789 24530 net.cpp:408] conv2_relu2_0_split <- conv2
I0715 02:27:23.091805 24530 net.cpp:382] conv2_relu2_0_split -> conv2_relu2_0_split_0
I0715 02:27:23.091814 24530 net.cpp:382] conv2_relu2_0_split -> conv2_relu2_0_split_1
I0715 02:27:23.091888 24530 net.cpp:124] Setting up conv2_relu2_0_split
I0715 02:27:23.091907 24530 net.cpp:131] Top shape: 16 64 56 56 (3211264)
I0715 02:27:23.091912 24530 net.cpp:131] Top shape: 16 64 56 56 (3211264)
I0715 02:27:23.091917 24530 net.cpp:139] Memory required for data: 192675840
I0715 02:27:23.091928 24530 layer_factory.hpp:77] Creating layer conv3
I0715 02:27:23.091940 24530 net.cpp:86] Creating Layer conv3
I0715 02:27:23.091945 24530 net.cpp:408] conv3 <- conv2_relu2_0_split_0
I0715 02:27:23.091951 24530 net.cpp:382] conv3 -> conv3
I0715 02:27:23.095909 24530 net.cpp:124] Setting up conv3
I0715 02:27:23.095923 24530 net.cpp:131] Top shape: 16 128 28 28 (1605632)
I0715 02:27:23.095927 24530 net.cpp:139] Memory required for data: 199098368
I0715 02:27:23.095937 24530 layer_factory.hpp:77] Creating layer relu3
I0715 02:27:23.095947 24530 net.cpp:86] Creating Layer relu3
I0715 02:27:23.095953 24530 net.cpp:408] relu3 <- conv3
I0715 02:27:23.095960 24530 net.cpp:369] relu3 -> conv3 (in-place)
I0715 02:27:23.096781 24530 net.cpp:124] Setting up relu3
I0715 02:27:23.096793 24530 net.cpp:131] Top shape: 16 128 28 28 (1605632)
I0715 02:27:23.096798 24530 net.cpp:139] Memory required for data: 205520896
I0715 02:27:23.096802 24530 layer_factory.hpp:77] Creating layer conv3_relu3_0_split
I0715 02:27:23.096810 24530 net.cpp:86] Creating Layer conv3_relu3_0_split
I0715 02:27:23.096815 24530 net.cpp:408] conv3_relu3_0_split <- conv3
I0715 02:27:23.096822 24530 net.cpp:382] conv3_relu3_0_split -> conv3_relu3_0_split_0
I0715 02:27:23.096832 24530 net.cpp:382] conv3_relu3_0_split -> conv3_relu3_0_split_1
I0715 02:27:23.096871 24530 net.cpp:124] Setting up conv3_relu3_0_split
I0715 02:27:23.096880 24530 net.cpp:131] Top shape: 16 128 28 28 (1605632)
I0715 02:27:23.096885 24530 net.cpp:131] Top shape: 16 128 28 28 (1605632)
I0715 02:27:23.096889 24530 net.cpp:139] Memory required for data: 218365952
I0715 02:27:23.096894 24530 layer_factory.hpp:77] Creating layer conv4
I0715 02:27:23.096904 24530 net.cpp:86] Creating Layer conv4
I0715 02:27:23.096909 24530 net.cpp:408] conv4 <- conv3_relu3_0_split_0
I0715 02:27:23.096917 24530 net.cpp:382] conv4 -> conv4
I0715 02:27:23.102391 24530 net.cpp:124] Setting up conv4
I0715 02:27:23.102413 24530 net.cpp:131] Top shape: 16 256 14 14 (802816)
I0715 02:27:23.102418 24530 net.cpp:139] Memory required for data: 221577216
I0715 02:27:23.102428 24530 layer_factory.hpp:77] Creating layer relu4
I0715 02:27:23.102437 24530 net.cpp:86] Creating Layer relu4
I0715 02:27:23.102443 24530 net.cpp:408] relu4 <- conv4
I0715 02:27:23.102452 24530 net.cpp:369] relu4 -> conv4 (in-place)
I0715 02:27:23.103266 24530 net.cpp:124] Setting up relu4
I0715 02:27:23.103278 24530 net.cpp:131] Top shape: 16 256 14 14 (802816)
I0715 02:27:23.103298 24530 net.cpp:139] Memory required for data: 224788480
I0715 02:27:23.103303 24530 layer_factory.hpp:77] Creating layer conv4_relu4_0_split
I0715 02:27:23.103309 24530 net.cpp:86] Creating Layer conv4_relu4_0_split
I0715 02:27:23.103314 24530 net.cpp:408] conv4_relu4_0_split <- conv4
I0715 02:27:23.103332 24530 net.cpp:382] conv4_relu4_0_split -> conv4_relu4_0_split_0
I0715 02:27:23.103344 24530 net.cpp:382] conv4_relu4_0_split -> conv4_relu4_0_split_1
I0715 02:27:23.103428 24530 net.cpp:124] Setting up conv4_relu4_0_split
I0715 02:27:23.103437 24530 net.cpp:131] Top shape: 16 256 14 14 (802816)
I0715 02:27:23.103451 24530 net.cpp:131] Top shape: 16 256 14 14 (802816)
I0715 02:27:23.103454 24530 net.cpp:139] Memory required for data: 231211008
I0715 02:27:23.103458 24530 layer_factory.hpp:77] Creating layer conv5
I0715 02:27:23.103471 24530 net.cpp:86] Creating Layer conv5
I0715 02:27:23.103493 24530 net.cpp:408] conv5 <- conv4_relu4_0_split_0
I0715 02:27:23.103502 24530 net.cpp:382] conv5 -> conv5
I0715 02:27:23.119666 24530 net.cpp:124] Setting up conv5
I0715 02:27:23.119694 24530 net.cpp:131] Top shape: 16 512 7 7 (401408)
I0715 02:27:23.119699 24530 net.cpp:139] Memory required for data: 232816640
I0715 02:27:23.119714 24530 layer_factory.hpp:77] Creating layer relu5
I0715 02:27:23.119729 24530 net.cpp:86] Creating Layer relu5
I0715 02:27:23.119742 24530 net.cpp:408] relu5 <- conv5
I0715 02:27:23.119752 24530 net.cpp:369] relu5 -> conv5 (in-place)
I0715 02:27:23.120252 24530 net.cpp:124] Setting up relu5
I0715 02:27:23.120265 24530 net.cpp:131] Top shape: 16 512 7 7 (401408)
I0715 02:27:23.120270 24530 net.cpp:139] Memory required for data: 234422272
I0715 02:27:23.120273 24530 layer_factory.hpp:77] Creating layer deconv5_1
I0715 02:27:23.120283 24530 net.cpp:86] Creating Layer deconv5_1
I0715 02:27:23.120288 24530 net.cpp:408] deconv5_1 <- conv5
I0715 02:27:23.120296 24530 net.cpp:382] deconv5_1 -> deconv5_1
I0715 02:27:23.128577 24530 net.cpp:124] Setting up deconv5_1
I0715 02:27:23.128592 24530 net.cpp:131] Top shape: 16 64 14 14 (200704)
I0715 02:27:23.128597 24530 net.cpp:139] Memory required for data: 235225088
I0715 02:27:23.128612 24530 layer_factory.hpp:77] Creating layer conv4_deconv
I0715 02:27:23.128624 24530 net.cpp:86] Creating Layer conv4_deconv
I0715 02:27:23.128638 24530 net.cpp:408] conv4_deconv <- conv4_relu4_0_split_1
I0715 02:27:23.128648 24530 net.cpp:382] conv4_deconv -> conv4_deconv
I0715 02:27:23.132598 24530 net.cpp:124] Setting up conv4_deconv
I0715 02:27:23.132613 24530 net.cpp:131] Top shape: 16 64 14 14 (200704)
I0715 02:27:23.132618 24530 net.cpp:139] Memory required for data: 236027904
I0715 02:27:23.132625 24530 layer_factory.hpp:77] Creating layer relu4_deconv
I0715 02:27:23.132634 24530 net.cpp:86] Creating Layer relu4_deconv
I0715 02:27:23.132638 24530 net.cpp:408] relu4_deconv <- conv4_deconv
I0715 02:27:23.132644 24530 net.cpp:369] relu4_deconv -> conv4_deconv (in-place)
I0715 02:27:23.133183 24530 net.cpp:124] Setting up relu4_deconv
I0715 02:27:23.133193 24530 net.cpp:131] Top shape: 16 64 14 14 (200704)
I0715 02:27:23.133198 24530 net.cpp:139] Memory required for data: 236830720
I0715 02:27:23.133211 24530 layer_factory.hpp:77] Creating layer concat1
I0715 02:27:23.133217 24530 net.cpp:86] Creating Layer concat1
I0715 02:27:23.133221 24530 net.cpp:408] concat1 <- conv4_deconv
I0715 02:27:23.133227 24530 net.cpp:408] concat1 <- deconv5_1
I0715 02:27:23.133241 24530 net.cpp:382] concat1 -> concat1
I0715 02:27:23.133280 24530 net.cpp:124] Setting up concat1
I0715 02:27:23.133289 24530 net.cpp:131] Top shape: 16 128 14 14 (401408)
I0715 02:27:23.133293 24530 net.cpp:139] Memory required for data: 238436352
I0715 02:27:23.133304 24530 layer_factory.hpp:77] Creating layer deconv5_2
I0715 02:27:23.133316 24530 net.cpp:86] Creating Layer deconv5_2
I0715 02:27:23.133322 24530 net.cpp:408] deconv5_2 <- concat1
I0715 02:27:23.133329 24530 net.cpp:382] deconv5_2 -> deconv5_2
I0715 02:27:23.136404 24530 net.cpp:124] Setting up deconv5_2
I0715 02:27:23.136417 24530 net.cpp:131] Top shape: 16 32 28 28 (401408)
I0715 02:27:23.136436 24530 net.cpp:139] Memory required for data: 240041984
I0715 02:27:23.136443 24530 layer_factory.hpp:77] Creating layer conv3_deconv
I0715 02:27:23.136456 24530 net.cpp:86] Creating Layer conv3_deconv
I0715 02:27:23.136461 24530 net.cpp:408] conv3_deconv <- conv3_relu3_0_split_1
I0715 02:27:23.136468 24530 net.cpp:382] conv3_deconv -> conv3_deconv
I0715 02:27:23.138833 24530 net.cpp:124] Setting up conv3_deconv
I0715 02:27:23.138845 24530 net.cpp:131] Top shape: 16 32 28 28 (401408)
I0715 02:27:23.138849 24530 net.cpp:139] Memory required for data: 241647616
I0715 02:27:23.138864 24530 layer_factory.hpp:77] Creating layer relu3_deconv
I0715 02:27:23.138871 24530 net.cpp:86] Creating Layer relu3_deconv
I0715 02:27:23.138875 24530 net.cpp:408] relu3_deconv <- conv3_deconv
I0715 02:27:23.138890 24530 net.cpp:369] relu3_deconv -> conv3_deconv (in-place)
I0715 02:27:23.139365 24530 net.cpp:124] Setting up relu3_deconv
I0715 02:27:23.139375 24530 net.cpp:131] Top shape: 16 32 28 28 (401408)
I0715 02:27:23.139379 24530 net.cpp:139] Memory required for data: 243253248
I0715 02:27:23.139391 24530 layer_factory.hpp:77] Creating layer concat2
I0715 02:27:23.139397 24530 net.cpp:86] Creating Layer concat2
I0715 02:27:23.139401 24530 net.cpp:408] concat2 <- conv3_deconv
I0715 02:27:23.139407 24530 net.cpp:408] concat2 <- deconv5_2
I0715 02:27:23.139420 24530 net.cpp:382] concat2 -> concat2
I0715 02:27:23.139458 24530 net.cpp:124] Setting up concat2
I0715 02:27:23.139467 24530 net.cpp:131] Top shape: 16 64 28 28 (802816)
I0715 02:27:23.139472 24530 net.cpp:139] Memory required for data: 246464512
I0715 02:27:23.139482 24530 layer_factory.hpp:77] Creating layer deconv5_3
I0715 02:27:23.139492 24530 net.cpp:86] Creating Layer deconv5_3
I0715 02:27:23.139498 24530 net.cpp:408] deconv5_3 <- concat2
I0715 02:27:23.139504 24530 net.cpp:382] deconv5_3 -> deconv5_3
I0715 02:27:23.141999 24530 net.cpp:124] Setting up deconv5_3
I0715 02:27:23.142011 24530 net.cpp:131] Top shape: 16 16 56 56 (802816)
I0715 02:27:23.142016 24530 net.cpp:139] Memory required for data: 249675776
I0715 02:27:23.142027 24530 layer_factory.hpp:77] Creating layer conv2_deconv
I0715 02:27:23.142038 24530 net.cpp:86] Creating Layer conv2_deconv
I0715 02:27:23.142043 24530 net.cpp:408] conv2_deconv <- conv2_relu2_0_split_1
I0715 02:27:23.142060 24530 net.cpp:382] conv2_deconv -> conv2_deconv
I0715 02:27:23.144186 24530 net.cpp:124] Setting up conv2_deconv
I0715 02:27:23.144197 24530 net.cpp:131] Top shape: 16 16 56 56 (802816)
I0715 02:27:23.144202 24530 net.cpp:139] Memory required for data: 252887040
I0715 02:27:23.144217 24530 layer_factory.hpp:77] Creating layer relu2_deconv
I0715 02:27:23.144223 24530 net.cpp:86] Creating Layer relu2_deconv
I0715 02:27:23.144227 24530 net.cpp:408] relu2_deconv <- conv2_deconv
I0715 02:27:23.144243 24530 net.cpp:369] relu2_deconv -> conv2_deconv (in-place)
I0715 02:27:23.144713 24530 net.cpp:124] Setting up relu2_deconv
I0715 02:27:23.144723 24530 net.cpp:131] Top shape: 16 16 56 56 (802816)
I0715 02:27:23.144727 24530 net.cpp:139] Memory required for data: 256098304
I0715 02:27:23.144739 24530 layer_factory.hpp:77] Creating layer concat3
I0715 02:27:23.144747 24530 net.cpp:86] Creating Layer concat3
I0715 02:27:23.144752 24530 net.cpp:408] concat3 <- conv2_deconv
I0715 02:27:23.144757 24530 net.cpp:408] concat3 <- deconv5_3
I0715 02:27:23.144771 24530 net.cpp:382] concat3 -> concat3
I0715 02:27:23.144817 24530 net.cpp:124] Setting up concat3
I0715 02:27:23.144826 24530 net.cpp:131] Top shape: 16 32 56 56 (1605632)
I0715 02:27:23.144830 24530 net.cpp:139] Memory required for data: 262520832
I0715 02:27:23.144841 24530 layer_factory.hpp:77] Creating layer deconv5_4
I0715 02:27:23.144861 24530 net.cpp:86] Creating Layer deconv5_4
I0715 02:27:23.144866 24530 net.cpp:408] deconv5_4 <- concat3
I0715 02:27:23.144873 24530 net.cpp:382] deconv5_4 -> deconv5_4
I0715 02:27:23.147397 24530 net.cpp:124] Setting up deconv5_4
I0715 02:27:23.147416 24530 net.cpp:131] Top shape: 16 8 112 112 (1605632)
I0715 02:27:23.147452 24530 net.cpp:139] Memory required for data: 268943360
I0715 02:27:23.147460 24530 layer_factory.hpp:77] Creating layer conv1_deconv
I0715 02:27:23.147491 24530 net.cpp:86] Creating Layer conv1_deconv
I0715 02:27:23.147498 24530 net.cpp:408] conv1_deconv <- conv1_relu1_0_split_1
I0715 02:27:23.147506 24530 net.cpp:382] conv1_deconv -> conv1_deconv
I0715 02:27:23.150092 24530 net.cpp:124] Setting up conv1_deconv
I0715 02:27:23.150111 24530 net.cpp:131] Top shape: 16 8 112 112 (1605632)
I0715 02:27:23.150126 24530 net.cpp:139] Memory required for data: 275365888
I0715 02:27:23.150146 24530 layer_factory.hpp:77] Creating layer relu1_deconv
I0715 02:27:23.150157 24530 net.cpp:86] Creating Layer relu1_deconv
I0715 02:27:23.150166 24530 net.cpp:408] relu1_deconv <- conv1_deconv
I0715 02:27:23.150178 24530 net.cpp:369] relu1_deconv -> conv1_deconv (in-place)
I0715 02:27:23.150684 24530 net.cpp:124] Setting up relu1_deconv
I0715 02:27:23.150697 24530 net.cpp:131] Top shape: 16 8 112 112 (1605632)
I0715 02:27:23.150701 24530 net.cpp:139] Memory required for data: 281788416
I0715 02:27:23.150707 24530 layer_factory.hpp:77] Creating layer concat4
I0715 02:27:23.150719 24530 net.cpp:86] Creating Layer concat4
I0715 02:27:23.150724 24530 net.cpp:408] concat4 <- conv1_deconv
I0715 02:27:23.150730 24530 net.cpp:408] concat4 <- deconv5_4
I0715 02:27:23.150737 24530 net.cpp:382] concat4 -> concat4
I0715 02:27:23.150765 24530 net.cpp:124] Setting up concat4
I0715 02:27:23.150774 24530 net.cpp:131] Top shape: 16 16 112 112 (3211264)
I0715 02:27:23.150777 24530 net.cpp:139] Memory required for data: 294633472
I0715 02:27:23.150781 24530 layer_factory.hpp:77] Creating layer deconv5_5
I0715 02:27:23.150792 24530 net.cpp:86] Creating Layer deconv5_5
I0715 02:27:23.150797 24530 net.cpp:408] deconv5_5 <- concat4
I0715 02:27:23.150805 24530 net.cpp:382] deconv5_5 -> deconv5_5
I0715 02:27:23.153247 24530 net.cpp:124] Setting up deconv5_5
I0715 02:27:23.153261 24530 net.cpp:131] Top shape: 16 2 224 224 (1605632)
I0715 02:27:23.153266 24530 net.cpp:139] Memory required for data: 301056000
I0715 02:27:23.153272 24530 layer_factory.hpp:77] Creating layer upscore
I0715 02:27:23.153280 24530 net.cpp:86] Creating Layer upscore
I0715 02:27:23.153285 24530 net.cpp:408] upscore <- deconv5_5
I0715 02:27:23.153290 24530 net.cpp:408] upscore <- data_data_0_split_1
I0715 02:27:23.153298 24530 net.cpp:382] upscore -> upscore
I0715 02:27:23.153409 24530 net.cpp:124] Setting up upscore
I0715 02:27:23.153421 24530 net.cpp:131] Top shape: 16 2 224 224 (1605632)
I0715 02:27:23.153425 24530 net.cpp:139] Memory required for data: 307478528
I0715 02:27:23.153429 24530 layer_factory.hpp:77] Creating layer upscore_upscore_0_split
I0715 02:27:23.153436 24530 net.cpp:86] Creating Layer upscore_upscore_0_split
I0715 02:27:23.153440 24530 net.cpp:408] upscore_upscore_0_split <- upscore
I0715 02:27:23.153446 24530 net.cpp:382] upscore_upscore_0_split -> upscore_upscore_0_split_0
I0715 02:27:23.153455 24530 net.cpp:382] upscore_upscore_0_split -> upscore_upscore_0_split_1
I0715 02:27:23.153491 24530 net.cpp:124] Setting up upscore_upscore_0_split
I0715 02:27:23.153499 24530 net.cpp:131] Top shape: 16 2 224 224 (1605632)
I0715 02:27:23.153504 24530 net.cpp:131] Top shape: 16 2 224 224 (1605632)
I0715 02:27:23.153508 24530 net.cpp:139] Memory required for data: 320323584
I0715 02:27:23.153512 24530 layer_factory.hpp:77] Creating layer loss
I0715 02:27:23.153522 24530 net.cpp:86] Creating Layer loss
I0715 02:27:23.153527 24530 net.cpp:408] loss <- upscore_upscore_0_split_0
I0715 02:27:23.153540 24530 net.cpp:408] loss <- seg-label_data_1_split_0
I0715 02:27:23.153556 24530 net.cpp:382] loss -> loss
…
