…
I0627 19:56:55.725615 16433 net.cpp:296] The NetState phase (0) differed from the phase (1) specified by a rule in layer data
I0627 19:56:55.725797 16433 net.cpp:53] Initializing net from parameters: 
name: "simpleconv3"
state {
  phase: TRAIN
  level: 0
  stage: ""
}
layer {
  name: "data"
  type: "ImageData"
  top: "data"
  top: "label"
  include {
    phase: TRAIN
  }
  transform_param {
    mirror: true
    crop_size: 48
    mean_value: 104.008
    mean_value: 116.669
    mean_value: 122.675
  }
  image_data_param {
    source: "train_shuffle.txt"
    batch_size: 96
    shuffle: true
  }
}
layer {
  name: "conv1"
  type: "Convolution"
  bottom: "data"
  top: "conv1"
  param {
    lr_mult: 1
    decay_mult: 1
  }
  param {
    lr_mult: 2
    decay_mult: 0
  }
  convolution_param {
    num_output: 12
    pad: 1
    kernel_size: 3
    stride: 2
    weight_filler {
      type: "xavier"
      std: 0.01
    }
    bias_filler {
      type: "constant"
      value: 0.2
    }
  }
}
layer {
  name: "conv1/bn"
  type: "BatchNorm"
  bottom: "conv1"
  top: "conv1"
  param {
    lr_mult: 0
    decay_mult: 0
  }
  param {
    lr_mult: 0
    decay_mult: 0
  }
  param {
    lr_mult: 0
    decay_mult: 0
  }
}
layer {
  name: "conv1/scale"
  type: "Scale"
  bottom: "conv1"
  top: "conv1"
  param {
    lr_mult: 1
    decay_mult: 0
  }
  param {
    lr_mult: 1
    decay_mult: 0
  }
  scale_param {
    filler {
      value: 1
    }
    bias_term: true
    bias_filler {
      value: 0
    }
  }
}
layer {
  name: "relu1"
  type: "ReLU"
  bottom: "conv1"
  top: "conv1"
}
layer {
  name: "conv2"
  type: "Convolution"
  bottom: "conv1"
  top: "conv2"
  param {
    lr_mult: 1
    decay_mult: 1
  }
  param {
    lr_mult: 2
    decay_mult: 0
  }
  convolution_param {
    num_output: 24
    pad: 1
    kernel_size: 3
    stride: 2
    weight_filler {
      type: "xavier"
      std: 0.1
    }
    bias_filler {
      type: "constant"
      value: 0.2
    }
  }
}
layer {
  name: "conv2/bn"
  type: "BatchNorm"
  bottom: "conv2"
  top: "conv2"
  param {
    lr_mult: 0
    decay_mult: 0
  }
  param {
    lr_mult: 0
    decay_mult: 0
  }
  param {
    lr_mult: 0
    decay_mult: 0
  }
}
layer {
  name: "conv2/scale"
  type: "Scale"
  bottom: "conv2"
  top: "conv2"
  param {
    lr_mult: 1
    decay_mult: 0
  }
  param {
    lr_mult: 1
    decay_mult: 0
  }
  scale_param {
    filler {
      value: 1
    }
    bias_term: true
    bias_filler {
      value: 0
    }
  }
}
layer {
  name: "relu2"
  type: "ReLU"
  bottom: "conv2"
  top: "conv2"
}
layer {
  name: "conv3"
  type: "Convolution"
  bottom: "conv2"
  top: "conv3"
  param {
    lr_mult: 1
    decay_mult: 1
  }
  param {
    lr_mult: 2
    decay_mult: 0
  }
  convolution_param {
    num_output: 48
    pad: 1
    kernel_size: 3
    stride: 2
    weight_filler {
      type: "xavier"
      std: 0.1
    }
    bias_filler {
      type: "constant"
      value: 0.2
    }
  }
}
layer {
  name: "conv3/bn"
  type: "BatchNorm"
  bottom: "conv3"
  top: "conv3"
  param {
    lr_mult: 0
    decay_mult: 0
  }
  param {
    lr_mult: 0
    decay_mult: 0
  }
  param {
    lr_mult: 0
    decay_mult: 0
  }
}
layer {
  name: "conv3/scale"
  type: "Scale"
  bottom: "conv3"
  top: "conv3"
  param {
    lr_mult: 1
    decay_mult: 0
  }
  param {
    lr_mult: 1
    decay_mult: 0
  }
  scale_param {
    filler {
      value: 1
    }
    bias_term: true
    bias_filler {
      value: 0
    }
  }
}
layer {
  name: "relu3"
  type: "ReLU"
  bottom: "conv3"
  top: "conv3"
}
layer {
  name: "ip1"
  type: "InnerProduct"
  bottom: "conv3"
  top: "ip1"
  param {
    lr_mult: 1
    decay_mult: 1
  }
  param {
    lr_mult: 2
    decay_mult: 0
  }
  inner_product_param {
    num_output: 128
    weight_filler {
      type: "xavier"
    }
    bias_filler {
      type: "constant"
      value: 0
    }
  }
}
layer {
  name: "ip2"
  type: "InnerProduct"
  bottom: "ip1"
  top: "ip2"
  param {
    lr_mult: 1
    decay_mult: 1
  }
  param {
    lr_mult: 2
    decay_mult: 1
  }
  inner_product_param {
    num_output: 2
    weight_filler {
      type: "xavier"
    }
    bias_filler {
      type: "constant"
      value: 0
    }
  }
}
layer {
  name: "loss"
  type: "SoftmaxWithLoss"
  bottom: "ip2"
  bottom: "label"
  top: "loss"
}
layer {
  name: "acc"
  type: "Accuracy"
  bottom: "ip2"
  bottom: "label"
  top: "acc"
}
I0627 19:56:55.725919 16433 layer_factory.hpp:77] Creating layer data
I0627 19:56:55.725955 16433 net.cpp:86] Creating Layer data
I0627 19:56:55.725963 16433 net.cpp:382] data -> data
I0627 19:56:55.725986 16433 net.cpp:382] data -> label
I0627 19:56:55.726040 16433 image_data_layer.cpp:38] Opening file train_shuffle.txt
I0627 19:56:55.729295 16433 image_data_layer.cpp:53] Shuffling data
I0627 19:56:55.729460 16433 image_data_layer.cpp:63] A total of 900 images.
I0627 19:56:55.732398 16433 image_data_layer.cpp:90] output data size: 96,3,48,48
I0627 19:56:55.740658 16433 net.cpp:124] Setting up data
I0627 19:56:55.740697 16433 net.cpp:131] Top shape: 96 3 48 48 (663552)
I0627 19:56:55.740705 16433 net.cpp:131] Top shape: 96 (96)
I0627 19:56:55.740710 16433 net.cpp:139] Memory required for data: 2654592
I0627 19:56:55.740718 16433 layer_factory.hpp:77] Creating layer label_data_1_split
I0627 19:56:55.740734 16433 net.cpp:86] Creating Layer label_data_1_split
I0627 19:56:55.740746 16433 net.cpp:408] label_data_1_split <- label
I0627 19:56:55.740767 16433 net.cpp:382] label_data_1_split -> label_data_1_split_0
I0627 19:56:55.740803 16433 net.cpp:382] label_data_1_split -> label_data_1_split_1
I0627 19:56:55.740898 16433 net.cpp:124] Setting up label_data_1_split
I0627 19:56:55.740908 16433 net.cpp:131] Top shape: 96 (96)
I0627 19:56:55.740913 16433 net.cpp:131] Top shape: 96 (96)
I0627 19:56:55.740919 16433 net.cpp:139] Memory required for data: 2655360
I0627 19:56:55.740933 16433 layer_factory.hpp:77] Creating layer conv1
I0627 19:56:55.740965 16433 net.cpp:86] Creating Layer conv1
I0627 19:56:55.740976 16433 net.cpp:408] conv1 <- data
I0627 19:56:55.740990 16433 net.cpp:382] conv1 -> conv1
I0627 19:56:56.340817 16433 net.cpp:124] Setting up conv1
I0627 19:56:56.340860 16433 net.cpp:131] Top shape: 96 12 24 24 (663552)
I0627 19:56:56.340865 16433 net.cpp:139] Memory required for data: 5309568
I0627 19:56:56.340888 16433 layer_factory.hpp:77] Creating layer conv1/bn
I0627 19:56:56.340909 16433 net.cpp:86] Creating Layer conv1/bn
I0627 19:56:56.340914 16433 net.cpp:408] conv1/bn <- conv1
I0627 19:56:56.340924 16433 net.cpp:369] conv1/bn -> conv1 (in-place)
I0627 19:56:56.341200 16433 net.cpp:124] Setting up conv1/bn
I0627 19:56:56.341212 16433 net.cpp:131] Top shape: 96 12 24 24 (663552)
I0627 19:56:56.341217 16433 net.cpp:139] Memory required for data: 7963776
I0627 19:56:56.341228 16433 layer_factory.hpp:77] Creating layer conv1/scale
I0627 19:56:56.341248 16433 net.cpp:86] Creating Layer conv1/scale
I0627 19:56:56.341253 16433 net.cpp:408] conv1/scale <- conv1
I0627 19:56:56.341266 16433 net.cpp:369] conv1/scale -> conv1 (in-place)
I0627 19:56:56.341383 16433 layer_factory.hpp:77] Creating layer conv1/scale
I0627 19:56:56.341574 16433 net.cpp:124] Setting up conv1/scale
I0627 19:56:56.341593 16433 net.cpp:131] Top shape: 96 12 24 24 (663552)
I0627 19:56:56.341596 16433 net.cpp:139] Memory required for data: 10617984
I0627 19:56:56.341603 16433 layer_factory.hpp:77] Creating layer relu1
I0627 19:56:56.341611 16433 net.cpp:86] Creating Layer relu1
I0627 19:56:56.341642 16433 net.cpp:408] relu1 <- conv1
I0627 19:56:56.341675 16433 net.cpp:369] relu1 -> conv1 (in-place)
I0627 19:56:56.342185 16433 net.cpp:124] Setting up relu1
I0627 19:56:56.342202 16433 net.cpp:131] Top shape: 96 12 24 24 (663552)
I0627 19:56:56.342206 16433 net.cpp:139] Memory required for data: 13272192
I0627 19:56:56.342211 16433 layer_factory.hpp:77] Creating layer conv2
I0627 19:56:56.342226 16433 net.cpp:86] Creating Layer conv2
I0627 19:56:56.342231 16433 net.cpp:408] conv2 <- conv1
I0627 19:56:56.342245 16433 net.cpp:382] conv2 -> conv2
I0627 19:56:56.345485 16433 net.cpp:124] Setting up conv2
I0627 19:56:56.345501 16433 net.cpp:131] Top shape: 96 24 12 12 (331776)
I0627 19:56:56.345506 16433 net.cpp:139] Memory required for data: 14599296
I0627 19:56:56.345515 16433 layer_factory.hpp:77] Creating layer conv2/bn
I0627 19:56:56.345525 16433 net.cpp:86] Creating Layer conv2/bn
I0627 19:56:56.345530 16433 net.cpp:408] conv2/bn <- conv2
I0627 19:56:56.345540 16433 net.cpp:369] conv2/bn -> conv2 (in-place)
I0627 19:56:56.345753 16433 net.cpp:124] Setting up conv2/bn
I0627 19:56:56.345763 16433 net.cpp:131] Top shape: 96 24 12 12 (331776)
I0627 19:56:56.345768 16433 net.cpp:139] Memory required for data: 15926400
I0627 19:56:56.345777 16433 layer_factory.hpp:77] Creating layer conv2/scale
I0627 19:56:56.345787 16433 net.cpp:86] Creating Layer conv2/scale
I0627 19:56:56.345791 16433 net.cpp:408] conv2/scale <- conv2
I0627 19:56:56.345798 16433 net.cpp:369] conv2/scale -> conv2 (in-place)
I0627 19:56:56.345839 16433 layer_factory.hpp:77] Creating layer conv2/scale
I0627 19:56:56.346007 16433 net.cpp:124] Setting up conv2/scale
I0627 19:56:56.346017 16433 net.cpp:131] Top shape: 96 24 12 12 (331776)
I0627 19:56:56.346021 16433 net.cpp:139] Memory required for data: 17253504
I0627 19:56:56.346029 16433 layer_factory.hpp:77] Creating layer relu2
I0627 19:56:56.346035 16433 net.cpp:86] Creating Layer relu2
I0627 19:56:56.346040 16433 net.cpp:408] relu2 <- conv2
I0627 19:56:56.346046 16433 net.cpp:369] relu2 -> conv2 (in-place)
I0627 19:56:56.346551 16433 net.cpp:124] Setting up relu2
I0627 19:56:56.346570 16433 net.cpp:131] Top shape: 96 24 12 12 (331776)
I0627 19:56:56.346575 16433 net.cpp:139] Memory required for data: 18580608
I0627 19:56:56.346578 16433 layer_factory.hpp:77] Creating layer conv3
I0627 19:56:56.346590 16433 net.cpp:86] Creating Layer conv3
I0627 19:56:56.346593 16433 net.cpp:408] conv3 <- conv2
I0627 19:56:56.346611 16433 net.cpp:382] conv3 -> conv3
I0627 19:56:56.349584 16433 net.cpp:124] Setting up conv3
I0627 19:56:56.349603 16433 net.cpp:131] Top shape: 96 48 6 6 (165888)
I0627 19:56:56.349608 16433 net.cpp:139] Memory required for data: 19244160
I0627 19:56:56.349617 16433 layer_factory.hpp:77] Creating layer conv3/bn
I0627 19:56:56.349624 16433 net.cpp:86] Creating Layer conv3/bn
I0627 19:56:56.349629 16433 net.cpp:408] conv3/bn <- conv3
I0627 19:56:56.349637 16433 net.cpp:369] conv3/bn -> conv3 (in-place)
I0627 19:56:56.349853 16433 net.cpp:124] Setting up conv3/bn
I0627 19:56:56.349864 16433 net.cpp:131] Top shape: 96 48 6 6 (165888)
I0627 19:56:56.349869 16433 net.cpp:139] Memory required for data: 19907712
I0627 19:56:56.349880 16433 layer_factory.hpp:77] Creating layer conv3/scale
I0627 19:56:56.349889 16433 net.cpp:86] Creating Layer conv3/scale
I0627 19:56:56.349895 16433 net.cpp:408] conv3/scale <- conv3
I0627 19:56:56.349900 16433 net.cpp:369] conv3/scale -> conv3 (in-place)
I0627 19:56:56.349946 16433 layer_factory.hpp:77] Creating layer conv3/scale
I0627 19:56:56.350107 16433 net.cpp:124] Setting up conv3/scale
I0627 19:56:56.350121 16433 net.cpp:131] Top shape: 96 48 6 6 (165888)
I0627 19:56:56.350126 16433 net.cpp:139] Memory required for data: 20571264
I0627 19:56:56.350132 16433 layer_factory.hpp:77] Creating layer relu3
I0627 19:56:56.350139 16433 net.cpp:86] Creating Layer relu3
I0627 19:56:56.350143 16433 net.cpp:408] relu3 <- conv3
I0627 19:56:56.350149 16433 net.cpp:369] relu3 -> conv3 (in-place)
I0627 19:56:56.351016 16433 net.cpp:124] Setting up relu3
I0627 19:56:56.351042 16433 net.cpp:131] Top shape: 96 48 6 6 (165888)
I0627 19:56:56.351047 16433 net.cpp:139] Memory required for data: 21234816
I0627 19:56:56.351052 16433 layer_factory.hpp:77] Creating layer ip1
I0627 19:56:56.351059 16433 net.cpp:86] Creating Layer ip1
I0627 19:56:56.351063 16433 net.cpp:408] ip1 <- conv3
I0627 19:56:56.351073 16433 net.cpp:382] ip1 -> ip1
I0627 19:56:56.353957 16433 net.cpp:124] Setting up ip1
I0627 19:56:56.353974 16433 net.cpp:131] Top shape: 96 128 (12288)
I0627 19:56:56.353979 16433 net.cpp:139] Memory required for data: 21283968
I0627 19:56:56.353988 16433 layer_factory.hpp:77] Creating layer ip2
I0627 19:56:56.353999 16433 net.cpp:86] Creating Layer ip2
I0627 19:56:56.354004 16433 net.cpp:408] ip2 <- ip1
I0627 19:56:56.354014 16433 net.cpp:382] ip2 -> ip2
I0627 19:56:56.354157 16433 net.cpp:124] Setting up ip2
I0627 19:56:56.354168 16433 net.cpp:131] Top shape: 96 2 (192)
I0627 19:56:56.354172 16433 net.cpp:139] Memory required for data: 21284736
I0627 19:56:56.354179 16433 layer_factory.hpp:77] Creating layer ip2_ip2_0_split
I0627 19:56:56.354189 16433 net.cpp:86] Creating Layer ip2_ip2_0_split
I0627 19:56:56.354194 16433 net.cpp:408] ip2_ip2_0_split <- ip2
I0627 19:56:56.354202 16433 net.cpp:382] ip2_ip2_0_split -> ip2_ip2_0_split_0
I0627 19:56:56.354208 16433 net.cpp:382] ip2_ip2_0_split -> ip2_ip2_0_split_1
I0627 19:56:56.354259 16433 net.cpp:124] Setting up ip2_ip2_0_split
I0627 19:56:56.354272 16433 net.cpp:131] Top shape: 96 2 (192)
I0627 19:56:56.354281 16433 net.cpp:131] Top shape: 96 2 (192)
I0627 19:56:56.354287 16433 net.cpp:139] Memory required for data: 21286272
I0627 19:56:56.354295 16433 layer_factory.hpp:77] Creating layer loss
I0627 19:56:56.354305 16433 net.cpp:86] Creating Layer loss
I0627 19:56:56.354310 16433 net.cpp:408] loss <- ip2_ip2_0_split_0
I0627 19:56:56.354315 16433 net.cpp:408] loss <- label_data_1_split_0
I0627 19:56:56.354323 16433 net.cpp:382] loss -> loss
…
I0627 19:56:56.355715 16433 net.cpp:296] The NetState phase (1) differed from the phase (0) specified by a rule in layer data
I0627 19:56:56.355888 16433 net.cpp:53] Initializing net from parameters: 
name: "simpleconv3"
state {
  phase: TEST
}
layer {
  name: "data"
  type: "ImageData"
  top: "data"
  top: "label"
  include {
    phase: TEST
  }
  transform_param {
    mirror: false
    crop_size: 48
    mean_value: 104.008
    mean_value: 116.669
    mean_value: 122.675
  }
  image_data_param {
    source: "val_shuffle.txt"
    batch_size: 16
    shuffle: false
  }
}
layer {
  name: "conv1"
  type: "Convolution"
  bottom: "data"
  top: "conv1"
  param {
    lr_mult: 1
    decay_mult: 1
  }
  param {
    lr_mult: 2
    decay_mult: 0
  }
  convolution_param {
    num_output: 12
    pad: 1
    kernel_size: 3
    stride: 2
    weight_filler {
      type: "xavier"
      std: 0.01
    }
    bias_filler {
      type: "constant"
      value: 0.2
    }
  }
}
layer {
  name: "conv1/bn"
  type: "BatchNorm"
  bottom: "conv1"
  top: "conv1"
  param {
    lr_mult: 0
    decay_mult: 0
  }
  param {
    lr_mult: 0
    decay_mult: 0
  }
  param {
    lr_mult: 0
    decay_mult: 0
  }
}
layer {
  name: "conv1/scale"
  type: "Scale"
  bottom: "conv1"
  top: "conv1"
  param {
    lr_mult: 1
    decay_mult: 0
  }
  param {
    lr_mult: 1
    decay_mult: 0
  }
  scale_param {
    filler {
      value: 1
    }
    bias_term: true
    bias_filler {
      value: 0
    }
  }
}
layer {
  name: "relu1"
  type: "ReLU"
  bottom: "conv1"
  top: "conv1"
}
layer {
  name: "conv2"
  type: "Convolution"
  bottom: "conv1"
  top: "conv2"
  param {
    lr_mult: 1
    decay_mult: 1
  }
  param {
    lr_mult: 2
    decay_mult: 0
  }
  convolution_param {
    num_output: 24
    pad: 1
    kernel_size: 3
    stride: 2
    weight_filler {
      type: "xavier"
      std: 0.1
    }
    bias_filler {
      type: "constant"
      value: 0.2
    }
  }
}
layer {
  name: "conv2/bn"
  type: "BatchNorm"
  bottom: "conv2"
  top: "conv2"
  param {
    lr_mult: 0
    decay_mult: 0
  }
  param {
    lr_mult: 0
    decay_mult: 0
  }
  param {
    lr_mult: 0
    decay_mult: 0
  }
}
layer {
  name: "conv2/scale"
  type: "Scale"
  bottom: "conv2"
  top: "conv2"
  param {
    lr_mult: 1
    decay_mult: 0
  }
  param {
    lr_mult: 1
    decay_mult: 0
  }
  scale_param {
    filler {
      value: 1
    }
    bias_term: true
    bias_filler {
      value: 0
    }
  }
}
layer {
  name: "relu2"
  type: "ReLU"
  bottom: "conv2"
  top: "conv2"
}
layer {
  name: "conv3"
  type: "Convolution"
  bottom: "conv2"
  top: "conv3"
  param {
    lr_mult: 1
    decay_mult: 1
  }
  param {
    lr_mult: 2
    decay_mult: 0
  }
  convolution_param {
    num_output: 48
    pad: 1
    kernel_size: 3
    stride: 2
    weight_filler {
      type: "xavier"
      std: 0.1
    }
    bias_filler {
      type: "constant"
      value: 0.2
    }
  }
}
layer {
  name: "conv3/bn"
  type: "BatchNorm"
  bottom: "conv3"
  top: "conv3"
  param {
    lr_mult: 0
    decay_mult: 0
  }
  param {
    lr_mult: 0
    decay_mult: 0
  }
  param {
    lr_mult: 0
    decay_mult: 0
  }
}
layer {
  name: "conv3/scale"
  type: "Scale"
  bottom: "conv3"
  top: "conv3"
  param {
    lr_mult: 1
    decay_mult: 0
  }
  param {
    lr_mult: 1
    decay_mult: 0
  }
  scale_param {
    filler {
      value: 1
    }
    bias_term: true
    bias_filler {
      value: 0
    }
  }
}
layer {
  name: "relu3"
  type: "ReLU"
  bottom: "conv3"
  top: "conv3"
}
layer {
  name: "ip1"
  type: "InnerProduct"
  bottom: "conv3"
  top: "ip1"
  param {
    lr_mult: 1
    decay_mult: 1
  }
  param {
    lr_mult: 2
    decay_mult: 0
  }
  inner_product_param {
    num_output: 128
    weight_filler {
      type: "xavier"
    }
    bias_filler {
      type: "constant"
      value: 0
    }
  }
}
layer {
  name: "ip2"
  type: "InnerProduct"
  bottom: "ip1"
  top: "ip2"
  param {
    lr_mult: 1
    decay_mult: 1
  }
  param {
    lr_mult: 2
    decay_mult: 1
  }
  inner_product_param {
    num_output: 2
    weight_filler {
      type: "xavier"
    }
    bias_filler {
      type: "constant"
      value: 0
    }
  }
}
layer {
  name: "loss"
  type: "SoftmaxWithLoss"
  bottom: "ip2"
  bottom: "label"
  top: "loss"
}
layer {
  name: "acc"
  type: "Accuracy"
  bottom: "ip2"
  bottom: "label"
  top: "acc"
}
I0627 19:56:56.356007 16433 layer_factory.hpp:77] Creating layer data
I0627 19:56:56.356030 16433 net.cpp:86] Creating Layer data
I0627 19:56:56.356043 16433 net.cpp:382] data -> data
I0627 19:56:56.356061 16433 net.cpp:382] data -> label
I0627 19:56:56.356078 16433 image_data_layer.cpp:38] Opening file val_shuffle.txt
I0627 19:56:56.358844 16433 image_data_layer.cpp:63] A total of 100 images.
I0627 19:56:56.359293 16433 image_data_layer.cpp:90] output data size: 16,3,48,48
I0627 19:56:56.361058 16433 net.cpp:124] Setting up data
I0627 19:56:56.361074 16433 net.cpp:131] Top shape: 16 3 48 48 (110592)
I0627 19:56:56.361083 16433 net.cpp:131] Top shape: 16 (16)
I0627 19:56:56.361088 16433 net.cpp:139] Memory required for data: 442432
I0627 19:56:56.361095 16433 layer_factory.hpp:77] Creating layer label_data_1_split
I0627 19:56:56.361112 16433 net.cpp:86] Creating Layer label_data_1_split
I0627 19:56:56.361121 16433 net.cpp:408] label_data_1_split <- label
I0627 19:56:56.361133 16433 net.cpp:382] label_data_1_split -> label_data_1_split_0
I0627 19:56:56.361150 16433 net.cpp:382] label_data_1_split -> label_data_1_split_1
I0627 19:56:56.361264 16433 net.cpp:124] Setting up label_data_1_split
I0627 19:56:56.361275 16433 net.cpp:131] Top shape: 16 (16)
I0627 19:56:56.361280 16433 net.cpp:131] Top shape: 16 (16)
I0627 19:56:56.361284 16433 net.cpp:139] Memory required for data: 442560
I0627 19:56:56.361291 16433 layer_factory.hpp:77] Creating layer conv1
I0627 19:56:56.361308 16433 net.cpp:86] Creating Layer conv1
I0627 19:56:56.361328 16433 net.cpp:408] conv1 <- data
I0627 19:56:56.361353 16433 net.cpp:382] conv1 -> conv1
I0627 19:56:56.364260 16433 net.cpp:124] Setting up conv1
I0627 19:56:56.364274 16433 net.cpp:131] Top shape: 16 12 24 24 (110592)
I0627 19:56:56.364279 16433 net.cpp:139] Memory required for data: 884928
I0627 19:56:56.364297 16433 layer_factory.hpp:77] Creating layer conv1/bn
I0627 19:56:56.364310 16433 net.cpp:86] Creating Layer conv1/bn
I0627 19:56:56.364320 16433 net.cpp:408] conv1/bn <- conv1
I0627 19:56:56.364346 16433 net.cpp:369] conv1/bn -> conv1 (in-place)
I0627 19:56:56.364573 16433 net.cpp:124] Setting up conv1/bn
I0627 19:56:56.364583 16433 net.cpp:131] Top shape: 16 12 24 24 (110592)
I0627 19:56:56.364588 16433 net.cpp:139] Memory required for data: 1327296
I0627 19:56:56.364630 16433 layer_factory.hpp:77] Creating layer conv1/scale
I0627 19:56:56.364655 16433 net.cpp:86] Creating Layer conv1/scale
I0627 19:56:56.364672 16433 net.cpp:408] conv1/scale <- conv1
I0627 19:56:56.364684 16433 net.cpp:369] conv1/scale -> conv1 (in-place)
I0627 19:56:56.364766 16433 layer_factory.hpp:77] Creating layer conv1/scale
I0627 19:56:56.364926 16433 net.cpp:124] Setting up conv1/scale
I0627 19:56:56.364936 16433 net.cpp:131] Top shape: 16 12 24 24 (110592)
I0627 19:56:56.364941 16433 net.cpp:139] Memory required for data: 1769664
I0627 19:56:56.364955 16433 layer_factory.hpp:77] Creating layer relu1
I0627 19:56:56.364969 16433 net.cpp:86] Creating Layer relu1
I0627 19:56:56.365001 16433 net.cpp:408] relu1 <- conv1
I0627 19:56:56.365031 16433 net.cpp:369] relu1 -> conv1 (in-place)
I0627 19:56:56.365598 16433 net.cpp:124] Setting up relu1
I0627 19:56:56.365609 16433 net.cpp:131] Top shape: 16 12 24 24 (110592)
I0627 19:56:56.365614 16433 net.cpp:139] Memory required for data: 2212032
I0627 19:56:56.365622 16433 layer_factory.hpp:77] Creating layer conv2
I0627 19:56:56.365638 16433 net.cpp:86] Creating Layer conv2
I0627 19:56:56.365649 16433 net.cpp:408] conv2 <- conv1
I0627 19:56:56.365665 16433 net.cpp:382] conv2 -> conv2
I0627 19:56:56.368641 16433 net.cpp:124] Setting up conv2
I0627 19:56:56.368661 16433 net.cpp:131] Top shape: 16 24 12 12 (55296)
I0627 19:56:56.368670 16433 net.cpp:139] Memory required for data: 2433216
I0627 19:56:56.368685 16433 layer_factory.hpp:77] Creating layer conv2/bn
I0627 19:56:56.368701 16433 net.cpp:86] Creating Layer conv2/bn
I0627 19:56:56.368712 16433 net.cpp:408] conv2/bn <- conv2
I0627 19:56:56.368724 16433 net.cpp:369] conv2/bn -> conv2 (in-place)
I0627 19:56:56.369053 16433 net.cpp:124] Setting up conv2/bn
I0627 19:56:56.369065 16433 net.cpp:131] Top shape: 16 24 12 12 (55296)
I0627 19:56:56.369069 16433 net.cpp:139] Memory required for data: 2654400
I0627 19:56:56.369077 16433 layer_factory.hpp:77] Creating layer conv2/scale
I0627 19:56:56.369089 16433 net.cpp:86] Creating Layer conv2/scale
I0627 19:56:56.369096 16433 net.cpp:408] conv2/scale <- conv2
I0627 19:56:56.369109 16433 net.cpp:369] conv2/scale -> conv2 (in-place)
I0627 19:56:56.369179 16433 layer_factory.hpp:77] Creating layer conv2/scale
I0627 19:56:56.369379 16433 net.cpp:124] Setting up conv2/scale
I0627 19:56:56.369423 16433 net.cpp:131] Top shape: 16 24 12 12 (55296)
I0627 19:56:56.369436 16433 net.cpp:139] Memory required for data: 2875584
I0627 19:56:56.369448 16433 layer_factory.hpp:77] Creating layer relu2
I0627 19:56:56.369460 16433 net.cpp:86] Creating Layer relu2
I0627 19:56:56.369469 16433 net.cpp:408] relu2 <- conv2
I0627 19:56:56.369485 16433 net.cpp:369] relu2 -> conv2 (in-place)
I0627 19:56:56.370643 16433 net.cpp:124] Setting up relu2
I0627 19:56:56.370656 16433 net.cpp:131] Top shape: 16 24 12 12 (55296)
I0627 19:56:56.370664 16433 net.cpp:139] Memory required for data: 3096768
I0627 19:56:56.370669 16433 layer_factory.hpp:77] Creating layer conv3
I0627 19:56:56.370682 16433 net.cpp:86] Creating Layer conv3
I0627 19:56:56.370687 16433 net.cpp:408] conv3 <- conv2
I0627 19:56:56.370697 16433 net.cpp:382] conv3 -> conv3
I0627 19:56:56.373103 16433 net.cpp:124] Setting up conv3
I0627 19:56:56.373142 16433 net.cpp:131] Top shape: 16 48 6 6 (27648)
I0627 19:56:56.373152 16433 net.cpp:139] Memory required for data: 3207360
I0627 19:56:56.373167 16433 layer_factory.hpp:77] Creating layer conv3/bn
I0627 19:56:56.373191 16433 net.cpp:86] Creating Layer conv3/bn
I0627 19:56:56.373203 16433 net.cpp:408] conv3/bn <- conv3
I0627 19:56:56.373219 16433 net.cpp:369] conv3/bn -> conv3 (in-place)
I0627 19:56:56.373589 16433 net.cpp:124] Setting up conv3/bn
I0627 19:56:56.373600 16433 net.cpp:131] Top shape: 16 48 6 6 (27648)
I0627 19:56:56.373607 16433 net.cpp:139] Memory required for data: 3317952
I0627 19:56:56.373627 16433 layer_factory.hpp:77] Creating layer conv3/scale
I0627 19:56:56.373644 16433 net.cpp:86] Creating Layer conv3/scale
I0627 19:56:56.373654 16433 net.cpp:408] conv3/scale <- conv3
I0627 19:56:56.373669 16433 net.cpp:369] conv3/scale -> conv3 (in-place)
I0627 19:56:56.373750 16433 layer_factory.hpp:77] Creating layer conv3/scale
I0627 19:56:56.373942 16433 net.cpp:124] Setting up conv3/scale
I0627 19:56:56.373952 16433 net.cpp:131] Top shape: 16 48 6 6 (27648)
I0627 19:56:56.373960 16433 net.cpp:139] Memory required for data: 3428544
I0627 19:56:56.373972 16433 layer_factory.hpp:77] Creating layer relu3
I0627 19:56:56.373986 16433 net.cpp:86] Creating Layer relu3
I0627 19:56:56.373996 16433 net.cpp:408] relu3 <- conv3
I0627 19:56:56.374011 16433 net.cpp:369] relu3 -> conv3 (in-place)
I0627 19:56:56.374579 16433 net.cpp:124] Setting up relu3
I0627 19:56:56.374593 16433 net.cpp:131] Top shape: 16 48 6 6 (27648)
I0627 19:56:56.374645 16433 net.cpp:139] Memory required for data: 3539136
I0627 19:56:56.374655 16433 layer_factory.hpp:77] Creating layer ip1
I0627 19:56:56.374668 16433 net.cpp:86] Creating Layer ip1
I0627 19:56:56.374678 16433 net.cpp:408] ip1 <- conv3
I0627 19:56:56.374694 16433 net.cpp:382] ip1 -> ip1
I0627 19:56:56.376199 16433 net.cpp:124] Setting up ip1
I0627 19:56:56.376210 16433 net.cpp:131] Top shape: 16 128 (2048)
I0627 19:56:56.376215 16433 net.cpp:139] Memory required for data: 3547328
I0627 19:56:56.376226 16433 layer_factory.hpp:77] Creating layer ip2
I0627 19:56:56.376245 16433 net.cpp:86] Creating Layer ip2
I0627 19:56:56.376255 16433 net.cpp:408] ip2 <- ip1
I0627 19:56:56.376267 16433 net.cpp:382] ip2 -> ip2
I0627 19:56:56.376394 16433 net.cpp:124] Setting up ip2
I0627 19:56:56.376404 16433 net.cpp:131] Top shape: 16 2 (32)
I0627 19:56:56.376410 16433 net.cpp:139] Memory required for data: 3547456
I0627 19:56:56.376421 16433 layer_factory.hpp:77] Creating layer ip2_ip2_0_split
I0627 19:56:56.376462 16433 net.cpp:86] Creating Layer ip2_ip2_0_split
I0627 19:56:56.376473 16433 net.cpp:408] ip2_ip2_0_split <- ip2
I0627 19:56:56.376487 16433 net.cpp:382] ip2_ip2_0_split -> ip2_ip2_0_split_0
I0627 19:56:56.376502 16433 net.cpp:382] ip2_ip2_0_split -> ip2_ip2_0_split_1
I0627 19:56:56.376564 16433 net.cpp:124] Setting up ip2_ip2_0_split
I0627 19:56:56.376575 16433 net.cpp:131] Top shape: 16 2 (32)
I0627 19:56:56.376582 16433 net.cpp:131] Top shape: 16 2 (32)
I0627 19:56:56.376590 16433 net.cpp:139] Memory required for data: 3547712
I0627 19:56:56.376597 16433 layer_factory.hpp:77] Creating layer loss
I0627 19:56:56.376610 16433 net.cpp:86] Creating Layer loss
I0627 19:56:56.376619 16433 net.cpp:408] loss <- ip2_ip2_0_split_0
I0627 19:56:56.376631 16433 net.cpp:408] loss <- label_data_1_split_0
I0627 19:56:56.376642 16433 net.cpp:382] loss -> loss
…
