…
I0627 20:34:47.522152 17734 net.cpp:296] The NetState phase (0) differed from the phase (1) specified by a rule in layer data
I0627 20:34:47.522315 17734 net.cpp:53] Initializing net from parameters: 
name: "simpleconv3"
state {
  phase: TRAIN
  level: 0
  stage: ""
}
layer {
  name: "data"
  type: "ImageData"
  top: "data"
  top: "label"
  include {
    phase: TRAIN
  }
  transform_param {
    mirror: true
    crop_size: 48
    mean_value: 104.008
    mean_value: 116.669
    mean_value: 122.675
    contrast_brightness_adjustment: true
  }
  image_data_param {
    source: "train_shuffle.txt"
    batch_size: 96
    shuffle: true
  }
}
layer {
  name: "conv1"
  type: "Convolution"
  bottom: "data"
  top: "conv1"
  param {
    lr_mult: 1
    decay_mult: 1
  }
  param {
    lr_mult: 2
    decay_mult: 0
  }
  convolution_param {
    num_output: 12
    pad: 1
    kernel_size: 3
    stride: 2
    weight_filler {
      type: "xavier"
      std: 0.01
    }
    bias_filler {
      type: "constant"
      value: 0.2
    }
  }
}
layer {
  name: "conv1/bn"
  type: "BatchNorm"
  bottom: "conv1"
  top: "conv1"
  param {
    lr_mult: 0
    decay_mult: 0
  }
  param {
    lr_mult: 0
    decay_mult: 0
  }
  param {
    lr_mult: 0
    decay_mult: 0
  }
}
layer {
  name: "conv1/scale"
  type: "Scale"
  bottom: "conv1"
  top: "conv1"
  param {
    lr_mult: 1
    decay_mult: 0
  }
  param {
    lr_mult: 1
    decay_mult: 0
  }
  scale_param {
    filler {
      value: 1
    }
    bias_term: true
    bias_filler {
      value: 0
    }
  }
}
layer {
  name: "relu1"
  type: "ReLU"
  bottom: "conv1"
  top: "conv1"
}
layer {
  name: "conv2"
  type: "Convolution"
  bottom: "conv1"
  top: "conv2"
  param {
    lr_mult: 1
    decay_mult: 1
  }
  param {
    lr_mult: 2
    decay_mult: 0
  }
  convolution_param {
    num_output: 24
    pad: 1
    kernel_size: 3
    stride: 2
    weight_filler {
      type: "xavier"
      std: 0.1
    }
    bias_filler {
      type: "constant"
      value: 0.2
    }
  }
}
layer {
  name: "conv2/bn"
  type: "BatchNorm"
  bottom: "conv2"
  top: "conv2"
  param {
    lr_mult: 0
    decay_mult: 0
  }
  param {
    lr_mult: 0
    decay_mult: 0
  }
  param {
    lr_mult: 0
    decay_mult: 0
  }
}
layer {
  name: "conv2/scale"
  type: "Scale"
  bottom: "conv2"
  top: "conv2"
  param {
    lr_mult: 1
    decay_mult: 0
  }
  param {
    lr_mult: 1
    decay_mult: 0
  }
  scale_param {
    filler {
      value: 1
    }
    bias_term: true
    bias_filler {
      value: 0
    }
  }
}
layer {
  name: "relu2"
  type: "ReLU"
  bottom: "conv2"
  top: "conv2"
}
layer {
  name: "conv3"
  type: "Convolution"
  bottom: "conv2"
  top: "conv3"
  param {
    lr_mult: 1
    decay_mult: 1
  }
  param {
    lr_mult: 2
    decay_mult: 0
  }
  convolution_param {
    num_output: 48
    pad: 1
    kernel_size: 3
    stride: 2
    weight_filler {
      type: "xavier"
      std: 0.1
    }
    bias_filler {
      type: "constant"
      value: 0.2
    }
  }
}
layer {
  name: "conv3/bn"
  type: "BatchNorm"
  bottom: "conv3"
  top: "conv3"
  param {
    lr_mult: 0
    decay_mult: 0
  }
  param {
    lr_mult: 0
    decay_mult: 0
  }
  param {
    lr_mult: 0
    decay_mult: 0
  }
}
layer {
  name: "conv3/scale"
  type: "Scale"
  bottom: "conv3"
  top: "conv3"
  param {
    lr_mult: 1
    decay_mult: 0
  }
  param {
    lr_mult: 1
    decay_mult: 0
  }
  scale_param {
    filler {
      value: 1
    }
    bias_term: true
    bias_filler {
      value: 0
    }
  }
}
layer {
  name: "relu3"
  type: "ReLU"
  bottom: "conv3"
  top: "conv3"
}
layer {
  name: "ip1"
  type: "InnerProduct"
  bottom: "conv3"
  top: "ip1"
  param {
    lr_mult: 1
    decay_mult: 1
  }
  param {
    lr_mult: 2
    decay_mult: 0
  }
  inner_product_param {
    num_output: 128
    weight_filler {
      type: "xavier"
    }
    bias_filler {
      type: "constant"
      value: 0
    }
  }
}
layer {
  name: "ip2"
  type: "InnerProduct"
  bottom: "ip1"
  top: "ip2"
  param {
    lr_mult: 1
    decay_mult: 1
  }
  param {
    lr_mult: 2
    decay_mult: 1
  }
  inner_product_param {
    num_output: 2
    weight_filler {
      type: "xavier"
    }
    bias_filler {
      type: "constant"
      value: 0
    }
  }
}
layer {
  name: "loss"
  type: "SoftmaxWithLoss"
  bottom: "ip2"
  bottom: "label"
  top: "loss"
}
layer {
  name: "acc"
  type: "Accuracy"
  bottom: "ip2"
  bottom: "label"
  top: "acc"
}
I0627 20:34:47.522428 17734 layer_factory.hpp:77] Creating layer data
I0627 20:34:47.522455 17734 net.cpp:86] Creating Layer data
I0627 20:34:47.522464 17734 net.cpp:382] data -> data
I0627 20:34:47.522492 17734 net.cpp:382] data -> label
I0627 20:34:47.522559 17734 image_data_layer.cpp:38] Opening file train_shuffle.txt
I0627 20:34:47.522903 17734 image_data_layer.cpp:53] Shuffling data
I0627 20:34:47.523025 17734 image_data_layer.cpp:63] A total of 900 images.
I0627 20:34:47.524261 17734 image_data_layer.cpp:90] output data size: 96,3,48,48
I0627 20:34:47.532793 17734 net.cpp:124] Setting up data
I0627 20:34:47.532829 17734 net.cpp:131] Top shape: 96 3 48 48 (663552)
I0627 20:34:47.532836 17734 net.cpp:131] Top shape: 96 (96)
I0627 20:34:47.532840 17734 net.cpp:139] Memory required for data: 2654592
I0627 20:34:47.532850 17734 layer_factory.hpp:77] Creating layer label_data_1_split
I0627 20:34:47.532865 17734 net.cpp:86] Creating Layer label_data_1_split
I0627 20:34:47.532873 17734 net.cpp:408] label_data_1_split <- label
I0627 20:34:47.532893 17734 net.cpp:382] label_data_1_split -> label_data_1_split_0
I0627 20:34:47.532913 17734 net.cpp:382] label_data_1_split -> label_data_1_split_1
I0627 20:34:47.533008 17734 net.cpp:124] Setting up label_data_1_split
I0627 20:34:47.533018 17734 net.cpp:131] Top shape: 96 (96)
I0627 20:34:47.533025 17734 net.cpp:131] Top shape: 96 (96)
I0627 20:34:47.533031 17734 net.cpp:139] Memory required for data: 2655360
I0627 20:34:47.533041 17734 layer_factory.hpp:77] Creating layer conv1
I0627 20:34:47.533071 17734 net.cpp:86] Creating Layer conv1
I0627 20:34:47.533082 17734 net.cpp:408] conv1 <- data
I0627 20:34:47.533095 17734 net.cpp:382] conv1 -> conv1
I0627 20:34:48.195891 17734 net.cpp:124] Setting up conv1
I0627 20:34:48.195924 17734 net.cpp:131] Top shape: 96 12 24 24 (663552)
I0627 20:34:48.195928 17734 net.cpp:139] Memory required for data: 5309568
I0627 20:34:48.195955 17734 layer_factory.hpp:77] Creating layer conv1/bn
I0627 20:34:48.195976 17734 net.cpp:86] Creating Layer conv1/bn
I0627 20:34:48.195983 17734 net.cpp:408] conv1/bn <- conv1
I0627 20:34:48.195994 17734 net.cpp:369] conv1/bn -> conv1 (in-place)
I0627 20:34:48.196177 17734 net.cpp:124] Setting up conv1/bn
I0627 20:34:48.196187 17734 net.cpp:131] Top shape: 96 12 24 24 (663552)
I0627 20:34:48.196192 17734 net.cpp:139] Memory required for data: 7963776
I0627 20:34:48.196210 17734 layer_factory.hpp:77] Creating layer conv1/scale
I0627 20:34:48.196225 17734 net.cpp:86] Creating Layer conv1/scale
I0627 20:34:48.196233 17734 net.cpp:408] conv1/scale <- conv1
I0627 20:34:48.196241 17734 net.cpp:369] conv1/scale -> conv1 (in-place)
I0627 20:34:48.196295 17734 layer_factory.hpp:77] Creating layer conv1/scale
I0627 20:34:48.196411 17734 net.cpp:124] Setting up conv1/scale
I0627 20:34:48.196422 17734 net.cpp:131] Top shape: 96 12 24 24 (663552)
I0627 20:34:48.196427 17734 net.cpp:139] Memory required for data: 10617984
I0627 20:34:48.196440 17734 layer_factory.hpp:77] Creating layer relu1
I0627 20:34:48.196465 17734 net.cpp:86] Creating Layer relu1
I0627 20:34:48.196472 17734 net.cpp:408] relu1 <- conv1
I0627 20:34:48.196482 17734 net.cpp:369] relu1 -> conv1 (in-place)
I0627 20:34:48.196918 17734 net.cpp:124] Setting up relu1
I0627 20:34:48.196929 17734 net.cpp:131] Top shape: 96 12 24 24 (663552)
I0627 20:34:48.196934 17734 net.cpp:139] Memory required for data: 13272192
I0627 20:34:48.196943 17734 layer_factory.hpp:77] Creating layer conv2
I0627 20:34:48.196957 17734 net.cpp:86] Creating Layer conv2
I0627 20:34:48.196964 17734 net.cpp:408] conv2 <- conv1
I0627 20:34:48.196971 17734 net.cpp:382] conv2 -> conv2
I0627 20:34:48.200103 17734 net.cpp:124] Setting up conv2
I0627 20:34:48.200131 17734 net.cpp:131] Top shape: 96 24 12 12 (331776)
I0627 20:34:48.200136 17734 net.cpp:139] Memory required for data: 14599296
I0627 20:34:48.200158 17734 layer_factory.hpp:77] Creating layer conv2/bn
I0627 20:34:48.200170 17734 net.cpp:86] Creating Layer conv2/bn
I0627 20:34:48.200176 17734 net.cpp:408] conv2/bn <- conv2
I0627 20:34:48.200187 17734 net.cpp:369] conv2/bn -> conv2 (in-place)
I0627 20:34:48.200361 17734 net.cpp:124] Setting up conv2/bn
I0627 20:34:48.200371 17734 net.cpp:131] Top shape: 96 24 12 12 (331776)
I0627 20:34:48.200376 17734 net.cpp:139] Memory required for data: 15926400
I0627 20:34:48.200392 17734 layer_factory.hpp:77] Creating layer conv2/scale
I0627 20:34:48.200407 17734 net.cpp:86] Creating Layer conv2/scale
I0627 20:34:48.200413 17734 net.cpp:408] conv2/scale <- conv2
I0627 20:34:48.200423 17734 net.cpp:369] conv2/scale -> conv2 (in-place)
I0627 20:34:48.200471 17734 layer_factory.hpp:77] Creating layer conv2/scale
I0627 20:34:48.200574 17734 net.cpp:124] Setting up conv2/scale
I0627 20:34:48.200584 17734 net.cpp:131] Top shape: 96 24 12 12 (331776)
I0627 20:34:48.200589 17734 net.cpp:139] Memory required for data: 17253504
I0627 20:34:48.200603 17734 layer_factory.hpp:77] Creating layer relu2
I0627 20:34:48.200610 17734 net.cpp:86] Creating Layer relu2
I0627 20:34:48.200619 17734 net.cpp:408] relu2 <- conv2
I0627 20:34:48.200629 17734 net.cpp:369] relu2 -> conv2 (in-place)
I0627 20:34:48.201048 17734 net.cpp:124] Setting up relu2
I0627 20:34:48.201059 17734 net.cpp:131] Top shape: 96 24 12 12 (331776)
I0627 20:34:48.201063 17734 net.cpp:139] Memory required for data: 18580608
I0627 20:34:48.201068 17734 layer_factory.hpp:77] Creating layer conv3
I0627 20:34:48.201086 17734 net.cpp:86] Creating Layer conv3
I0627 20:34:48.201092 17734 net.cpp:408] conv3 <- conv2
I0627 20:34:48.201102 17734 net.cpp:382] conv3 -> conv3
I0627 20:34:48.203999 17734 net.cpp:124] Setting up conv3
I0627 20:34:48.204039 17734 net.cpp:131] Top shape: 96 48 6 6 (165888)
I0627 20:34:48.204046 17734 net.cpp:139] Memory required for data: 19244160
I0627 20:34:48.204056 17734 layer_factory.hpp:77] Creating layer conv3/bn
I0627 20:34:48.204066 17734 net.cpp:86] Creating Layer conv3/bn
I0627 20:34:48.204072 17734 net.cpp:408] conv3/bn <- conv3
I0627 20:34:48.204079 17734 net.cpp:369] conv3/bn -> conv3 (in-place)
I0627 20:34:48.204254 17734 net.cpp:124] Setting up conv3/bn
I0627 20:34:48.204264 17734 net.cpp:131] Top shape: 96 48 6 6 (165888)
I0627 20:34:48.204269 17734 net.cpp:139] Memory required for data: 19907712
I0627 20:34:48.204289 17734 layer_factory.hpp:77] Creating layer conv3/scale
I0627 20:34:48.204300 17734 net.cpp:86] Creating Layer conv3/scale
I0627 20:34:48.204309 17734 net.cpp:408] conv3/scale <- conv3
I0627 20:34:48.204319 17734 net.cpp:369] conv3/scale -> conv3 (in-place)
I0627 20:34:48.204383 17734 layer_factory.hpp:77] Creating layer conv3/scale
I0627 20:34:48.204502 17734 net.cpp:124] Setting up conv3/scale
I0627 20:34:48.204511 17734 net.cpp:131] Top shape: 96 48 6 6 (165888)
I0627 20:34:48.204515 17734 net.cpp:139] Memory required for data: 20571264
I0627 20:34:48.204522 17734 layer_factory.hpp:77] Creating layer relu3
I0627 20:34:48.204538 17734 net.cpp:86] Creating Layer relu3
I0627 20:34:48.204545 17734 net.cpp:408] relu3 <- conv3
I0627 20:34:48.204550 17734 net.cpp:369] relu3 -> conv3 (in-place)
I0627 20:34:48.205365 17734 net.cpp:124] Setting up relu3
I0627 20:34:48.205379 17734 net.cpp:131] Top shape: 96 48 6 6 (165888)
I0627 20:34:48.205382 17734 net.cpp:139] Memory required for data: 21234816
I0627 20:34:48.205387 17734 layer_factory.hpp:77] Creating layer ip1
I0627 20:34:48.205404 17734 net.cpp:86] Creating Layer ip1
I0627 20:34:48.205411 17734 net.cpp:408] ip1 <- conv3
I0627 20:34:48.205421 17734 net.cpp:382] ip1 -> ip1
I0627 20:34:48.208024 17734 net.cpp:124] Setting up ip1
I0627 20:34:48.208046 17734 net.cpp:131] Top shape: 96 128 (12288)
I0627 20:34:48.208050 17734 net.cpp:139] Memory required for data: 21283968
I0627 20:34:48.208065 17734 layer_factory.hpp:77] Creating layer ip2
I0627 20:34:48.208081 17734 net.cpp:86] Creating Layer ip2
I0627 20:34:48.208087 17734 net.cpp:408] ip2 <- ip1
I0627 20:34:48.208101 17734 net.cpp:382] ip2 -> ip2
I0627 20:34:48.208204 17734 net.cpp:124] Setting up ip2
I0627 20:34:48.208216 17734 net.cpp:131] Top shape: 96 2 (192)
I0627 20:34:48.208220 17734 net.cpp:139] Memory required for data: 21284736
I0627 20:34:48.208228 17734 layer_factory.hpp:77] Creating layer ip2_ip2_0_split
I0627 20:34:48.208243 17734 net.cpp:86] Creating Layer ip2_ip2_0_split
I0627 20:34:48.208250 17734 net.cpp:408] ip2_ip2_0_split <- ip2
I0627 20:34:48.208258 17734 net.cpp:382] ip2_ip2_0_split -> ip2_ip2_0_split_0
I0627 20:34:48.208271 17734 net.cpp:382] ip2_ip2_0_split -> ip2_ip2_0_split_1
I0627 20:34:48.208312 17734 net.cpp:124] Setting up ip2_ip2_0_split
I0627 20:34:48.208320 17734 net.cpp:131] Top shape: 96 2 (192)
I0627 20:34:48.208326 17734 net.cpp:131] Top shape: 96 2 (192)
I0627 20:34:48.208333 17734 net.cpp:139] Memory required for data: 21286272
I0627 20:34:48.208341 17734 layer_factory.hpp:77] Creating layer loss
I0627 20:34:48.208356 17734 net.cpp:86] Creating Layer loss
I0627 20:34:48.208365 17734 net.cpp:408] loss <- ip2_ip2_0_split_0
I0627 20:34:48.208374 17734 net.cpp:408] loss <- label_data_1_split_0
I0627 20:34:48.208384 17734 net.cpp:382] loss -> loss
…
I0627 20:34:48.210336 17734 net.cpp:296] The NetState phase (1) differed from the phase (0) specified by a rule in layer data
I0627 20:34:48.210579 17734 net.cpp:53] Initializing net from parameters: 
name: "simpleconv3"
state {
  phase: TEST
}
layer {
  name: "data"
  type: "ImageData"
  top: "data"
  top: "label"
  include {
    phase: TEST
  }
  transform_param {
    mirror: false
    crop_size: 48
    mean_value: 104.008
    mean_value: 116.669
    mean_value: 122.675
  }
  image_data_param {
    source: "val_shuffle.txt"
    batch_size: 16
    shuffle: false
  }
}
layer {
  name: "conv1"
  type: "Convolution"
  bottom: "data"
  top: "conv1"
  param {
    lr_mult: 1
    decay_mult: 1
  }
  param {
    lr_mult: 2
    decay_mult: 0
  }
  convolution_param {
    num_output: 12
    pad: 1
    kernel_size: 3
    stride: 2
    weight_filler {
      type: "xavier"
      std: 0.01
    }
    bias_filler {
      type: "constant"
      value: 0.2
    }
  }
}
layer {
  name: "conv1/bn"
  type: "BatchNorm"
  bottom: "conv1"
  top: "conv1"
  param {
    lr_mult: 0
    decay_mult: 0
  }
  param {
    lr_mult: 0
    decay_mult: 0
  }
  param {
    lr_mult: 0
    decay_mult: 0
  }
}
layer {
  name: "conv1/scale"
  type: "Scale"
  bottom: "conv1"
  top: "conv1"
  param {
    lr_mult: 1
    decay_mult: 0
  }
  param {
    lr_mult: 1
    decay_mult: 0
  }
  scale_param {
    filler {
      value: 1
    }
    bias_term: true
    bias_filler {
      value: 0
    }
  }
}
layer {
  name: "relu1"
  type: "ReLU"
  bottom: "conv1"
  top: "conv1"
}
layer {
  name: "conv2"
  type: "Convolution"
  bottom: "conv1"
  top: "conv2"
  param {
    lr_mult: 1
    decay_mult: 1
  }
  param {
    lr_mult: 2
    decay_mult: 0
  }
  convolution_param {
    num_output: 24
    pad: 1
    kernel_size: 3
    stride: 2
    weight_filler {
      type: "xavier"
      std: 0.1
    }
    bias_filler {
      type: "constant"
      value: 0.2
    }
  }
}
layer {
  name: "conv2/bn"
  type: "BatchNorm"
  bottom: "conv2"
  top: "conv2"
  param {
    lr_mult: 0
    decay_mult: 0
  }
  param {
    lr_mult: 0
    decay_mult: 0
  }
  param {
    lr_mult: 0
    decay_mult: 0
  }
}
layer {
  name: "conv2/scale"
  type: "Scale"
  bottom: "conv2"
  top: "conv2"
  param {
    lr_mult: 1
    decay_mult: 0
  }
  param {
    lr_mult: 1
    decay_mult: 0
  }
  scale_param {
    filler {
      value: 1
    }
    bias_term: true
    bias_filler {
      value: 0
    }
  }
}
layer {
  name: "relu2"
  type: "ReLU"
  bottom: "conv2"
  top: "conv2"
}
layer {
  name: "conv3"
  type: "Convolution"
  bottom: "conv2"
  top: "conv3"
  param {
    lr_mult: 1
    decay_mult: 1
  }
  param {
    lr_mult: 2
    decay_mult: 0
  }
  convolution_param {
    num_output: 48
    pad: 1
    kernel_size: 3
    stride: 2
    weight_filler {
      type: "xavier"
      std: 0.1
    }
    bias_filler {
      type: "constant"
      value: 0.2
    }
  }
}
layer {
  name: "conv3/bn"
  type: "BatchNorm"
  bottom: "conv3"
  top: "conv3"
  param {
    lr_mult: 0
    decay_mult: 0
  }
  param {
    lr_mult: 0
    decay_mult: 0
  }
  param {
    lr_mult: 0
    decay_mult: 0
  }
}
layer {
  name: "conv3/scale"
  type: "Scale"
  bottom: "conv3"
  top: "conv3"
  param {
    lr_mult: 1
    decay_mult: 0
  }
  param {
    lr_mult: 1
    decay_mult: 0
  }
  scale_param {
    filler {
      value: 1
    }
    bias_term: true
    bias_filler {
      value: 0
    }
  }
}
layer {
  name: "relu3"
  type: "ReLU"
  bottom: "conv3"
  top: "conv3"
}
layer {
  name: "ip1"
  type: "InnerProduct"
  bottom: "conv3"
  top: "ip1"
  param {
    lr_mult: 1
    decay_mult: 1
  }
  param {
    lr_mult: 2
    decay_mult: 0
  }
  inner_product_param {
    num_output: 128
    weight_filler {
      type: "xavier"
    }
    bias_filler {
      type: "constant"
      value: 0
    }
  }
}
layer {
  name: "ip2"
  type: "InnerProduct"
  bottom: "ip1"
  top: "ip2"
  param {
    lr_mult: 1
    decay_mult: 1
  }
  param {
    lr_mult: 2
    decay_mult: 1
  }
  inner_product_param {
    num_output: 2
    weight_filler {
      type: "xavier"
    }
    bias_filler {
      type: "constant"
      value: 0
    }
  }
}
layer {
  name: "loss"
  type: "SoftmaxWithLoss"
  bottom: "ip2"
  bottom: "label"
  top: "loss"
}
layer {
  name: "acc"
  type: "Accuracy"
  bottom: "ip2"
  bottom: "label"
  top: "acc"
}
I0627 20:34:48.210697 17734 layer_factory.hpp:77] Creating layer data
I0627 20:34:48.210718 17734 net.cpp:86] Creating Layer data
I0627 20:34:48.210727 17734 net.cpp:382] data -> data
I0627 20:34:48.210741 17734 net.cpp:382] data -> label
I0627 20:34:48.210757 17734 image_data_layer.cpp:38] Opening file val_shuffle.txt
I0627 20:34:48.211078 17734 image_data_layer.cpp:63] A total of 100 images.
I0627 20:34:48.211660 17734 image_data_layer.cpp:90] output data size: 16,3,48,48
I0627 20:34:48.214011 17734 net.cpp:124] Setting up data
I0627 20:34:48.214046 17734 net.cpp:131] Top shape: 16 3 48 48 (110592)
I0627 20:34:48.214056 17734 net.cpp:131] Top shape: 16 (16)
I0627 20:34:48.214063 17734 net.cpp:139] Memory required for data: 442432
I0627 20:34:48.214073 17734 layer_factory.hpp:77] Creating layer label_data_1_split
I0627 20:34:48.214089 17734 net.cpp:86] Creating Layer label_data_1_split
I0627 20:34:48.214098 17734 net.cpp:408] label_data_1_split <- label
I0627 20:34:48.214110 17734 net.cpp:382] label_data_1_split -> label_data_1_split_0
I0627 20:34:48.214141 17734 net.cpp:382] label_data_1_split -> label_data_1_split_1
I0627 20:34:48.214246 17734 net.cpp:124] Setting up label_data_1_split
I0627 20:34:48.214258 17734 net.cpp:131] Top shape: 16 (16)
I0627 20:34:48.214274 17734 net.cpp:131] Top shape: 16 (16)
I0627 20:34:48.214280 17734 net.cpp:139] Memory required for data: 442560
I0627 20:34:48.214287 17734 layer_factory.hpp:77] Creating layer conv1
I0627 20:34:48.214305 17734 net.cpp:86] Creating Layer conv1
I0627 20:34:48.214314 17734 net.cpp:408] conv1 <- data
I0627 20:34:48.214340 17734 net.cpp:382] conv1 -> conv1
I0627 20:34:48.218191 17734 net.cpp:124] Setting up conv1
I0627 20:34:48.218212 17734 net.cpp:131] Top shape: 16 12 24 24 (110592)
I0627 20:34:48.218227 17734 net.cpp:139] Memory required for data: 884928
I0627 20:34:48.218246 17734 layer_factory.hpp:77] Creating layer conv1/bn
I0627 20:34:48.218259 17734 net.cpp:86] Creating Layer conv1/bn
I0627 20:34:48.218268 17734 net.cpp:408] conv1/bn <- conv1
I0627 20:34:48.218281 17734 net.cpp:369] conv1/bn -> conv1 (in-place)
I0627 20:34:48.218622 17734 net.cpp:124] Setting up conv1/bn
I0627 20:34:48.218644 17734 net.cpp:131] Top shape: 16 12 24 24 (110592)
I0627 20:34:48.218652 17734 net.cpp:139] Memory required for data: 1327296
I0627 20:34:48.218667 17734 layer_factory.hpp:77] Creating layer conv1/scale
I0627 20:34:48.218705 17734 net.cpp:86] Creating Layer conv1/scale
I0627 20:34:48.218716 17734 net.cpp:408] conv1/scale <- conv1
I0627 20:34:48.218729 17734 net.cpp:369] conv1/scale -> conv1 (in-place)
I0627 20:34:48.218792 17734 layer_factory.hpp:77] Creating layer conv1/scale
I0627 20:34:48.218999 17734 net.cpp:124] Setting up conv1/scale
I0627 20:34:48.219013 17734 net.cpp:131] Top shape: 16 12 24 24 (110592)
I0627 20:34:48.219022 17734 net.cpp:139] Memory required for data: 1769664
I0627 20:34:48.219034 17734 layer_factory.hpp:77] Creating layer relu1
I0627 20:34:48.219046 17734 net.cpp:86] Creating Layer relu1
I0627 20:34:48.219070 17734 net.cpp:408] relu1 <- conv1
I0627 20:34:48.219082 17734 net.cpp:369] relu1 -> conv1 (in-place)
I0627 20:34:48.219765 17734 net.cpp:124] Setting up relu1
I0627 20:34:48.219781 17734 net.cpp:131] Top shape: 16 12 24 24 (110592)
I0627 20:34:48.219789 17734 net.cpp:139] Memory required for data: 2212032
I0627 20:34:48.219799 17734 layer_factory.hpp:77] Creating layer conv2
I0627 20:34:48.219815 17734 net.cpp:86] Creating Layer conv2
I0627 20:34:48.219825 17734 net.cpp:408] conv2 <- conv1
I0627 20:34:48.219836 17734 net.cpp:382] conv2 -> conv2
I0627 20:34:48.223337 17734 net.cpp:124] Setting up conv2
I0627 20:34:48.223361 17734 net.cpp:131] Top shape: 16 24 12 12 (55296)
I0627 20:34:48.223368 17734 net.cpp:139] Memory required for data: 2433216
I0627 20:34:48.223390 17734 layer_factory.hpp:77] Creating layer conv2/bn
I0627 20:34:48.223407 17734 net.cpp:86] Creating Layer conv2/bn
I0627 20:34:48.223414 17734 net.cpp:408] conv2/bn <- conv2
I0627 20:34:48.223428 17734 net.cpp:369] conv2/bn -> conv2 (in-place)
I0627 20:34:48.223799 17734 net.cpp:124] Setting up conv2/bn
I0627 20:34:48.223814 17734 net.cpp:131] Top shape: 16 24 12 12 (55296)
I0627 20:34:48.223821 17734 net.cpp:139] Memory required for data: 2654400
I0627 20:34:48.223835 17734 layer_factory.hpp:77] Creating layer conv2/scale
I0627 20:34:48.223852 17734 net.cpp:86] Creating Layer conv2/scale
I0627 20:34:48.223862 17734 net.cpp:408] conv2/scale <- conv2
I0627 20:34:48.223873 17734 net.cpp:369] conv2/scale -> conv2 (in-place)
I0627 20:34:48.223937 17734 layer_factory.hpp:77] Creating layer conv2/scale
I0627 20:34:48.224155 17734 net.cpp:124] Setting up conv2/scale
I0627 20:34:48.224169 17734 net.cpp:131] Top shape: 16 24 12 12 (55296)
I0627 20:34:48.224179 17734 net.cpp:139] Memory required for data: 2875584
I0627 20:34:48.224189 17734 layer_factory.hpp:77] Creating layer relu2
I0627 20:34:48.224201 17734 net.cpp:86] Creating Layer relu2
I0627 20:34:48.224218 17734 net.cpp:408] relu2 <- conv2
I0627 20:34:48.224232 17734 net.cpp:369] relu2 -> conv2 (in-place)
I0627 20:34:48.225706 17734 net.cpp:124] Setting up relu2
I0627 20:34:48.225749 17734 net.cpp:131] Top shape: 16 24 12 12 (55296)
I0627 20:34:48.225772 17734 net.cpp:139] Memory required for data: 3096768
I0627 20:34:48.225795 17734 layer_factory.hpp:77] Creating layer conv3
I0627 20:34:48.225827 17734 net.cpp:86] Creating Layer conv3
I0627 20:34:48.225850 17734 net.cpp:408] conv3 <- conv2
I0627 20:34:48.225879 17734 net.cpp:382] conv3 -> conv3
I0627 20:34:48.229849 17734 net.cpp:124] Setting up conv3
I0627 20:34:48.229873 17734 net.cpp:131] Top shape: 16 48 6 6 (27648)
I0627 20:34:48.229888 17734 net.cpp:139] Memory required for data: 3207360
I0627 20:34:48.229904 17734 layer_factory.hpp:77] Creating layer conv3/bn
I0627 20:34:48.229920 17734 net.cpp:86] Creating Layer conv3/bn
I0627 20:34:48.229931 17734 net.cpp:408] conv3/bn <- conv3
I0627 20:34:48.229943 17734 net.cpp:369] conv3/bn -> conv3 (in-place)
I0627 20:34:48.230324 17734 net.cpp:124] Setting up conv3/bn
I0627 20:34:48.230340 17734 net.cpp:131] Top shape: 16 48 6 6 (27648)
I0627 20:34:48.230376 17734 net.cpp:139] Memory required for data: 3317952
I0627 20:34:48.230406 17734 layer_factory.hpp:77] Creating layer conv3/scale
I0627 20:34:48.230432 17734 net.cpp:86] Creating Layer conv3/scale
I0627 20:34:48.230448 17734 net.cpp:408] conv3/scale <- conv3
I0627 20:34:48.230468 17734 net.cpp:369] conv3/scale -> conv3 (in-place)
I0627 20:34:48.230551 17734 layer_factory.hpp:77] Creating layer conv3/scale
I0627 20:34:48.230758 17734 net.cpp:124] Setting up conv3/scale
I0627 20:34:48.230772 17734 net.cpp:131] Top shape: 16 48 6 6 (27648)
I0627 20:34:48.230780 17734 net.cpp:139] Memory required for data: 3428544
I0627 20:34:48.230792 17734 layer_factory.hpp:77] Creating layer relu3
I0627 20:34:48.230803 17734 net.cpp:86] Creating Layer relu3
I0627 20:34:48.230813 17734 net.cpp:408] relu3 <- conv3
I0627 20:34:48.230824 17734 net.cpp:369] relu3 -> conv3 (in-place)
I0627 20:34:48.231613 17734 net.cpp:124] Setting up relu3
I0627 20:34:48.231647 17734 net.cpp:131] Top shape: 16 48 6 6 (27648)
I0627 20:34:48.231655 17734 net.cpp:139] Memory required for data: 3539136
I0627 20:34:48.231662 17734 layer_factory.hpp:77] Creating layer ip1
I0627 20:34:48.231678 17734 net.cpp:86] Creating Layer ip1
I0627 20:34:48.231686 17734 net.cpp:408] ip1 <- conv3
I0627 20:34:48.231698 17734 net.cpp:382] ip1 -> ip1
I0627 20:34:48.234349 17734 net.cpp:124] Setting up ip1
I0627 20:34:48.234369 17734 net.cpp:131] Top shape: 16 128 (2048)
I0627 20:34:48.234376 17734 net.cpp:139] Memory required for data: 3547328
I0627 20:34:48.234388 17734 layer_factory.hpp:77] Creating layer ip2
I0627 20:34:48.234402 17734 net.cpp:86] Creating Layer ip2
I0627 20:34:48.234411 17734 net.cpp:408] ip2 <- ip1
I0627 20:34:48.234426 17734 net.cpp:382] ip2 -> ip2
I0627 20:34:48.234612 17734 net.cpp:124] Setting up ip2
I0627 20:34:48.234625 17734 net.cpp:131] Top shape: 16 2 (32)
I0627 20:34:48.234632 17734 net.cpp:139] Memory required for data: 3547456
I0627 20:34:48.234643 17734 layer_factory.hpp:77] Creating layer ip2_ip2_0_split
I0627 20:34:48.234658 17734 net.cpp:86] Creating Layer ip2_ip2_0_split
I0627 20:34:48.234666 17734 net.cpp:408] ip2_ip2_0_split <- ip2
I0627 20:34:48.234676 17734 net.cpp:382] ip2_ip2_0_split -> ip2_ip2_0_split_0
I0627 20:34:48.234689 17734 net.cpp:382] ip2_ip2_0_split -> ip2_ip2_0_split_1
I0627 20:34:48.234747 17734 net.cpp:124] Setting up ip2_ip2_0_split
I0627 20:34:48.234760 17734 net.cpp:131] Top shape: 16 2 (32)
I0627 20:34:48.234767 17734 net.cpp:131] Top shape: 16 2 (32)
I0627 20:34:48.234773 17734 net.cpp:139] Memory required for data: 3547712
I0627 20:34:48.234779 17734 layer_factory.hpp:77] Creating layer loss
I0627 20:34:48.234794 17734 net.cpp:86] Creating Layer loss
I0627 20:34:48.234802 17734 net.cpp:408] loss <- ip2_ip2_0_split_0
I0627 20:34:48.234812 17734 net.cpp:408] loss <- label_data_1_split_0
I0627 20:34:48.234822 17734 net.cpp:382] loss -> loss
…
