…
I0420 00:52:35.363382  4345 net.cpp:294] The NetState phase (0) differed from the phase (1) specified by a rule in layer data
I0420 00:52:35.363648  4345 net.cpp:51] Initializing net from parameters: 
name: "simpleconv3"
state {
  phase: TRAIN
  level: 0
  stage: ""
}
layer {
  name: "data"
  type: "ImageData"
  top: "data"
  top: "label"
  include {
    phase: TRAIN
  }
  transform_param {
    mirror: true
    crop_size: 48
    mean_value: 104.008
    mean_value: 116.669
    mean_value: 122.675
    contrast_brightness_adjustment: true
  }
  image_data_param {
    source: "train_shuffle.txt"
    batch_size: 96
    shuffle: true
  }
}
layer {
  name: "conv1"
  type: "Convolution"
  bottom: "data"
  top: "conv1"
  param {
    lr_mult: 1
    decay_mult: 1
  }
  param {
    lr_mult: 2
    decay_mult: 0
  }
  convolution_param {
    num_output: 12
    pad: 1
    kernel_size: 3
    stride: 2
    weight_filler {
      type: "xavier"
      std: 0.01
    }
    bias_filler {
      type: "constant"
      value: 0.2
    }
  }
}
layer {
  name: "conv1/bn"
  type: "BatchNorm"
  bottom: "conv1"
  top: "conv1"
  param {
    lr_mult: 0
    decay_mult: 0
  }
  param {
    lr_mult: 0
    decay_mult: 0
  }
  param {
    lr_mult: 0
    decay_mult: 0
  }
}
layer {
  name: "conv1/scale"
  type: "Scale"
  bottom: "conv1"
  top: "conv1"
  param {
    lr_mult: 1
    decay_mult: 0
  }
  param {
    lr_mult: 1
    decay_mult: 0
  }
  scale_param {
    filler {
      value: 1
    }
    bias_term: true
    bias_filler {
      value: 0
    }
  }
}
layer {
  name: "relu1"
  type: "ReLU"
  bottom: "conv1"
  top: "conv1"
}
layer {
  name: "conv2"
  type: "Convolution"
  bottom: "conv1"
  top: "conv2"
  param {
    lr_mult: 1
    decay_mult: 1
  }
  param {
    lr_mult: 2
    decay_mult: 0
  }
  convolution_param {
    num_output: 24
    pad: 1
    kernel_size: 3
    stride: 2
    weight_filler {
      type: "xavier"
      std: 0.1
    }
    bias_filler {
      type: "constant"
      value: 0.2
    }
  }
}
layer {
  name: "conv2/bn"
  type: "BatchNorm"
  bottom: "conv2"
  top: "conv2"
  param {
    lr_mult: 0
    decay_mult: 0
  }
  param {
    lr_mult: 0
    decay_mult: 0
  }
  param {
    lr_mult: 0
    decay_mult: 0
  }
}
layer {
  name: "conv2/scale"
  type: "Scale"
  bottom: "conv2"
  top: "conv2"
  param {
    lr_mult: 1
    decay_mult: 0
  }
  param {
    lr_mult: 1
    decay_mult: 0
  }
  scale_param {
    filler {
      value: 1
    }
    bias_term: true
    bias_filler {
      value: 0
    }
  }
}
layer {
  name: "relu2"
  type: "ReLU"
  bottom: "conv2"
  top: "conv2"
}
layer {
  name: "conv3"
  type: "Convolution"
  bottom: "conv2"
  top: "conv3"
  param {
    lr_mult: 1
    decay_mult: 1
  }
  param {
    lr_mult: 2
    decay_mult: 0
  }
  convolution_param {
    num_output: 48
    pad: 1
    kernel_size: 3
    stride: 2
    weight_filler {
      type: "xavier"
      std: 0.1
    }
    bias_filler {
      type: "constant"
      value: 0.2
    }
  }
}
layer {
  name: "conv3/bn"
  type: "BatchNorm"
  bottom: "conv3"
  top: "conv3"
  param {
    lr_mult: 0
    decay_mult: 0
  }
  param {
    lr_mult: 0
    decay_mult: 0
  }
  param {
    lr_mult: 0
    decay_mult: 0
  }
}
layer {
  name: "conv3/scale"
  type: "Scale"
  bottom: "conv3"
  top: "conv3"
  param {
    lr_mult: 1
    decay_mult: 0
  }
  param {
    lr_mult: 1
    decay_mult: 0
  }
  scale_param {
    filler {
      value: 1
    }
    bias_term: true
    bias_filler {
      value: 0
    }
  }
}
layer {
  name: "relu3"
  type: "ReLU"
  bottom: "conv3"
  top: "conv3"
}
layer {
  name: "ip1"
  type: "InnerProduct"
  bottom: "conv3"
  top: "ip1"
  param {
    lr_mult: 1
    decay_mult: 1
  }
  param {
    lr_mult: 2
    decay_mult: 0
  }
  inner_product_param {
    num_output: 128
    weight_filler {
      type: "xavier"
    }
    bias_filler {
      type: "constant"
      value: 0
    }
  }
}
layer {
  name: "ip2"
  type: "InnerProduct"
  bottom: "ip1"
  top: "ip2"
  param {
    lr_mult: 1
    decay_mult: 1
  }
  param {
    lr_mult: 2
    decay_mult: 1
  }
  inner_product_param {
    num_output: 2
    weight_filler {
      type: "xavier"
    }
    bias_filler {
      type: "constant"
      value: 0
    }
  }
}
layer {
  name: "loss"
  type: "SoftmaxWithLoss"
  bottom: "ip2"
  bottom: "label"
  top: "loss"
}
layer {
  name: "acc"
  type: "Accuracy"
  bottom: "ip2"
  bottom: "label"
  top: "acc"
}
I0420 00:52:35.363919  4345 layer_factory.hpp:77] Creating layer data
I0420 00:52:35.363979  4345 net.cpp:84] Creating Layer data
I0420 00:52:35.363997  4345 net.cpp:380] data -> data
I0420 00:52:35.364056  4345 net.cpp:380] data -> label
I0420 00:52:35.364881  4345 image_data_layer.cpp:43] Opening file train_shuffle.txt
I0420 00:52:35.364900  4345 io.cpp:296] Opening file train_shuffle.txt
I0420 00:52:35.367609  4345 io.cpp:321] Read 900 images with 1 labels
I0420 00:52:35.367633  4345 image_data_layer.cpp:61] Shuffling data
I0420 00:52:35.368010  4345 image_data_layer.cpp:71] A total of 900 images.
I0420 00:52:35.369973  4345 image_data_layer.cpp:98] output data size: 96,3,48,48
I0420 00:52:35.391104  4345 net.cpp:122] Setting up data
I0420 00:52:35.391150  4345 net.cpp:129] Top shape: 96 3 48 48 (663552)
I0420 00:52:35.391167  4345 net.cpp:129] Top shape: 96 1 1 1 (96)
I0420 00:52:35.391176  4345 net.cpp:137] Memory required for data: 2654592
I0420 00:52:35.391192  4345 layer_factory.hpp:77] Creating layer label_data_1_split
I0420 00:52:35.391276  4345 net.cpp:84] Creating Layer label_data_1_split
I0420 00:52:35.391330  4345 net.cpp:406] label_data_1_split <- label
I0420 00:52:35.391396  4345 net.cpp:380] label_data_1_split -> label_data_1_split_0
I0420 00:52:35.391460  4345 net.cpp:380] label_data_1_split -> label_data_1_split_1
I0420 00:52:35.391610  4345 net.cpp:122] Setting up label_data_1_split
I0420 00:52:35.391635  4345 net.cpp:129] Top shape: 96 1 1 1 (96)
I0420 00:52:35.391649  4345 net.cpp:129] Top shape: 96 1 1 1 (96)
I0420 00:52:35.391659  4345 net.cpp:137] Memory required for data: 2655360
I0420 00:52:35.391669  4345 layer_factory.hpp:77] Creating layer conv1
I0420 00:52:35.391710  4345 net.cpp:84] Creating Layer conv1
I0420 00:52:35.391723  4345 net.cpp:406] conv1 <- data
I0420 00:52:35.391748  4345 net.cpp:380] conv1 -> conv1
I0420 00:52:35.393074  4345 net.cpp:122] Setting up conv1
I0420 00:52:35.393105  4345 net.cpp:129] Top shape: 96 12 24 24 (663552)
I0420 00:52:35.393116  4345 net.cpp:137] Memory required for data: 5309568
I0420 00:52:35.393153  4345 layer_factory.hpp:77] Creating layer conv1/bn
I0420 00:52:35.393177  4345 net.cpp:84] Creating Layer conv1/bn
I0420 00:52:35.393249  4345 net.cpp:406] conv1/bn <- conv1
I0420 00:52:35.393309  4345 net.cpp:367] conv1/bn -> conv1 (in-place)
I0420 00:52:35.393690  4345 net.cpp:122] Setting up conv1/bn
I0420 00:52:35.393716  4345 net.cpp:129] Top shape: 96 12 24 24 (663552)
I0420 00:52:35.393728  4345 net.cpp:137] Memory required for data: 7963776
I0420 00:52:35.393760  4345 layer_factory.hpp:77] Creating layer conv1/scale
I0420 00:52:35.393796  4345 net.cpp:84] Creating Layer conv1/scale
I0420 00:52:35.393843  4345 net.cpp:406] conv1/scale <- conv1
I0420 00:52:35.393896  4345 net.cpp:367] conv1/scale -> conv1 (in-place)
I0420 00:52:35.395133  4345 layer_factory.hpp:77] Creating layer conv1/scale
I0420 00:52:35.395488  4345 net.cpp:122] Setting up conv1/scale
I0420 00:52:35.395519  4345 net.cpp:129] Top shape: 96 12 24 24 (663552)
I0420 00:52:35.395592  4345 net.cpp:137] Memory required for data: 10617984
I0420 00:52:35.395649  4345 layer_factory.hpp:77] Creating layer relu1
I0420 00:52:35.395702  4345 net.cpp:84] Creating Layer relu1
I0420 00:52:35.395746  4345 net.cpp:406] relu1 <- conv1
I0420 00:52:35.395794  4345 net.cpp:367] relu1 -> conv1 (in-place)
I0420 00:52:35.395846  4345 net.cpp:122] Setting up relu1
I0420 00:52:35.395895  4345 net.cpp:129] Top shape: 96 12 24 24 (663552)
I0420 00:52:35.395934  4345 net.cpp:137] Memory required for data: 13272192
I0420 00:52:35.395974  4345 layer_factory.hpp:77] Creating layer conv2
I0420 00:52:35.396057  4345 net.cpp:84] Creating Layer conv2
I0420 00:52:35.396081  4345 net.cpp:406] conv2 <- conv1
I0420 00:52:35.396104  4345 net.cpp:380] conv2 -> conv2
I0420 00:52:35.397349  4345 net.cpp:122] Setting up conv2
I0420 00:52:35.397378  4345 net.cpp:129] Top shape: 96 24 12 12 (331776)
I0420 00:52:35.397390  4345 net.cpp:137] Memory required for data: 14599296
I0420 00:52:35.397416  4345 layer_factory.hpp:77] Creating layer conv2/bn
I0420 00:52:35.397442  4345 net.cpp:84] Creating Layer conv2/bn
I0420 00:52:35.397455  4345 net.cpp:406] conv2/bn <- conv2
I0420 00:52:35.397476  4345 net.cpp:367] conv2/bn -> conv2 (in-place)
I0420 00:52:35.397801  4345 net.cpp:122] Setting up conv2/bn
I0420 00:52:35.397823  4345 net.cpp:129] Top shape: 96 24 12 12 (331776)
I0420 00:52:35.397833  4345 net.cpp:137] Memory required for data: 15926400
I0420 00:52:35.397855  4345 layer_factory.hpp:77] Creating layer conv2/scale
I0420 00:52:35.397884  4345 net.cpp:84] Creating Layer conv2/scale
I0420 00:52:35.397895  4345 net.cpp:406] conv2/scale <- conv2
I0420 00:52:35.397913  4345 net.cpp:367] conv2/scale -> conv2 (in-place)
I0420 00:52:35.398010  4345 layer_factory.hpp:77] Creating layer conv2/scale
I0420 00:52:35.398212  4345 net.cpp:122] Setting up conv2/scale
I0420 00:52:35.398232  4345 net.cpp:129] Top shape: 96 24 12 12 (331776)
I0420 00:52:35.398242  4345 net.cpp:137] Memory required for data: 17253504
I0420 00:52:35.398260  4345 layer_factory.hpp:77] Creating layer relu2
I0420 00:52:35.398277  4345 net.cpp:84] Creating Layer relu2
I0420 00:52:35.398286  4345 net.cpp:406] relu2 <- conv2
I0420 00:52:35.398301  4345 net.cpp:367] relu2 -> conv2 (in-place)
I0420 00:52:35.398317  4345 net.cpp:122] Setting up relu2
I0420 00:52:35.398332  4345 net.cpp:129] Top shape: 96 24 12 12 (331776)
I0420 00:52:35.398342  4345 net.cpp:137] Memory required for data: 18580608
I0420 00:52:35.398352  4345 layer_factory.hpp:77] Creating layer conv3
I0420 00:52:35.398380  4345 net.cpp:84] Creating Layer conv3
I0420 00:52:35.398392  4345 net.cpp:406] conv3 <- conv2
I0420 00:52:35.398411  4345 net.cpp:380] conv3 -> conv3
I0420 00:52:35.399679  4345 net.cpp:122] Setting up conv3
I0420 00:52:35.399708  4345 net.cpp:129] Top shape: 96 48 6 6 (165888)
I0420 00:52:35.399719  4345 net.cpp:137] Memory required for data: 19244160
I0420 00:52:35.399739  4345 layer_factory.hpp:77] Creating layer conv3/bn
I0420 00:52:35.399763  4345 net.cpp:84] Creating Layer conv3/bn
I0420 00:52:35.399775  4345 net.cpp:406] conv3/bn <- conv3
I0420 00:52:35.399796  4345 net.cpp:367] conv3/bn -> conv3 (in-place)
I0420 00:52:35.400156  4345 net.cpp:122] Setting up conv3/bn
I0420 00:52:35.400179  4345 net.cpp:129] Top shape: 96 48 6 6 (165888)
I0420 00:52:35.400190  4345 net.cpp:137] Memory required for data: 19907712
I0420 00:52:35.400226  4345 layer_factory.hpp:77] Creating layer conv3/scale
I0420 00:52:35.400249  4345 net.cpp:84] Creating Layer conv3/scale
I0420 00:52:35.400262  4345 net.cpp:406] conv3/scale <- conv3
I0420 00:52:35.400285  4345 net.cpp:367] conv3/scale -> conv3 (in-place)
I0420 00:52:35.400373  4345 layer_factory.hpp:77] Creating layer conv3/scale
I0420 00:52:35.400583  4345 net.cpp:122] Setting up conv3/scale
I0420 00:52:35.400604  4345 net.cpp:129] Top shape: 96 48 6 6 (165888)
I0420 00:52:35.400614  4345 net.cpp:137] Memory required for data: 20571264
I0420 00:52:35.400631  4345 layer_factory.hpp:77] Creating layer relu3
I0420 00:52:35.400648  4345 net.cpp:84] Creating Layer relu3
I0420 00:52:35.400682  4345 net.cpp:406] relu3 <- conv3
I0420 00:52:35.400705  4345 net.cpp:367] relu3 -> conv3 (in-place)
I0420 00:52:35.400723  4345 net.cpp:122] Setting up relu3
I0420 00:52:35.400738  4345 net.cpp:129] Top shape: 96 48 6 6 (165888)
I0420 00:52:35.400748  4345 net.cpp:137] Memory required for data: 21234816
I0420 00:52:35.400758  4345 layer_factory.hpp:77] Creating layer ip1
I0420 00:52:35.400779  4345 net.cpp:84] Creating Layer ip1
I0420 00:52:35.400789  4345 net.cpp:406] ip1 <- conv3
I0420 00:52:35.400804  4345 net.cpp:380] ip1 -> ip1
I0420 00:52:35.404135  4345 net.cpp:122] Setting up ip1
I0420 00:52:35.404163  4345 net.cpp:129] Top shape: 96 128 (12288)
I0420 00:52:35.404175  4345 net.cpp:137] Memory required for data: 21283968
I0420 00:52:35.404194  4345 layer_factory.hpp:77] Creating layer ip2
I0420 00:52:35.404220  4345 net.cpp:84] Creating Layer ip2
I0420 00:52:35.404232  4345 net.cpp:406] ip2 <- ip1
I0420 00:52:35.404255  4345 net.cpp:380] ip2 -> ip2
I0420 00:52:35.404439  4345 net.cpp:122] Setting up ip2
I0420 00:52:35.404460  4345 net.cpp:129] Top shape: 96 2 (192)
I0420 00:52:35.404470  4345 net.cpp:137] Memory required for data: 21284736
I0420 00:52:35.404487  4345 layer_factory.hpp:77] Creating layer ip2_ip2_0_split
I0420 00:52:35.404515  4345 net.cpp:84] Creating Layer ip2_ip2_0_split
I0420 00:52:35.404526  4345 net.cpp:406] ip2_ip2_0_split <- ip2
I0420 00:52:35.404544  4345 net.cpp:380] ip2_ip2_0_split -> ip2_ip2_0_split_0
I0420 00:52:35.404565  4345 net.cpp:380] ip2_ip2_0_split -> ip2_ip2_0_split_1
I0420 00:52:35.404647  4345 net.cpp:122] Setting up ip2_ip2_0_split
I0420 00:52:35.404664  4345 net.cpp:129] Top shape: 96 2 (192)
I0420 00:52:35.404678  4345 net.cpp:129] Top shape: 96 2 (192)
I0420 00:52:35.404687  4345 net.cpp:137] Memory required for data: 21286272
I0420 00:52:35.404697  4345 layer_factory.hpp:77] Creating layer loss
I0420 00:52:35.404713  4345 net.cpp:84] Creating Layer loss
I0420 00:52:35.404724  4345 net.cpp:406] loss <- ip2_ip2_0_split_0
I0420 00:52:35.404737  4345 net.cpp:406] loss <- label_data_1_split_0
I0420 00:52:35.404759  4345 net.cpp:380] loss -> loss
…
I0420 00:52:35.406019  4345 net.cpp:294] The NetState phase (1) differed from the phase (0) specified by a rule in layer data
I0420 00:52:35.406272  4345 net.cpp:51] Initializing net from parameters: 
name: "simpleconv3"
state {
  phase: TEST
}
layer {
  name: "data"
  type: "ImageData"
  top: "data"
  top: "label"
  include {
    phase: TEST
  }
  transform_param {
    mirror: false
    crop_size: 48
    mean_value: 104.008
    mean_value: 116.669
    mean_value: 122.675
  }
  image_data_param {
    source: "val_shuffle.txt"
    batch_size: 16
    shuffle: false
  }
}
layer {
  name: "conv1"
  type: "Convolution"
  bottom: "data"
  top: "conv1"
  param {
    lr_mult: 1
    decay_mult: 1
  }
  param {
    lr_mult: 2
    decay_mult: 0
  }
  convolution_param {
    num_output: 12
    pad: 1
    kernel_size: 3
    stride: 2
    weight_filler {
      type: "xavier"
      std: 0.01
    }
    bias_filler {
      type: "constant"
      value: 0.2
    }
  }
}
layer {
  name: "conv1/bn"
  type: "BatchNorm"
  bottom: "conv1"
  top: "conv1"
  param {
    lr_mult: 0
    decay_mult: 0
  }
  param {
    lr_mult: 0
    decay_mult: 0
  }
  param {
    lr_mult: 0
    decay_mult: 0
  }
}
layer {
  name: "conv1/scale"
  type: "Scale"
  bottom: "conv1"
  top: "conv1"
  param {
    lr_mult: 1
    decay_mult: 0
  }
  param {
    lr_mult: 1
    decay_mult: 0
  }
  scale_param {
    filler {
      value: 1
    }
    bias_term: true
    bias_filler {
      value: 0
    }
  }
}
layer {
  name: "relu1"
  type: "ReLU"
  bottom: "conv1"
  top: "conv1"
}
layer {
  name: "conv2"
  type: "Convolution"
  bottom: "conv1"
  top: "conv2"
  param {
    lr_mult: 1
    decay_mult: 1
  }
  param {
    lr_mult: 2
    decay_mult: 0
  }
  convolution_param {
    num_output: 24
    pad: 1
    kernel_size: 3
    stride: 2
    weight_filler {
      type: "xavier"
      std: 0.1
    }
    bias_filler {
      type: "constant"
      value: 0.2
    }
  }
}
layer {
  name: "conv2/bn"
  type: "BatchNorm"
  bottom: "conv2"
  top: "conv2"
  param {
    lr_mult: 0
    decay_mult: 0
  }
  param {
    lr_mult: 0
    decay_mult: 0
  }
  param {
    lr_mult: 0
    decay_mult: 0
  }
}
layer {
  name: "conv2/scale"
  type: "Scale"
  bottom: "conv2"
  top: "conv2"
  param {
    lr_mult: 1
    decay_mult: 0
  }
  param {
    lr_mult: 1
    decay_mult: 0
  }
  scale_param {
    filler {
      value: 1
    }
    bias_term: true
    bias_filler {
      value: 0
    }
  }
}
layer {
  name: "relu2"
  type: "ReLU"
  bottom: "conv2"
  top: "conv2"
}
layer {
  name: "conv3"
  type: "Convolution"
  bottom: "conv2"
  top: "conv3"
  param {
    lr_mult: 1
    decay_mult: 1
  }
  param {
    lr_mult: 2
    decay_mult: 0
  }
  convolution_param {
    num_output: 48
    pad: 1
    kernel_size: 3
    stride: 2
    weight_filler {
      type: "xavier"
      std: 0.1
    }
    bias_filler {
      type: "constant"
      value: 0.2
    }
  }
}
layer {
  name: "conv3/bn"
  type: "BatchNorm"
  bottom: "conv3"
  top: "conv3"
  param {
    lr_mult: 0
    decay_mult: 0
  }
  param {
    lr_mult: 0
    decay_mult: 0
  }
  param {
    lr_mult: 0
    decay_mult: 0
  }
}
layer {
  name: "conv3/scale"
  type: "Scale"
  bottom: "conv3"
  top: "conv3"
  param {
    lr_mult: 1
    decay_mult: 0
  }
  param {
    lr_mult: 1
    decay_mult: 0
  }
  scale_param {
    filler {
      value: 1
    }
    bias_term: true
    bias_filler {
      value: 0
    }
  }
}
layer {
  name: "relu3"
  type: "ReLU"
  bottom: "conv3"
  top: "conv3"
}
layer {
  name: "ip1"
  type: "InnerProduct"
  bottom: "conv3"
  top: "ip1"
  param {
    lr_mult: 1
    decay_mult: 1
  }
  param {
    lr_mult: 2
    decay_mult: 0
  }
  inner_product_param {
    num_output: 128
    weight_filler {
      type: "xavier"
    }
    bias_filler {
      type: "constant"
      value: 0
    }
  }
}
layer {
  name: "ip2"
  type: "InnerProduct"
  bottom: "ip1"
  top: "ip2"
  param {
    lr_mult: 1
    decay_mult: 1
  }
  param {
    lr_mult: 2
    decay_mult: 1
  }
  inner_product_param {
    num_output: 2
    weight_filler {
      type: "xavier"
    }
    bias_filler {
      type: "constant"
      value: 0
    }
  }
}
layer {
  name: "loss"
  type: "SoftmaxWithLoss"
  bottom: "ip2"
  bottom: "label"
  top: "loss"
}
layer {
  name: "acc"
  type: "Accuracy"
  bottom: "ip2"
  bottom: "label"
  top: "acc"
}
I0420 00:52:35.406503  4345 layer_factory.hpp:77] Creating layer data
I0420 00:52:35.406539  4345 net.cpp:84] Creating Layer data
I0420 00:52:35.406555  4345 net.cpp:380] data -> data
I0420 00:52:35.406577  4345 net.cpp:380] data -> label
I0420 00:52:35.406603  4345 image_data_layer.cpp:43] Opening file val_shuffle.txt
I0420 00:52:35.406615  4345 io.cpp:296] Opening file val_shuffle.txt
I0420 00:52:35.407132  4345 io.cpp:321] Read 100 images with 1 labels
I0420 00:52:35.407153  4345 image_data_layer.cpp:71] A total of 100 images.
I0420 00:52:35.407685  4345 image_data_layer.cpp:98] output data size: 16,3,48,48
I0420 00:52:35.413518  4345 net.cpp:122] Setting up data
I0420 00:52:35.413605  4345 net.cpp:129] Top shape: 16 3 48 48 (110592)
I0420 00:52:35.413630  4345 net.cpp:129] Top shape: 16 1 1 1 (16)
I0420 00:52:35.413640  4345 net.cpp:137] Memory required for data: 442432
I0420 00:52:35.413652  4345 layer_factory.hpp:77] Creating layer label_data_1_split
I0420 00:52:35.413684  4345 net.cpp:84] Creating Layer label_data_1_split
I0420 00:52:35.413697  4345 net.cpp:406] label_data_1_split <- label
I0420 00:52:35.413722  4345 net.cpp:380] label_data_1_split -> label_data_1_split_0
I0420 00:52:35.413748  4345 net.cpp:380] label_data_1_split -> label_data_1_split_1
I0420 00:52:35.413854  4345 net.cpp:122] Setting up label_data_1_split
I0420 00:52:35.413878  4345 net.cpp:129] Top shape: 16 1 1 1 (16)
I0420 00:52:35.413893  4345 net.cpp:129] Top shape: 16 1 1 1 (16)
I0420 00:52:35.413902  4345 net.cpp:137] Memory required for data: 442560
I0420 00:52:35.413913  4345 layer_factory.hpp:77] Creating layer conv1
I0420 00:52:35.413949  4345 net.cpp:84] Creating Layer conv1
I0420 00:52:35.413969  4345 net.cpp:406] conv1 <- data
I0420 00:52:35.413990  4345 net.cpp:380] conv1 -> conv1
I0420 00:52:35.414440  4345 net.cpp:122] Setting up conv1
I0420 00:52:35.414463  4345 net.cpp:129] Top shape: 16 12 24 24 (110592)
I0420 00:52:35.414474  4345 net.cpp:137] Memory required for data: 884928
I0420 00:52:35.414501  4345 layer_factory.hpp:77] Creating layer conv1/bn
I0420 00:52:35.414526  4345 net.cpp:84] Creating Layer conv1/bn
I0420 00:52:35.414541  4345 net.cpp:406] conv1/bn <- conv1
I0420 00:52:35.414557  4345 net.cpp:367] conv1/bn -> conv1 (in-place)
I0420 00:52:35.414891  4345 net.cpp:122] Setting up conv1/bn
I0420 00:52:35.414911  4345 net.cpp:129] Top shape: 16 12 24 24 (110592)
I0420 00:52:35.414921  4345 net.cpp:137] Memory required for data: 1327296
I0420 00:52:35.414950  4345 layer_factory.hpp:77] Creating layer conv1/scale
I0420 00:52:35.414975  4345 net.cpp:84] Creating Layer conv1/scale
I0420 00:52:35.414988  4345 net.cpp:406] conv1/scale <- conv1
I0420 00:52:35.415009  4345 net.cpp:367] conv1/scale -> conv1 (in-place)
I0420 00:52:35.415098  4345 layer_factory.hpp:77] Creating layer conv1/scale
I0420 00:52:35.415441  4345 net.cpp:122] Setting up conv1/scale
I0420 00:52:35.415482  4345 net.cpp:129] Top shape: 16 12 24 24 (110592)
I0420 00:52:35.415493  4345 net.cpp:137] Memory required for data: 1769664
I0420 00:52:35.415513  4345 layer_factory.hpp:77] Creating layer relu1
I0420 00:52:35.415535  4345 net.cpp:84] Creating Layer relu1
I0420 00:52:35.415547  4345 net.cpp:406] relu1 <- conv1
I0420 00:52:35.415563  4345 net.cpp:367] relu1 -> conv1 (in-place)
I0420 00:52:35.415580  4345 net.cpp:122] Setting up relu1
I0420 00:52:35.415596  4345 net.cpp:129] Top shape: 16 12 24 24 (110592)
I0420 00:52:35.415606  4345 net.cpp:137] Memory required for data: 2212032
I0420 00:52:35.415616  4345 layer_factory.hpp:77] Creating layer conv2
I0420 00:52:35.415643  4345 net.cpp:84] Creating Layer conv2
I0420 00:52:35.415654  4345 net.cpp:406] conv2 <- conv1
I0420 00:52:35.415675  4345 net.cpp:380] conv2 -> conv2
I0420 00:52:35.416704  4345 net.cpp:122] Setting up conv2
I0420 00:52:35.416774  4345 net.cpp:129] Top shape: 16 24 12 12 (55296)
I0420 00:52:35.416815  4345 net.cpp:137] Memory required for data: 2433216
I0420 00:52:35.416870  4345 layer_factory.hpp:77] Creating layer conv2/bn
I0420 00:52:35.416918  4345 net.cpp:84] Creating Layer conv2/bn
I0420 00:52:35.416955  4345 net.cpp:406] conv2/bn <- conv2
I0420 00:52:35.417003  4345 net.cpp:367] conv2/bn -> conv2 (in-place)
I0420 00:52:35.417520  4345 net.cpp:122] Setting up conv2/bn
I0420 00:52:35.417582  4345 net.cpp:129] Top shape: 16 24 12 12 (55296)
I0420 00:52:35.417623  4345 net.cpp:137] Memory required for data: 2654400
I0420 00:52:35.417675  4345 layer_factory.hpp:77] Creating layer conv2/scale
I0420 00:52:35.417727  4345 net.cpp:84] Creating Layer conv2/scale
I0420 00:52:35.417773  4345 net.cpp:406] conv2/scale <- conv2
I0420 00:52:35.417840  4345 net.cpp:367] conv2/scale -> conv2 (in-place)
I0420 00:52:35.417990  4345 layer_factory.hpp:77] Creating layer conv2/scale
I0420 00:52:35.418334  4345 net.cpp:122] Setting up conv2/scale
I0420 00:52:35.418395  4345 net.cpp:129] Top shape: 16 24 12 12 (55296)
I0420 00:52:35.418440  4345 net.cpp:137] Memory required for data: 2875584
I0420 00:52:35.418488  4345 layer_factory.hpp:77] Creating layer relu2
I0420 00:52:35.418531  4345 net.cpp:84] Creating Layer relu2
I0420 00:52:35.418570  4345 net.cpp:406] relu2 <- conv2
I0420 00:52:35.418618  4345 net.cpp:367] relu2 -> conv2 (in-place)
I0420 00:52:35.418670  4345 net.cpp:122] Setting up relu2
I0420 00:52:35.418720  4345 net.cpp:129] Top shape: 16 24 12 12 (55296)
I0420 00:52:35.418756  4345 net.cpp:137] Memory required for data: 3096768
I0420 00:52:35.418792  4345 layer_factory.hpp:77] Creating layer conv3
I0420 00:52:35.418843  4345 net.cpp:84] Creating Layer conv3
I0420 00:52:35.418886  4345 net.cpp:406] conv3 <- conv2
I0420 00:52:35.418938  4345 net.cpp:380] conv3 -> conv3
I0420 00:52:35.419838  4345 net.cpp:122] Setting up conv3
I0420 00:52:35.419906  4345 net.cpp:129] Top shape: 16 48 6 6 (27648)
I0420 00:52:35.419948  4345 net.cpp:137] Memory required for data: 3207360
I0420 00:52:35.420002  4345 layer_factory.hpp:77] Creating layer conv3/bn
I0420 00:52:35.420078  4345 net.cpp:84] Creating Layer conv3/bn
I0420 00:52:35.420127  4345 net.cpp:406] conv3/bn <- conv3
I0420 00:52:35.420183  4345 net.cpp:367] conv3/bn -> conv3 (in-place)
I0420 00:52:35.420702  4345 net.cpp:122] Setting up conv3/bn
I0420 00:52:35.420766  4345 net.cpp:129] Top shape: 16 48 6 6 (27648)
I0420 00:52:35.420805  4345 net.cpp:137] Memory required for data: 3317952
I0420 00:52:35.420867  4345 layer_factory.hpp:77] Creating layer conv3/scale
I0420 00:52:35.420928  4345 net.cpp:84] Creating Layer conv3/scale
I0420 00:52:35.420967  4345 net.cpp:406] conv3/scale <- conv3
I0420 00:52:35.421006  4345 net.cpp:367] conv3/scale -> conv3 (in-place)
I0420 00:52:35.421124  4345 layer_factory.hpp:77] Creating layer conv3/scale
I0420 00:52:35.421417  4345 net.cpp:122] Setting up conv3/scale
I0420 00:52:35.421458  4345 net.cpp:129] Top shape: 16 48 6 6 (27648)
I0420 00:52:35.421468  4345 net.cpp:137] Memory required for data: 3428544
I0420 00:52:35.421514  4345 layer_factory.hpp:77] Creating layer relu3
I0420 00:52:35.421538  4345 net.cpp:84] Creating Layer relu3
I0420 00:52:35.421550  4345 net.cpp:406] relu3 <- conv3
I0420 00:52:35.421564  4345 net.cpp:367] relu3 -> conv3 (in-place)
I0420 00:52:35.421581  4345 net.cpp:122] Setting up relu3
I0420 00:52:35.421595  4345 net.cpp:129] Top shape: 16 48 6 6 (27648)
I0420 00:52:35.421604  4345 net.cpp:137] Memory required for data: 3539136
I0420 00:52:35.421613  4345 layer_factory.hpp:77] Creating layer ip1
I0420 00:52:35.421630  4345 net.cpp:84] Creating Layer ip1
I0420 00:52:35.421640  4345 net.cpp:406] ip1 <- conv3
I0420 00:52:35.421658  4345 net.cpp:380] ip1 -> ip1
I0420 00:52:35.427659  4345 net.cpp:122] Setting up ip1
I0420 00:52:35.427749  4345 net.cpp:129] Top shape: 16 128 (2048)
I0420 00:52:35.427827  4345 net.cpp:137] Memory required for data: 3547328
I0420 00:52:35.427884  4345 layer_factory.hpp:77] Creating layer ip2
I0420 00:52:35.427937  4345 net.cpp:84] Creating Layer ip2
I0420 00:52:35.427983  4345 net.cpp:406] ip2 <- ip1
I0420 00:52:35.428053  4345 net.cpp:380] ip2 -> ip2
I0420 00:52:35.428378  4345 net.cpp:122] Setting up ip2
I0420 00:52:35.428442  4345 net.cpp:129] Top shape: 16 2 (32)
I0420 00:52:35.428485  4345 net.cpp:137] Memory required for data: 3547456
I0420 00:52:35.428532  4345 layer_factory.hpp:77] Creating layer ip2_ip2_0_split
I0420 00:52:35.428583  4345 net.cpp:84] Creating Layer ip2_ip2_0_split
I0420 00:52:35.428622  4345 net.cpp:406] ip2_ip2_0_split <- ip2
I0420 00:52:35.428669  4345 net.cpp:380] ip2_ip2_0_split -> ip2_ip2_0_split_0
I0420 00:52:35.428727  4345 net.cpp:380] ip2_ip2_0_split -> ip2_ip2_0_split_1
I0420 00:52:35.428861  4345 net.cpp:122] Setting up ip2_ip2_0_split
I0420 00:52:35.428915  4345 net.cpp:129] Top shape: 16 2 (32)
I0420 00:52:35.428961  4345 net.cpp:129] Top shape: 16 2 (32)
I0420 00:52:35.428997  4345 net.cpp:137] Memory required for data: 3547712
I0420 00:52:35.429033  4345 layer_factory.hpp:77] Creating layer loss
I0420 00:52:35.429075  4345 net.cpp:84] Creating Layer loss
I0420 00:52:35.429112  4345 net.cpp:406] loss <- ip2_ip2_0_split_0
I0420 00:52:35.429169  4345 net.cpp:406] loss <- label_data_1_split_0
I0420 00:52:35.429222  4345 net.cpp:380] loss -> loss
…
