…
I0627 20:14:02.791180 17315 net.cpp:296] The NetState phase (0) differed from the phase (1) specified by a rule in layer data
I0627 20:14:02.791352 17315 net.cpp:53] Initializing net from parameters: 
name: "simpleconv3"
state {
  phase: TRAIN
  level: 0
  stage: ""
}
layer {
  name: "data"
  type: "ImageData"
  top: "data"
  top: "label"
  include {
    phase: TRAIN
  }
  transform_param {
    mirror: true
    crop_size: 48
    mean_value: 104.008
    mean_value: 116.669
    mean_value: 122.675
    min_side_min: 48
    min_side_max: 48
  }
  image_data_param {
    source: "train_shuffle.txt"
    batch_size: 96
    shuffle: true
  }
}
layer {
  name: "conv1"
  type: "Convolution"
  bottom: "data"
  top: "conv1"
  param {
    lr_mult: 1
    decay_mult: 1
  }
  param {
    lr_mult: 2
    decay_mult: 0
  }
  convolution_param {
    num_output: 12
    pad: 1
    kernel_size: 3
    stride: 2
    weight_filler {
      type: "xavier"
      std: 0.01
    }
    bias_filler {
      type: "constant"
      value: 0.2
    }
  }
}
layer {
  name: "conv1/bn"
  type: "BatchNorm"
  bottom: "conv1"
  top: "conv1"
  param {
    lr_mult: 0
    decay_mult: 0
  }
  param {
    lr_mult: 0
    decay_mult: 0
  }
  param {
    lr_mult: 0
    decay_mult: 0
  }
}
layer {
  name: "conv1/scale"
  type: "Scale"
  bottom: "conv1"
  top: "conv1"
  param {
    lr_mult: 1
    decay_mult: 0
  }
  param {
    lr_mult: 1
    decay_mult: 0
  }
  scale_param {
    filler {
      value: 1
    }
    bias_term: true
    bias_filler {
      value: 0
    }
  }
}
layer {
  name: "relu1"
  type: "ReLU"
  bottom: "conv1"
  top: "conv1"
}
layer {
  name: "conv2"
  type: "Convolution"
  bottom: "conv1"
  top: "conv2"
  param {
    lr_mult: 1
    decay_mult: 1
  }
  param {
    lr_mult: 2
    decay_mult: 0
  }
  convolution_param {
    num_output: 24
    pad: 1
    kernel_size: 3
    stride: 2
    weight_filler {
      type: "xavier"
      std: 0.1
    }
    bias_filler {
      type: "constant"
      value: 0.2
    }
  }
}
layer {
  name: "conv2/bn"
  type: "BatchNorm"
  bottom: "conv2"
  top: "conv2"
  param {
    lr_mult: 0
    decay_mult: 0
  }
  param {
    lr_mult: 0
    decay_mult: 0
  }
  param {
    lr_mult: 0
    decay_mult: 0
  }
}
layer {
  name: "conv2/scale"
  type: "Scale"
  bottom: "conv2"
  top: "conv2"
  param {
    lr_mult: 1
    decay_mult: 0
  }
  param {
    lr_mult: 1
    decay_mult: 0
  }
  scale_param {
    filler {
      value: 1
    }
    bias_term: true
    bias_filler {
      value: 0
    }
  }
}
layer {
  name: "relu2"
  type: "ReLU"
  bottom: "conv2"
  top: "conv2"
}
layer {
  name: "conv3"
  type: "Convolution"
  bottom: "conv2"
  top: "conv3"
  param {
    lr_mult: 1
    decay_mult: 1
  }
  param {
    lr_mult: 2
    decay_mult: 0
  }
  convolution_param {
    num_output: 48
    pad: 1
    kernel_size: 3
    stride: 2
    weight_filler {
      type: "xavier"
      std: 0.1
    }
    bias_filler {
      type: "constant"
      value: 0.2
    }
  }
}
layer {
  name: "conv3/bn"
  type: "BatchNorm"
  bottom: "conv3"
  top: "conv3"
  param {
    lr_mult: 0
    decay_mult: 0
  }
  param {
    lr_mult: 0
    decay_mult: 0
  }
  param {
    lr_mult: 0
    decay_mult: 0
  }
}
layer {
  name: "conv3/scale"
  type: "Scale"
  bottom: "conv3"
  top: "conv3"
  param {
    lr_mult: 1
    decay_mult: 0
  }
  param {
    lr_mult: 1
    decay_mult: 0
  }
  scale_param {
    filler {
      value: 1
    }
    bias_term: true
    bias_filler {
      value: 0
    }
  }
}
layer {
  name: "relu3"
  type: "ReLU"
  bottom: "conv3"
  top: "conv3"
}
layer {
  name: "ip1"
  type: "InnerProduct"
  bottom: "conv3"
  top: "ip1"
  param {
    lr_mult: 1
    decay_mult: 1
  }
  param {
    lr_mult: 2
    decay_mult: 0
  }
  inner_product_param {
    num_output: 128
    weight_filler {
      type: "xavier"
    }
    bias_filler {
      type: "constant"
      value: 0
    }
  }
}
layer {
  name: "ip2"
  type: "InnerProduct"
  bottom: "ip1"
  top: "ip2"
  param {
    lr_mult: 1
    decay_mult: 1
  }
  param {
    lr_mult: 2
    decay_mult: 1
  }
  inner_product_param {
    num_output: 2
    weight_filler {
      type: "xavier"
    }
    bias_filler {
      type: "constant"
      value: 0
    }
  }
}
layer {
  name: "loss"
  type: "SoftmaxWithLoss"
  bottom: "ip2"
  bottom: "label"
  top: "loss"
}
layer {
  name: "acc"
  type: "Accuracy"
  bottom: "ip2"
  bottom: "label"
  top: "acc"
}
I0627 20:14:02.791518 17315 layer_factory.hpp:77] Creating layer data
I0627 20:14:02.791559 17315 net.cpp:86] Creating Layer data
I0627 20:14:02.791576 17315 net.cpp:382] data -> data
I0627 20:14:02.791617 17315 net.cpp:382] data -> label
I0627 20:14:02.791689 17315 image_data_layer.cpp:38] Opening file train_shuffle.txt
I0627 20:14:02.792021 17315 image_data_layer.cpp:53] Shuffling data
I0627 20:14:02.792145 17315 image_data_layer.cpp:63] A total of 900 images.
I0627 20:14:02.793377 17315 image_data_layer.cpp:90] output data size: 96,3,48,48
I0627 20:14:02.800678 17315 net.cpp:124] Setting up data
I0627 20:14:02.800714 17315 net.cpp:131] Top shape: 96 3 48 48 (663552)
I0627 20:14:02.800721 17315 net.cpp:131] Top shape: 96 (96)
I0627 20:14:02.800725 17315 net.cpp:139] Memory required for data: 2654592
I0627 20:14:02.800734 17315 layer_factory.hpp:77] Creating layer label_data_1_split
I0627 20:14:02.800747 17315 net.cpp:86] Creating Layer label_data_1_split
I0627 20:14:02.800761 17315 net.cpp:408] label_data_1_split <- label
I0627 20:14:02.800776 17315 net.cpp:382] label_data_1_split -> label_data_1_split_0
I0627 20:14:02.800791 17315 net.cpp:382] label_data_1_split -> label_data_1_split_1
I0627 20:14:02.800890 17315 net.cpp:124] Setting up label_data_1_split
I0627 20:14:02.800907 17315 net.cpp:131] Top shape: 96 (96)
I0627 20:14:02.800913 17315 net.cpp:131] Top shape: 96 (96)
I0627 20:14:02.800916 17315 net.cpp:139] Memory required for data: 2655360
I0627 20:14:02.800921 17315 layer_factory.hpp:77] Creating layer conv1
I0627 20:14:02.800942 17315 net.cpp:86] Creating Layer conv1
I0627 20:14:02.800948 17315 net.cpp:408] conv1 <- data
I0627 20:14:02.800956 17315 net.cpp:382] conv1 -> conv1
I0627 20:14:03.387039 17315 net.cpp:124] Setting up conv1
I0627 20:14:03.387078 17315 net.cpp:131] Top shape: 96 12 24 24 (663552)
I0627 20:14:03.387084 17315 net.cpp:139] Memory required for data: 5309568
I0627 20:14:03.387104 17315 layer_factory.hpp:77] Creating layer conv1/bn
I0627 20:14:03.387125 17315 net.cpp:86] Creating Layer conv1/bn
I0627 20:14:03.387132 17315 net.cpp:408] conv1/bn <- conv1
I0627 20:14:03.387140 17315 net.cpp:369] conv1/bn -> conv1 (in-place)
I0627 20:14:03.387387 17315 net.cpp:124] Setting up conv1/bn
I0627 20:14:03.387406 17315 net.cpp:131] Top shape: 96 12 24 24 (663552)
I0627 20:14:03.387410 17315 net.cpp:139] Memory required for data: 7963776
I0627 20:14:03.387421 17315 layer_factory.hpp:77] Creating layer conv1/scale
I0627 20:14:03.387436 17315 net.cpp:86] Creating Layer conv1/scale
I0627 20:14:03.387451 17315 net.cpp:408] conv1/scale <- conv1
I0627 20:14:03.387464 17315 net.cpp:369] conv1/scale -> conv1 (in-place)
I0627 20:14:03.387531 17315 layer_factory.hpp:77] Creating layer conv1/scale
I0627 20:14:03.387677 17315 net.cpp:124] Setting up conv1/scale
I0627 20:14:03.387696 17315 net.cpp:131] Top shape: 96 12 24 24 (663552)
I0627 20:14:03.387707 17315 net.cpp:139] Memory required for data: 10617984
I0627 20:14:03.387714 17315 layer_factory.hpp:77] Creating layer relu1
I0627 20:14:03.387748 17315 net.cpp:86] Creating Layer relu1
I0627 20:14:03.387759 17315 net.cpp:408] relu1 <- conv1
I0627 20:14:03.387768 17315 net.cpp:369] relu1 -> conv1 (in-place)
I0627 20:14:03.388178 17315 net.cpp:124] Setting up relu1
I0627 20:14:03.388196 17315 net.cpp:131] Top shape: 96 12 24 24 (663552)
I0627 20:14:03.388200 17315 net.cpp:139] Memory required for data: 13272192
I0627 20:14:03.388206 17315 layer_factory.hpp:77] Creating layer conv2
I0627 20:14:03.388217 17315 net.cpp:86] Creating Layer conv2
I0627 20:14:03.388226 17315 net.cpp:408] conv2 <- conv1
I0627 20:14:03.388243 17315 net.cpp:382] conv2 -> conv2
I0627 20:14:03.391180 17315 net.cpp:124] Setting up conv2
I0627 20:14:03.391197 17315 net.cpp:131] Top shape: 96 24 12 12 (331776)
I0627 20:14:03.391202 17315 net.cpp:139] Memory required for data: 14599296
I0627 20:14:03.391213 17315 layer_factory.hpp:77] Creating layer conv2/bn
I0627 20:14:03.391222 17315 net.cpp:86] Creating Layer conv2/bn
I0627 20:14:03.391227 17315 net.cpp:408] conv2/bn <- conv2
I0627 20:14:03.391234 17315 net.cpp:369] conv2/bn -> conv2 (in-place)
I0627 20:14:03.391400 17315 net.cpp:124] Setting up conv2/bn
I0627 20:14:03.391410 17315 net.cpp:131] Top shape: 96 24 12 12 (331776)
I0627 20:14:03.391414 17315 net.cpp:139] Memory required for data: 15926400
I0627 20:14:03.391423 17315 layer_factory.hpp:77] Creating layer conv2/scale
I0627 20:14:03.391433 17315 net.cpp:86] Creating Layer conv2/scale
I0627 20:14:03.391436 17315 net.cpp:408] conv2/scale <- conv2
I0627 20:14:03.391443 17315 net.cpp:369] conv2/scale -> conv2 (in-place)
I0627 20:14:03.391487 17315 layer_factory.hpp:77] Creating layer conv2/scale
I0627 20:14:03.391592 17315 net.cpp:124] Setting up conv2/scale
I0627 20:14:03.391602 17315 net.cpp:131] Top shape: 96 24 12 12 (331776)
I0627 20:14:03.391605 17315 net.cpp:139] Memory required for data: 17253504
I0627 20:14:03.391613 17315 layer_factory.hpp:77] Creating layer relu2
I0627 20:14:03.391618 17315 net.cpp:86] Creating Layer relu2
I0627 20:14:03.391623 17315 net.cpp:408] relu2 <- conv2
I0627 20:14:03.391628 17315 net.cpp:369] relu2 -> conv2 (in-place)
I0627 20:14:03.392025 17315 net.cpp:124] Setting up relu2
I0627 20:14:03.392036 17315 net.cpp:131] Top shape: 96 24 12 12 (331776)
I0627 20:14:03.392041 17315 net.cpp:139] Memory required for data: 18580608
I0627 20:14:03.392045 17315 layer_factory.hpp:77] Creating layer conv3
I0627 20:14:03.392055 17315 net.cpp:86] Creating Layer conv3
I0627 20:14:03.392058 17315 net.cpp:408] conv3 <- conv2
I0627 20:14:03.392066 17315 net.cpp:382] conv3 -> conv3
I0627 20:14:03.394742 17315 net.cpp:124] Setting up conv3
I0627 20:14:03.394758 17315 net.cpp:131] Top shape: 96 48 6 6 (165888)
I0627 20:14:03.394763 17315 net.cpp:139] Memory required for data: 19244160
I0627 20:14:03.394771 17315 layer_factory.hpp:77] Creating layer conv3/bn
I0627 20:14:03.394780 17315 net.cpp:86] Creating Layer conv3/bn
I0627 20:14:03.394788 17315 net.cpp:408] conv3/bn <- conv3
I0627 20:14:03.394798 17315 net.cpp:369] conv3/bn -> conv3 (in-place)
I0627 20:14:03.394982 17315 net.cpp:124] Setting up conv3/bn
I0627 20:14:03.394992 17315 net.cpp:131] Top shape: 96 48 6 6 (165888)
I0627 20:14:03.394996 17315 net.cpp:139] Memory required for data: 19907712
I0627 20:14:03.395007 17315 layer_factory.hpp:77] Creating layer conv3/scale
I0627 20:14:03.395016 17315 net.cpp:86] Creating Layer conv3/scale
I0627 20:14:03.395020 17315 net.cpp:408] conv3/scale <- conv3
I0627 20:14:03.395030 17315 net.cpp:369] conv3/scale -> conv3 (in-place)
I0627 20:14:03.395079 17315 layer_factory.hpp:77] Creating layer conv3/scale
I0627 20:14:03.395193 17315 net.cpp:124] Setting up conv3/scale
I0627 20:14:03.395203 17315 net.cpp:131] Top shape: 96 48 6 6 (165888)
I0627 20:14:03.395207 17315 net.cpp:139] Memory required for data: 20571264
I0627 20:14:03.395213 17315 layer_factory.hpp:77] Creating layer relu3
I0627 20:14:03.395220 17315 net.cpp:86] Creating Layer relu3
I0627 20:14:03.395225 17315 net.cpp:408] relu3 <- conv3
I0627 20:14:03.395231 17315 net.cpp:369] relu3 -> conv3 (in-place)
I0627 20:14:03.396037 17315 net.cpp:124] Setting up relu3
I0627 20:14:03.396049 17315 net.cpp:131] Top shape: 96 48 6 6 (165888)
I0627 20:14:03.396054 17315 net.cpp:139] Memory required for data: 21234816
I0627 20:14:03.396059 17315 layer_factory.hpp:77] Creating layer ip1
I0627 20:14:03.396067 17315 net.cpp:86] Creating Layer ip1
I0627 20:14:03.396075 17315 net.cpp:408] ip1 <- conv3
I0627 20:14:03.396087 17315 net.cpp:382] ip1 -> ip1
I0627 20:14:03.398295 17315 net.cpp:124] Setting up ip1
I0627 20:14:03.398309 17315 net.cpp:131] Top shape: 96 128 (12288)
I0627 20:14:03.398313 17315 net.cpp:139] Memory required for data: 21283968
I0627 20:14:03.398321 17315 layer_factory.hpp:77] Creating layer ip2
I0627 20:14:03.398331 17315 net.cpp:86] Creating Layer ip2
I0627 20:14:03.398335 17315 net.cpp:408] ip2 <- ip1
I0627 20:14:03.398353 17315 net.cpp:382] ip2 -> ip2
I0627 20:14:03.398458 17315 net.cpp:124] Setting up ip2
I0627 20:14:03.398468 17315 net.cpp:131] Top shape: 96 2 (192)
I0627 20:14:03.398471 17315 net.cpp:139] Memory required for data: 21284736
I0627 20:14:03.398478 17315 layer_factory.hpp:77] Creating layer ip2_ip2_0_split
I0627 20:14:03.398486 17315 net.cpp:86] Creating Layer ip2_ip2_0_split
I0627 20:14:03.398490 17315 net.cpp:408] ip2_ip2_0_split <- ip2
I0627 20:14:03.398506 17315 net.cpp:382] ip2_ip2_0_split -> ip2_ip2_0_split_0
I0627 20:14:03.398515 17315 net.cpp:382] ip2_ip2_0_split -> ip2_ip2_0_split_1
I0627 20:14:03.398561 17315 net.cpp:124] Setting up ip2_ip2_0_split
I0627 20:14:03.398568 17315 net.cpp:131] Top shape: 96 2 (192)
I0627 20:14:03.398573 17315 net.cpp:131] Top shape: 96 2 (192)
I0627 20:14:03.398576 17315 net.cpp:139] Memory required for data: 21286272
I0627 20:14:03.398581 17315 layer_factory.hpp:77] Creating layer loss
I0627 20:14:03.398589 17315 net.cpp:86] Creating Layer loss
I0627 20:14:03.398593 17315 net.cpp:408] loss <- ip2_ip2_0_split_0
I0627 20:14:03.398598 17315 net.cpp:408] loss <- label_data_1_split_0
I0627 20:14:03.398614 17315 net.cpp:382] loss -> loss
…
I0627 20:14:03.399808 17315 net.cpp:296] The NetState phase (1) differed from the phase (0) specified by a rule in layer data
I0627 20:14:03.399969 17315 net.cpp:53] Initializing net from parameters: 
name: "simpleconv3"
state {
  phase: TEST
}
layer {
  name: "data"
  type: "ImageData"
  top: "data"
  top: "label"
  include {
    phase: TEST
  }
  transform_param {
    mirror: false
    crop_size: 48
    mean_value: 104.008
    mean_value: 116.669
    mean_value: 122.675
    min_side_min: 48
    min_side_max: 48
  }
  image_data_param {
    source: "val_shuffle.txt"
    batch_size: 16
    shuffle: false
  }
}
layer {
  name: "conv1"
  type: "Convolution"
  bottom: "data"
  top: "conv1"
  param {
    lr_mult: 1
    decay_mult: 1
  }
  param {
    lr_mult: 2
    decay_mult: 0
  }
  convolution_param {
    num_output: 12
    pad: 1
    kernel_size: 3
    stride: 2
    weight_filler {
      type: "xavier"
      std: 0.01
    }
    bias_filler {
      type: "constant"
      value: 0.2
    }
  }
}
layer {
  name: "conv1/bn"
  type: "BatchNorm"
  bottom: "conv1"
  top: "conv1"
  param {
    lr_mult: 0
    decay_mult: 0
  }
  param {
    lr_mult: 0
    decay_mult: 0
  }
  param {
    lr_mult: 0
    decay_mult: 0
  }
}
layer {
  name: "conv1/scale"
  type: "Scale"
  bottom: "conv1"
  top: "conv1"
  param {
    lr_mult: 1
    decay_mult: 0
  }
  param {
    lr_mult: 1
    decay_mult: 0
  }
  scale_param {
    filler {
      value: 1
    }
    bias_term: true
    bias_filler {
      value: 0
    }
  }
}
layer {
  name: "relu1"
  type: "ReLU"
  bottom: "conv1"
  top: "conv1"
}
layer {
  name: "conv2"
  type: "Convolution"
  bottom: "conv1"
  top: "conv2"
  param {
    lr_mult: 1
    decay_mult: 1
  }
  param {
    lr_mult: 2
    decay_mult: 0
  }
  convolution_param {
    num_output: 24
    pad: 1
    kernel_size: 3
    stride: 2
    weight_filler {
      type: "xavier"
      std: 0.1
    }
    bias_filler {
      type: "constant"
      value: 0.2
    }
  }
}
layer {
  name: "conv2/bn"
  type: "BatchNorm"
  bottom: "conv2"
  top: "conv2"
  param {
    lr_mult: 0
    decay_mult: 0
  }
  param {
    lr_mult: 0
    decay_mult: 0
  }
  param {
    lr_mult: 0
    decay_mult: 0
  }
}
layer {
  name: "conv2/scale"
  type: "Scale"
  bottom: "conv2"
  top: "conv2"
  param {
    lr_mult: 1
    decay_mult: 0
  }
  param {
    lr_mult: 1
    decay_mult: 0
  }
  scale_param {
    filler {
      value: 1
    }
    bias_term: true
    bias_filler {
      value: 0
    }
  }
}
layer {
  name: "relu2"
  type: "ReLU"
  bottom: "conv2"
  top: "conv2"
}
layer {
  name: "conv3"
  type: "Convolution"
  bottom: "conv2"
  top: "conv3"
  param {
    lr_mult: 1
    decay_mult: 1
  }
  param {
    lr_mult: 2
    decay_mult: 0
  }
  convolution_param {
    num_output: 48
    pad: 1
    kernel_size: 3
    stride: 2
    weight_filler {
      type: "xavier"
      std: 0.1
    }
    bias_filler {
      type: "constant"
      value: 0.2
    }
  }
}
layer {
  name: "conv3/bn"
  type: "BatchNorm"
  bottom: "conv3"
  top: "conv3"
  param {
    lr_mult: 0
    decay_mult: 0
  }
  param {
    lr_mult: 0
    decay_mult: 0
  }
  param {
    lr_mult: 0
    decay_mult: 0
  }
}
layer {
  name: "conv3/scale"
  type: "Scale"
  bottom: "conv3"
  top: "conv3"
  param {
    lr_mult: 1
    decay_mult: 0
  }
  param {
    lr_mult: 1
    decay_mult: 0
  }
  scale_param {
    filler {
      value: 1
    }
    bias_term: true
    bias_filler {
      value: 0
    }
  }
}
layer {
  name: "relu3"
  type: "ReLU"
  bottom: "conv3"
  top: "conv3"
}
layer {
  name: "ip1"
  type: "InnerProduct"
  bottom: "conv3"
  top: "ip1"
  param {
    lr_mult: 1
    decay_mult: 1
  }
  param {
    lr_mult: 2
    decay_mult: 0
  }
  inner_product_param {
    num_output: 128
    weight_filler {
      type: "xavier"
    }
    bias_filler {
      type: "constant"
      value: 0
    }
  }
}
layer {
  name: "ip2"
  type: "InnerProduct"
  bottom: "ip1"
  top: "ip2"
  param {
    lr_mult: 1
    decay_mult: 1
  }
  param {
    lr_mult: 2
    decay_mult: 1
  }
  inner_product_param {
    num_output: 2
    weight_filler {
      type: "xavier"
    }
    bias_filler {
      type: "constant"
      value: 0
    }
  }
}
layer {
  name: "loss"
  type: "SoftmaxWithLoss"
  bottom: "ip2"
  bottom: "label"
  top: "loss"
}
layer {
  name: "acc"
  type: "Accuracy"
  bottom: "ip2"
  bottom: "label"
  top: "acc"
}
I0627 20:14:03.400068 17315 layer_factory.hpp:77] Creating layer data
I0627 20:14:03.400084 17315 net.cpp:86] Creating Layer data
I0627 20:14:03.400102 17315 net.cpp:382] data -> data
I0627 20:14:03.400120 17315 net.cpp:382] data -> label
I0627 20:14:03.400130 17315 image_data_layer.cpp:38] Opening file val_shuffle.txt
I0627 20:14:03.400221 17315 image_data_layer.cpp:63] A total of 100 images.
I0627 20:14:03.400468 17315 image_data_layer.cpp:90] output data size: 16,3,48,48
I0627 20:14:03.402222 17315 net.cpp:124] Setting up data
I0627 20:14:03.402243 17315 net.cpp:131] Top shape: 16 3 48 48 (110592)
I0627 20:14:03.402251 17315 net.cpp:131] Top shape: 16 (16)
I0627 20:14:03.402254 17315 net.cpp:139] Memory required for data: 442432
I0627 20:14:03.402259 17315 layer_factory.hpp:77] Creating layer label_data_1_split
I0627 20:14:03.402269 17315 net.cpp:86] Creating Layer label_data_1_split
I0627 20:14:03.402276 17315 net.cpp:408] label_data_1_split <- label
I0627 20:14:03.402283 17315 net.cpp:382] label_data_1_split -> label_data_1_split_0
I0627 20:14:03.402292 17315 net.cpp:382] label_data_1_split -> label_data_1_split_1
I0627 20:14:03.402369 17315 net.cpp:124] Setting up label_data_1_split
I0627 20:14:03.402377 17315 net.cpp:131] Top shape: 16 (16)
I0627 20:14:03.402382 17315 net.cpp:131] Top shape: 16 (16)
I0627 20:14:03.402386 17315 net.cpp:139] Memory required for data: 442560
I0627 20:14:03.402390 17315 layer_factory.hpp:77] Creating layer conv1
I0627 20:14:03.402402 17315 net.cpp:86] Creating Layer conv1
I0627 20:14:03.402406 17315 net.cpp:408] conv1 <- data
I0627 20:14:03.402416 17315 net.cpp:382] conv1 -> conv1
I0627 20:14:03.405258 17315 net.cpp:124] Setting up conv1
I0627 20:14:03.405273 17315 net.cpp:131] Top shape: 16 12 24 24 (110592)
I0627 20:14:03.405287 17315 net.cpp:139] Memory required for data: 884928
I0627 20:14:03.405300 17315 layer_factory.hpp:77] Creating layer conv1/bn
I0627 20:14:03.405310 17315 net.cpp:86] Creating Layer conv1/bn
I0627 20:14:03.405315 17315 net.cpp:408] conv1/bn <- conv1
I0627 20:14:03.405323 17315 net.cpp:369] conv1/bn -> conv1 (in-place)
I0627 20:14:03.405515 17315 net.cpp:124] Setting up conv1/bn
I0627 20:14:03.405525 17315 net.cpp:131] Top shape: 16 12 24 24 (110592)
I0627 20:14:03.405529 17315 net.cpp:139] Memory required for data: 1327296
I0627 20:14:03.405548 17315 layer_factory.hpp:77] Creating layer conv1/scale
I0627 20:14:03.405558 17315 net.cpp:86] Creating Layer conv1/scale
I0627 20:14:03.405563 17315 net.cpp:408] conv1/scale <- conv1
I0627 20:14:03.405570 17315 net.cpp:369] conv1/scale -> conv1 (in-place)
I0627 20:14:03.405613 17315 layer_factory.hpp:77] Creating layer conv1/scale
I0627 20:14:03.405740 17315 net.cpp:124] Setting up conv1/scale
I0627 20:14:03.405748 17315 net.cpp:131] Top shape: 16 12 24 24 (110592)
I0627 20:14:03.405752 17315 net.cpp:139] Memory required for data: 1769664
I0627 20:14:03.405767 17315 layer_factory.hpp:77] Creating layer relu1
I0627 20:14:03.405791 17315 net.cpp:86] Creating Layer relu1
I0627 20:14:03.405794 17315 net.cpp:408] relu1 <- conv1
I0627 20:14:03.405802 17315 net.cpp:369] relu1 -> conv1 (in-place)
I0627 20:14:03.406292 17315 net.cpp:124] Setting up relu1
I0627 20:14:03.406302 17315 net.cpp:131] Top shape: 16 12 24 24 (110592)
I0627 20:14:03.406307 17315 net.cpp:139] Memory required for data: 2212032
I0627 20:14:03.406319 17315 layer_factory.hpp:77] Creating layer conv2
I0627 20:14:03.406332 17315 net.cpp:86] Creating Layer conv2
I0627 20:14:03.406343 17315 net.cpp:408] conv2 <- conv1
I0627 20:14:03.406352 17315 net.cpp:382] conv2 -> conv2
I0627 20:14:03.408397 17315 net.cpp:124] Setting up conv2
I0627 20:14:03.408411 17315 net.cpp:131] Top shape: 16 24 12 12 (55296)
I0627 20:14:03.408416 17315 net.cpp:139] Memory required for data: 2433216
I0627 20:14:03.408435 17315 layer_factory.hpp:77] Creating layer conv2/bn
I0627 20:14:03.408442 17315 net.cpp:86] Creating Layer conv2/bn
I0627 20:14:03.408447 17315 net.cpp:408] conv2/bn <- conv2
I0627 20:14:03.408454 17315 net.cpp:369] conv2/bn -> conv2 (in-place)
I0627 20:14:03.408696 17315 net.cpp:124] Setting up conv2/bn
I0627 20:14:03.408705 17315 net.cpp:131] Top shape: 16 24 12 12 (55296)
I0627 20:14:03.408710 17315 net.cpp:139] Memory required for data: 2654400
I0627 20:14:03.408726 17315 layer_factory.hpp:77] Creating layer conv2/scale
I0627 20:14:03.408735 17315 net.cpp:86] Creating Layer conv2/scale
I0627 20:14:03.408740 17315 net.cpp:408] conv2/scale <- conv2
I0627 20:14:03.408747 17315 net.cpp:369] conv2/scale -> conv2 (in-place)
I0627 20:14:03.408787 17315 layer_factory.hpp:77] Creating layer conv2/scale
I0627 20:14:03.408996 17315 net.cpp:124] Setting up conv2/scale
I0627 20:14:03.409006 17315 net.cpp:131] Top shape: 16 24 12 12 (55296)
I0627 20:14:03.409010 17315 net.cpp:139] Memory required for data: 2875584
I0627 20:14:03.409024 17315 layer_factory.hpp:77] Creating layer relu2
I0627 20:14:03.409031 17315 net.cpp:86] Creating Layer relu2
I0627 20:14:03.409035 17315 net.cpp:408] relu2 <- conv2
I0627 20:14:03.409042 17315 net.cpp:369] relu2 -> conv2 (in-place)
I0627 20:14:03.409844 17315 net.cpp:124] Setting up relu2
I0627 20:14:03.409857 17315 net.cpp:131] Top shape: 16 24 12 12 (55296)
I0627 20:14:03.409862 17315 net.cpp:139] Memory required for data: 3096768
I0627 20:14:03.409867 17315 layer_factory.hpp:77] Creating layer conv3
I0627 20:14:03.409878 17315 net.cpp:86] Creating Layer conv3
I0627 20:14:03.409881 17315 net.cpp:408] conv3 <- conv2
I0627 20:14:03.409890 17315 net.cpp:382] conv3 -> conv3
I0627 20:14:03.412058 17315 net.cpp:124] Setting up conv3
I0627 20:14:03.412075 17315 net.cpp:131] Top shape: 16 48 6 6 (27648)
I0627 20:14:03.412079 17315 net.cpp:139] Memory required for data: 3207360
I0627 20:14:03.412087 17315 layer_factory.hpp:77] Creating layer conv3/bn
I0627 20:14:03.412096 17315 net.cpp:86] Creating Layer conv3/bn
I0627 20:14:03.412101 17315 net.cpp:408] conv3/bn <- conv3
I0627 20:14:03.412109 17315 net.cpp:369] conv3/bn -> conv3 (in-place)
I0627 20:14:03.412307 17315 net.cpp:124] Setting up conv3/bn
I0627 20:14:03.412317 17315 net.cpp:131] Top shape: 16 48 6 6 (27648)
I0627 20:14:03.412320 17315 net.cpp:139] Memory required for data: 3317952
I0627 20:14:03.412331 17315 layer_factory.hpp:77] Creating layer conv3/scale
I0627 20:14:03.412338 17315 net.cpp:86] Creating Layer conv3/scale
I0627 20:14:03.412351 17315 net.cpp:408] conv3/scale <- conv3
I0627 20:14:03.412359 17315 net.cpp:369] conv3/scale -> conv3 (in-place)
I0627 20:14:03.412410 17315 layer_factory.hpp:77] Creating layer conv3/scale
I0627 20:14:03.412542 17315 net.cpp:124] Setting up conv3/scale
I0627 20:14:03.412552 17315 net.cpp:131] Top shape: 16 48 6 6 (27648)
I0627 20:14:03.412556 17315 net.cpp:139] Memory required for data: 3428544
I0627 20:14:03.412571 17315 layer_factory.hpp:77] Creating layer relu3
I0627 20:14:03.412580 17315 net.cpp:86] Creating Layer relu3
I0627 20:14:03.412583 17315 net.cpp:408] relu3 <- conv3
I0627 20:14:03.412590 17315 net.cpp:369] relu3 -> conv3 (in-place)
I0627 20:14:03.413070 17315 net.cpp:124] Setting up relu3
I0627 20:14:03.413092 17315 net.cpp:131] Top shape: 16 48 6 6 (27648)
I0627 20:14:03.413097 17315 net.cpp:139] Memory required for data: 3539136
I0627 20:14:03.413101 17315 layer_factory.hpp:77] Creating layer ip1
I0627 20:14:03.413110 17315 net.cpp:86] Creating Layer ip1
I0627 20:14:03.413113 17315 net.cpp:408] ip1 <- conv3
I0627 20:14:03.413121 17315 net.cpp:382] ip1 -> ip1
I0627 20:14:03.414539 17315 net.cpp:124] Setting up ip1
I0627 20:14:03.414551 17315 net.cpp:131] Top shape: 16 128 (2048)
I0627 20:14:03.414554 17315 net.cpp:139] Memory required for data: 3547328
I0627 20:14:03.414561 17315 layer_factory.hpp:77] Creating layer ip2
I0627 20:14:03.414569 17315 net.cpp:86] Creating Layer ip2
I0627 20:14:03.414573 17315 net.cpp:408] ip2 <- ip1
I0627 20:14:03.414587 17315 net.cpp:382] ip2 -> ip2
I0627 20:14:03.414695 17315 net.cpp:124] Setting up ip2
I0627 20:14:03.414705 17315 net.cpp:131] Top shape: 16 2 (32)
I0627 20:14:03.414708 17315 net.cpp:139] Memory required for data: 3547456
I0627 20:14:03.414714 17315 layer_factory.hpp:77] Creating layer ip2_ip2_0_split
I0627 20:14:03.414732 17315 net.cpp:86] Creating Layer ip2_ip2_0_split
I0627 20:14:03.414737 17315 net.cpp:408] ip2_ip2_0_split <- ip2
I0627 20:14:03.414744 17315 net.cpp:382] ip2_ip2_0_split -> ip2_ip2_0_split_0
I0627 20:14:03.414752 17315 net.cpp:382] ip2_ip2_0_split -> ip2_ip2_0_split_1
I0627 20:14:03.414811 17315 net.cpp:124] Setting up ip2_ip2_0_split
I0627 20:14:03.414821 17315 net.cpp:131] Top shape: 16 2 (32)
I0627 20:14:03.414826 17315 net.cpp:131] Top shape: 16 2 (32)
I0627 20:14:03.414830 17315 net.cpp:139] Memory required for data: 3547712
I0627 20:14:03.414841 17315 layer_factory.hpp:77] Creating layer loss
I0627 20:14:03.414849 17315 net.cpp:86] Creating Layer loss
I0627 20:14:03.414853 17315 net.cpp:408] loss <- ip2_ip2_0_split_0
I0627 20:14:03.414858 17315 net.cpp:408] loss <- label_data_1_split_0
I0627 20:14:03.414865 17315 net.cpp:382] loss -> loss
…
