…
I0627 20:58:02.264499 18033 net.cpp:296] The NetState phase (0) differed from the phase (1) specified by a rule in layer data
I0627 20:58:02.264714 18033 net.cpp:53] Initializing net from parameters: 
name: "simpleconv3"
state {
  phase: TRAIN
  level: 0
  stage: ""
}
layer {
  name: "data"
  type: "ImageData"
  top: "data"
  top: "label"
  include {
    phase: TRAIN
  }
  transform_param {
    mirror: true
    crop_size: 48
    mean_value: 104.008
    mean_value: 116.669
    mean_value: 122.675
  }
  image_data_param {
    source: "train_shuffle.txt"
    batch_size: 96
    shuffle: true
  }
}
layer {
  name: "conv1"
  type: "Convolution"
  bottom: "data"
  top: "conv1"
  param {
    lr_mult: 1
    decay_mult: 1
  }
  param {
    lr_mult: 2
    decay_mult: 0
  }
  convolution_param {
    num_output: 12
    pad: 1
    kernel_size: 3
    stride: 2
    weight_filler {
      type: "xavier"
      std: 0.01
    }
    bias_filler {
      type: "constant"
      value: 0.2
    }
  }
}
layer {
  name: "conv1/bn"
  type: "BatchNorm"
  bottom: "conv1"
  top: "conv1"
  param {
    lr_mult: 0
    decay_mult: 0
  }
  param {
    lr_mult: 0
    decay_mult: 0
  }
  param {
    lr_mult: 0
    decay_mult: 0
  }
}
layer {
  name: "conv1/scale"
  type: "Scale"
  bottom: "conv1"
  top: "conv1"
  param {
    lr_mult: 1
    decay_mult: 0
  }
  param {
    lr_mult: 1
    decay_mult: 0
  }
  scale_param {
    filler {
      value: 1
    }
    bias_term: true
    bias_filler {
      value: 0
    }
  }
}
layer {
  name: "relu1"
  type: "ReLU"
  bottom: "conv1"
  top: "conv1"
}
layer {
  name: "conv2"
  type: "Convolution"
  bottom: "conv1"
  top: "conv2"
  param {
    lr_mult: 1
    decay_mult: 1
  }
  param {
    lr_mult: 2
    decay_mult: 0
  }
  convolution_param {
    num_output: 24
    pad: 1
    kernel_size: 3
    stride: 2
    weight_filler {
      type: "xavier"
      std: 0.1
    }
    bias_filler {
      type: "constant"
      value: 0.2
    }
  }
}
layer {
  name: "conv2/bn"
  type: "BatchNorm"
  bottom: "conv2"
  top: "conv2"
  param {
    lr_mult: 0
    decay_mult: 0
  }
  param {
    lr_mult: 0
    decay_mult: 0
  }
  param {
    lr_mult: 0
    decay_mult: 0
  }
}
layer {
  name: "conv2/scale"
  type: "Scale"
  bottom: "conv2"
  top: "conv2"
  param {
    lr_mult: 1
    decay_mult: 0
  }
  param {
    lr_mult: 1
    decay_mult: 0
  }
  scale_param {
    filler {
      value: 1
    }
    bias_term: true
    bias_filler {
      value: 0
    }
  }
}
layer {
  name: "relu2"
  type: "ReLU"
  bottom: "conv2"
  top: "conv2"
}
layer {
  name: "conv3"
  type: "Convolution"
  bottom: "conv2"
  top: "conv3"
  param {
    lr_mult: 1
    decay_mult: 1
  }
  param {
    lr_mult: 2
    decay_mult: 0
  }
  convolution_param {
    num_output: 48
    pad: 1
    kernel_size: 3
    stride: 2
    weight_filler {
      type: "xavier"
      std: 0.1
    }
    bias_filler {
      type: "constant"
      value: 0.2
    }
  }
}
layer {
  name: "conv3/bn"
  type: "BatchNorm"
  bottom: "conv3"
  top: "conv3"
  param {
    lr_mult: 0
    decay_mult: 0
  }
  param {
    lr_mult: 0
    decay_mult: 0
  }
  param {
    lr_mult: 0
    decay_mult: 0
  }
}
layer {
  name: "conv3/scale"
  type: "Scale"
  bottom: "conv3"
  top: "conv3"
  param {
    lr_mult: 1
    decay_mult: 0
  }
  param {
    lr_mult: 1
    decay_mult: 0
  }
  scale_param {
    filler {
      value: 1
    }
    bias_term: true
    bias_filler {
      value: 0
    }
  }
}
layer {
  name: "relu3"
  type: "ReLU"
  bottom: "conv3"
  top: "conv3"
}
layer {
  name: "ip1"
  type: "InnerProduct"
  bottom: "conv3"
  top: "ip1"
  param {
    lr_mult: 1
    decay_mult: 1
  }
  param {
    lr_mult: 2
    decay_mult: 0
  }
  inner_product_param {
    num_output: 128
    weight_filler {
      type: "xavier"
    }
    bias_filler {
      type: "constant"
      value: 0
    }
  }
}
layer {
  name: "ip2"
  type: "InnerProduct"
  bottom: "ip1"
  top: "ip2"
  param {
    lr_mult: 1
    decay_mult: 1
  }
  param {
    lr_mult: 2
    decay_mult: 1
  }
  inner_product_param {
    num_output: 2
    weight_filler {
      type: "xavier"
    }
    bias_filler {
      type: "constant"
      value: 0
    }
  }
}
layer {
  name: "loss"
  type: "SoftmaxWithLoss"
  bottom: "ip2"
  bottom: "label"
  top: "loss"
}
layer {
  name: "acc"
  type: "Accuracy"
  bottom: "ip2"
  bottom: "label"
  top: "acc"
}
I0627 20:58:02.264839 18033 layer_factory.hpp:77] Creating layer data
I0627 20:58:02.264868 18033 net.cpp:86] Creating Layer data
I0627 20:58:02.264878 18033 net.cpp:382] data -> data
I0627 20:58:02.264900 18033 net.cpp:382] data -> label
I0627 20:58:02.264956 18033 image_data_layer.cpp:38] Opening file train_shuffle.txt
I0627 20:58:02.265863 18033 image_data_layer.cpp:53] Shuffling data
I0627 20:58:02.265978 18033 image_data_layer.cpp:63] A total of 900 images.
I0627 20:58:02.267256 18033 image_data_layer.cpp:90] output data size: 96,3,48,48
I0627 20:58:02.274585 18033 net.cpp:124] Setting up data
I0627 20:58:02.274624 18033 net.cpp:131] Top shape: 96 3 48 48 (663552)
I0627 20:58:02.274632 18033 net.cpp:131] Top shape: 96 (96)
I0627 20:58:02.274636 18033 net.cpp:139] Memory required for data: 2654592
I0627 20:58:02.274644 18033 layer_factory.hpp:77] Creating layer label_data_1_split
I0627 20:58:02.274658 18033 net.cpp:86] Creating Layer label_data_1_split
I0627 20:58:02.274665 18033 net.cpp:408] label_data_1_split <- label
I0627 20:58:02.274678 18033 net.cpp:382] label_data_1_split -> label_data_1_split_0
I0627 20:58:02.274691 18033 net.cpp:382] label_data_1_split -> label_data_1_split_1
I0627 20:58:02.274772 18033 net.cpp:124] Setting up label_data_1_split
I0627 20:58:02.274783 18033 net.cpp:131] Top shape: 96 (96)
I0627 20:58:02.274796 18033 net.cpp:131] Top shape: 96 (96)
I0627 20:58:02.274801 18033 net.cpp:139] Memory required for data: 2655360
I0627 20:58:02.274806 18033 layer_factory.hpp:77] Creating layer conv1
I0627 20:58:02.274823 18033 net.cpp:86] Creating Layer conv1
I0627 20:58:02.274828 18033 net.cpp:408] conv1 <- data
I0627 20:58:02.274837 18033 net.cpp:382] conv1 -> conv1
I0627 20:58:02.869251 18033 net.cpp:124] Setting up conv1
I0627 20:58:02.869290 18033 net.cpp:131] Top shape: 96 12 24 24 (663552)
I0627 20:58:02.869297 18033 net.cpp:139] Memory required for data: 5309568
I0627 20:58:02.869318 18033 layer_factory.hpp:77] Creating layer conv1/bn
I0627 20:58:02.869329 18033 net.cpp:86] Creating Layer conv1/bn
I0627 20:58:02.869343 18033 net.cpp:408] conv1/bn <- conv1
I0627 20:58:02.869352 18033 net.cpp:369] conv1/bn -> conv1 (in-place)
I0627 20:58:02.869573 18033 net.cpp:124] Setting up conv1/bn
I0627 20:58:02.869583 18033 net.cpp:131] Top shape: 96 12 24 24 (663552)
I0627 20:58:02.869587 18033 net.cpp:139] Memory required for data: 7963776
I0627 20:58:02.869606 18033 layer_factory.hpp:77] Creating layer conv1/scale
I0627 20:58:02.869617 18033 net.cpp:86] Creating Layer conv1/scale
I0627 20:58:02.869621 18033 net.cpp:408] conv1/scale <- conv1
I0627 20:58:02.869635 18033 net.cpp:369] conv1/scale -> conv1 (in-place)
I0627 20:58:02.869705 18033 layer_factory.hpp:77] Creating layer conv1/scale
I0627 20:58:02.869864 18033 net.cpp:124] Setting up conv1/scale
I0627 20:58:02.869874 18033 net.cpp:131] Top shape: 96 12 24 24 (663552)
I0627 20:58:02.869877 18033 net.cpp:139] Memory required for data: 10617984
I0627 20:58:02.869892 18033 layer_factory.hpp:77] Creating layer relu1
I0627 20:58:02.869900 18033 net.cpp:86] Creating Layer relu1
I0627 20:58:02.869938 18033 net.cpp:408] relu1 <- conv1
I0627 20:58:02.869946 18033 net.cpp:369] relu1 -> conv1 (in-place)
I0627 20:58:02.870368 18033 net.cpp:124] Setting up relu1
I0627 20:58:02.870378 18033 net.cpp:131] Top shape: 96 12 24 24 (663552)
I0627 20:58:02.870383 18033 net.cpp:139] Memory required for data: 13272192
I0627 20:58:02.870394 18033 layer_factory.hpp:77] Creating layer conv2
I0627 20:58:02.870405 18033 net.cpp:86] Creating Layer conv2
I0627 20:58:02.870410 18033 net.cpp:408] conv2 <- conv1
I0627 20:58:02.870416 18033 net.cpp:382] conv2 -> conv2
I0627 20:58:02.873358 18033 net.cpp:124] Setting up conv2
I0627 20:58:02.873374 18033 net.cpp:131] Top shape: 96 24 12 12 (331776)
I0627 20:58:02.873379 18033 net.cpp:139] Memory required for data: 14599296
I0627 20:58:02.873390 18033 layer_factory.hpp:77] Creating layer conv2/bn
I0627 20:58:02.873399 18033 net.cpp:86] Creating Layer conv2/bn
I0627 20:58:02.873404 18033 net.cpp:408] conv2/bn <- conv2
I0627 20:58:02.873409 18033 net.cpp:369] conv2/bn -> conv2 (in-place)
I0627 20:58:02.873567 18033 net.cpp:124] Setting up conv2/bn
I0627 20:58:02.873576 18033 net.cpp:131] Top shape: 96 24 12 12 (331776)
I0627 20:58:02.873580 18033 net.cpp:139] Memory required for data: 15926400
I0627 20:58:02.873589 18033 layer_factory.hpp:77] Creating layer conv2/scale
I0627 20:58:02.873597 18033 net.cpp:86] Creating Layer conv2/scale
I0627 20:58:02.873602 18033 net.cpp:408] conv2/scale <- conv2
I0627 20:58:02.873608 18033 net.cpp:369] conv2/scale -> conv2 (in-place)
I0627 20:58:02.873644 18033 layer_factory.hpp:77] Creating layer conv2/scale
I0627 20:58:02.873759 18033 net.cpp:124] Setting up conv2/scale
I0627 20:58:02.873769 18033 net.cpp:131] Top shape: 96 24 12 12 (331776)
I0627 20:58:02.873772 18033 net.cpp:139] Memory required for data: 17253504
I0627 20:58:02.873778 18033 layer_factory.hpp:77] Creating layer relu2
I0627 20:58:02.873785 18033 net.cpp:86] Creating Layer relu2
I0627 20:58:02.873790 18033 net.cpp:408] relu2 <- conv2
I0627 20:58:02.873795 18033 net.cpp:369] relu2 -> conv2 (in-place)
I0627 20:58:02.874191 18033 net.cpp:124] Setting up relu2
I0627 20:58:02.874203 18033 net.cpp:131] Top shape: 96 24 12 12 (331776)
I0627 20:58:02.874207 18033 net.cpp:139] Memory required for data: 18580608
I0627 20:58:02.874212 18033 layer_factory.hpp:77] Creating layer conv3
I0627 20:58:02.874220 18033 net.cpp:86] Creating Layer conv3
I0627 20:58:02.874225 18033 net.cpp:408] conv3 <- conv2
I0627 20:58:02.874231 18033 net.cpp:382] conv3 -> conv3
I0627 20:58:02.876981 18033 net.cpp:124] Setting up conv3
I0627 20:58:02.877002 18033 net.cpp:131] Top shape: 96 48 6 6 (165888)
I0627 20:58:02.877007 18033 net.cpp:139] Memory required for data: 19244160
I0627 20:58:02.877013 18033 layer_factory.hpp:77] Creating layer conv3/bn
I0627 20:58:02.877022 18033 net.cpp:86] Creating Layer conv3/bn
I0627 20:58:02.877027 18033 net.cpp:408] conv3/bn <- conv3
I0627 20:58:02.877035 18033 net.cpp:369] conv3/bn -> conv3 (in-place)
I0627 20:58:02.877219 18033 net.cpp:124] Setting up conv3/bn
I0627 20:58:02.877230 18033 net.cpp:131] Top shape: 96 48 6 6 (165888)
I0627 20:58:02.877234 18033 net.cpp:139] Memory required for data: 19907712
I0627 20:58:02.877247 18033 layer_factory.hpp:77] Creating layer conv3/scale
I0627 20:58:02.877255 18033 net.cpp:86] Creating Layer conv3/scale
I0627 20:58:02.877259 18033 net.cpp:408] conv3/scale <- conv3
I0627 20:58:02.877265 18033 net.cpp:369] conv3/scale -> conv3 (in-place)
I0627 20:58:02.877305 18033 layer_factory.hpp:77] Creating layer conv3/scale
I0627 20:58:02.877430 18033 net.cpp:124] Setting up conv3/scale
I0627 20:58:02.877441 18033 net.cpp:131] Top shape: 96 48 6 6 (165888)
I0627 20:58:02.877445 18033 net.cpp:139] Memory required for data: 20571264
I0627 20:58:02.877451 18033 layer_factory.hpp:77] Creating layer relu3
I0627 20:58:02.877458 18033 net.cpp:86] Creating Layer relu3
I0627 20:58:02.877462 18033 net.cpp:408] relu3 <- conv3
I0627 20:58:02.877467 18033 net.cpp:369] relu3 -> conv3 (in-place)
I0627 20:58:02.878257 18033 net.cpp:124] Setting up relu3
I0627 20:58:02.878283 18033 net.cpp:131] Top shape: 96 48 6 6 (165888)
I0627 20:58:02.878288 18033 net.cpp:139] Memory required for data: 21234816
I0627 20:58:02.878291 18033 layer_factory.hpp:77] Creating layer ip1
I0627 20:58:02.878300 18033 net.cpp:86] Creating Layer ip1
I0627 20:58:02.878304 18033 net.cpp:408] ip1 <- conv3
I0627 20:58:02.878312 18033 net.cpp:382] ip1 -> ip1
I0627 20:58:02.880499 18033 net.cpp:124] Setting up ip1
I0627 20:58:02.880513 18033 net.cpp:131] Top shape: 96 128 (12288)
I0627 20:58:02.880517 18033 net.cpp:139] Memory required for data: 21283968
I0627 20:58:02.880524 18033 layer_factory.hpp:77] Creating layer ip2
I0627 20:58:02.880533 18033 net.cpp:86] Creating Layer ip2
I0627 20:58:02.880537 18033 net.cpp:408] ip2 <- ip1
I0627 20:58:02.880545 18033 net.cpp:382] ip2 -> ip2
I0627 20:58:02.880659 18033 net.cpp:124] Setting up ip2
I0627 20:58:02.880669 18033 net.cpp:131] Top shape: 96 2 (192)
I0627 20:58:02.880673 18033 net.cpp:139] Memory required for data: 21284736
I0627 20:58:02.880679 18033 layer_factory.hpp:77] Creating layer ip2_ip2_0_split
I0627 20:58:02.880689 18033 net.cpp:86] Creating Layer ip2_ip2_0_split
I0627 20:58:02.880693 18033 net.cpp:408] ip2_ip2_0_split <- ip2
I0627 20:58:02.880699 18033 net.cpp:382] ip2_ip2_0_split -> ip2_ip2_0_split_0
I0627 20:58:02.880707 18033 net.cpp:382] ip2_ip2_0_split -> ip2_ip2_0_split_1
I0627 20:58:02.880760 18033 net.cpp:124] Setting up ip2_ip2_0_split
I0627 20:58:02.880769 18033 net.cpp:131] Top shape: 96 2 (192)
I0627 20:58:02.880774 18033 net.cpp:131] Top shape: 96 2 (192)
I0627 20:58:02.880777 18033 net.cpp:139] Memory required for data: 21286272
I0627 20:58:02.880781 18033 layer_factory.hpp:77] Creating layer loss
I0627 20:58:02.880789 18033 net.cpp:86] Creating Layer loss
I0627 20:58:02.880792 18033 net.cpp:408] loss <- ip2_ip2_0_split_0
I0627 20:58:02.880797 18033 net.cpp:408] loss <- label_data_1_split_0
I0627 20:58:02.880805 18033 net.cpp:382] loss -> loss
…
I0627 20:58:02.882071 18033 net.cpp:296] The NetState phase (1) differed from the phase (0) specified by a rule in layer data
I0627 20:58:02.882237 18033 net.cpp:53] Initializing net from parameters: 
name: "simpleconv3"
state {
  phase: TEST
}
layer {
  name: "data"
  type: "ImageData"
  top: "data"
  top: "label"
  include {
    phase: TEST
  }
  transform_param {
    mirror: false
    crop_size: 48
    mean_value: 104.008
    mean_value: 116.669
    mean_value: 122.675
  }
  image_data_param {
    source: "val_shuffle.txt"
    batch_size: 16
    shuffle: false
  }
}
layer {
  name: "conv1"
  type: "Convolution"
  bottom: "data"
  top: "conv1"
  param {
    lr_mult: 1
    decay_mult: 1
  }
  param {
    lr_mult: 2
    decay_mult: 0
  }
  convolution_param {
    num_output: 12
    pad: 1
    kernel_size: 3
    stride: 2
    weight_filler {
      type: "xavier"
      std: 0.01
    }
    bias_filler {
      type: "constant"
      value: 0.2
    }
  }
}
layer {
  name: "conv1/bn"
  type: "BatchNorm"
  bottom: "conv1"
  top: "conv1"
  param {
    lr_mult: 0
    decay_mult: 0
  }
  param {
    lr_mult: 0
    decay_mult: 0
  }
  param {
    lr_mult: 0
    decay_mult: 0
  }
}
layer {
  name: "conv1/scale"
  type: "Scale"
  bottom: "conv1"
  top: "conv1"
  param {
    lr_mult: 1
    decay_mult: 0
  }
  param {
    lr_mult: 1
    decay_mult: 0
  }
  scale_param {
    filler {
      value: 1
    }
    bias_term: true
    bias_filler {
      value: 0
    }
  }
}
layer {
  name: "relu1"
  type: "ReLU"
  bottom: "conv1"
  top: "conv1"
}
layer {
  name: "conv2"
  type: "Convolution"
  bottom: "conv1"
  top: "conv2"
  param {
    lr_mult: 1
    decay_mult: 1
  }
  param {
    lr_mult: 2
    decay_mult: 0
  }
  convolution_param {
    num_output: 24
    pad: 1
    kernel_size: 3
    stride: 2
    weight_filler {
      type: "xavier"
      std: 0.1
    }
    bias_filler {
      type: "constant"
      value: 0.2
    }
  }
}
layer {
  name: "conv2/bn"
  type: "BatchNorm"
  bottom: "conv2"
  top: "conv2"
  param {
    lr_mult: 0
    decay_mult: 0
  }
  param {
    lr_mult: 0
    decay_mult: 0
  }
  param {
    lr_mult: 0
    decay_mult: 0
  }
}
layer {
  name: "conv2/scale"
  type: "Scale"
  bottom: "conv2"
  top: "conv2"
  param {
    lr_mult: 1
    decay_mult: 0
  }
  param {
    lr_mult: 1
    decay_mult: 0
  }
  scale_param {
    filler {
      value: 1
    }
    bias_term: true
    bias_filler {
      value: 0
    }
  }
}
layer {
  name: "relu2"
  type: "ReLU"
  bottom: "conv2"
  top: "conv2"
}
layer {
  name: "conv3"
  type: "Convolution"
  bottom: "conv2"
  top: "conv3"
  param {
    lr_mult: 1
    decay_mult: 1
  }
  param {
    lr_mult: 2
    decay_mult: 0
  }
  convolution_param {
    num_output: 48
    pad: 1
    kernel_size: 3
    stride: 2
    weight_filler {
      type: "xavier"
      std: 0.1
    }
    bias_filler {
      type: "constant"
      value: 0.2
    }
  }
}
layer {
  name: "conv3/bn"
  type: "BatchNorm"
  bottom: "conv3"
  top: "conv3"
  param {
    lr_mult: 0
    decay_mult: 0
  }
  param {
    lr_mult: 0
    decay_mult: 0
  }
  param {
    lr_mult: 0
    decay_mult: 0
  }
}
layer {
  name: "conv3/scale"
  type: "Scale"
  bottom: "conv3"
  top: "conv3"
  param {
    lr_mult: 1
    decay_mult: 0
  }
  param {
    lr_mult: 1
    decay_mult: 0
  }
  scale_param {
    filler {
      value: 1
    }
    bias_term: true
    bias_filler {
      value: 0
    }
  }
}
layer {
  name: "relu3"
  type: "ReLU"
  bottom: "conv3"
  top: "conv3"
}
layer {
  name: "ip1"
  type: "InnerProduct"
  bottom: "conv3"
  top: "ip1"
  param {
    lr_mult: 1
    decay_mult: 1
  }
  param {
    lr_mult: 2
    decay_mult: 0
  }
  inner_product_param {
    num_output: 128
    weight_filler {
      type: "xavier"
    }
    bias_filler {
      type: "constant"
      value: 0
    }
  }
}
layer {
  name: "ip2"
  type: "InnerProduct"
  bottom: "ip1"
  top: "ip2"
  param {
    lr_mult: 1
    decay_mult: 1
  }
  param {
    lr_mult: 2
    decay_mult: 1
  }
  inner_product_param {
    num_output: 2
    weight_filler {
      type: "xavier"
    }
    bias_filler {
      type: "constant"
      value: 0
    }
  }
}
layer {
  name: "loss"
  type: "SoftmaxWithLoss"
  bottom: "ip2"
  bottom: "label"
  top: "loss"
}
layer {
  name: "acc"
  type: "Accuracy"
  bottom: "ip2"
  bottom: "label"
  top: "acc"
}
I0627 20:58:02.882369 18033 layer_factory.hpp:77] Creating layer data
I0627 20:58:02.882388 18033 net.cpp:86] Creating Layer data
I0627 20:58:02.882400 18033 net.cpp:382] data -> data
I0627 20:58:02.882411 18033 net.cpp:382] data -> label
I0627 20:58:02.882419 18033 image_data_layer.cpp:38] Opening file val_shuffle.txt
I0627 20:58:02.885195 18033 image_data_layer.cpp:63] A total of 100 images.
I0627 20:58:02.885445 18033 image_data_layer.cpp:90] output data size: 16,3,48,48
I0627 20:58:02.887189 18033 net.cpp:124] Setting up data
I0627 20:58:02.887207 18033 net.cpp:131] Top shape: 16 3 48 48 (110592)
I0627 20:58:02.887212 18033 net.cpp:131] Top shape: 16 (16)
I0627 20:58:02.887217 18033 net.cpp:139] Memory required for data: 442432
I0627 20:58:02.887223 18033 layer_factory.hpp:77] Creating layer label_data_1_split
I0627 20:58:02.887235 18033 net.cpp:86] Creating Layer label_data_1_split
I0627 20:58:02.887243 18033 net.cpp:408] label_data_1_split <- label
I0627 20:58:02.887254 18033 net.cpp:382] label_data_1_split -> label_data_1_split_0
I0627 20:58:02.887269 18033 net.cpp:382] label_data_1_split -> label_data_1_split_1
I0627 20:58:02.887360 18033 net.cpp:124] Setting up label_data_1_split
I0627 20:58:02.887373 18033 net.cpp:131] Top shape: 16 (16)
I0627 20:58:02.887380 18033 net.cpp:131] Top shape: 16 (16)
I0627 20:58:02.887385 18033 net.cpp:139] Memory required for data: 442560
I0627 20:58:02.887398 18033 layer_factory.hpp:77] Creating layer conv1
I0627 20:58:02.887415 18033 net.cpp:86] Creating Layer conv1
I0627 20:58:02.887423 18033 net.cpp:408] conv1 <- data
I0627 20:58:02.887432 18033 net.cpp:382] conv1 -> conv1
I0627 20:58:02.890121 18033 net.cpp:124] Setting up conv1
I0627 20:58:02.890146 18033 net.cpp:131] Top shape: 16 12 24 24 (110592)
I0627 20:58:02.890151 18033 net.cpp:139] Memory required for data: 884928
I0627 20:58:02.890164 18033 layer_factory.hpp:77] Creating layer conv1/bn
I0627 20:58:02.890175 18033 net.cpp:86] Creating Layer conv1/bn
I0627 20:58:02.890183 18033 net.cpp:408] conv1/bn <- conv1
I0627 20:58:02.890194 18033 net.cpp:369] conv1/bn -> conv1 (in-place)
I0627 20:58:02.890450 18033 net.cpp:124] Setting up conv1/bn
I0627 20:58:02.890467 18033 net.cpp:131] Top shape: 16 12 24 24 (110592)
I0627 20:58:02.890472 18033 net.cpp:139] Memory required for data: 1327296
I0627 20:58:02.890483 18033 layer_factory.hpp:77] Creating layer conv1/scale
I0627 20:58:02.890496 18033 net.cpp:86] Creating Layer conv1/scale
I0627 20:58:02.890503 18033 net.cpp:408] conv1/scale <- conv1
I0627 20:58:02.890516 18033 net.cpp:369] conv1/scale -> conv1 (in-place)
I0627 20:58:02.890565 18033 layer_factory.hpp:77] Creating layer conv1/scale
I0627 20:58:02.890785 18033 net.cpp:124] Setting up conv1/scale
I0627 20:58:02.890805 18033 net.cpp:131] Top shape: 16 12 24 24 (110592)
I0627 20:58:02.890810 18033 net.cpp:139] Memory required for data: 1769664
I0627 20:58:02.890817 18033 layer_factory.hpp:77] Creating layer relu1
I0627 20:58:02.890825 18033 net.cpp:86] Creating Layer relu1
I0627 20:58:02.890830 18033 net.cpp:408] relu1 <- conv1
I0627 20:58:02.890851 18033 net.cpp:369] relu1 -> conv1 (in-place)
I0627 20:58:02.891342 18033 net.cpp:124] Setting up relu1
I0627 20:58:02.891361 18033 net.cpp:131] Top shape: 16 12 24 24 (110592)
I0627 20:58:02.891366 18033 net.cpp:139] Memory required for data: 2212032
I0627 20:58:02.891371 18033 layer_factory.hpp:77] Creating layer conv2
I0627 20:58:02.891382 18033 net.cpp:86] Creating Layer conv2
I0627 20:58:02.891387 18033 net.cpp:408] conv2 <- conv1
I0627 20:58:02.891396 18033 net.cpp:382] conv2 -> conv2
I0627 20:58:02.893525 18033 net.cpp:124] Setting up conv2
I0627 20:58:02.893549 18033 net.cpp:131] Top shape: 16 24 12 12 (55296)
I0627 20:58:02.893554 18033 net.cpp:139] Memory required for data: 2433216
I0627 20:58:02.893564 18033 layer_factory.hpp:77] Creating layer conv2/bn
I0627 20:58:02.893574 18033 net.cpp:86] Creating Layer conv2/bn
I0627 20:58:02.893579 18033 net.cpp:408] conv2/bn <- conv2
I0627 20:58:02.893585 18033 net.cpp:369] conv2/bn -> conv2 (in-place)
I0627 20:58:02.893776 18033 net.cpp:124] Setting up conv2/bn
I0627 20:58:02.893795 18033 net.cpp:131] Top shape: 16 24 12 12 (55296)
I0627 20:58:02.893798 18033 net.cpp:139] Memory required for data: 2654400
I0627 20:58:02.893807 18033 layer_factory.hpp:77] Creating layer conv2/scale
I0627 20:58:02.893815 18033 net.cpp:86] Creating Layer conv2/scale
I0627 20:58:02.893821 18033 net.cpp:408] conv2/scale <- conv2
I0627 20:58:02.893827 18033 net.cpp:369] conv2/scale -> conv2 (in-place)
I0627 20:58:02.893867 18033 layer_factory.hpp:77] Creating layer conv2/scale
I0627 20:58:02.893987 18033 net.cpp:124] Setting up conv2/scale
I0627 20:58:02.894004 18033 net.cpp:131] Top shape: 16 24 12 12 (55296)
I0627 20:58:02.894009 18033 net.cpp:139] Memory required for data: 2875584
I0627 20:58:02.894016 18033 layer_factory.hpp:77] Creating layer relu2
I0627 20:58:02.894024 18033 net.cpp:86] Creating Layer relu2
I0627 20:58:02.894028 18033 net.cpp:408] relu2 <- conv2
I0627 20:58:02.894034 18033 net.cpp:369] relu2 -> conv2 (in-place)
I0627 20:58:02.894847 18033 net.cpp:124] Setting up relu2
I0627 20:58:02.894870 18033 net.cpp:131] Top shape: 16 24 12 12 (55296)
I0627 20:58:02.894874 18033 net.cpp:139] Memory required for data: 3096768
I0627 20:58:02.894879 18033 layer_factory.hpp:77] Creating layer conv3
I0627 20:58:02.894892 18033 net.cpp:86] Creating Layer conv3
I0627 20:58:02.894899 18033 net.cpp:408] conv3 <- conv2
I0627 20:58:02.894912 18033 net.cpp:382] conv3 -> conv3
I0627 20:58:02.897148 18033 net.cpp:124] Setting up conv3
I0627 20:58:02.897164 18033 net.cpp:131] Top shape: 16 48 6 6 (27648)
I0627 20:58:02.897171 18033 net.cpp:139] Memory required for data: 3207360
I0627 20:58:02.897194 18033 layer_factory.hpp:77] Creating layer conv3/bn
I0627 20:58:02.897205 18033 net.cpp:86] Creating Layer conv3/bn
I0627 20:58:02.897214 18033 net.cpp:408] conv3/bn <- conv3
I0627 20:58:02.897225 18033 net.cpp:369] conv3/bn -> conv3 (in-place)
I0627 20:58:02.897420 18033 net.cpp:124] Setting up conv3/bn
I0627 20:58:02.897430 18033 net.cpp:131] Top shape: 16 48 6 6 (27648)
I0627 20:58:02.897435 18033 net.cpp:139] Memory required for data: 3317952
I0627 20:58:02.897450 18033 layer_factory.hpp:77] Creating layer conv3/scale
I0627 20:58:02.897460 18033 net.cpp:86] Creating Layer conv3/scale
I0627 20:58:02.897466 18033 net.cpp:408] conv3/scale <- conv3
I0627 20:58:02.897480 18033 net.cpp:369] conv3/scale -> conv3 (in-place)
I0627 20:58:02.897526 18033 layer_factory.hpp:77] Creating layer conv3/scale
I0627 20:58:02.897650 18033 net.cpp:124] Setting up conv3/scale
I0627 20:58:02.897661 18033 net.cpp:131] Top shape: 16 48 6 6 (27648)
I0627 20:58:02.897666 18033 net.cpp:139] Memory required for data: 3428544
I0627 20:58:02.897677 18033 layer_factory.hpp:77] Creating layer relu3
I0627 20:58:02.897689 18033 net.cpp:86] Creating Layer relu3
I0627 20:58:02.897696 18033 net.cpp:408] relu3 <- conv3
I0627 20:58:02.897704 18033 net.cpp:369] relu3 -> conv3 (in-place)
I0627 20:58:02.898288 18033 net.cpp:124] Setting up relu3
I0627 20:58:02.898303 18033 net.cpp:131] Top shape: 16 48 6 6 (27648)
I0627 20:58:02.898321 18033 net.cpp:139] Memory required for data: 3539136
I0627 20:58:02.898330 18033 layer_factory.hpp:77] Creating layer ip1
I0627 20:58:02.898342 18033 net.cpp:86] Creating Layer ip1
I0627 20:58:02.898350 18033 net.cpp:408] ip1 <- conv3
I0627 20:58:02.898362 18033 net.cpp:382] ip1 -> ip1
I0627 20:58:02.899806 18033 net.cpp:124] Setting up ip1
I0627 20:58:02.899821 18033 net.cpp:131] Top shape: 16 128 (2048)
I0627 20:58:02.899827 18033 net.cpp:139] Memory required for data: 3547328
I0627 20:58:02.899847 18033 layer_factory.hpp:77] Creating layer ip2
I0627 20:58:02.899855 18033 net.cpp:86] Creating Layer ip2
I0627 20:58:02.899863 18033 net.cpp:408] ip2 <- ip1
I0627 20:58:02.899875 18033 net.cpp:382] ip2 -> ip2
I0627 20:58:02.899984 18033 net.cpp:124] Setting up ip2
I0627 20:58:02.899994 18033 net.cpp:131] Top shape: 16 2 (32)
I0627 20:58:02.900002 18033 net.cpp:139] Memory required for data: 3547456
I0627 20:58:02.900022 18033 layer_factory.hpp:77] Creating layer ip2_ip2_0_split
I0627 20:58:02.900034 18033 net.cpp:86] Creating Layer ip2_ip2_0_split
I0627 20:58:02.900041 18033 net.cpp:408] ip2_ip2_0_split <- ip2
I0627 20:58:02.900050 18033 net.cpp:382] ip2_ip2_0_split -> ip2_ip2_0_split_0
I0627 20:58:02.900060 18033 net.cpp:382] ip2_ip2_0_split -> ip2_ip2_0_split_1
I0627 20:58:02.900104 18033 net.cpp:124] Setting up ip2_ip2_0_split
I0627 20:58:02.900113 18033 net.cpp:131] Top shape: 16 2 (32)
I0627 20:58:02.900130 18033 net.cpp:131] Top shape: 16 2 (32)
I0627 20:58:02.900143 18033 net.cpp:139] Memory required for data: 3547712
I0627 20:58:02.900151 18033 layer_factory.hpp:77] Creating layer loss
I0627 20:58:02.900161 18033 net.cpp:86] Creating Layer loss
I0627 20:58:02.900167 18033 net.cpp:408] loss <- ip2_ip2_0_split_0
I0627 20:58:02.900174 18033 net.cpp:408] loss <- label_data_1_split_0
I0627 20:58:02.900185 18033 net.cpp:382] loss -> loss
…
