…
I0420 00:39:24.562041  3448 net.cpp:294] The NetState phase (0) differed from the phase (1) specified by a rule in layer data
I0420 00:39:24.562191  3448 net.cpp:51] Initializing net from parameters: 
name: "simpleconv3"
state {
  phase: TRAIN
  level: 0
  stage: ""
}
layer {
  name: "data"
  type: "ImageData"
  top: "data"
  top: "label"
  include {
    phase: TRAIN
  }
  transform_param {
    mirror: true
    crop_size: 48
    mean_value: 104.008
    mean_value: 116.669
    mean_value: 122.675
  }
  image_data_param {
    source: "train_shuffle.txt"
    batch_size: 96
    shuffle: true
  }
}
layer {
  name: "conv1"
  type: "Convolution"
  bottom: "data"
  top: "conv1"
  param {
    lr_mult: 1
    decay_mult: 1
  }
  param {
    lr_mult: 2
    decay_mult: 0
  }
  convolution_param {
    num_output: 12
    pad: 1
    kernel_size: 3
    stride: 2
    weight_filler {
      type: "xavier"
      std: 0.01
    }
    bias_filler {
      type: "constant"
      value: 0.2
    }
  }
}
layer {
  name: "conv1/bn"
  type: "BatchNorm"
  bottom: "conv1"
  top: "conv1"
  param {
    lr_mult: 0
    decay_mult: 0
  }
  param {
    lr_mult: 0
    decay_mult: 0
  }
  param {
    lr_mult: 0
    decay_mult: 0
  }
}
layer {
  name: "conv1/scale"
  type: "Scale"
  bottom: "conv1"
  top: "conv1"
  param {
    lr_mult: 1
    decay_mult: 0
  }
  param {
    lr_mult: 1
    decay_mult: 0
  }
  scale_param {
    filler {
      value: 1
    }
    bias_term: true
    bias_filler {
      value: 0
    }
  }
}
layer {
  name: "relu1"
  type: "ReLU"
  bottom: "conv1"
  top: "conv1"
}
layer {
  name: "conv2"
  type: "Convolution"
  bottom: "conv1"
  top: "conv2"
  param {
    lr_mult: 1
    decay_mult: 1
  }
  param {
    lr_mult: 2
    decay_mult: 0
  }
  convolution_param {
    num_output: 24
    pad: 1
    kernel_size: 3
    stride: 2
    weight_filler {
      type: "xavier"
      std: 0.1
    }
    bias_filler {
      type: "constant"
      value: 0.2
    }
  }
}
layer {
  name: "conv2/bn"
  type: "BatchNorm"
  bottom: "conv2"
  top: "conv2"
  param {
    lr_mult: 0
    decay_mult: 0
  }
  param {
    lr_mult: 0
    decay_mult: 0
  }
  param {
    lr_mult: 0
    decay_mult: 0
  }
}
layer {
  name: "conv2/scale"
  type: "Scale"
  bottom: "conv2"
  top: "conv2"
  param {
    lr_mult: 1
    decay_mult: 0
  }
  param {
    lr_mult: 1
    decay_mult: 0
  }
  scale_param {
    filler {
      value: 1
    }
    bias_term: true
    bias_filler {
      value: 0
    }
  }
}
layer {
  name: "relu2"
  type: "ReLU"
  bottom: "conv2"
  top: "conv2"
}
layer {
  name: "conv3"
  type: "Convolution"
  bottom: "conv2"
  top: "conv3"
  param {
    lr_mult: 1
    decay_mult: 1
  }
  param {
    lr_mult: 2
    decay_mult: 0
  }
  convolution_param {
    num_output: 48
    pad: 1
    kernel_size: 3
    stride: 2
    weight_filler {
      type: "xavier"
      std: 0.1
    }
    bias_filler {
      type: "constant"
      value: 0.2
    }
  }
}
layer {
  name: "conv3/bn"
  type: "BatchNorm"
  bottom: "conv3"
  top: "conv3"
  param {
    lr_mult: 0
    decay_mult: 0
  }
  param {
    lr_mult: 0
    decay_mult: 0
  }
  param {
    lr_mult: 0
    decay_mult: 0
  }
}
layer {
  name: "conv3/scale"
  type: "Scale"
  bottom: "conv3"
  top: "conv3"
  param {
    lr_mult: 1
    decay_mult: 0
  }
  param {
    lr_mult: 1
    decay_mult: 0
  }
  scale_param {
    filler {
      value: 1
    }
    bias_term: true
    bias_filler {
      value: 0
    }
  }
}
layer {
  name: "relu3"
  type: "ReLU"
  bottom: "conv3"
  top: "conv3"
}
layer {
  name: "ip1"
  type: "InnerProduct"
  bottom: "conv3"
  top: "ip1"
  param {
    lr_mult: 1
    decay_mult: 1
  }
  param {
    lr_mult: 2
    decay_mult: 0
  }
  inner_product_param {
    num_output: 128
    weight_filler {
      type: "xavier"
    }
    bias_filler {
      type: "constant"
      value: 0
    }
  }
}
layer {
  name: "ip2"
  type: "InnerProduct"
  bottom: "ip1"
  top: "ip2"
  param {
    lr_mult: 1
    decay_mult: 1
  }
  param {
    lr_mult: 2
    decay_mult: 1
  }
  inner_product_param {
    num_output: 2
    weight_filler {
      type: "xavier"
    }
    bias_filler {
      type: "constant"
      value: 0
    }
  }
}
layer {
  name: "loss"
  type: "SoftmaxWithLoss"
  bottom: "ip2"
  bottom: "label"
  top: "loss"
}
layer {
  name: "acc"
  type: "Accuracy"
  bottom: "ip2"
  bottom: "label"
  top: "acc"
}
I0420 00:39:24.562316  3448 layer_factory.hpp:77] Creating layer data
I0420 00:39:24.607026  3448 net.cpp:84] Creating Layer data
I0420 00:39:24.607065  3448 net.cpp:380] data -> data
I0420 00:39:24.607100  3448 net.cpp:380] data -> label
I0420 00:39:24.607532  3448 image_data_layer.cpp:43] Opening file train_shuffle.txt
I0420 00:39:24.607542  3448 io.cpp:296] Opening file train_shuffle.txt
I0420 00:39:24.654160  3448 io.cpp:321] Read 900 images with 1 labels
I0420 00:39:24.654188  3448 image_data_layer.cpp:61] Shuffling data
I0420 00:39:24.654386  3448 image_data_layer.cpp:71] A total of 900 images.
I0420 00:39:24.748679  3448 image_data_layer.cpp:98] output data size: 96,3,48,48
I0420 00:39:24.753525  3448 net.cpp:122] Setting up data
I0420 00:39:24.753549  3448 net.cpp:129] Top shape: 96 3 48 48 (663552)
I0420 00:39:24.753554  3448 net.cpp:129] Top shape: 96 1 1 1 (96)
I0420 00:39:24.753556  3448 net.cpp:137] Memory required for data: 2654592
I0420 00:39:24.753572  3448 layer_factory.hpp:77] Creating layer label_data_1_split
I0420 00:39:24.753585  3448 net.cpp:84] Creating Layer label_data_1_split
I0420 00:39:24.753592  3448 net.cpp:406] label_data_1_split <- label
I0420 00:39:24.753607  3448 net.cpp:380] label_data_1_split -> label_data_1_split_0
I0420 00:39:24.753630  3448 net.cpp:380] label_data_1_split -> label_data_1_split_1
I0420 00:39:24.753729  3448 net.cpp:122] Setting up label_data_1_split
I0420 00:39:24.753739  3448 net.cpp:129] Top shape: 96 1 1 1 (96)
I0420 00:39:24.753742  3448 net.cpp:129] Top shape: 96 1 1 1 (96)
I0420 00:39:24.753744  3448 net.cpp:137] Memory required for data: 2655360
I0420 00:39:24.753757  3448 layer_factory.hpp:77] Creating layer conv1
I0420 00:39:24.753779  3448 net.cpp:84] Creating Layer conv1
I0420 00:39:24.753795  3448 net.cpp:406] conv1 <- data
I0420 00:39:24.753814  3448 net.cpp:380] conv1 -> conv1
I0420 00:39:24.754390  3448 net.cpp:122] Setting up conv1
I0420 00:39:24.754400  3448 net.cpp:129] Top shape: 96 12 24 24 (663552)
I0420 00:39:24.754402  3448 net.cpp:137] Memory required for data: 5309568
I0420 00:39:24.754426  3448 layer_factory.hpp:77] Creating layer conv1/bn
I0420 00:39:24.754436  3448 net.cpp:84] Creating Layer conv1/bn
I0420 00:39:24.754451  3448 net.cpp:406] conv1/bn <- conv1
I0420 00:39:24.754503  3448 net.cpp:367] conv1/bn -> conv1 (in-place)
I0420 00:39:24.754952  3448 net.cpp:122] Setting up conv1/bn
I0420 00:39:24.754976  3448 net.cpp:129] Top shape: 96 12 24 24 (663552)
I0420 00:39:24.754978  3448 net.cpp:137] Memory required for data: 7963776
I0420 00:39:24.754988  3448 layer_factory.hpp:77] Creating layer conv1/scale
I0420 00:39:24.754997  3448 net.cpp:84] Creating Layer conv1/scale
I0420 00:39:24.755000  3448 net.cpp:406] conv1/scale <- conv1
I0420 00:39:24.755007  3448 net.cpp:367] conv1/scale -> conv1 (in-place)
I0420 00:39:24.755064  3448 layer_factory.hpp:77] Creating layer conv1/scale
I0420 00:39:24.755188  3448 net.cpp:122] Setting up conv1/scale
I0420 00:39:24.755195  3448 net.cpp:129] Top shape: 96 12 24 24 (663552)
I0420 00:39:24.755208  3448 net.cpp:137] Memory required for data: 10617984
I0420 00:39:24.755228  3448 layer_factory.hpp:77] Creating layer relu1
I0420 00:39:24.755237  3448 net.cpp:84] Creating Layer relu1
I0420 00:39:24.755244  3448 net.cpp:406] relu1 <- conv1
I0420 00:39:24.755251  3448 net.cpp:367] relu1 -> conv1 (in-place)
I0420 00:39:24.755260  3448 net.cpp:122] Setting up relu1
I0420 00:39:24.755268  3448 net.cpp:129] Top shape: 96 12 24 24 (663552)
I0420 00:39:24.755273  3448 net.cpp:137] Memory required for data: 13272192
I0420 00:39:24.755277  3448 layer_factory.hpp:77] Creating layer conv2
I0420 00:39:24.755290  3448 net.cpp:84] Creating Layer conv2
I0420 00:39:24.755296  3448 net.cpp:406] conv2 <- conv1
I0420 00:39:24.755306  3448 net.cpp:380] conv2 -> conv2
I0420 00:39:24.755841  3448 net.cpp:122] Setting up conv2
I0420 00:39:24.755852  3448 net.cpp:129] Top shape: 96 24 12 12 (331776)
I0420 00:39:24.755856  3448 net.cpp:137] Memory required for data: 14599296
I0420 00:39:24.755865  3448 layer_factory.hpp:77] Creating layer conv2/bn
I0420 00:39:24.755877  3448 net.cpp:84] Creating Layer conv2/bn
I0420 00:39:24.755883  3448 net.cpp:406] conv2/bn <- conv2
I0420 00:39:24.755892  3448 net.cpp:367] conv2/bn -> conv2 (in-place)
I0420 00:39:24.756038  3448 net.cpp:122] Setting up conv2/bn
I0420 00:39:24.756055  3448 net.cpp:129] Top shape: 96 24 12 12 (331776)
I0420 00:39:24.756058  3448 net.cpp:137] Memory required for data: 15926400
I0420 00:39:24.756064  3448 layer_factory.hpp:77] Creating layer conv2/scale
I0420 00:39:24.756075  3448 net.cpp:84] Creating Layer conv2/scale
I0420 00:39:24.756083  3448 net.cpp:406] conv2/scale <- conv2
I0420 00:39:24.756089  3448 net.cpp:367] conv2/scale -> conv2 (in-place)
I0420 00:39:24.756132  3448 layer_factory.hpp:77] Creating layer conv2/scale
I0420 00:39:24.756217  3448 net.cpp:122] Setting up conv2/scale
I0420 00:39:24.756222  3448 net.cpp:129] Top shape: 96 24 12 12 (331776)
I0420 00:39:24.756225  3448 net.cpp:137] Memory required for data: 17253504
I0420 00:39:24.756230  3448 layer_factory.hpp:77] Creating layer relu2
I0420 00:39:24.756235  3448 net.cpp:84] Creating Layer relu2
I0420 00:39:24.756238  3448 net.cpp:406] relu2 <- conv2
I0420 00:39:24.756243  3448 net.cpp:367] relu2 -> conv2 (in-place)
I0420 00:39:24.756247  3448 net.cpp:122] Setting up relu2
I0420 00:39:24.756253  3448 net.cpp:129] Top shape: 96 24 12 12 (331776)
I0420 00:39:24.756254  3448 net.cpp:137] Memory required for data: 18580608
I0420 00:39:24.756258  3448 layer_factory.hpp:77] Creating layer conv3
I0420 00:39:24.756263  3448 net.cpp:84] Creating Layer conv3
I0420 00:39:24.756268  3448 net.cpp:406] conv3 <- conv2
I0420 00:39:24.756273  3448 net.cpp:380] conv3 -> conv3
I0420 00:39:24.756825  3448 net.cpp:122] Setting up conv3
I0420 00:39:24.756836  3448 net.cpp:129] Top shape: 96 48 6 6 (165888)
I0420 00:39:24.756839  3448 net.cpp:137] Memory required for data: 19244160
I0420 00:39:24.756844  3448 layer_factory.hpp:77] Creating layer conv3/bn
I0420 00:39:24.756852  3448 net.cpp:84] Creating Layer conv3/bn
I0420 00:39:24.756855  3448 net.cpp:406] conv3/bn <- conv3
I0420 00:39:24.756861  3448 net.cpp:367] conv3/bn -> conv3 (in-place)
I0420 00:39:24.756995  3448 net.cpp:122] Setting up conv3/bn
I0420 00:39:24.757001  3448 net.cpp:129] Top shape: 96 48 6 6 (165888)
I0420 00:39:24.757004  3448 net.cpp:137] Memory required for data: 19907712
I0420 00:39:24.757012  3448 layer_factory.hpp:77] Creating layer conv3/scale
I0420 00:39:24.757019  3448 net.cpp:84] Creating Layer conv3/scale
I0420 00:39:24.757023  3448 net.cpp:406] conv3/scale <- conv3
I0420 00:39:24.757027  3448 net.cpp:367] conv3/scale -> conv3 (in-place)
I0420 00:39:24.757055  3448 layer_factory.hpp:77] Creating layer conv3/scale
I0420 00:39:24.757136  3448 net.cpp:122] Setting up conv3/scale
I0420 00:39:24.757143  3448 net.cpp:129] Top shape: 96 48 6 6 (165888)
I0420 00:39:24.757144  3448 net.cpp:137] Memory required for data: 20571264
I0420 00:39:24.757148  3448 layer_factory.hpp:77] Creating layer relu3
I0420 00:39:24.757153  3448 net.cpp:84] Creating Layer relu3
I0420 00:39:24.757166  3448 net.cpp:406] relu3 <- conv3
I0420 00:39:24.757171  3448 net.cpp:367] relu3 -> conv3 (in-place)
I0420 00:39:24.757175  3448 net.cpp:122] Setting up relu3
I0420 00:39:24.757179  3448 net.cpp:129] Top shape: 96 48 6 6 (165888)
I0420 00:39:24.757181  3448 net.cpp:137] Memory required for data: 21234816
I0420 00:39:24.757184  3448 layer_factory.hpp:77] Creating layer ip1
I0420 00:39:24.757189  3448 net.cpp:84] Creating Layer ip1
I0420 00:39:24.757191  3448 net.cpp:406] ip1 <- conv3
I0420 00:39:24.757196  3448 net.cpp:380] ip1 -> ip1
I0420 00:39:24.758610  3448 net.cpp:122] Setting up ip1
I0420 00:39:24.758622  3448 net.cpp:129] Top shape: 96 128 (12288)
I0420 00:39:24.758625  3448 net.cpp:137] Memory required for data: 21283968
I0420 00:39:24.758630  3448 layer_factory.hpp:77] Creating layer ip2
I0420 00:39:24.758636  3448 net.cpp:84] Creating Layer ip2
I0420 00:39:24.758641  3448 net.cpp:406] ip2 <- ip1
I0420 00:39:24.758646  3448 net.cpp:380] ip2 -> ip2
I0420 00:39:24.758719  3448 net.cpp:122] Setting up ip2
I0420 00:39:24.758726  3448 net.cpp:129] Top shape: 96 2 (192)
I0420 00:39:24.758728  3448 net.cpp:137] Memory required for data: 21284736
I0420 00:39:24.758733  3448 layer_factory.hpp:77] Creating layer ip2_ip2_0_split
I0420 00:39:24.758738  3448 net.cpp:84] Creating Layer ip2_ip2_0_split
I0420 00:39:24.758743  3448 net.cpp:406] ip2_ip2_0_split <- ip2
I0420 00:39:24.758746  3448 net.cpp:380] ip2_ip2_0_split -> ip2_ip2_0_split_0
I0420 00:39:24.758751  3448 net.cpp:380] ip2_ip2_0_split -> ip2_ip2_0_split_1
I0420 00:39:24.758777  3448 net.cpp:122] Setting up ip2_ip2_0_split
I0420 00:39:24.758782  3448 net.cpp:129] Top shape: 96 2 (192)
I0420 00:39:24.758785  3448 net.cpp:129] Top shape: 96 2 (192)
I0420 00:39:24.758787  3448 net.cpp:137] Memory required for data: 21286272
I0420 00:39:24.758790  3448 layer_factory.hpp:77] Creating layer loss
I0420 00:39:24.758795  3448 net.cpp:84] Creating Layer loss
I0420 00:39:24.758796  3448 net.cpp:406] loss <- ip2_ip2_0_split_0
I0420 00:39:24.758800  3448 net.cpp:406] loss <- label_data_1_split_0
I0420 00:39:24.758805  3448 net.cpp:380] loss -> loss
…
I0420 00:39:24.759338  3448 net.cpp:294] The NetState phase (1) differed from the phase (0) specified by a rule in layer data
I0420 00:39:24.759521  3448 net.cpp:51] Initializing net from parameters: 
name: "simpleconv3"
state {
  phase: TEST
}
layer {
  name: "data"
  type: "ImageData"
  top: "data"
  top: "label"
  include {
    phase: TEST
  }
  transform_param {
    mirror: false
    crop_size: 48
    mean_value: 104.008
    mean_value: 116.669
    mean_value: 122.675
  }
  image_data_param {
    source: "val_shuffle.txt"
    batch_size: 16
    shuffle: false
  }
}
layer {
  name: "conv1"
  type: "Convolution"
  bottom: "data"
  top: "conv1"
  param {
    lr_mult: 1
    decay_mult: 1
  }
  param {
    lr_mult: 2
    decay_mult: 0
  }
  convolution_param {
    num_output: 12
    pad: 1
    kernel_size: 3
    stride: 2
    weight_filler {
      type: "xavier"
      std: 0.01
    }
    bias_filler {
      type: "constant"
      value: 0.2
    }
  }
}
layer {
  name: "conv1/bn"
  type: "BatchNorm"
  bottom: "conv1"
  top: "conv1"
  param {
    lr_mult: 0
    decay_mult: 0
  }
  param {
    lr_mult: 0
    decay_mult: 0
  }
  param {
    lr_mult: 0
    decay_mult: 0
  }
}
layer {
  name: "conv1/scale"
  type: "Scale"
  bottom: "conv1"
  top: "conv1"
  param {
    lr_mult: 1
    decay_mult: 0
  }
  param {
    lr_mult: 1
    decay_mult: 0
  }
  scale_param {
    filler {
      value: 1
    }
    bias_term: true
    bias_filler {
      value: 0
    }
  }
}
layer {
  name: "relu1"
  type: "ReLU"
  bottom: "conv1"
  top: "conv1"
}
layer {
  name: "conv2"
  type: "Convolution"
  bottom: "conv1"
  top: "conv2"
  param {
    lr_mult: 1
    decay_mult: 1
  }
  param {
    lr_mult: 2
    decay_mult: 0
  }
  convolution_param {
    num_output: 24
    pad: 1
    kernel_size: 3
    stride: 2
    weight_filler {
      type: "xavier"
      std: 0.1
    }
    bias_filler {
      type: "constant"
      value: 0.2
    }
  }
}
layer {
  name: "conv2/bn"
  type: "BatchNorm"
  bottom: "conv2"
  top: "conv2"
  param {
    lr_mult: 0
    decay_mult: 0
  }
  param {
    lr_mult: 0
    decay_mult: 0
  }
  param {
    lr_mult: 0
    decay_mult: 0
  }
}
layer {
  name: "conv2/scale"
  type: "Scale"
  bottom: "conv2"
  top: "conv2"
  param {
    lr_mult: 1
    decay_mult: 0
  }
  param {
    lr_mult: 1
    decay_mult: 0
  }
  scale_param {
    filler {
      value: 1
    }
    bias_term: true
    bias_filler {
      value: 0
    }
  }
}
layer {
  name: "relu2"
  type: "ReLU"
  bottom: "conv2"
  top: "conv2"
}
layer {
  name: "conv3"
  type: "Convolution"
  bottom: "conv2"
  top: "conv3"
  param {
    lr_mult: 1
    decay_mult: 1
  }
  param {
    lr_mult: 2
    decay_mult: 0
  }
  convolution_param {
    num_output: 48
    pad: 1
    kernel_size: 3
    stride: 2
    weight_filler {
      type: "xavier"
      std: 0.1
    }
    bias_filler {
      type: "constant"
      value: 0.2
    }
  }
}
layer {
  name: "conv3/bn"
  type: "BatchNorm"
  bottom: "conv3"
  top: "conv3"
  param {
    lr_mult: 0
    decay_mult: 0
  }
  param {
    lr_mult: 0
    decay_mult: 0
  }
  param {
    lr_mult: 0
    decay_mult: 0
  }
}
layer {
  name: "conv3/scale"
  type: "Scale"
  bottom: "conv3"
  top: "conv3"
  param {
    lr_mult: 1
    decay_mult: 0
  }
  param {
    lr_mult: 1
    decay_mult: 0
  }
  scale_param {
    filler {
      value: 1
    }
    bias_term: true
    bias_filler {
      value: 0
    }
  }
}
layer {
  name: "relu3"
  type: "ReLU"
  bottom: "conv3"
  top: "conv3"
}
layer {
  name: "ip1"
  type: "InnerProduct"
  bottom: "conv3"
  top: "ip1"
  param {
    lr_mult: 1
    decay_mult: 1
  }
  param {
    lr_mult: 2
    decay_mult: 0
  }
  inner_product_param {
    num_output: 128
    weight_filler {
      type: "xavier"
    }
    bias_filler {
      type: "constant"
      value: 0
    }
  }
}
layer {
  name: "ip2"
  type: "InnerProduct"
  bottom: "ip1"
  top: "ip2"
  param {
    lr_mult: 1
    decay_mult: 1
  }
  param {
    lr_mult: 2
    decay_mult: 1
  }
  inner_product_param {
    num_output: 2
    weight_filler {
      type: "xavier"
    }
    bias_filler {
      type: "constant"
      value: 0
    }
  }
}
layer {
  name: "loss"
  type: "SoftmaxWithLoss"
  bottom: "ip2"
  bottom: "label"
  top: "loss"
}
layer {
  name: "acc"
  type: "Accuracy"
  bottom: "ip2"
  bottom: "label"
  top: "acc"
}
I0420 00:39:24.759625  3448 layer_factory.hpp:77] Creating layer data
I0420 00:39:24.759640  3448 net.cpp:84] Creating Layer data
I0420 00:39:24.759646  3448 net.cpp:380] data -> data
I0420 00:39:24.759655  3448 net.cpp:380] data -> label
I0420 00:39:24.759665  3448 image_data_layer.cpp:43] Opening file val_shuffle.txt
I0420 00:39:24.759670  3448 io.cpp:296] Opening file val_shuffle.txt
I0420 00:39:24.775671  3448 io.cpp:321] Read 100 images with 1 labels
I0420 00:39:24.775697  3448 image_data_layer.cpp:71] A total of 100 images.
I0420 00:39:24.820839  3448 image_data_layer.cpp:98] output data size: 16,3,48,48
I0420 00:39:24.822710  3448 net.cpp:122] Setting up data
I0420 00:39:24.822731  3448 net.cpp:129] Top shape: 16 3 48 48 (110592)
I0420 00:39:24.822736  3448 net.cpp:129] Top shape: 16 1 1 1 (16)
I0420 00:39:24.822739  3448 net.cpp:137] Memory required for data: 442432
I0420 00:39:24.822746  3448 layer_factory.hpp:77] Creating layer label_data_1_split
I0420 00:39:24.822758  3448 net.cpp:84] Creating Layer label_data_1_split
I0420 00:39:24.822763  3448 net.cpp:406] label_data_1_split <- label
I0420 00:39:24.822777  3448 net.cpp:380] label_data_1_split -> label_data_1_split_0
I0420 00:39:24.822793  3448 net.cpp:380] label_data_1_split -> label_data_1_split_1
I0420 00:39:24.822865  3448 net.cpp:122] Setting up label_data_1_split
I0420 00:39:24.822876  3448 net.cpp:129] Top shape: 16 1 1 1 (16)
I0420 00:39:24.822880  3448 net.cpp:129] Top shape: 16 1 1 1 (16)
I0420 00:39:24.822883  3448 net.cpp:137] Memory required for data: 442560
I0420 00:39:24.822886  3448 layer_factory.hpp:77] Creating layer conv1
I0420 00:39:24.822904  3448 net.cpp:84] Creating Layer conv1
I0420 00:39:24.822911  3448 net.cpp:406] conv1 <- data
I0420 00:39:24.822921  3448 net.cpp:380] conv1 -> conv1
I0420 00:39:24.823186  3448 net.cpp:122] Setting up conv1
I0420 00:39:24.823197  3448 net.cpp:129] Top shape: 16 12 24 24 (110592)
I0420 00:39:24.823200  3448 net.cpp:137] Memory required for data: 884928
I0420 00:39:24.823211  3448 layer_factory.hpp:77] Creating layer conv1/bn
I0420 00:39:24.823220  3448 net.cpp:84] Creating Layer conv1/bn
I0420 00:39:24.823223  3448 net.cpp:406] conv1/bn <- conv1
I0420 00:39:24.823228  3448 net.cpp:367] conv1/bn -> conv1 (in-place)
I0420 00:39:24.823421  3448 net.cpp:122] Setting up conv1/bn
I0420 00:39:24.823431  3448 net.cpp:129] Top shape: 16 12 24 24 (110592)
I0420 00:39:24.823433  3448 net.cpp:137] Memory required for data: 1327296
I0420 00:39:24.823446  3448 layer_factory.hpp:77] Creating layer conv1/scale
I0420 00:39:24.823457  3448 net.cpp:84] Creating Layer conv1/scale
I0420 00:39:24.823462  3448 net.cpp:406] conv1/scale <- conv1
I0420 00:39:24.823470  3448 net.cpp:367] conv1/scale -> conv1 (in-place)
I0420 00:39:24.823527  3448 layer_factory.hpp:77] Creating layer conv1/scale
I0420 00:39:24.823668  3448 net.cpp:122] Setting up conv1/scale
I0420 00:39:24.823691  3448 net.cpp:129] Top shape: 16 12 24 24 (110592)
I0420 00:39:24.823695  3448 net.cpp:137] Memory required for data: 1769664
I0420 00:39:24.823705  3448 layer_factory.hpp:77] Creating layer relu1
I0420 00:39:24.823715  3448 net.cpp:84] Creating Layer relu1
I0420 00:39:24.823724  3448 net.cpp:406] relu1 <- conv1
I0420 00:39:24.823734  3448 net.cpp:367] relu1 -> conv1 (in-place)
I0420 00:39:24.823742  3448 net.cpp:122] Setting up relu1
I0420 00:39:24.823752  3448 net.cpp:129] Top shape: 16 12 24 24 (110592)
I0420 00:39:24.823757  3448 net.cpp:137] Memory required for data: 2212032
I0420 00:39:24.823762  3448 layer_factory.hpp:77] Creating layer conv2
I0420 00:39:24.823777  3448 net.cpp:84] Creating Layer conv2
I0420 00:39:24.823786  3448 net.cpp:406] conv2 <- conv1
I0420 00:39:24.823796  3448 net.cpp:380] conv2 -> conv2
I0420 00:39:24.824122  3448 net.cpp:122] Setting up conv2
I0420 00:39:24.824133  3448 net.cpp:129] Top shape: 16 24 12 12 (55296)
I0420 00:39:24.824136  3448 net.cpp:137] Memory required for data: 2433216
I0420 00:39:24.824147  3448 layer_factory.hpp:77] Creating layer conv2/bn
I0420 00:39:24.824156  3448 net.cpp:84] Creating Layer conv2/bn
I0420 00:39:24.824163  3448 net.cpp:406] conv2/bn <- conv2
I0420 00:39:24.824172  3448 net.cpp:367] conv2/bn -> conv2 (in-place)
I0420 00:39:24.824334  3448 net.cpp:122] Setting up conv2/bn
I0420 00:39:24.824342  3448 net.cpp:129] Top shape: 16 24 12 12 (55296)
I0420 00:39:24.824344  3448 net.cpp:137] Memory required for data: 2654400
I0420 00:39:24.824354  3448 layer_factory.hpp:77] Creating layer conv2/scale
I0420 00:39:24.824368  3448 net.cpp:84] Creating Layer conv2/scale
I0420 00:39:24.824375  3448 net.cpp:406] conv2/scale <- conv2
I0420 00:39:24.824383  3448 net.cpp:367] conv2/scale -> conv2 (in-place)
I0420 00:39:24.824427  3448 layer_factory.hpp:77] Creating layer conv2/scale
I0420 00:39:24.824529  3448 net.cpp:122] Setting up conv2/scale
I0420 00:39:24.824537  3448 net.cpp:129] Top shape: 16 24 12 12 (55296)
I0420 00:39:24.824540  3448 net.cpp:137] Memory required for data: 2875584
I0420 00:39:24.824548  3448 layer_factory.hpp:77] Creating layer relu2
I0420 00:39:24.824558  3448 net.cpp:84] Creating Layer relu2
I0420 00:39:24.824563  3448 net.cpp:406] relu2 <- conv2
I0420 00:39:24.824573  3448 net.cpp:367] relu2 -> conv2 (in-place)
I0420 00:39:24.824581  3448 net.cpp:122] Setting up relu2
I0420 00:39:24.824589  3448 net.cpp:129] Top shape: 16 24 12 12 (55296)
I0420 00:39:24.824595  3448 net.cpp:137] Memory required for data: 3096768
I0420 00:39:24.824599  3448 layer_factory.hpp:77] Creating layer conv3
I0420 00:39:24.824612  3448 net.cpp:84] Creating Layer conv3
I0420 00:39:24.824618  3448 net.cpp:406] conv3 <- conv2
I0420 00:39:24.824626  3448 net.cpp:380] conv3 -> conv3
I0420 00:39:24.824874  3448 net.cpp:122] Setting up conv3
I0420 00:39:24.824882  3448 net.cpp:129] Top shape: 16 48 6 6 (27648)
I0420 00:39:24.824885  3448 net.cpp:137] Memory required for data: 3207360
I0420 00:39:24.824893  3448 layer_factory.hpp:77] Creating layer conv3/bn
I0420 00:39:24.824905  3448 net.cpp:84] Creating Layer conv3/bn
I0420 00:39:24.824911  3448 net.cpp:406] conv3/bn <- conv3
I0420 00:39:24.824920  3448 net.cpp:367] conv3/bn -> conv3 (in-place)
I0420 00:39:24.825086  3448 net.cpp:122] Setting up conv3/bn
I0420 00:39:24.825094  3448 net.cpp:129] Top shape: 16 48 6 6 (27648)
I0420 00:39:24.825098  3448 net.cpp:137] Memory required for data: 3317952
I0420 00:39:24.825109  3448 layer_factory.hpp:77] Creating layer conv3/scale
I0420 00:39:24.825119  3448 net.cpp:84] Creating Layer conv3/scale
I0420 00:39:24.825125  3448 net.cpp:406] conv3/scale <- conv3
I0420 00:39:24.825134  3448 net.cpp:367] conv3/scale -> conv3 (in-place)
I0420 00:39:24.825177  3448 layer_factory.hpp:77] Creating layer conv3/scale
I0420 00:39:24.825276  3448 net.cpp:122] Setting up conv3/scale
I0420 00:39:24.825284  3448 net.cpp:129] Top shape: 16 48 6 6 (27648)
I0420 00:39:24.825286  3448 net.cpp:137] Memory required for data: 3428544
I0420 00:39:24.825294  3448 layer_factory.hpp:77] Creating layer relu3
I0420 00:39:24.825314  3448 net.cpp:84] Creating Layer relu3
I0420 00:39:24.825320  3448 net.cpp:406] relu3 <- conv3
I0420 00:39:24.825326  3448 net.cpp:367] relu3 -> conv3 (in-place)
I0420 00:39:24.825335  3448 net.cpp:122] Setting up relu3
I0420 00:39:24.825343  3448 net.cpp:129] Top shape: 16 48 6 6 (27648)
I0420 00:39:24.825348  3448 net.cpp:137] Memory required for data: 3539136
I0420 00:39:24.825352  3448 layer_factory.hpp:77] Creating layer ip1
I0420 00:39:24.825361  3448 net.cpp:84] Creating Layer ip1
I0420 00:39:24.825366  3448 net.cpp:406] ip1 <- conv3
I0420 00:39:24.825374  3448 net.cpp:380] ip1 -> ip1
I0420 00:39:24.826828  3448 net.cpp:122] Setting up ip1
I0420 00:39:24.826838  3448 net.cpp:129] Top shape: 16 128 (2048)
I0420 00:39:24.826841  3448 net.cpp:137] Memory required for data: 3547328
I0420 00:39:24.826849  3448 layer_factory.hpp:77] Creating layer ip2
I0420 00:39:24.826859  3448 net.cpp:84] Creating Layer ip2
I0420 00:39:24.826865  3448 net.cpp:406] ip2 <- ip1
I0420 00:39:24.826875  3448 net.cpp:380] ip2 -> ip2
I0420 00:39:24.826963  3448 net.cpp:122] Setting up ip2
I0420 00:39:24.826972  3448 net.cpp:129] Top shape: 16 2 (32)
I0420 00:39:24.826973  3448 net.cpp:137] Memory required for data: 3547456
I0420 00:39:24.826980  3448 layer_factory.hpp:77] Creating layer ip2_ip2_0_split
I0420 00:39:24.826992  3448 net.cpp:84] Creating Layer ip2_ip2_0_split
I0420 00:39:24.826998  3448 net.cpp:406] ip2_ip2_0_split <- ip2
I0420 00:39:24.827006  3448 net.cpp:380] ip2_ip2_0_split -> ip2_ip2_0_split_0
I0420 00:39:24.827018  3448 net.cpp:380] ip2_ip2_0_split -> ip2_ip2_0_split_1
I0420 00:39:24.827057  3448 net.cpp:122] Setting up ip2_ip2_0_split
I0420 00:39:24.827064  3448 net.cpp:129] Top shape: 16 2 (32)
I0420 00:39:24.827067  3448 net.cpp:129] Top shape: 16 2 (32)
I0420 00:39:24.827070  3448 net.cpp:137] Memory required for data: 3547712
I0420 00:39:24.827075  3448 layer_factory.hpp:77] Creating layer loss
I0420 00:39:24.827082  3448 net.cpp:84] Creating Layer loss
I0420 00:39:24.827088  3448 net.cpp:406] loss <- ip2_ip2_0_split_0
I0420 00:39:24.827095  3448 net.cpp:406] loss <- label_data_1_split_0
I0420 00:39:24.827102  3448 net.cpp:380] loss -> loss
…
