…
I0627 20:59:15.739981 18105 net.cpp:296] The NetState phase (0) differed from the phase (1) specified by a rule in layer data
I0627 20:59:15.740151 18105 net.cpp:53] Initializing net from parameters: 
name: "simpleconv3"
state {
  phase: TRAIN
  level: 0
  stage: ""
}
layer {
  name: "data"
  type: "ImageData"
  top: "data"
  top: "label"
  include {
    phase: TRAIN
  }
  transform_param {
    mirror: true
    crop_size: 48
    mean_value: 104.008
    mean_value: 116.669
    mean_value: 122.675
    min_side_min: 48
    min_side_max: 60
  }
  image_data_param {
    source: "train_shuffle.txt"
    batch_size: 96
    shuffle: true
  }
}
layer {
  name: "conv1"
  type: "Convolution"
  bottom: "data"
  top: "conv1"
  param {
    lr_mult: 1
    decay_mult: 1
  }
  param {
    lr_mult: 2
    decay_mult: 0
  }
  convolution_param {
    num_output: 12
    pad: 1
    kernel_size: 3
    stride: 2
    weight_filler {
      type: "xavier"
      std: 0.01
    }
    bias_filler {
      type: "constant"
      value: 0.2
    }
  }
}
layer {
  name: "conv1/bn"
  type: "BatchNorm"
  bottom: "conv1"
  top: "conv1"
  param {
    lr_mult: 0
    decay_mult: 0
  }
  param {
    lr_mult: 0
    decay_mult: 0
  }
  param {
    lr_mult: 0
    decay_mult: 0
  }
}
layer {
  name: "conv1/scale"
  type: "Scale"
  bottom: "conv1"
  top: "conv1"
  param {
    lr_mult: 1
    decay_mult: 0
  }
  param {
    lr_mult: 1
    decay_mult: 0
  }
  scale_param {
    filler {
      value: 1
    }
    bias_term: true
    bias_filler {
      value: 0
    }
  }
}
layer {
  name: "relu1"
  type: "ReLU"
  bottom: "conv1"
  top: "conv1"
}
layer {
  name: "conv2"
  type: "Convolution"
  bottom: "conv1"
  top: "conv2"
  param {
    lr_mult: 1
    decay_mult: 1
  }
  param {
    lr_mult: 2
    decay_mult: 0
  }
  convolution_param {
    num_output: 24
    pad: 1
    kernel_size: 3
    stride: 2
    weight_filler {
      type: "xavier"
      std: 0.1
    }
    bias_filler {
      type: "constant"
      value: 0.2
    }
  }
}
layer {
  name: "conv2/bn"
  type: "BatchNorm"
  bottom: "conv2"
  top: "conv2"
  param {
    lr_mult: 0
    decay_mult: 0
  }
  param {
    lr_mult: 0
    decay_mult: 0
  }
  param {
    lr_mult: 0
    decay_mult: 0
  }
}
layer {
  name: "conv2/scale"
  type: "Scale"
  bottom: "conv2"
  top: "conv2"
  param {
    lr_mult: 1
    decay_mult: 0
  }
  param {
    lr_mult: 1
    decay_mult: 0
  }
  scale_param {
    filler {
      value: 1
    }
    bias_term: true
    bias_filler {
      value: 0
    }
  }
}
layer {
  name: "relu2"
  type: "ReLU"
  bottom: "conv2"
  top: "conv2"
}
layer {
  name: "conv3"
  type: "Convolution"
  bottom: "conv2"
  top: "conv3"
  param {
    lr_mult: 1
    decay_mult: 1
  }
  param {
    lr_mult: 2
    decay_mult: 0
  }
  convolution_param {
    num_output: 48
    pad: 1
    kernel_size: 3
    stride: 2
    weight_filler {
      type: "xavier"
      std: 0.1
    }
    bias_filler {
      type: "constant"
      value: 0.2
    }
  }
}
layer {
  name: "conv3/bn"
  type: "BatchNorm"
  bottom: "conv3"
  top: "conv3"
  param {
    lr_mult: 0
    decay_mult: 0
  }
  param {
    lr_mult: 0
    decay_mult: 0
  }
  param {
    lr_mult: 0
    decay_mult: 0
  }
}
layer {
  name: "conv3/scale"
  type: "Scale"
  bottom: "conv3"
  top: "conv3"
  param {
    lr_mult: 1
    decay_mult: 0
  }
  param {
    lr_mult: 1
    decay_mult: 0
  }
  scale_param {
    filler {
      value: 1
    }
    bias_term: true
    bias_filler {
      value: 0
    }
  }
}
layer {
  name: "relu3"
  type: "ReLU"
  bottom: "conv3"
  top: "conv3"
}
layer {
  name: "ip1"
  type: "InnerProduct"
  bottom: "conv3"
  top: "ip1"
  param {
    lr_mult: 1
    decay_mult: 1
  }
  param {
    lr_mult: 2
    decay_mult: 0
  }
  inner_product_param {
    num_output: 128
    weight_filler {
      type: "xavier"
    }
    bias_filler {
      type: "constant"
      value: 0
    }
  }
}
layer {
  name: "ip2"
  type: "InnerProduct"
  bottom: "ip1"
  top: "ip2"
  param {
    lr_mult: 1
    decay_mult: 1
  }
  param {
    lr_mult: 2
    decay_mult: 1
  }
  inner_product_param {
    num_output: 2
    weight_filler {
      type: "xavier"
    }
    bias_filler {
      type: "constant"
      value: 0
    }
  }
}
layer {
  name: "loss"
  type: "SoftmaxWithLoss"
  bottom: "ip2"
  bottom: "label"
  top: "loss"
}
layer {
  name: "acc"
  type: "Accuracy"
  bottom: "ip2"
  bottom: "label"
  top: "acc"
}
I0627 20:59:15.740288 18105 layer_factory.hpp:77] Creating layer data
I0627 20:59:15.740320 18105 net.cpp:86] Creating Layer data
I0627 20:59:15.740340 18105 net.cpp:382] data -> data
I0627 20:59:15.740373 18105 net.cpp:382] data -> label
I0627 20:59:15.740438 18105 image_data_layer.cpp:38] Opening file train_shuffle.txt
I0627 20:59:15.743728 18105 image_data_layer.cpp:53] Shuffling data
I0627 20:59:15.743836 18105 image_data_layer.cpp:63] A total of 900 images.
I0627 20:59:15.745146 18105 image_data_layer.cpp:90] output data size: 96,3,48,48
I0627 20:59:15.752794 18105 net.cpp:124] Setting up data
I0627 20:59:15.752830 18105 net.cpp:131] Top shape: 96 3 48 48 (663552)
I0627 20:59:15.752836 18105 net.cpp:131] Top shape: 96 (96)
I0627 20:59:15.752840 18105 net.cpp:139] Memory required for data: 2654592
I0627 20:59:15.752849 18105 layer_factory.hpp:77] Creating layer label_data_1_split
I0627 20:59:15.752863 18105 net.cpp:86] Creating Layer label_data_1_split
I0627 20:59:15.752874 18105 net.cpp:408] label_data_1_split <- label
I0627 20:59:15.752897 18105 net.cpp:382] label_data_1_split -> label_data_1_split_0
I0627 20:59:15.752912 18105 net.cpp:382] label_data_1_split -> label_data_1_split_1
I0627 20:59:15.752974 18105 net.cpp:124] Setting up label_data_1_split
I0627 20:59:15.752985 18105 net.cpp:131] Top shape: 96 (96)
I0627 20:59:15.752993 18105 net.cpp:131] Top shape: 96 (96)
I0627 20:59:15.753000 18105 net.cpp:139] Memory required for data: 2655360
I0627 20:59:15.753006 18105 layer_factory.hpp:77] Creating layer conv1
I0627 20:59:15.753031 18105 net.cpp:86] Creating Layer conv1
I0627 20:59:15.753038 18105 net.cpp:408] conv1 <- data
I0627 20:59:15.753048 18105 net.cpp:382] conv1 -> conv1
I0627 20:59:16.415537 18105 net.cpp:124] Setting up conv1
I0627 20:59:16.415570 18105 net.cpp:131] Top shape: 96 12 24 24 (663552)
I0627 20:59:16.415576 18105 net.cpp:139] Memory required for data: 5309568
I0627 20:59:16.415597 18105 layer_factory.hpp:77] Creating layer conv1/bn
I0627 20:59:16.415621 18105 net.cpp:86] Creating Layer conv1/bn
I0627 20:59:16.415629 18105 net.cpp:408] conv1/bn <- conv1
I0627 20:59:16.415644 18105 net.cpp:369] conv1/bn -> conv1 (in-place)
I0627 20:59:16.415885 18105 net.cpp:124] Setting up conv1/bn
I0627 20:59:16.415904 18105 net.cpp:131] Top shape: 96 12 24 24 (663552)
I0627 20:59:16.415908 18105 net.cpp:139] Memory required for data: 7963776
I0627 20:59:16.415920 18105 layer_factory.hpp:77] Creating layer conv1/scale
I0627 20:59:16.415931 18105 net.cpp:86] Creating Layer conv1/scale
I0627 20:59:16.415946 18105 net.cpp:408] conv1/scale <- conv1
I0627 20:59:16.415959 18105 net.cpp:369] conv1/scale -> conv1 (in-place)
I0627 20:59:16.416098 18105 layer_factory.hpp:77] Creating layer conv1/scale
I0627 20:59:16.416270 18105 net.cpp:124] Setting up conv1/scale
I0627 20:59:16.416360 18105 net.cpp:131] Top shape: 96 12 24 24 (663552)
I0627 20:59:16.416383 18105 net.cpp:139] Memory required for data: 10617984
I0627 20:59:16.416390 18105 layer_factory.hpp:77] Creating layer relu1
I0627 20:59:16.416421 18105 net.cpp:86] Creating Layer relu1
I0627 20:59:16.416426 18105 net.cpp:408] relu1 <- conv1
I0627 20:59:16.416435 18105 net.cpp:369] relu1 -> conv1 (in-place)
I0627 20:59:16.417140 18105 net.cpp:124] Setting up relu1
I0627 20:59:16.417151 18105 net.cpp:131] Top shape: 96 12 24 24 (663552)
I0627 20:59:16.417156 18105 net.cpp:139] Memory required for data: 13272192
I0627 20:59:16.417160 18105 layer_factory.hpp:77] Creating layer conv2
I0627 20:59:16.417176 18105 net.cpp:86] Creating Layer conv2
I0627 20:59:16.417181 18105 net.cpp:408] conv2 <- conv1
I0627 20:59:16.417194 18105 net.cpp:382] conv2 -> conv2
I0627 20:59:16.421813 18105 net.cpp:124] Setting up conv2
I0627 20:59:16.421841 18105 net.cpp:131] Top shape: 96 24 12 12 (331776)
I0627 20:59:16.421847 18105 net.cpp:139] Memory required for data: 14599296
I0627 20:59:16.421861 18105 layer_factory.hpp:77] Creating layer conv2/bn
I0627 20:59:16.421885 18105 net.cpp:86] Creating Layer conv2/bn
I0627 20:59:16.421890 18105 net.cpp:408] conv2/bn <- conv2
I0627 20:59:16.421901 18105 net.cpp:369] conv2/bn -> conv2 (in-place)
I0627 20:59:16.422087 18105 net.cpp:124] Setting up conv2/bn
I0627 20:59:16.422098 18105 net.cpp:131] Top shape: 96 24 12 12 (331776)
I0627 20:59:16.422134 18105 net.cpp:139] Memory required for data: 15926400
I0627 20:59:16.422160 18105 layer_factory.hpp:77] Creating layer conv2/scale
I0627 20:59:16.422173 18105 net.cpp:86] Creating Layer conv2/scale
I0627 20:59:16.422178 18105 net.cpp:408] conv2/scale <- conv2
I0627 20:59:16.422184 18105 net.cpp:369] conv2/scale -> conv2 (in-place)
I0627 20:59:16.422319 18105 layer_factory.hpp:77] Creating layer conv2/scale
I0627 20:59:16.422456 18105 net.cpp:124] Setting up conv2/scale
I0627 20:59:16.422466 18105 net.cpp:131] Top shape: 96 24 12 12 (331776)
I0627 20:59:16.422469 18105 net.cpp:139] Memory required for data: 17253504
I0627 20:59:16.422493 18105 layer_factory.hpp:77] Creating layer relu2
I0627 20:59:16.422500 18105 net.cpp:86] Creating Layer relu2
I0627 20:59:16.422504 18105 net.cpp:408] relu2 <- conv2
I0627 20:59:16.422511 18105 net.cpp:369] relu2 -> conv2 (in-place)
I0627 20:59:16.423105 18105 net.cpp:124] Setting up relu2
I0627 20:59:16.423116 18105 net.cpp:131] Top shape: 96 24 12 12 (331776)
I0627 20:59:16.423120 18105 net.cpp:139] Memory required for data: 18580608
I0627 20:59:16.423125 18105 layer_factory.hpp:77] Creating layer conv3
I0627 20:59:16.423136 18105 net.cpp:86] Creating Layer conv3
I0627 20:59:16.423141 18105 net.cpp:408] conv3 <- conv2
I0627 20:59:16.423151 18105 net.cpp:382] conv3 -> conv3
I0627 20:59:16.427292 18105 net.cpp:124] Setting up conv3
I0627 20:59:16.427338 18105 net.cpp:131] Top shape: 96 48 6 6 (165888)
I0627 20:59:16.427343 18105 net.cpp:139] Memory required for data: 19244160
I0627 20:59:16.427353 18105 layer_factory.hpp:77] Creating layer conv3/bn
I0627 20:59:16.427363 18105 net.cpp:86] Creating Layer conv3/bn
I0627 20:59:16.427368 18105 net.cpp:408] conv3/bn <- conv3
I0627 20:59:16.427378 18105 net.cpp:369] conv3/bn -> conv3 (in-place)
I0627 20:59:16.427639 18105 net.cpp:124] Setting up conv3/bn
I0627 20:59:16.427654 18105 net.cpp:131] Top shape: 96 48 6 6 (165888)
I0627 20:59:16.427664 18105 net.cpp:139] Memory required for data: 19907712
I0627 20:59:16.427682 18105 layer_factory.hpp:77] Creating layer conv3/scale
I0627 20:59:16.427695 18105 net.cpp:86] Creating Layer conv3/scale
I0627 20:59:16.427700 18105 net.cpp:408] conv3/scale <- conv3
I0627 20:59:16.427707 18105 net.cpp:369] conv3/scale -> conv3 (in-place)
I0627 20:59:16.427774 18105 layer_factory.hpp:77] Creating layer conv3/scale
I0627 20:59:16.427966 18105 net.cpp:124] Setting up conv3/scale
I0627 20:59:16.428010 18105 net.cpp:131] Top shape: 96 48 6 6 (165888)
I0627 20:59:16.428017 18105 net.cpp:139] Memory required for data: 20571264
I0627 20:59:16.428025 18105 layer_factory.hpp:77] Creating layer relu3
I0627 20:59:16.428033 18105 net.cpp:86] Creating Layer relu3
I0627 20:59:16.428038 18105 net.cpp:408] relu3 <- conv3
I0627 20:59:16.428045 18105 net.cpp:369] relu3 -> conv3 (in-place)
I0627 20:59:16.429106 18105 net.cpp:124] Setting up relu3
I0627 20:59:16.429211 18105 net.cpp:131] Top shape: 96 48 6 6 (165888)
I0627 20:59:16.429221 18105 net.cpp:139] Memory required for data: 21234816
I0627 20:59:16.429226 18105 layer_factory.hpp:77] Creating layer ip1
I0627 20:59:16.429236 18105 net.cpp:86] Creating Layer ip1
I0627 20:59:16.429242 18105 net.cpp:408] ip1 <- conv3
I0627 20:59:16.429251 18105 net.cpp:382] ip1 -> ip1
I0627 20:59:16.432003 18105 net.cpp:124] Setting up ip1
I0627 20:59:16.432019 18105 net.cpp:131] Top shape: 96 128 (12288)
I0627 20:59:16.432024 18105 net.cpp:139] Memory required for data: 21283968
I0627 20:59:16.432034 18105 layer_factory.hpp:77] Creating layer ip2
I0627 20:59:16.432046 18105 net.cpp:86] Creating Layer ip2
I0627 20:59:16.432057 18105 net.cpp:408] ip2 <- ip1
I0627 20:59:16.432067 18105 net.cpp:382] ip2 -> ip2
I0627 20:59:16.432170 18105 net.cpp:124] Setting up ip2
I0627 20:59:16.432180 18105 net.cpp:131] Top shape: 96 2 (192)
I0627 20:59:16.432184 18105 net.cpp:139] Memory required for data: 21284736
I0627 20:59:16.432191 18105 layer_factory.hpp:77] Creating layer ip2_ip2_0_split
I0627 20:59:16.432202 18105 net.cpp:86] Creating Layer ip2_ip2_0_split
I0627 20:59:16.432207 18105 net.cpp:408] ip2_ip2_0_split <- ip2
I0627 20:59:16.432214 18105 net.cpp:382] ip2_ip2_0_split -> ip2_ip2_0_split_0
I0627 20:59:16.432221 18105 net.cpp:382] ip2_ip2_0_split -> ip2_ip2_0_split_1
I0627 20:59:16.432279 18105 net.cpp:124] Setting up ip2_ip2_0_split
I0627 20:59:16.432289 18105 net.cpp:131] Top shape: 96 2 (192)
I0627 20:59:16.432294 18105 net.cpp:131] Top shape: 96 2 (192)
I0627 20:59:16.432298 18105 net.cpp:139] Memory required for data: 21286272
I0627 20:59:16.432302 18105 layer_factory.hpp:77] Creating layer loss
I0627 20:59:16.432309 18105 net.cpp:86] Creating Layer loss
I0627 20:59:16.432313 18105 net.cpp:408] loss <- ip2_ip2_0_split_0
I0627 20:59:16.432319 18105 net.cpp:408] loss <- label_data_1_split_0
I0627 20:59:16.432327 18105 net.cpp:382] loss -> loss
…
I0627 20:59:16.433522 18105 net.cpp:296] The NetState phase (1) differed from the phase (0) specified by a rule in layer data
I0627 20:59:16.433691 18105 net.cpp:53] Initializing net from parameters: 
name: "simpleconv3"
state {
  phase: TEST
}
layer {
  name: "data"
  type: "ImageData"
  top: "data"
  top: "label"
  include {
    phase: TEST
  }
  transform_param {
    mirror: false
    crop_size: 48
    mean_value: 104.008
    mean_value: 116.669
    mean_value: 122.675
    min_side_min: 48
    min_side_max: 48
  }
  image_data_param {
    source: "val_shuffle.txt"
    batch_size: 16
    shuffle: false
  }
}
layer {
  name: "conv1"
  type: "Convolution"
  bottom: "data"
  top: "conv1"
  param {
    lr_mult: 1
    decay_mult: 1
  }
  param {
    lr_mult: 2
    decay_mult: 0
  }
  convolution_param {
    num_output: 12
    pad: 1
    kernel_size: 3
    stride: 2
    weight_filler {
      type: "xavier"
      std: 0.01
    }
    bias_filler {
      type: "constant"
      value: 0.2
    }
  }
}
layer {
  name: "conv1/bn"
  type: "BatchNorm"
  bottom: "conv1"
  top: "conv1"
  param {
    lr_mult: 0
    decay_mult: 0
  }
  param {
    lr_mult: 0
    decay_mult: 0
  }
  param {
    lr_mult: 0
    decay_mult: 0
  }
}
layer {
  name: "conv1/scale"
  type: "Scale"
  bottom: "conv1"
  top: "conv1"
  param {
    lr_mult: 1
    decay_mult: 0
  }
  param {
    lr_mult: 1
    decay_mult: 0
  }
  scale_param {
    filler {
      value: 1
    }
    bias_term: true
    bias_filler {
      value: 0
    }
  }
}
layer {
  name: "relu1"
  type: "ReLU"
  bottom: "conv1"
  top: "conv1"
}
layer {
  name: "conv2"
  type: "Convolution"
  bottom: "conv1"
  top: "conv2"
  param {
    lr_mult: 1
    decay_mult: 1
  }
  param {
    lr_mult: 2
    decay_mult: 0
  }
  convolution_param {
    num_output: 24
    pad: 1
    kernel_size: 3
    stride: 2
    weight_filler {
      type: "xavier"
      std: 0.1
    }
    bias_filler {
      type: "constant"
      value: 0.2
    }
  }
}
layer {
  name: "conv2/bn"
  type: "BatchNorm"
  bottom: "conv2"
  top: "conv2"
  param {
    lr_mult: 0
    decay_mult: 0
  }
  param {
    lr_mult: 0
    decay_mult: 0
  }
  param {
    lr_mult: 0
    decay_mult: 0
  }
}
layer {
  name: "conv2/scale"
  type: "Scale"
  bottom: "conv2"
  top: "conv2"
  param {
    lr_mult: 1
    decay_mult: 0
  }
  param {
    lr_mult: 1
    decay_mult: 0
  }
  scale_param {
    filler {
      value: 1
    }
    bias_term: true
    bias_filler {
      value: 0
    }
  }
}
layer {
  name: "relu2"
  type: "ReLU"
  bottom: "conv2"
  top: "conv2"
}
layer {
  name: "conv3"
  type: "Convolution"
  bottom: "conv2"
  top: "conv3"
  param {
    lr_mult: 1
    decay_mult: 1
  }
  param {
    lr_mult: 2
    decay_mult: 0
  }
  convolution_param {
    num_output: 48
    pad: 1
    kernel_size: 3
    stride: 2
    weight_filler {
      type: "xavier"
      std: 0.1
    }
    bias_filler {
      type: "constant"
      value: 0.2
    }
  }
}
layer {
  name: "conv3/bn"
  type: "BatchNorm"
  bottom: "conv3"
  top: "conv3"
  param {
    lr_mult: 0
    decay_mult: 0
  }
  param {
    lr_mult: 0
    decay_mult: 0
  }
  param {
    lr_mult: 0
    decay_mult: 0
  }
}
layer {
  name: "conv3/scale"
  type: "Scale"
  bottom: "conv3"
  top: "conv3"
  param {
    lr_mult: 1
    decay_mult: 0
  }
  param {
    lr_mult: 1
    decay_mult: 0
  }
  scale_param {
    filler {
      value: 1
    }
    bias_term: true
    bias_filler {
      value: 0
    }
  }
}
layer {
  name: "relu3"
  type: "ReLU"
  bottom: "conv3"
  top: "conv3"
}
layer {
  name: "ip1"
  type: "InnerProduct"
  bottom: "conv3"
  top: "ip1"
  param {
    lr_mult: 1
    decay_mult: 1
  }
  param {
    lr_mult: 2
    decay_mult: 0
  }
  inner_product_param {
    num_output: 128
    weight_filler {
      type: "xavier"
    }
    bias_filler {
      type: "constant"
      value: 0
    }
  }
}
layer {
  name: "ip2"
  type: "InnerProduct"
  bottom: "ip1"
  top: "ip2"
  param {
    lr_mult: 1
    decay_mult: 1
  }
  param {
    lr_mult: 2
    decay_mult: 1
  }
  inner_product_param {
    num_output: 2
    weight_filler {
      type: "xavier"
    }
    bias_filler {
      type: "constant"
      value: 0
    }
  }
}
layer {
  name: "loss"
  type: "SoftmaxWithLoss"
  bottom: "ip2"
  bottom: "label"
  top: "loss"
}
layer {
  name: "acc"
  type: "Accuracy"
  bottom: "ip2"
  bottom: "label"
  top: "acc"
}
I0627 20:59:16.433770 18105 layer_factory.hpp:77] Creating layer data
I0627 20:59:16.433785 18105 net.cpp:86] Creating Layer data
I0627 20:59:16.433792 18105 net.cpp:382] data -> data
I0627 20:59:16.433801 18105 net.cpp:382] data -> label
I0627 20:59:16.433810 18105 image_data_layer.cpp:38] Opening file val_shuffle.txt
I0627 20:59:16.434172 18105 image_data_layer.cpp:63] A total of 100 images.
I0627 20:59:16.434660 18105 image_data_layer.cpp:90] output data size: 16,3,48,48
I0627 20:59:16.436486 18105 net.cpp:124] Setting up data
I0627 20:59:16.436503 18105 net.cpp:131] Top shape: 16 3 48 48 (110592)
I0627 20:59:16.436512 18105 net.cpp:131] Top shape: 16 (16)
I0627 20:59:16.436519 18105 net.cpp:139] Memory required for data: 442432
I0627 20:59:16.436527 18105 layer_factory.hpp:77] Creating layer label_data_1_split
I0627 20:59:16.436539 18105 net.cpp:86] Creating Layer label_data_1_split
I0627 20:59:16.436547 18105 net.cpp:408] label_data_1_split <- label
I0627 20:59:16.436555 18105 net.cpp:382] label_data_1_split -> label_data_1_split_0
I0627 20:59:16.436568 18105 net.cpp:382] label_data_1_split -> label_data_1_split_1
I0627 20:59:16.436628 18105 net.cpp:124] Setting up label_data_1_split
I0627 20:59:16.436638 18105 net.cpp:131] Top shape: 16 (16)
I0627 20:59:16.436647 18105 net.cpp:131] Top shape: 16 (16)
I0627 20:59:16.436655 18105 net.cpp:139] Memory required for data: 442560
I0627 20:59:16.436659 18105 layer_factory.hpp:77] Creating layer conv1
I0627 20:59:16.436676 18105 net.cpp:86] Creating Layer conv1
I0627 20:59:16.436682 18105 net.cpp:408] conv1 <- data
I0627 20:59:16.436702 18105 net.cpp:382] conv1 -> conv1
I0627 20:59:16.439466 18105 net.cpp:124] Setting up conv1
I0627 20:59:16.439481 18105 net.cpp:131] Top shape: 16 12 24 24 (110592)
I0627 20:59:16.439493 18105 net.cpp:139] Memory required for data: 884928
I0627 20:59:16.439514 18105 layer_factory.hpp:77] Creating layer conv1/bn
I0627 20:59:16.439527 18105 net.cpp:86] Creating Layer conv1/bn
I0627 20:59:16.439534 18105 net.cpp:408] conv1/bn <- conv1
I0627 20:59:16.439544 18105 net.cpp:369] conv1/bn -> conv1 (in-place)
I0627 20:59:16.439738 18105 net.cpp:124] Setting up conv1/bn
I0627 20:59:16.439749 18105 net.cpp:131] Top shape: 16 12 24 24 (110592)
I0627 20:59:16.439754 18105 net.cpp:139] Memory required for data: 1327296
I0627 20:59:16.439764 18105 layer_factory.hpp:77] Creating layer conv1/scale
I0627 20:59:16.439775 18105 net.cpp:86] Creating Layer conv1/scale
I0627 20:59:16.439783 18105 net.cpp:408] conv1/scale <- conv1
I0627 20:59:16.439793 18105 net.cpp:369] conv1/scale -> conv1 (in-place)
I0627 20:59:16.439836 18105 layer_factory.hpp:77] Creating layer conv1/scale
I0627 20:59:16.439955 18105 net.cpp:124] Setting up conv1/scale
I0627 20:59:16.439965 18105 net.cpp:131] Top shape: 16 12 24 24 (110592)
I0627 20:59:16.439970 18105 net.cpp:139] Memory required for data: 1769664
I0627 20:59:16.439976 18105 layer_factory.hpp:77] Creating layer relu1
I0627 20:59:16.439999 18105 net.cpp:86] Creating Layer relu1
I0627 20:59:16.440006 18105 net.cpp:408] relu1 <- conv1
I0627 20:59:16.440016 18105 net.cpp:369] relu1 -> conv1 (in-place)
I0627 20:59:16.440562 18105 net.cpp:124] Setting up relu1
I0627 20:59:16.440574 18105 net.cpp:131] Top shape: 16 12 24 24 (110592)
I0627 20:59:16.440580 18105 net.cpp:139] Memory required for data: 2212032
I0627 20:59:16.440588 18105 layer_factory.hpp:77] Creating layer conv2
I0627 20:59:16.440603 18105 net.cpp:86] Creating Layer conv2
I0627 20:59:16.440610 18105 net.cpp:408] conv2 <- conv1
I0627 20:59:16.440621 18105 net.cpp:382] conv2 -> conv2
I0627 20:59:16.443032 18105 net.cpp:124] Setting up conv2
I0627 20:59:16.443051 18105 net.cpp:131] Top shape: 16 24 12 12 (55296)
I0627 20:59:16.443060 18105 net.cpp:139] Memory required for data: 2433216
I0627 20:59:16.443079 18105 layer_factory.hpp:77] Creating layer conv2/bn
I0627 20:59:16.443099 18105 net.cpp:86] Creating Layer conv2/bn
I0627 20:59:16.443106 18105 net.cpp:408] conv2/bn <- conv2
I0627 20:59:16.443118 18105 net.cpp:369] conv2/bn -> conv2 (in-place)
I0627 20:59:16.443320 18105 net.cpp:124] Setting up conv2/bn
I0627 20:59:16.443331 18105 net.cpp:131] Top shape: 16 24 12 12 (55296)
I0627 20:59:16.443341 18105 net.cpp:139] Memory required for data: 2654400
I0627 20:59:16.443356 18105 layer_factory.hpp:77] Creating layer conv2/scale
I0627 20:59:16.443369 18105 net.cpp:86] Creating Layer conv2/scale
I0627 20:59:16.443377 18105 net.cpp:408] conv2/scale <- conv2
I0627 20:59:16.443388 18105 net.cpp:369] conv2/scale -> conv2 (in-place)
I0627 20:59:16.443435 18105 layer_factory.hpp:77] Creating layer conv2/scale
I0627 20:59:16.443554 18105 net.cpp:124] Setting up conv2/scale
I0627 20:59:16.443564 18105 net.cpp:131] Top shape: 16 24 12 12 (55296)
I0627 20:59:16.443572 18105 net.cpp:139] Memory required for data: 2875584
I0627 20:59:16.443586 18105 layer_factory.hpp:77] Creating layer relu2
I0627 20:59:16.443595 18105 net.cpp:86] Creating Layer relu2
I0627 20:59:16.443603 18105 net.cpp:408] relu2 <- conv2
I0627 20:59:16.443616 18105 net.cpp:369] relu2 -> conv2 (in-place)
I0627 20:59:16.444571 18105 net.cpp:124] Setting up relu2
I0627 20:59:16.444583 18105 net.cpp:131] Top shape: 16 24 12 12 (55296)
I0627 20:59:16.444591 18105 net.cpp:139] Memory required for data: 3096768
I0627 20:59:16.444602 18105 layer_factory.hpp:77] Creating layer conv3
I0627 20:59:16.444622 18105 net.cpp:86] Creating Layer conv3
I0627 20:59:16.444629 18105 net.cpp:408] conv3 <- conv2
I0627 20:59:16.444646 18105 net.cpp:382] conv3 -> conv3
I0627 20:59:16.447062 18105 net.cpp:124] Setting up conv3
I0627 20:59:16.447104 18105 net.cpp:131] Top shape: 16 48 6 6 (27648)
I0627 20:59:16.447113 18105 net.cpp:139] Memory required for data: 3207360
I0627 20:59:16.447129 18105 layer_factory.hpp:77] Creating layer conv3/bn
I0627 20:59:16.447146 18105 net.cpp:86] Creating Layer conv3/bn
I0627 20:59:16.447156 18105 net.cpp:408] conv3/bn <- conv3
I0627 20:59:16.447171 18105 net.cpp:369] conv3/bn -> conv3 (in-place)
I0627 20:59:16.447376 18105 net.cpp:124] Setting up conv3/bn
I0627 20:59:16.447388 18105 net.cpp:131] Top shape: 16 48 6 6 (27648)
I0627 20:59:16.447396 18105 net.cpp:139] Memory required for data: 3317952
I0627 20:59:16.447417 18105 layer_factory.hpp:77] Creating layer conv3/scale
I0627 20:59:16.447432 18105 net.cpp:86] Creating Layer conv3/scale
I0627 20:59:16.447440 18105 net.cpp:408] conv3/scale <- conv3
I0627 20:59:16.447456 18105 net.cpp:369] conv3/scale -> conv3 (in-place)
I0627 20:59:16.447513 18105 layer_factory.hpp:77] Creating layer conv3/scale
I0627 20:59:16.447665 18105 net.cpp:124] Setting up conv3/scale
I0627 20:59:16.447677 18105 net.cpp:131] Top shape: 16 48 6 6 (27648)
I0627 20:59:16.447686 18105 net.cpp:139] Memory required for data: 3428544
I0627 20:59:16.447700 18105 layer_factory.hpp:77] Creating layer relu3
I0627 20:59:16.447713 18105 net.cpp:86] Creating Layer relu3
I0627 20:59:16.447722 18105 net.cpp:408] relu3 <- conv3
I0627 20:59:16.447737 18105 net.cpp:369] relu3 -> conv3 (in-place)
I0627 20:59:16.448261 18105 net.cpp:124] Setting up relu3
I0627 20:59:16.448287 18105 net.cpp:131] Top shape: 16 48 6 6 (27648)
I0627 20:59:16.448297 18105 net.cpp:139] Memory required for data: 3539136
I0627 20:59:16.448305 18105 layer_factory.hpp:77] Creating layer ip1
I0627 20:59:16.448321 18105 net.cpp:86] Creating Layer ip1
I0627 20:59:16.448333 18105 net.cpp:408] ip1 <- conv3
I0627 20:59:16.448348 18105 net.cpp:382] ip1 -> ip1
I0627 20:59:16.449837 18105 net.cpp:124] Setting up ip1
I0627 20:59:16.449852 18105 net.cpp:131] Top shape: 16 128 (2048)
I0627 20:59:16.449860 18105 net.cpp:139] Memory required for data: 3547328
I0627 20:59:16.449875 18105 layer_factory.hpp:77] Creating layer ip2
I0627 20:59:16.449892 18105 net.cpp:86] Creating Layer ip2
I0627 20:59:16.449903 18105 net.cpp:408] ip2 <- ip1
I0627 20:59:16.449923 18105 net.cpp:382] ip2 -> ip2
I0627 20:59:16.450037 18105 net.cpp:124] Setting up ip2
I0627 20:59:16.450048 18105 net.cpp:131] Top shape: 16 2 (32)
I0627 20:59:16.450057 18105 net.cpp:139] Memory required for data: 3547456
I0627 20:59:16.450069 18105 layer_factory.hpp:77] Creating layer ip2_ip2_0_split
I0627 20:59:16.450088 18105 net.cpp:86] Creating Layer ip2_ip2_0_split
I0627 20:59:16.450098 18105 net.cpp:408] ip2_ip2_0_split <- ip2
I0627 20:59:16.450109 18105 net.cpp:382] ip2_ip2_0_split -> ip2_ip2_0_split_0
I0627 20:59:16.450122 18105 net.cpp:382] ip2_ip2_0_split -> ip2_ip2_0_split_1
I0627 20:59:16.450172 18105 net.cpp:124] Setting up ip2_ip2_0_split
I0627 20:59:16.450184 18105 net.cpp:131] Top shape: 16 2 (32)
I0627 20:59:16.450194 18105 net.cpp:131] Top shape: 16 2 (32)
I0627 20:59:16.450201 18105 net.cpp:139] Memory required for data: 3547712
I0627 20:59:16.450209 18105 layer_factory.hpp:77] Creating layer loss
I0627 20:59:16.450223 18105 net.cpp:86] Creating Layer loss
I0627 20:59:16.450232 18105 net.cpp:408] loss <- ip2_ip2_0_split_0
I0627 20:59:16.450242 18105 net.cpp:408] loss <- label_data_1_split_0
I0627 20:59:16.450255 18105 net.cpp:382] loss -> loss
…
