…
I0420 00:44:20.293295  3873 net.cpp:294] The NetState phase (0) differed from the phase (1) specified by a rule in layer data
I0420 00:44:20.293509  3873 net.cpp:51] Initializing net from parameters: 
name: "simpleconv3"
state {
  phase: TRAIN
  level: 0
  stage: ""
}
layer {
  name: "data"
  type: "ImageData"
  top: "data"
  top: "label"
  include {
    phase: TRAIN
  }
  transform_param {
    mirror: true
    crop_size: 48
    mean_value: 104.008
    mean_value: 116.669
    mean_value: 122.675
    min_side_min: 48
    min_side_max: 60
  }
  image_data_param {
    source: "train_shuffle.txt"
    batch_size: 96
    shuffle: true
  }
}
layer {
  name: "conv1"
  type: "Convolution"
  bottom: "data"
  top: "conv1"
  param {
    lr_mult: 1
    decay_mult: 1
  }
  param {
    lr_mult: 2
    decay_mult: 0
  }
  convolution_param {
    num_output: 12
    pad: 1
    kernel_size: 3
    stride: 2
    weight_filler {
      type: "xavier"
      std: 0.01
    }
    bias_filler {
      type: "constant"
      value: 0.2
    }
  }
}
layer {
  name: "conv1/bn"
  type: "BatchNorm"
  bottom: "conv1"
  top: "conv1"
  param {
    lr_mult: 0
    decay_mult: 0
  }
  param {
    lr_mult: 0
    decay_mult: 0
  }
  param {
    lr_mult: 0
    decay_mult: 0
  }
}
layer {
  name: "conv1/scale"
  type: "Scale"
  bottom: "conv1"
  top: "conv1"
  param {
    lr_mult: 1
    decay_mult: 0
  }
  param {
    lr_mult: 1
    decay_mult: 0
  }
  scale_param {
    filler {
      value: 1
    }
    bias_term: true
    bias_filler {
      value: 0
    }
  }
}
layer {
  name: "relu1"
  type: "ReLU"
  bottom: "conv1"
  top: "conv1"
}
layer {
  name: "conv2"
  type: "Convolution"
  bottom: "conv1"
  top: "conv2"
  param {
    lr_mult: 1
    decay_mult: 1
  }
  param {
    lr_mult: 2
    decay_mult: 0
  }
  convolution_param {
    num_output: 24
    pad: 1
    kernel_size: 3
    stride: 2
    weight_filler {
      type: "xavier"
      std: 0.1
    }
    bias_filler {
      type: "constant"
      value: 0.2
    }
  }
}
layer {
  name: "conv2/bn"
  type: "BatchNorm"
  bottom: "conv2"
  top: "conv2"
  param {
    lr_mult: 0
    decay_mult: 0
  }
  param {
    lr_mult: 0
    decay_mult: 0
  }
  param {
    lr_mult: 0
    decay_mult: 0
  }
}
layer {
  name: "conv2/scale"
  type: "Scale"
  bottom: "conv2"
  top: "conv2"
  param {
    lr_mult: 1
    decay_mult: 0
  }
  param {
    lr_mult: 1
    decay_mult: 0
  }
  scale_param {
    filler {
      value: 1
    }
    bias_term: true
    bias_filler {
      value: 0
    }
  }
}
layer {
  name: "relu2"
  type: "ReLU"
  bottom: "conv2"
  top: "conv2"
}
layer {
  name: "conv3"
  type: "Convolution"
  bottom: "conv2"
  top: "conv3"
  param {
    lr_mult: 1
    decay_mult: 1
  }
  param {
    lr_mult: 2
    decay_mult: 0
  }
  convolution_param {
    num_output: 48
    pad: 1
    kernel_size: 3
    stride: 2
    weight_filler {
      type: "xavier"
      std: 0.1
    }
    bias_filler {
      type: "constant"
      value: 0.2
    }
  }
}
layer {
  name: "conv3/bn"
  type: "BatchNorm"
  bottom: "conv3"
  top: "conv3"
  param {
    lr_mult: 0
    decay_mult: 0
  }
  param {
    lr_mult: 0
    decay_mult: 0
  }
  param {
    lr_mult: 0
    decay_mult: 0
  }
}
layer {
  name: "conv3/scale"
  type: "Scale"
  bottom: "conv3"
  top: "conv3"
  param {
    lr_mult: 1
    decay_mult: 0
  }
  param {
    lr_mult: 1
    decay_mult: 0
  }
  scale_param {
    filler {
      value: 1
    }
    bias_term: true
    bias_filler {
      value: 0
    }
  }
}
layer {
  name: "relu3"
  type: "ReLU"
  bottom: "conv3"
  top: "conv3"
}
layer {
  name: "ip1"
  type: "InnerProduct"
  bottom: "conv3"
  top: "ip1"
  param {
    lr_mult: 1
    decay_mult: 1
  }
  param {
    lr_mult: 2
    decay_mult: 0
  }
  inner_product_param {
    num_output: 128
    weight_filler {
      type: "xavier"
    }
    bias_filler {
      type: "constant"
      value: 0
    }
  }
}
layer {
  name: "ip2"
  type: "InnerProduct"
  bottom: "ip1"
  top: "ip2"
  param {
    lr_mult: 1
    decay_mult: 1
  }
  param {
    lr_mult: 2
    decay_mult: 1
  }
  inner_product_param {
    num_output: 2
    weight_filler {
      type: "xavier"
    }
    bias_filler {
      type: "constant"
      value: 0
    }
  }
}
layer {
  name: "loss"
  type: "SoftmaxWithLoss"
  bottom: "ip2"
  bottom: "label"
  top: "loss"
}
layer {
  name: "acc"
  type: "Accuracy"
  bottom: "ip2"
  bottom: "label"
  top: "acc"
}
I0420 00:44:20.293669  3873 layer_factory.hpp:77] Creating layer data
I0420 00:44:20.293714  3873 net.cpp:84] Creating Layer data
I0420 00:44:20.293725  3873 net.cpp:380] data -> data
I0420 00:44:20.293756  3873 net.cpp:380] data -> label
I0420 00:44:20.294296  3873 image_data_layer.cpp:43] Opening file train_shuffle.txt
I0420 00:44:20.294306  3873 io.cpp:296] Opening file train_shuffle.txt
I0420 00:44:20.296536  3873 io.cpp:321] Read 900 images with 1 labels
I0420 00:44:20.296553  3873 image_data_layer.cpp:61] Shuffling data
I0420 00:44:20.296850  3873 image_data_layer.cpp:71] A total of 900 images.
I0420 00:44:20.297981  3873 image_data_layer.cpp:98] output data size: 96,3,48,48
I0420 00:44:20.310986  3873 net.cpp:122] Setting up data
I0420 00:44:20.311022  3873 net.cpp:129] Top shape: 96 3 48 48 (663552)
I0420 00:44:20.311035  3873 net.cpp:129] Top shape: 96 1 1 1 (96)
I0420 00:44:20.311043  3873 net.cpp:137] Memory required for data: 2654592
I0420 00:44:20.311055  3873 layer_factory.hpp:77] Creating layer label_data_1_split
I0420 00:44:20.311110  3873 net.cpp:84] Creating Layer label_data_1_split
I0420 00:44:20.311126  3873 net.cpp:406] label_data_1_split <- label
I0420 00:44:20.311152  3873 net.cpp:380] label_data_1_split -> label_data_1_split_0
I0420 00:44:20.311179  3873 net.cpp:380] label_data_1_split -> label_data_1_split_1
I0420 00:44:20.311286  3873 net.cpp:122] Setting up label_data_1_split
I0420 00:44:20.311305  3873 net.cpp:129] Top shape: 96 1 1 1 (96)
I0420 00:44:20.311316  3873 net.cpp:129] Top shape: 96 1 1 1 (96)
I0420 00:44:20.311323  3873 net.cpp:137] Memory required for data: 2655360
I0420 00:44:20.311331  3873 layer_factory.hpp:77] Creating layer conv1
I0420 00:44:20.311367  3873 net.cpp:84] Creating Layer conv1
I0420 00:44:20.311378  3873 net.cpp:406] conv1 <- data
I0420 00:44:20.311393  3873 net.cpp:380] conv1 -> conv1
I0420 00:44:20.312526  3873 net.cpp:122] Setting up conv1
I0420 00:44:20.312551  3873 net.cpp:129] Top shape: 96 12 24 24 (663552)
I0420 00:44:20.312561  3873 net.cpp:137] Memory required for data: 5309568
I0420 00:44:20.312593  3873 layer_factory.hpp:77] Creating layer conv1/bn
I0420 00:44:20.312616  3873 net.cpp:84] Creating Layer conv1/bn
I0420 00:44:20.312651  3873 net.cpp:406] conv1/bn <- conv1
I0420 00:44:20.312669  3873 net.cpp:367] conv1/bn -> conv1 (in-place)
I0420 00:44:20.313136  3873 net.cpp:122] Setting up conv1/bn
I0420 00:44:20.313155  3873 net.cpp:129] Top shape: 96 12 24 24 (663552)
I0420 00:44:20.313164  3873 net.cpp:137] Memory required for data: 7963776
I0420 00:44:20.313190  3873 layer_factory.hpp:77] Creating layer conv1/scale
I0420 00:44:20.313218  3873 net.cpp:84] Creating Layer conv1/scale
I0420 00:44:20.313230  3873 net.cpp:406] conv1/scale <- conv1
I0420 00:44:20.313246  3873 net.cpp:367] conv1/scale -> conv1 (in-place)
I0420 00:44:20.313321  3873 layer_factory.hpp:77] Creating layer conv1/scale
I0420 00:44:20.313504  3873 net.cpp:122] Setting up conv1/scale
I0420 00:44:20.313522  3873 net.cpp:129] Top shape: 96 12 24 24 (663552)
I0420 00:44:20.313573  3873 net.cpp:137] Memory required for data: 10617984
I0420 00:44:20.313592  3873 layer_factory.hpp:77] Creating layer relu1
I0420 00:44:20.313632  3873 net.cpp:84] Creating Layer relu1
I0420 00:44:20.313647  3873 net.cpp:406] relu1 <- conv1
I0420 00:44:20.313671  3873 net.cpp:367] relu1 -> conv1 (in-place)
I0420 00:44:20.313688  3873 net.cpp:122] Setting up relu1
I0420 00:44:20.313721  3873 net.cpp:129] Top shape: 96 12 24 24 (663552)
I0420 00:44:20.313731  3873 net.cpp:137] Memory required for data: 13272192
I0420 00:44:20.313740  3873 layer_factory.hpp:77] Creating layer conv2
I0420 00:44:20.313766  3873 net.cpp:84] Creating Layer conv2
I0420 00:44:20.313776  3873 net.cpp:406] conv2 <- conv1
I0420 00:44:20.313792  3873 net.cpp:380] conv2 -> conv2
I0420 00:44:20.314812  3873 net.cpp:122] Setting up conv2
I0420 00:44:20.314836  3873 net.cpp:129] Top shape: 96 24 12 12 (331776)
I0420 00:44:20.314846  3873 net.cpp:137] Memory required for data: 14599296
I0420 00:44:20.314867  3873 layer_factory.hpp:77] Creating layer conv2/bn
I0420 00:44:20.314890  3873 net.cpp:84] Creating Layer conv2/bn
I0420 00:44:20.314903  3873 net.cpp:406] conv2/bn <- conv2
I0420 00:44:20.314918  3873 net.cpp:367] conv2/bn -> conv2 (in-place)
I0420 00:44:20.315202  3873 net.cpp:122] Setting up conv2/bn
I0420 00:44:20.315219  3873 net.cpp:129] Top shape: 96 24 12 12 (331776)
I0420 00:44:20.315228  3873 net.cpp:137] Memory required for data: 15926400
I0420 00:44:20.315246  3873 layer_factory.hpp:77] Creating layer conv2/scale
I0420 00:44:20.315271  3873 net.cpp:84] Creating Layer conv2/scale
I0420 00:44:20.315282  3873 net.cpp:406] conv2/scale <- conv2
I0420 00:44:20.315297  3873 net.cpp:367] conv2/scale -> conv2 (in-place)
I0420 00:44:20.315371  3873 layer_factory.hpp:77] Creating layer conv2/scale
I0420 00:44:20.315543  3873 net.cpp:122] Setting up conv2/scale
I0420 00:44:20.315563  3873 net.cpp:129] Top shape: 96 24 12 12 (331776)
I0420 00:44:20.315604  3873 net.cpp:137] Memory required for data: 17253504
I0420 00:44:20.315623  3873 layer_factory.hpp:77] Creating layer relu2
I0420 00:44:20.315636  3873 net.cpp:84] Creating Layer relu2
I0420 00:44:20.315647  3873 net.cpp:406] relu2 <- conv2
I0420 00:44:20.315660  3873 net.cpp:367] relu2 -> conv2 (in-place)
I0420 00:44:20.315676  3873 net.cpp:122] Setting up relu2
I0420 00:44:20.315691  3873 net.cpp:129] Top shape: 96 24 12 12 (331776)
I0420 00:44:20.315721  3873 net.cpp:137] Memory required for data: 18580608
I0420 00:44:20.315732  3873 layer_factory.hpp:77] Creating layer conv3
I0420 00:44:20.315757  3873 net.cpp:84] Creating Layer conv3
I0420 00:44:20.315768  3873 net.cpp:406] conv3 <- conv2
I0420 00:44:20.315783  3873 net.cpp:380] conv3 -> conv3
I0420 00:44:20.316931  3873 net.cpp:122] Setting up conv3
I0420 00:44:20.316956  3873 net.cpp:129] Top shape: 96 48 6 6 (165888)
I0420 00:44:20.316965  3873 net.cpp:137] Memory required for data: 19244160
I0420 00:44:20.316980  3873 layer_factory.hpp:77] Creating layer conv3/bn
I0420 00:44:20.317003  3873 net.cpp:84] Creating Layer conv3/bn
I0420 00:44:20.317014  3873 net.cpp:406] conv3/bn <- conv3
I0420 00:44:20.317029  3873 net.cpp:367] conv3/bn -> conv3 (in-place)
I0420 00:44:20.317303  3873 net.cpp:122] Setting up conv3/bn
I0420 00:44:20.317320  3873 net.cpp:129] Top shape: 96 48 6 6 (165888)
I0420 00:44:20.317328  3873 net.cpp:137] Memory required for data: 19907712
I0420 00:44:20.317355  3873 layer_factory.hpp:77] Creating layer conv3/scale
I0420 00:44:20.317373  3873 net.cpp:84] Creating Layer conv3/scale
I0420 00:44:20.317384  3873 net.cpp:406] conv3/scale <- conv3
I0420 00:44:20.317399  3873 net.cpp:367] conv3/scale -> conv3 (in-place)
I0420 00:44:20.317471  3873 layer_factory.hpp:77] Creating layer conv3/scale
I0420 00:44:20.317643  3873 net.cpp:122] Setting up conv3/scale
I0420 00:44:20.317661  3873 net.cpp:129] Top shape: 96 48 6 6 (165888)
I0420 00:44:20.317668  3873 net.cpp:137] Memory required for data: 20571264
I0420 00:44:20.317682  3873 layer_factory.hpp:77] Creating layer relu3
I0420 00:44:20.317698  3873 net.cpp:84] Creating Layer relu3
I0420 00:44:20.317724  3873 net.cpp:406] relu3 <- conv3
I0420 00:44:20.317739  3873 net.cpp:367] relu3 -> conv3 (in-place)
I0420 00:44:20.317783  3873 net.cpp:122] Setting up relu3
I0420 00:44:20.317800  3873 net.cpp:129] Top shape: 96 48 6 6 (165888)
I0420 00:44:20.317807  3873 net.cpp:137] Memory required for data: 21234816
I0420 00:44:20.317816  3873 layer_factory.hpp:77] Creating layer ip1
I0420 00:44:20.317832  3873 net.cpp:84] Creating Layer ip1
I0420 00:44:20.317842  3873 net.cpp:406] ip1 <- conv3
I0420 00:44:20.317857  3873 net.cpp:380] ip1 -> ip1
I0420 00:44:20.320716  3873 net.cpp:122] Setting up ip1
I0420 00:44:20.320742  3873 net.cpp:129] Top shape: 96 128 (12288)
I0420 00:44:20.320751  3873 net.cpp:137] Memory required for data: 21283968
I0420 00:44:20.320767  3873 layer_factory.hpp:77] Creating layer ip2
I0420 00:44:20.320817  3873 net.cpp:84] Creating Layer ip2
I0420 00:44:20.320830  3873 net.cpp:406] ip2 <- ip1
I0420 00:44:20.320850  3873 net.cpp:380] ip2 -> ip2
I0420 00:44:20.321010  3873 net.cpp:122] Setting up ip2
I0420 00:44:20.321027  3873 net.cpp:129] Top shape: 96 2 (192)
I0420 00:44:20.321035  3873 net.cpp:137] Memory required for data: 21284736
I0420 00:44:20.321049  3873 layer_factory.hpp:77] Creating layer ip2_ip2_0_split
I0420 00:44:20.321069  3873 net.cpp:84] Creating Layer ip2_ip2_0_split
I0420 00:44:20.321080  3873 net.cpp:406] ip2_ip2_0_split <- ip2
I0420 00:44:20.321099  3873 net.cpp:380] ip2_ip2_0_split -> ip2_ip2_0_split_0
I0420 00:44:20.321118  3873 net.cpp:380] ip2_ip2_0_split -> ip2_ip2_0_split_1
I0420 00:44:20.321182  3873 net.cpp:122] Setting up ip2_ip2_0_split
I0420 00:44:20.321197  3873 net.cpp:129] Top shape: 96 2 (192)
I0420 00:44:20.321208  3873 net.cpp:129] Top shape: 96 2 (192)
I0420 00:44:20.321214  3873 net.cpp:137] Memory required for data: 21286272
I0420 00:44:20.321246  3873 layer_factory.hpp:77] Creating layer loss
I0420 00:44:20.321267  3873 net.cpp:84] Creating Layer loss
I0420 00:44:20.321280  3873 net.cpp:406] loss <- ip2_ip2_0_split_0
I0420 00:44:20.321291  3873 net.cpp:406] loss <- label_data_1_split_0
I0420 00:44:20.321310  3873 net.cpp:380] loss -> loss
…
I0420 00:44:20.322453  3873 net.cpp:294] The NetState phase (1) differed from the phase (0) specified by a rule in layer data
I0420 00:44:20.322669  3873 net.cpp:51] Initializing net from parameters: 
name: "simpleconv3"
state {
  phase: TEST
}
layer {
  name: "data"
  type: "ImageData"
  top: "data"
  top: "label"
  include {
    phase: TEST
  }
  transform_param {
    mirror: false
    crop_size: 48
    mean_value: 104.008
    mean_value: 116.669
    mean_value: 122.675
    min_side_min: 48
    min_side_max: 48
  }
  image_data_param {
    source: "val_shuffle.txt"
    batch_size: 16
    shuffle: false
  }
}
layer {
  name: "conv1"
  type: "Convolution"
  bottom: "data"
  top: "conv1"
  param {
    lr_mult: 1
    decay_mult: 1
  }
  param {
    lr_mult: 2
    decay_mult: 0
  }
  convolution_param {
    num_output: 12
    pad: 1
    kernel_size: 3
    stride: 2
    weight_filler {
      type: "xavier"
      std: 0.01
    }
    bias_filler {
      type: "constant"
      value: 0.2
    }
  }
}
layer {
  name: "conv1/bn"
  type: "BatchNorm"
  bottom: "conv1"
  top: "conv1"
  param {
    lr_mult: 0
    decay_mult: 0
  }
  param {
    lr_mult: 0
    decay_mult: 0
  }
  param {
    lr_mult: 0
    decay_mult: 0
  }
}
layer {
  name: "conv1/scale"
  type: "Scale"
  bottom: "conv1"
  top: "conv1"
  param {
    lr_mult: 1
    decay_mult: 0
  }
  param {
    lr_mult: 1
    decay_mult: 0
  }
  scale_param {
    filler {
      value: 1
    }
    bias_term: true
    bias_filler {
      value: 0
    }
  }
}
layer {
  name: "relu1"
  type: "ReLU"
  bottom: "conv1"
  top: "conv1"
}
layer {
  name: "conv2"
  type: "Convolution"
  bottom: "conv1"
  top: "conv2"
  param {
    lr_mult: 1
    decay_mult: 1
  }
  param {
    lr_mult: 2
    decay_mult: 0
  }
  convolution_param {
    num_output: 24
    pad: 1
    kernel_size: 3
    stride: 2
    weight_filler {
      type: "xavier"
      std: 0.1
    }
    bias_filler {
      type: "constant"
      value: 0.2
    }
  }
}
layer {
  name: "conv2/bn"
  type: "BatchNorm"
  bottom: "conv2"
  top: "conv2"
  param {
    lr_mult: 0
    decay_mult: 0
  }
  param {
    lr_mult: 0
    decay_mult: 0
  }
  param {
    lr_mult: 0
    decay_mult: 0
  }
}
layer {
  name: "conv2/scale"
  type: "Scale"
  bottom: "conv2"
  top: "conv2"
  param {
    lr_mult: 1
    decay_mult: 0
  }
  param {
    lr_mult: 1
    decay_mult: 0
  }
  scale_param {
    filler {
      value: 1
    }
    bias_term: true
    bias_filler {
      value: 0
    }
  }
}
layer {
  name: "relu2"
  type: "ReLU"
  bottom: "conv2"
  top: "conv2"
}
layer {
  name: "conv3"
  type: "Convolution"
  bottom: "conv2"
  top: "conv3"
  param {
    lr_mult: 1
    decay_mult: 1
  }
  param {
    lr_mult: 2
    decay_mult: 0
  }
  convolution_param {
    num_output: 48
    pad: 1
    kernel_size: 3
    stride: 2
    weight_filler {
      type: "xavier"
      std: 0.1
    }
    bias_filler {
      type: "constant"
      value: 0.2
    }
  }
}
layer {
  name: "conv3/bn"
  type: "BatchNorm"
  bottom: "conv3"
  top: "conv3"
  param {
    lr_mult: 0
    decay_mult: 0
  }
  param {
    lr_mult: 0
    decay_mult: 0
  }
  param {
    lr_mult: 0
    decay_mult: 0
  }
}
layer {
  name: "conv3/scale"
  type: "Scale"
  bottom: "conv3"
  top: "conv3"
  param {
    lr_mult: 1
    decay_mult: 0
  }
  param {
    lr_mult: 1
    decay_mult: 0
  }
  scale_param {
    filler {
      value: 1
    }
    bias_term: true
    bias_filler {
      value: 0
    }
  }
}
layer {
  name: "relu3"
  type: "ReLU"
  bottom: "conv3"
  top: "conv3"
}
layer {
  name: "ip1"
  type: "InnerProduct"
  bottom: "conv3"
  top: "ip1"
  param {
    lr_mult: 1
    decay_mult: 1
  }
  param {
    lr_mult: 2
    decay_mult: 0
  }
  inner_product_param {
    num_output: 128
    weight_filler {
      type: "xavier"
    }
    bias_filler {
      type: "constant"
      value: 0
    }
  }
}
layer {
  name: "ip2"
  type: "InnerProduct"
  bottom: "ip1"
  top: "ip2"
  param {
    lr_mult: 1
    decay_mult: 1
  }
  param {
    lr_mult: 2
    decay_mult: 1
  }
  inner_product_param {
    num_output: 2
    weight_filler {
      type: "xavier"
    }
    bias_filler {
      type: "constant"
      value: 0
    }
  }
}
layer {
  name: "loss"
  type: "SoftmaxWithLoss"
  bottom: "ip2"
  bottom: "label"
  top: "loss"
}
layer {
  name: "acc"
  type: "Accuracy"
  bottom: "ip2"
  bottom: "label"
  top: "acc"
}
I0420 00:44:20.322852  3873 layer_factory.hpp:77] Creating layer data
I0420 00:44:20.322881  3873 net.cpp:84] Creating Layer data
I0420 00:44:20.322892  3873 net.cpp:380] data -> data
I0420 00:44:20.322911  3873 net.cpp:380] data -> label
I0420 00:44:20.322928  3873 image_data_layer.cpp:43] Opening file val_shuffle.txt
I0420 00:44:20.322937  3873 io.cpp:296] Opening file val_shuffle.txt
I0420 00:44:20.323187  3873 io.cpp:321] Read 100 images with 1 labels
I0420 00:44:20.323205  3873 image_data_layer.cpp:71] A total of 100 images.
I0420 00:44:20.323534  3873 image_data_layer.cpp:98] output data size: 16,3,48,48
I0420 00:44:20.337396  3873 net.cpp:122] Setting up data
I0420 00:44:20.337445  3873 net.cpp:129] Top shape: 16 3 48 48 (110592)
I0420 00:44:20.337460  3873 net.cpp:129] Top shape: 16 1 1 1 (16)
I0420 00:44:20.337466  3873 net.cpp:137] Memory required for data: 442432
I0420 00:44:20.337477  3873 layer_factory.hpp:77] Creating layer label_data_1_split
I0420 00:44:20.337503  3873 net.cpp:84] Creating Layer label_data_1_split
I0420 00:44:20.337519  3873 net.cpp:406] label_data_1_split <- label
I0420 00:44:20.337536  3873 net.cpp:380] label_data_1_split -> label_data_1_split_0
I0420 00:44:20.337563  3873 net.cpp:380] label_data_1_split -> label_data_1_split_1
I0420 00:44:20.337693  3873 net.cpp:122] Setting up label_data_1_split
I0420 00:44:20.337718  3873 net.cpp:129] Top shape: 16 1 1 1 (16)
I0420 00:44:20.337728  3873 net.cpp:129] Top shape: 16 1 1 1 (16)
I0420 00:44:20.337735  3873 net.cpp:137] Memory required for data: 442560
I0420 00:44:20.337744  3873 layer_factory.hpp:77] Creating layer conv1
I0420 00:44:20.337774  3873 net.cpp:84] Creating Layer conv1
I0420 00:44:20.337790  3873 net.cpp:406] conv1 <- data
I0420 00:44:20.337810  3873 net.cpp:380] conv1 -> conv1
I0420 00:44:20.338711  3873 net.cpp:122] Setting up conv1
I0420 00:44:20.338742  3873 net.cpp:129] Top shape: 16 12 24 24 (110592)
I0420 00:44:20.338752  3873 net.cpp:137] Memory required for data: 884928
I0420 00:44:20.338776  3873 layer_factory.hpp:77] Creating layer conv1/bn
I0420 00:44:20.338804  3873 net.cpp:84] Creating Layer conv1/bn
I0420 00:44:20.338817  3873 net.cpp:406] conv1/bn <- conv1
I0420 00:44:20.338835  3873 net.cpp:367] conv1/bn -> conv1 (in-place)
I0420 00:44:20.339221  3873 net.cpp:122] Setting up conv1/bn
I0420 00:44:20.339248  3873 net.cpp:129] Top shape: 16 12 24 24 (110592)
I0420 00:44:20.339257  3873 net.cpp:137] Memory required for data: 1327296
I0420 00:44:20.339282  3873 layer_factory.hpp:77] Creating layer conv1/scale
I0420 00:44:20.339305  3873 net.cpp:84] Creating Layer conv1/scale
I0420 00:44:20.339318  3873 net.cpp:406] conv1/scale <- conv1
I0420 00:44:20.339334  3873 net.cpp:367] conv1/scale -> conv1 (in-place)
I0420 00:44:20.339418  3873 layer_factory.hpp:77] Creating layer conv1/scale
I0420 00:44:20.339675  3873 net.cpp:122] Setting up conv1/scale
I0420 00:44:20.339697  3873 net.cpp:129] Top shape: 16 12 24 24 (110592)
I0420 00:44:20.339705  3873 net.cpp:137] Memory required for data: 1769664
I0420 00:44:20.339720  3873 layer_factory.hpp:77] Creating layer relu1
I0420 00:44:20.339735  3873 net.cpp:84] Creating Layer relu1
I0420 00:44:20.339747  3873 net.cpp:406] relu1 <- conv1
I0420 00:44:20.339761  3873 net.cpp:367] relu1 -> conv1 (in-place)
I0420 00:44:20.339771  3873 net.cpp:122] Setting up relu1
I0420 00:44:20.339781  3873 net.cpp:129] Top shape: 16 12 24 24 (110592)
I0420 00:44:20.339785  3873 net.cpp:137] Memory required for data: 2212032
I0420 00:44:20.339790  3873 layer_factory.hpp:77] Creating layer conv2
I0420 00:44:20.339810  3873 net.cpp:84] Creating Layer conv2
I0420 00:44:20.339821  3873 net.cpp:406] conv2 <- conv1
I0420 00:44:20.339838  3873 net.cpp:380] conv2 -> conv2
I0420 00:44:20.340389  3873 net.cpp:122] Setting up conv2
I0420 00:44:20.340416  3873 net.cpp:129] Top shape: 16 24 12 12 (55296)
I0420 00:44:20.340425  3873 net.cpp:137] Memory required for data: 2433216
I0420 00:44:20.340445  3873 layer_factory.hpp:77] Creating layer conv2/bn
I0420 00:44:20.340461  3873 net.cpp:84] Creating Layer conv2/bn
I0420 00:44:20.340471  3873 net.cpp:406] conv2/bn <- conv2
I0420 00:44:20.340485  3873 net.cpp:367] conv2/bn -> conv2 (in-place)
I0420 00:44:20.340960  3873 net.cpp:122] Setting up conv2/bn
I0420 00:44:20.340984  3873 net.cpp:129] Top shape: 16 24 12 12 (55296)
I0420 00:44:20.340992  3873 net.cpp:137] Memory required for data: 2654400
I0420 00:44:20.341011  3873 layer_factory.hpp:77] Creating layer conv2/scale
I0420 00:44:20.341037  3873 net.cpp:84] Creating Layer conv2/scale
I0420 00:44:20.341048  3873 net.cpp:406] conv2/scale <- conv2
I0420 00:44:20.341063  3873 net.cpp:367] conv2/scale -> conv2 (in-place)
I0420 00:44:20.341156  3873 layer_factory.hpp:77] Creating layer conv2/scale
I0420 00:44:20.341514  3873 net.cpp:122] Setting up conv2/scale
I0420 00:44:20.341540  3873 net.cpp:129] Top shape: 16 24 12 12 (55296)
I0420 00:44:20.341552  3873 net.cpp:137] Memory required for data: 2875584
I0420 00:44:20.341567  3873 layer_factory.hpp:77] Creating layer relu2
I0420 00:44:20.341581  3873 net.cpp:84] Creating Layer relu2
I0420 00:44:20.341593  3873 net.cpp:406] relu2 <- conv2
I0420 00:44:20.341604  3873 net.cpp:367] relu2 -> conv2 (in-place)
I0420 00:44:20.341619  3873 net.cpp:122] Setting up relu2
I0420 00:44:20.341632  3873 net.cpp:129] Top shape: 16 24 12 12 (55296)
I0420 00:44:20.341644  3873 net.cpp:137] Memory required for data: 3096768
I0420 00:44:20.341650  3873 layer_factory.hpp:77] Creating layer conv3
I0420 00:44:20.341673  3873 net.cpp:84] Creating Layer conv3
I0420 00:44:20.341682  3873 net.cpp:406] conv3 <- conv2
I0420 00:44:20.341696  3873 net.cpp:380] conv3 -> conv3
I0420 00:44:20.343343  3873 net.cpp:122] Setting up conv3
I0420 00:44:20.343391  3873 net.cpp:129] Top shape: 16 48 6 6 (27648)
I0420 00:44:20.343401  3873 net.cpp:137] Memory required for data: 3207360
I0420 00:44:20.343420  3873 layer_factory.hpp:77] Creating layer conv3/bn
I0420 00:44:20.343447  3873 net.cpp:84] Creating Layer conv3/bn
I0420 00:44:20.343459  3873 net.cpp:406] conv3/bn <- conv3
I0420 00:44:20.343475  3873 net.cpp:367] conv3/bn -> conv3 (in-place)
I0420 00:44:20.343987  3873 net.cpp:122] Setting up conv3/bn
I0420 00:44:20.344012  3873 net.cpp:129] Top shape: 16 48 6 6 (27648)
I0420 00:44:20.344019  3873 net.cpp:137] Memory required for data: 3317952
I0420 00:44:20.344060  3873 layer_factory.hpp:77] Creating layer conv3/scale
I0420 00:44:20.344089  3873 net.cpp:84] Creating Layer conv3/scale
I0420 00:44:20.344101  3873 net.cpp:406] conv3/scale <- conv3
I0420 00:44:20.344117  3873 net.cpp:367] conv3/scale -> conv3 (in-place)
I0420 00:44:20.344211  3873 layer_factory.hpp:77] Creating layer conv3/scale
I0420 00:44:20.344473  3873 net.cpp:122] Setting up conv3/scale
I0420 00:44:20.344496  3873 net.cpp:129] Top shape: 16 48 6 6 (27648)
I0420 00:44:20.344503  3873 net.cpp:137] Memory required for data: 3428544
I0420 00:44:20.344545  3873 layer_factory.hpp:77] Creating layer relu3
I0420 00:44:20.344563  3873 net.cpp:84] Creating Layer relu3
I0420 00:44:20.344570  3873 net.cpp:406] relu3 <- conv3
I0420 00:44:20.344588  3873 net.cpp:367] relu3 -> conv3 (in-place)
I0420 00:44:20.344604  3873 net.cpp:122] Setting up relu3
I0420 00:44:20.344619  3873 net.cpp:129] Top shape: 16 48 6 6 (27648)
I0420 00:44:20.344627  3873 net.cpp:137] Memory required for data: 3539136
I0420 00:44:20.344635  3873 layer_factory.hpp:77] Creating layer ip1
I0420 00:44:20.344650  3873 net.cpp:84] Creating Layer ip1
I0420 00:44:20.344661  3873 net.cpp:406] ip1 <- conv3
I0420 00:44:20.344683  3873 net.cpp:380] ip1 -> ip1
I0420 00:44:20.353435  3873 net.cpp:122] Setting up ip1
I0420 00:44:20.353478  3873 net.cpp:129] Top shape: 16 128 (2048)
I0420 00:44:20.353487  3873 net.cpp:137] Memory required for data: 3547328
I0420 00:44:20.353507  3873 layer_factory.hpp:77] Creating layer ip2
I0420 00:44:20.353529  3873 net.cpp:84] Creating Layer ip2
I0420 00:44:20.353552  3873 net.cpp:406] ip2 <- ip1
I0420 00:44:20.353574  3873 net.cpp:380] ip2 -> ip2
I0420 00:44:20.353804  3873 net.cpp:122] Setting up ip2
I0420 00:44:20.353832  3873 net.cpp:129] Top shape: 16 2 (32)
I0420 00:44:20.353839  3873 net.cpp:137] Memory required for data: 3547456
I0420 00:44:20.353854  3873 layer_factory.hpp:77] Creating layer ip2_ip2_0_split
I0420 00:44:20.353879  3873 net.cpp:84] Creating Layer ip2_ip2_0_split
I0420 00:44:20.353890  3873 net.cpp:406] ip2_ip2_0_split <- ip2
I0420 00:44:20.353904  3873 net.cpp:380] ip2_ip2_0_split -> ip2_ip2_0_split_0
I0420 00:44:20.353921  3873 net.cpp:380] ip2_ip2_0_split -> ip2_ip2_0_split_1
I0420 00:44:20.354004  3873 net.cpp:122] Setting up ip2_ip2_0_split
I0420 00:44:20.354020  3873 net.cpp:129] Top shape: 16 2 (32)
I0420 00:44:20.354032  3873 net.cpp:129] Top shape: 16 2 (32)
I0420 00:44:20.354038  3873 net.cpp:137] Memory required for data: 3547712
I0420 00:44:20.354046  3873 layer_factory.hpp:77] Creating layer loss
I0420 00:44:20.354058  3873 net.cpp:84] Creating Layer loss
I0420 00:44:20.354070  3873 net.cpp:406] loss <- ip2_ip2_0_split_0
I0420 00:44:20.354081  3873 net.cpp:406] loss <- label_data_1_split_0
I0420 00:44:20.354101  3873 net.cpp:380] loss -> loss
…
