…
I0420 00:43:04.690728  3688 net.cpp:294] The NetState phase (0) differed from the phase (1) specified by a rule in layer data
I0420 00:43:04.690862  3688 net.cpp:51] Initializing net from parameters: 
name: "simpleconv3"
state {
  phase: TRAIN
  level: 0
  stage: ""
}
layer {
  name: "data"
  type: "ImageData"
  top: "data"
  top: "label"
  include {
    phase: TRAIN
  }
  transform_param {
    mirror: true
    crop_size: 48
    mean_value: 104.008
    mean_value: 116.669
    mean_value: 122.675
    min_side_min: 48
    min_side_max: 48
  }
  image_data_param {
    source: "train_shuffle.txt"
    batch_size: 96
    shuffle: true
  }
}
layer {
  name: "conv1"
  type: "Convolution"
  bottom: "data"
  top: "conv1"
  param {
    lr_mult: 1
    decay_mult: 1
  }
  param {
    lr_mult: 2
    decay_mult: 0
  }
  convolution_param {
    num_output: 12
    pad: 1
    kernel_size: 3
    stride: 2
    weight_filler {
      type: "xavier"
      std: 0.01
    }
    bias_filler {
      type: "constant"
      value: 0.2
    }
  }
}
layer {
  name: "conv1/bn"
  type: "BatchNorm"
  bottom: "conv1"
  top: "conv1"
  param {
    lr_mult: 0
    decay_mult: 0
  }
  param {
    lr_mult: 0
    decay_mult: 0
  }
  param {
    lr_mult: 0
    decay_mult: 0
  }
}
layer {
  name: "conv1/scale"
  type: "Scale"
  bottom: "conv1"
  top: "conv1"
  param {
    lr_mult: 1
    decay_mult: 0
  }
  param {
    lr_mult: 1
    decay_mult: 0
  }
  scale_param {
    filler {
      value: 1
    }
    bias_term: true
    bias_filler {
      value: 0
    }
  }
}
layer {
  name: "relu1"
  type: "ReLU"
  bottom: "conv1"
  top: "conv1"
}
layer {
  name: "conv2"
  type: "Convolution"
  bottom: "conv1"
  top: "conv2"
  param {
    lr_mult: 1
    decay_mult: 1
  }
  param {
    lr_mult: 2
    decay_mult: 0
  }
  convolution_param {
    num_output: 24
    pad: 1
    kernel_size: 3
    stride: 2
    weight_filler {
      type: "xavier"
      std: 0.1
    }
    bias_filler {
      type: "constant"
      value: 0.2
    }
  }
}
layer {
  name: "conv2/bn"
  type: "BatchNorm"
  bottom: "conv2"
  top: "conv2"
  param {
    lr_mult: 0
    decay_mult: 0
  }
  param {
    lr_mult: 0
    decay_mult: 0
  }
  param {
    lr_mult: 0
    decay_mult: 0
  }
}
layer {
  name: "conv2/scale"
  type: "Scale"
  bottom: "conv2"
  top: "conv2"
  param {
    lr_mult: 1
    decay_mult: 0
  }
  param {
    lr_mult: 1
    decay_mult: 0
  }
  scale_param {
    filler {
      value: 1
    }
    bias_term: true
    bias_filler {
      value: 0
    }
  }
}
layer {
  name: "relu2"
  type: "ReLU"
  bottom: "conv2"
  top: "conv2"
}
layer {
  name: "conv3"
  type: "Convolution"
  bottom: "conv2"
  top: "conv3"
  param {
    lr_mult: 1
    decay_mult: 1
  }
  param {
    lr_mult: 2
    decay_mult: 0
  }
  convolution_param {
    num_output: 48
    pad: 1
    kernel_size: 3
    stride: 2
    weight_filler {
      type: "xavier"
      std: 0.1
    }
    bias_filler {
      type: "constant"
      value: 0.2
    }
  }
}
layer {
  name: "conv3/bn"
  type: "BatchNorm"
  bottom: "conv3"
  top: "conv3"
  param {
    lr_mult: 0
    decay_mult: 0
  }
  param {
    lr_mult: 0
    decay_mult: 0
  }
  param {
    lr_mult: 0
    decay_mult: 0
  }
}
layer {
  name: "conv3/scale"
  type: "Scale"
  bottom: "conv3"
  top: "conv3"
  param {
    lr_mult: 1
    decay_mult: 0
  }
  param {
    lr_mult: 1
    decay_mult: 0
  }
  scale_param {
    filler {
      value: 1
    }
    bias_term: true
    bias_filler {
      value: 0
    }
  }
}
layer {
  name: "relu3"
  type: "ReLU"
  bottom: "conv3"
  top: "conv3"
}
layer {
  name: "ip1"
  type: "InnerProduct"
  bottom: "conv3"
  top: "ip1"
  param {
    lr_mult: 1
    decay_mult: 1
  }
  param {
    lr_mult: 2
    decay_mult: 0
  }
  inner_product_param {
    num_output: 128
    weight_filler {
      type: "xavier"
    }
    bias_filler {
      type: "constant"
      value: 0
    }
  }
}
layer {
  name: "ip2"
  type: "InnerProduct"
  bottom: "ip1"
  top: "ip2"
  param {
    lr_mult: 1
    decay_mult: 1
  }
  param {
    lr_mult: 2
    decay_mult: 1
  }
  inner_product_param {
    num_output: 2
    weight_filler {
      type: "xavier"
    }
    bias_filler {
      type: "constant"
      value: 0
    }
  }
}
layer {
  name: "loss"
  type: "SoftmaxWithLoss"
  bottom: "ip2"
  bottom: "label"
  top: "loss"
}
layer {
  name: "acc"
  type: "Accuracy"
  bottom: "ip2"
  bottom: "label"
  top: "acc"
}
I0420 00:43:04.690970  3688 layer_factory.hpp:77] Creating layer data
I0420 00:43:04.691000  3688 net.cpp:84] Creating Layer data
I0420 00:43:04.691007  3688 net.cpp:380] data -> data
I0420 00:43:04.691030  3688 net.cpp:380] data -> label
I0420 00:43:04.691388  3688 image_data_layer.cpp:43] Opening file train_shuffle.txt
I0420 00:43:04.691396  3688 io.cpp:296] Opening file train_shuffle.txt
I0420 00:43:04.692807  3688 io.cpp:321] Read 900 images with 1 labels
I0420 00:43:04.692819  3688 image_data_layer.cpp:61] Shuffling data
I0420 00:43:04.693006  3688 image_data_layer.cpp:71] A total of 900 images.
I0420 00:43:04.693799  3688 image_data_layer.cpp:98] output data size: 96,3,48,48
I0420 00:43:04.702270  3688 net.cpp:122] Setting up data
I0420 00:43:04.702296  3688 net.cpp:129] Top shape: 96 3 48 48 (663552)
I0420 00:43:04.702301  3688 net.cpp:129] Top shape: 96 1 1 1 (96)
I0420 00:43:04.702303  3688 net.cpp:137] Memory required for data: 2654592
I0420 00:43:04.702311  3688 layer_factory.hpp:77] Creating layer label_data_1_split
I0420 00:43:04.702323  3688 net.cpp:84] Creating Layer label_data_1_split
I0420 00:43:04.702329  3688 net.cpp:406] label_data_1_split <- label
I0420 00:43:04.702342  3688 net.cpp:380] label_data_1_split -> label_data_1_split_0
I0420 00:43:04.702353  3688 net.cpp:380] label_data_1_split -> label_data_1_split_1
I0420 00:43:04.702452  3688 net.cpp:122] Setting up label_data_1_split
I0420 00:43:04.702466  3688 net.cpp:129] Top shape: 96 1 1 1 (96)
I0420 00:43:04.702471  3688 net.cpp:129] Top shape: 96 1 1 1 (96)
I0420 00:43:04.702472  3688 net.cpp:137] Memory required for data: 2655360
I0420 00:43:04.702476  3688 layer_factory.hpp:77] Creating layer conv1
I0420 00:43:04.702497  3688 net.cpp:84] Creating Layer conv1
I0420 00:43:04.702502  3688 net.cpp:406] conv1 <- data
I0420 00:43:04.702508  3688 net.cpp:380] conv1 -> conv1
I0420 00:43:04.703220  3688 net.cpp:122] Setting up conv1
I0420 00:43:04.703234  3688 net.cpp:129] Top shape: 96 12 24 24 (663552)
I0420 00:43:04.703238  3688 net.cpp:137] Memory required for data: 5309568
I0420 00:43:04.703253  3688 layer_factory.hpp:77] Creating layer conv1/bn
I0420 00:43:04.703261  3688 net.cpp:84] Creating Layer conv1/bn
I0420 00:43:04.703265  3688 net.cpp:406] conv1/bn <- conv1
I0420 00:43:04.703272  3688 net.cpp:367] conv1/bn -> conv1 (in-place)
I0420 00:43:04.703440  3688 net.cpp:122] Setting up conv1/bn
I0420 00:43:04.703449  3688 net.cpp:129] Top shape: 96 12 24 24 (663552)
I0420 00:43:04.703451  3688 net.cpp:137] Memory required for data: 7963776
I0420 00:43:04.703461  3688 layer_factory.hpp:77] Creating layer conv1/scale
I0420 00:43:04.703471  3688 net.cpp:84] Creating Layer conv1/scale
I0420 00:43:04.703476  3688 net.cpp:406] conv1/scale <- conv1
I0420 00:43:04.703483  3688 net.cpp:367] conv1/scale -> conv1 (in-place)
I0420 00:43:04.703518  3688 layer_factory.hpp:77] Creating layer conv1/scale
I0420 00:43:04.703625  3688 net.cpp:122] Setting up conv1/scale
I0420 00:43:04.703634  3688 net.cpp:129] Top shape: 96 12 24 24 (663552)
I0420 00:43:04.703651  3688 net.cpp:137] Memory required for data: 10617984
I0420 00:43:04.703657  3688 layer_factory.hpp:77] Creating layer relu1
I0420 00:43:04.703665  3688 net.cpp:84] Creating Layer relu1
I0420 00:43:04.703667  3688 net.cpp:406] relu1 <- conv1
I0420 00:43:04.703672  3688 net.cpp:367] relu1 -> conv1 (in-place)
I0420 00:43:04.703678  3688 net.cpp:122] Setting up relu1
I0420 00:43:04.703682  3688 net.cpp:129] Top shape: 96 12 24 24 (663552)
I0420 00:43:04.703685  3688 net.cpp:137] Memory required for data: 13272192
I0420 00:43:04.703687  3688 layer_factory.hpp:77] Creating layer conv2
I0420 00:43:04.703697  3688 net.cpp:84] Creating Layer conv2
I0420 00:43:04.703701  3688 net.cpp:406] conv2 <- conv1
I0420 00:43:04.703707  3688 net.cpp:380] conv2 -> conv2
I0420 00:43:04.704411  3688 net.cpp:122] Setting up conv2
I0420 00:43:04.704427  3688 net.cpp:129] Top shape: 96 24 12 12 (331776)
I0420 00:43:04.704430  3688 net.cpp:137] Memory required for data: 14599296
I0420 00:43:04.704440  3688 layer_factory.hpp:77] Creating layer conv2/bn
I0420 00:43:04.704448  3688 net.cpp:84] Creating Layer conv2/bn
I0420 00:43:04.704452  3688 net.cpp:406] conv2/bn <- conv2
I0420 00:43:04.704458  3688 net.cpp:367] conv2/bn -> conv2 (in-place)
I0420 00:43:04.704938  3688 net.cpp:122] Setting up conv2/bn
I0420 00:43:04.704949  3688 net.cpp:129] Top shape: 96 24 12 12 (331776)
I0420 00:43:04.704952  3688 net.cpp:137] Memory required for data: 15926400
I0420 00:43:04.704960  3688 layer_factory.hpp:77] Creating layer conv2/scale
I0420 00:43:04.704972  3688 net.cpp:84] Creating Layer conv2/scale
I0420 00:43:04.704975  3688 net.cpp:406] conv2/scale <- conv2
I0420 00:43:04.704982  3688 net.cpp:367] conv2/scale -> conv2 (in-place)
I0420 00:43:04.705018  3688 layer_factory.hpp:77] Creating layer conv2/scale
I0420 00:43:04.705116  3688 net.cpp:122] Setting up conv2/scale
I0420 00:43:04.705123  3688 net.cpp:129] Top shape: 96 24 12 12 (331776)
I0420 00:43:04.705127  3688 net.cpp:137] Memory required for data: 17253504
I0420 00:43:04.705132  3688 layer_factory.hpp:77] Creating layer relu2
I0420 00:43:04.705139  3688 net.cpp:84] Creating Layer relu2
I0420 00:43:04.705143  3688 net.cpp:406] relu2 <- conv2
I0420 00:43:04.705148  3688 net.cpp:367] relu2 -> conv2 (in-place)
I0420 00:43:04.705153  3688 net.cpp:122] Setting up relu2
I0420 00:43:04.705157  3688 net.cpp:129] Top shape: 96 24 12 12 (331776)
I0420 00:43:04.705160  3688 net.cpp:137] Memory required for data: 18580608
I0420 00:43:04.705163  3688 layer_factory.hpp:77] Creating layer conv3
I0420 00:43:04.705173  3688 net.cpp:84] Creating Layer conv3
I0420 00:43:04.705178  3688 net.cpp:406] conv3 <- conv2
I0420 00:43:04.705184  3688 net.cpp:380] conv3 -> conv3
I0420 00:43:04.705859  3688 net.cpp:122] Setting up conv3
I0420 00:43:04.705873  3688 net.cpp:129] Top shape: 96 48 6 6 (165888)
I0420 00:43:04.705878  3688 net.cpp:137] Memory required for data: 19244160
I0420 00:43:04.705884  3688 layer_factory.hpp:77] Creating layer conv3/bn
I0420 00:43:04.705893  3688 net.cpp:84] Creating Layer conv3/bn
I0420 00:43:04.705899  3688 net.cpp:406] conv3/bn <- conv3
I0420 00:43:04.705904  3688 net.cpp:367] conv3/bn -> conv3 (in-place)
I0420 00:43:04.706063  3688 net.cpp:122] Setting up conv3/bn
I0420 00:43:04.706070  3688 net.cpp:129] Top shape: 96 48 6 6 (165888)
I0420 00:43:04.706073  3688 net.cpp:137] Memory required for data: 19907712
I0420 00:43:04.706084  3688 layer_factory.hpp:77] Creating layer conv3/scale
I0420 00:43:04.706094  3688 net.cpp:84] Creating Layer conv3/scale
I0420 00:43:04.706099  3688 net.cpp:406] conv3/scale <- conv3
I0420 00:43:04.706105  3688 net.cpp:367] conv3/scale -> conv3 (in-place)
I0420 00:43:04.706140  3688 layer_factory.hpp:77] Creating layer conv3/scale
I0420 00:43:04.706236  3688 net.cpp:122] Setting up conv3/scale
I0420 00:43:04.706244  3688 net.cpp:129] Top shape: 96 48 6 6 (165888)
I0420 00:43:04.706248  3688 net.cpp:137] Memory required for data: 20571264
I0420 00:43:04.706252  3688 layer_factory.hpp:77] Creating layer relu3
I0420 00:43:04.706259  3688 net.cpp:84] Creating Layer relu3
I0420 00:43:04.706274  3688 net.cpp:406] relu3 <- conv3
I0420 00:43:04.706281  3688 net.cpp:367] relu3 -> conv3 (in-place)
I0420 00:43:04.706288  3688 net.cpp:122] Setting up relu3
I0420 00:43:04.706292  3688 net.cpp:129] Top shape: 96 48 6 6 (165888)
I0420 00:43:04.706296  3688 net.cpp:137] Memory required for data: 21234816
I0420 00:43:04.706300  3688 layer_factory.hpp:77] Creating layer ip1
I0420 00:43:04.706306  3688 net.cpp:84] Creating Layer ip1
I0420 00:43:04.706311  3688 net.cpp:406] ip1 <- conv3
I0420 00:43:04.706317  3688 net.cpp:380] ip1 -> ip1
I0420 00:43:04.708057  3688 net.cpp:122] Setting up ip1
I0420 00:43:04.708071  3688 net.cpp:129] Top shape: 96 128 (12288)
I0420 00:43:04.708076  3688 net.cpp:137] Memory required for data: 21283968
I0420 00:43:04.708082  3688 layer_factory.hpp:77] Creating layer ip2
I0420 00:43:04.708091  3688 net.cpp:84] Creating Layer ip2
I0420 00:43:04.708096  3688 net.cpp:406] ip2 <- ip1
I0420 00:43:04.708102  3688 net.cpp:380] ip2 -> ip2
I0420 00:43:04.708190  3688 net.cpp:122] Setting up ip2
I0420 00:43:04.708199  3688 net.cpp:129] Top shape: 96 2 (192)
I0420 00:43:04.708201  3688 net.cpp:137] Memory required for data: 21284736
I0420 00:43:04.708206  3688 layer_factory.hpp:77] Creating layer ip2_ip2_0_split
I0420 00:43:04.708216  3688 net.cpp:84] Creating Layer ip2_ip2_0_split
I0420 00:43:04.708220  3688 net.cpp:406] ip2_ip2_0_split <- ip2
I0420 00:43:04.708226  3688 net.cpp:380] ip2_ip2_0_split -> ip2_ip2_0_split_0
I0420 00:43:04.708232  3688 net.cpp:380] ip2_ip2_0_split -> ip2_ip2_0_split_1
I0420 00:43:04.708264  3688 net.cpp:122] Setting up ip2_ip2_0_split
I0420 00:43:04.708271  3688 net.cpp:129] Top shape: 96 2 (192)
I0420 00:43:04.708274  3688 net.cpp:129] Top shape: 96 2 (192)
I0420 00:43:04.708276  3688 net.cpp:137] Memory required for data: 21286272
I0420 00:43:04.708279  3688 layer_factory.hpp:77] Creating layer loss
I0420 00:43:04.708284  3688 net.cpp:84] Creating Layer loss
I0420 00:43:04.708288  3688 net.cpp:406] loss <- ip2_ip2_0_split_0
I0420 00:43:04.708292  3688 net.cpp:406] loss <- label_data_1_split_0
I0420 00:43:04.708300  3688 net.cpp:380] loss -> loss
…
I0420 00:43:04.708874  3688 net.cpp:294] The NetState phase (1) differed from the phase (0) specified by a rule in layer data
I0420 00:43:04.709002  3688 net.cpp:51] Initializing net from parameters: 
name: "simpleconv3"
state {
  phase: TEST
}
layer {
  name: "data"
  type: "ImageData"
  top: "data"
  top: "label"
  include {
    phase: TEST
  }
  transform_param {
    mirror: false
    crop_size: 48
    mean_value: 104.008
    mean_value: 116.669
    mean_value: 122.675
    min_side_min: 48
    min_side_max: 48
  }
  image_data_param {
    source: "val_shuffle.txt"
    batch_size: 16
    shuffle: false
  }
}
layer {
  name: "conv1"
  type: "Convolution"
  bottom: "data"
  top: "conv1"
  param {
    lr_mult: 1
    decay_mult: 1
  }
  param {
    lr_mult: 2
    decay_mult: 0
  }
  convolution_param {
    num_output: 12
    pad: 1
    kernel_size: 3
    stride: 2
    weight_filler {
      type: "xavier"
      std: 0.01
    }
    bias_filler {
      type: "constant"
      value: 0.2
    }
  }
}
layer {
  name: "conv1/bn"
  type: "BatchNorm"
  bottom: "conv1"
  top: "conv1"
  param {
    lr_mult: 0
    decay_mult: 0
  }
  param {
    lr_mult: 0
    decay_mult: 0
  }
  param {
    lr_mult: 0
    decay_mult: 0
  }
}
layer {
  name: "conv1/scale"
  type: "Scale"
  bottom: "conv1"
  top: "conv1"
  param {
    lr_mult: 1
    decay_mult: 0
  }
  param {
    lr_mult: 1
    decay_mult: 0
  }
  scale_param {
    filler {
      value: 1
    }
    bias_term: true
    bias_filler {
      value: 0
    }
  }
}
layer {
  name: "relu1"
  type: "ReLU"
  bottom: "conv1"
  top: "conv1"
}
layer {
  name: "conv2"
  type: "Convolution"
  bottom: "conv1"
  top: "conv2"
  param {
    lr_mult: 1
    decay_mult: 1
  }
  param {
    lr_mult: 2
    decay_mult: 0
  }
  convolution_param {
    num_output: 24
    pad: 1
    kernel_size: 3
    stride: 2
    weight_filler {
      type: "xavier"
      std: 0.1
    }
    bias_filler {
      type: "constant"
      value: 0.2
    }
  }
}
layer {
  name: "conv2/bn"
  type: "BatchNorm"
  bottom: "conv2"
  top: "conv2"
  param {
    lr_mult: 0
    decay_mult: 0
  }
  param {
    lr_mult: 0
    decay_mult: 0
  }
  param {
    lr_mult: 0
    decay_mult: 0
  }
}
layer {
  name: "conv2/scale"
  type: "Scale"
  bottom: "conv2"
  top: "conv2"
  param {
    lr_mult: 1
    decay_mult: 0
  }
  param {
    lr_mult: 1
    decay_mult: 0
  }
  scale_param {
    filler {
      value: 1
    }
    bias_term: true
    bias_filler {
      value: 0
    }
  }
}
layer {
  name: "relu2"
  type: "ReLU"
  bottom: "conv2"
  top: "conv2"
}
layer {
  name: "conv3"
  type: "Convolution"
  bottom: "conv2"
  top: "conv3"
  param {
    lr_mult: 1
    decay_mult: 1
  }
  param {
    lr_mult: 2
    decay_mult: 0
  }
  convolution_param {
    num_output: 48
    pad: 1
    kernel_size: 3
    stride: 2
    weight_filler {
      type: "xavier"
      std: 0.1
    }
    bias_filler {
      type: "constant"
      value: 0.2
    }
  }
}
layer {
  name: "conv3/bn"
  type: "BatchNorm"
  bottom: "conv3"
  top: "conv3"
  param {
    lr_mult: 0
    decay_mult: 0
  }
  param {
    lr_mult: 0
    decay_mult: 0
  }
  param {
    lr_mult: 0
    decay_mult: 0
  }
}
layer {
  name: "conv3/scale"
  type: "Scale"
  bottom: "conv3"
  top: "conv3"
  param {
    lr_mult: 1
    decay_mult: 0
  }
  param {
    lr_mult: 1
    decay_mult: 0
  }
  scale_param {
    filler {
      value: 1
    }
    bias_term: true
    bias_filler {
      value: 0
    }
  }
}
layer {
  name: "relu3"
  type: "ReLU"
  bottom: "conv3"
  top: "conv3"
}
layer {
  name: "ip1"
  type: "InnerProduct"
  bottom: "conv3"
  top: "ip1"
  param {
    lr_mult: 1
    decay_mult: 1
  }
  param {
    lr_mult: 2
    decay_mult: 0
  }
  inner_product_param {
    num_output: 128
    weight_filler {
      type: "xavier"
    }
    bias_filler {
      type: "constant"
      value: 0
    }
  }
}
layer {
  name: "ip2"
  type: "InnerProduct"
  bottom: "ip1"
  top: "ip2"
  param {
    lr_mult: 1
    decay_mult: 1
  }
  param {
    lr_mult: 2
    decay_mult: 1
  }
  inner_product_param {
    num_output: 2
    weight_filler {
      type: "xavier"
    }
    bias_filler {
      type: "constant"
      value: 0
    }
  }
}
layer {
  name: "loss"
  type: "SoftmaxWithLoss"
  bottom: "ip2"
  bottom: "label"
  top: "loss"
}
layer {
  name: "acc"
  type: "Accuracy"
  bottom: "ip2"
  bottom: "label"
  top: "acc"
}
I0420 00:43:04.709084  3688 layer_factory.hpp:77] Creating layer data
I0420 00:43:04.709098  3688 net.cpp:84] Creating Layer data
I0420 00:43:04.709103  3688 net.cpp:380] data -> data
I0420 00:43:04.709111  3688 net.cpp:380] data -> label
I0420 00:43:04.709118  3688 image_data_layer.cpp:43] Opening file val_shuffle.txt
I0420 00:43:04.709122  3688 io.cpp:296] Opening file val_shuffle.txt
I0420 00:43:04.709275  3688 io.cpp:321] Read 100 images with 1 labels
I0420 00:43:04.709282  3688 image_data_layer.cpp:71] A total of 100 images.
I0420 00:43:04.709466  3688 image_data_layer.cpp:98] output data size: 16,3,48,48
I0420 00:43:04.713623  3688 net.cpp:122] Setting up data
I0420 00:43:04.713639  3688 net.cpp:129] Top shape: 16 3 48 48 (110592)
I0420 00:43:04.713644  3688 net.cpp:129] Top shape: 16 1 1 1 (16)
I0420 00:43:04.713647  3688 net.cpp:137] Memory required for data: 442432
I0420 00:43:04.713651  3688 layer_factory.hpp:77] Creating layer label_data_1_split
I0420 00:43:04.713662  3688 net.cpp:84] Creating Layer label_data_1_split
I0420 00:43:04.713665  3688 net.cpp:406] label_data_1_split <- label
I0420 00:43:04.713672  3688 net.cpp:380] label_data_1_split -> label_data_1_split_0
I0420 00:43:04.713682  3688 net.cpp:380] label_data_1_split -> label_data_1_split_1
I0420 00:43:04.713743  3688 net.cpp:122] Setting up label_data_1_split
I0420 00:43:04.713750  3688 net.cpp:129] Top shape: 16 1 1 1 (16)
I0420 00:43:04.713755  3688 net.cpp:129] Top shape: 16 1 1 1 (16)
I0420 00:43:04.713757  3688 net.cpp:137] Memory required for data: 442560
I0420 00:43:04.713760  3688 layer_factory.hpp:77] Creating layer conv1
I0420 00:43:04.713773  3688 net.cpp:84] Creating Layer conv1
I0420 00:43:04.713778  3688 net.cpp:406] conv1 <- data
I0420 00:43:04.713783  3688 net.cpp:380] conv1 -> conv1
I0420 00:43:04.714011  3688 net.cpp:122] Setting up conv1
I0420 00:43:04.714020  3688 net.cpp:129] Top shape: 16 12 24 24 (110592)
I0420 00:43:04.714023  3688 net.cpp:137] Memory required for data: 884928
I0420 00:43:04.714033  3688 layer_factory.hpp:77] Creating layer conv1/bn
I0420 00:43:04.714045  3688 net.cpp:84] Creating Layer conv1/bn
I0420 00:43:04.714048  3688 net.cpp:406] conv1/bn <- conv1
I0420 00:43:04.714053  3688 net.cpp:367] conv1/bn -> conv1 (in-place)
I0420 00:43:04.714216  3688 net.cpp:122] Setting up conv1/bn
I0420 00:43:04.714224  3688 net.cpp:129] Top shape: 16 12 24 24 (110592)
I0420 00:43:04.714227  3688 net.cpp:137] Memory required for data: 1327296
I0420 00:43:04.714238  3688 layer_factory.hpp:77] Creating layer conv1/scale
I0420 00:43:04.714247  3688 net.cpp:84] Creating Layer conv1/scale
I0420 00:43:04.714251  3688 net.cpp:406] conv1/scale <- conv1
I0420 00:43:04.714257  3688 net.cpp:367] conv1/scale -> conv1 (in-place)
I0420 00:43:04.714293  3688 layer_factory.hpp:77] Creating layer conv1/scale
I0420 00:43:04.714411  3688 net.cpp:122] Setting up conv1/scale
I0420 00:43:04.714419  3688 net.cpp:129] Top shape: 16 12 24 24 (110592)
I0420 00:43:04.714422  3688 net.cpp:137] Memory required for data: 1769664
I0420 00:43:04.714428  3688 layer_factory.hpp:77] Creating layer relu1
I0420 00:43:04.714433  3688 net.cpp:84] Creating Layer relu1
I0420 00:43:04.714437  3688 net.cpp:406] relu1 <- conv1
I0420 00:43:04.714442  3688 net.cpp:367] relu1 -> conv1 (in-place)
I0420 00:43:04.714447  3688 net.cpp:122] Setting up relu1
I0420 00:43:04.714452  3688 net.cpp:129] Top shape: 16 12 24 24 (110592)
I0420 00:43:04.714462  3688 net.cpp:137] Memory required for data: 2212032
I0420 00:43:04.714465  3688 layer_factory.hpp:77] Creating layer conv2
I0420 00:43:04.714475  3688 net.cpp:84] Creating Layer conv2
I0420 00:43:04.714480  3688 net.cpp:406] conv2 <- conv1
I0420 00:43:04.714485  3688 net.cpp:380] conv2 -> conv2
I0420 00:43:04.714869  3688 net.cpp:122] Setting up conv2
I0420 00:43:04.714877  3688 net.cpp:129] Top shape: 16 24 12 12 (55296)
I0420 00:43:04.714880  3688 net.cpp:137] Memory required for data: 2433216
I0420 00:43:04.714890  3688 layer_factory.hpp:77] Creating layer conv2/bn
I0420 00:43:04.714896  3688 net.cpp:84] Creating Layer conv2/bn
I0420 00:43:04.714906  3688 net.cpp:406] conv2/bn <- conv2
I0420 00:43:04.714913  3688 net.cpp:367] conv2/bn -> conv2 (in-place)
I0420 00:43:04.715075  3688 net.cpp:122] Setting up conv2/bn
I0420 00:43:04.715082  3688 net.cpp:129] Top shape: 16 24 12 12 (55296)
I0420 00:43:04.715086  3688 net.cpp:137] Memory required for data: 2654400
I0420 00:43:04.715092  3688 layer_factory.hpp:77] Creating layer conv2/scale
I0420 00:43:04.715101  3688 net.cpp:84] Creating Layer conv2/scale
I0420 00:43:04.715106  3688 net.cpp:406] conv2/scale <- conv2
I0420 00:43:04.715111  3688 net.cpp:367] conv2/scale -> conv2 (in-place)
I0420 00:43:04.715142  3688 layer_factory.hpp:77] Creating layer conv2/scale
I0420 00:43:04.715241  3688 net.cpp:122] Setting up conv2/scale
I0420 00:43:04.715250  3688 net.cpp:129] Top shape: 16 24 12 12 (55296)
I0420 00:43:04.715252  3688 net.cpp:137] Memory required for data: 2875584
I0420 00:43:04.715257  3688 layer_factory.hpp:77] Creating layer relu2
I0420 00:43:04.715262  3688 net.cpp:84] Creating Layer relu2
I0420 00:43:04.715265  3688 net.cpp:406] relu2 <- conv2
I0420 00:43:04.715271  3688 net.cpp:367] relu2 -> conv2 (in-place)
I0420 00:43:04.715276  3688 net.cpp:122] Setting up relu2
I0420 00:43:04.715281  3688 net.cpp:129] Top shape: 16 24 12 12 (55296)
I0420 00:43:04.715283  3688 net.cpp:137] Memory required for data: 3096768
I0420 00:43:04.715286  3688 layer_factory.hpp:77] Creating layer conv3
I0420 00:43:04.715294  3688 net.cpp:84] Creating Layer conv3
I0420 00:43:04.715298  3688 net.cpp:406] conv3 <- conv2
I0420 00:43:04.715304  3688 net.cpp:380] conv3 -> conv3
I0420 00:43:04.715560  3688 net.cpp:122] Setting up conv3
I0420 00:43:04.715569  3688 net.cpp:129] Top shape: 16 48 6 6 (27648)
I0420 00:43:04.715571  3688 net.cpp:137] Memory required for data: 3207360
I0420 00:43:04.715577  3688 layer_factory.hpp:77] Creating layer conv3/bn
I0420 00:43:04.715584  3688 net.cpp:84] Creating Layer conv3/bn
I0420 00:43:04.715587  3688 net.cpp:406] conv3/bn <- conv3
I0420 00:43:04.715593  3688 net.cpp:367] conv3/bn -> conv3 (in-place)
I0420 00:43:04.715756  3688 net.cpp:122] Setting up conv3/bn
I0420 00:43:04.715764  3688 net.cpp:129] Top shape: 16 48 6 6 (27648)
I0420 00:43:04.715766  3688 net.cpp:137] Memory required for data: 3317952
I0420 00:43:04.715775  3688 layer_factory.hpp:77] Creating layer conv3/scale
I0420 00:43:04.715782  3688 net.cpp:84] Creating Layer conv3/scale
I0420 00:43:04.715787  3688 net.cpp:406] conv3/scale <- conv3
I0420 00:43:04.715793  3688 net.cpp:367] conv3/scale -> conv3 (in-place)
I0420 00:43:04.715826  3688 layer_factory.hpp:77] Creating layer conv3/scale
I0420 00:43:04.715921  3688 net.cpp:122] Setting up conv3/scale
I0420 00:43:04.715927  3688 net.cpp:129] Top shape: 16 48 6 6 (27648)
I0420 00:43:04.715930  3688 net.cpp:137] Memory required for data: 3428544
I0420 00:43:04.715943  3688 layer_factory.hpp:77] Creating layer relu3
I0420 00:43:04.715948  3688 net.cpp:84] Creating Layer relu3
I0420 00:43:04.715952  3688 net.cpp:406] relu3 <- conv3
I0420 00:43:04.715957  3688 net.cpp:367] relu3 -> conv3 (in-place)
I0420 00:43:04.715962  3688 net.cpp:122] Setting up relu3
I0420 00:43:04.715967  3688 net.cpp:129] Top shape: 16 48 6 6 (27648)
I0420 00:43:04.715970  3688 net.cpp:137] Memory required for data: 3539136
I0420 00:43:04.715972  3688 layer_factory.hpp:77] Creating layer ip1
I0420 00:43:04.715979  3688 net.cpp:84] Creating Layer ip1
I0420 00:43:04.715982  3688 net.cpp:406] ip1 <- conv3
I0420 00:43:04.715987  3688 net.cpp:380] ip1 -> ip1
I0420 00:43:04.718297  3688 net.cpp:122] Setting up ip1
I0420 00:43:04.718312  3688 net.cpp:129] Top shape: 16 128 (2048)
I0420 00:43:04.718314  3688 net.cpp:137] Memory required for data: 3547328
I0420 00:43:04.718322  3688 layer_factory.hpp:77] Creating layer ip2
I0420 00:43:04.718331  3688 net.cpp:84] Creating Layer ip2
I0420 00:43:04.718338  3688 net.cpp:406] ip2 <- ip1
I0420 00:43:04.718345  3688 net.cpp:380] ip2 -> ip2
I0420 00:43:04.718436  3688 net.cpp:122] Setting up ip2
I0420 00:43:04.718444  3688 net.cpp:129] Top shape: 16 2 (32)
I0420 00:43:04.718447  3688 net.cpp:137] Memory required for data: 3547456
I0420 00:43:04.718452  3688 layer_factory.hpp:77] Creating layer ip2_ip2_0_split
I0420 00:43:04.718461  3688 net.cpp:84] Creating Layer ip2_ip2_0_split
I0420 00:43:04.718464  3688 net.cpp:406] ip2_ip2_0_split <- ip2
I0420 00:43:04.718469  3688 net.cpp:380] ip2_ip2_0_split -> ip2_ip2_0_split_0
I0420 00:43:04.718475  3688 net.cpp:380] ip2_ip2_0_split -> ip2_ip2_0_split_1
I0420 00:43:04.718506  3688 net.cpp:122] Setting up ip2_ip2_0_split
I0420 00:43:04.718511  3688 net.cpp:129] Top shape: 16 2 (32)
I0420 00:43:04.718515  3688 net.cpp:129] Top shape: 16 2 (32)
I0420 00:43:04.718518  3688 net.cpp:137] Memory required for data: 3547712
I0420 00:43:04.718520  3688 layer_factory.hpp:77] Creating layer loss
I0420 00:43:04.718526  3688 net.cpp:84] Creating Layer loss
I0420 00:43:04.718530  3688 net.cpp:406] loss <- ip2_ip2_0_split_0
I0420 00:43:04.718534  3688 net.cpp:406] loss <- label_data_1_split_0
I0420 00:43:04.718539  3688 net.cpp:380] loss -> loss
…
