…
I0626 16:31:22.173636  8977 net.cpp:296] The NetState phase (0) differed from the phase (1) specified by a rule in layer data
I0626 16:31:22.173844  8977 net.cpp:53] Initializing net from parameters: 
name: "simpleconv3"
state {
  phase: TRAIN
  level: 0
  stage: ""
}
layer {
  name: "data"
  type: "ImageData"
  top: "data"
  top: "label"
  include {
    phase: TRAIN
  }
  transform_param {
    mirror: true
    crop_size: 48
    mean_value: 104.008
    mean_value: 116.669
    mean_value: 122.675
  }
  image_data_param {
    source: "train_shuffle.txt"
    batch_size: 96
    shuffle: true
  }
}
layer {
  name: "conv1"
  type: "Convolution"
  bottom: "data"
  top: "conv1"
  param {
    lr_mult: 1
    decay_mult: 1
  }
  param {
    lr_mult: 2
    decay_mult: 0
  }
  convolution_param {
    num_output: 12
    pad: 1
    kernel_size: 3
    stride: 2
    weight_filler {
      type: "xavier"
      std: 0.01
    }
    bias_filler {
      type: "constant"
      value: 0.2
    }
  }
}
layer {
  name: "conv1/bn"
  type: "BatchNorm"
  bottom: "conv1"
  top: "conv1"
  param {
    lr_mult: 0
    decay_mult: 0
  }
  param {
    lr_mult: 0
    decay_mult: 0
  }
  param {
    lr_mult: 0
    decay_mult: 0
  }
}
layer {
  name: "conv1/scale"
  type: "Scale"
  bottom: "conv1"
  top: "conv1"
  param {
    lr_mult: 1
    decay_mult: 0
  }
  param {
    lr_mult: 1
    decay_mult: 0
  }
  scale_param {
    filler {
      value: 1
    }
    bias_term: true
    bias_filler {
      value: 0
    }
  }
}
layer {
  name: "relu1"
  type: "ReLU"
  bottom: "conv1"
  top: "conv1"
}
layer {
  name: "conv2"
  type: "Convolution"
  bottom: "conv1"
  top: "conv2"
  param {
    lr_mult: 1
    decay_mult: 1
  }
  param {
    lr_mult: 2
    decay_mult: 0
  }
  convolution_param {
    num_output: 24
    pad: 1
    kernel_size: 3
    stride: 2
    weight_filler {
      type: "xavier"
      std: 0.1
    }
    bias_filler {
      type: "constant"
      value: 0.2
    }
  }
}
layer {
  name: "conv2/bn"
  type: "BatchNorm"
  bottom: "conv2"
  top: "conv2"
  param {
    lr_mult: 0
    decay_mult: 0
  }
  param {
    lr_mult: 0
    decay_mult: 0
  }
  param {
    lr_mult: 0
    decay_mult: 0
  }
}
layer {
  name: "conv2/scale"
  type: "Scale"
  bottom: "conv2"
  top: "conv2"
  param {
    lr_mult: 1
    decay_mult: 0
  }
  param {
    lr_mult: 1
    decay_mult: 0
  }
  scale_param {
    filler {
      value: 1
    }
    bias_term: true
    bias_filler {
      value: 0
    }
  }
}
layer {
  name: "relu2"
  type: "ReLU"
  bottom: "conv2"
  top: "conv2"
}
layer {
  name: "conv3"
  type: "Convolution"
  bottom: "conv2"
  top: "conv3"
  param {
    lr_mult: 1
    decay_mult: 1
  }
  param {
    lr_mult: 2
    decay_mult: 0
  }
  convolution_param {
    num_output: 48
    pad: 1
    kernel_size: 3
    stride: 2
    weight_filler {
      type: "xavier"
      std: 0.1
    }
    bias_filler {
      type: "constant"
      value: 0.2
    }
  }
}
layer {
  name: "conv3/bn"
  type: "BatchNorm"
  bottom: "conv3"
  top: "conv3"
  param {
    lr_mult: 0
    decay_mult: 0
  }
  param {
    lr_mult: 0
    decay_mult: 0
  }
  param {
    lr_mult: 0
    decay_mult: 0
  }
}
layer {
  name: "conv3/scale"
  type: "Scale"
  bottom: "conv3"
  top: "conv3"
  param {
    lr_mult: 1
    decay_mult: 0
  }
  param {
    lr_mult: 1
    decay_mult: 0
  }
  scale_param {
    filler {
      value: 1
    }
    bias_term: true
    bias_filler {
      value: 0
    }
  }
}
layer {
  name: "relu3"
  type: "ReLU"
  bottom: "conv3"
  top: "conv3"
}
layer {
  name: "ip1"
  type: "InnerProduct"
  bottom: "conv3"
  top: "ip1"
  param {
    lr_mult: 1
    decay_mult: 1
  }
  param {
    lr_mult: 2
    decay_mult: 0
  }
  inner_product_param {
    num_output: 128
    weight_filler {
      type: "xavier"
    }
    bias_filler {
      type: "constant"
      value: 0
    }
  }
}
layer {
  name: "ip2"
  type: "InnerProduct"
  bottom: "ip1"
  top: "ip2"
  param {
    lr_mult: 1
    decay_mult: 1
  }
  param {
    lr_mult: 2
    decay_mult: 1
  }
  inner_product_param {
    num_output: 2
    weight_filler {
      type: "xavier"
    }
    bias_filler {
      type: "constant"
      value: 0
    }
  }
}
layer {
  name: "loss"
  type: "SoftmaxWithLoss"
  bottom: "ip2"
  bottom: "label"
  top: "loss"
}
layer {
  name: "acc"
  type: "Accuracy"
  bottom: "ip2"
  bottom: "label"
  top: "acc"
}
I0626 16:31:22.173974  8977 layer_factory.hpp:77] Creating layer data
I0626 16:31:22.174018  8977 net.cpp:86] Creating Layer data
I0626 16:31:22.174027  8977 net.cpp:382] data -> data
I0626 16:31:22.174057  8977 net.cpp:382] data -> label
I0626 16:31:22.174144  8977 image_data_layer.cpp:38] Opening file train_shuffle.txt
I0626 16:31:22.174590  8977 image_data_layer.cpp:53] Shuffling data
I0626 16:31:22.174768  8977 image_data_layer.cpp:63] A total of 900 images.
I0626 16:31:22.175943  8977 image_data_layer.cpp:90] output data size: 96,3,48,48
I0626 16:31:22.183081  8977 net.cpp:124] Setting up data
I0626 16:31:22.183113  8977 net.cpp:131] Top shape: 96 3 48 48 (663552)
I0626 16:31:22.183120  8977 net.cpp:131] Top shape: 96 (96)
I0626 16:31:22.183125  8977 net.cpp:139] Memory required for data: 2654592
I0626 16:31:22.183141  8977 layer_factory.hpp:77] Creating layer label_data_1_split
I0626 16:31:22.183156  8977 net.cpp:86] Creating Layer label_data_1_split
I0626 16:31:22.183163  8977 net.cpp:408] label_data_1_split <- label
I0626 16:31:22.183202  8977 net.cpp:382] label_data_1_split -> label_data_1_split_0
I0626 16:31:22.183218  8977 net.cpp:382] label_data_1_split -> label_data_1_split_1
I0626 16:31:22.183310  8977 net.cpp:124] Setting up label_data_1_split
I0626 16:31:22.183326  8977 net.cpp:131] Top shape: 96 (96)
I0626 16:31:22.183331  8977 net.cpp:131] Top shape: 96 (96)
I0626 16:31:22.183336  8977 net.cpp:139] Memory required for data: 2655360
I0626 16:31:22.183339  8977 layer_factory.hpp:77] Creating layer conv1
I0626 16:31:22.183377  8977 net.cpp:86] Creating Layer conv1
I0626 16:31:22.183384  8977 net.cpp:408] conv1 <- data
I0626 16:31:22.183393  8977 net.cpp:382] conv1 -> conv1
I0626 16:31:22.796633  8977 net.cpp:124] Setting up conv1
I0626 16:31:22.796675  8977 net.cpp:131] Top shape: 96 12 24 24 (663552)
I0626 16:31:22.796680  8977 net.cpp:139] Memory required for data: 5309568
I0626 16:31:22.796702  8977 layer_factory.hpp:77] Creating layer conv1/bn
I0626 16:31:22.796715  8977 net.cpp:86] Creating Layer conv1/bn
I0626 16:31:22.796730  8977 net.cpp:408] conv1/bn <- conv1
I0626 16:31:22.796738  8977 net.cpp:369] conv1/bn -> conv1 (in-place)
I0626 16:31:22.796968  8977 net.cpp:124] Setting up conv1/bn
I0626 16:31:22.796978  8977 net.cpp:131] Top shape: 96 12 24 24 (663552)
I0626 16:31:22.796983  8977 net.cpp:139] Memory required for data: 7963776
I0626 16:31:22.797003  8977 layer_factory.hpp:77] Creating layer conv1/scale
I0626 16:31:22.797013  8977 net.cpp:86] Creating Layer conv1/scale
I0626 16:31:22.797017  8977 net.cpp:408] conv1/scale <- conv1
I0626 16:31:22.797032  8977 net.cpp:369] conv1/scale -> conv1 (in-place)
I0626 16:31:22.797107  8977 layer_factory.hpp:77] Creating layer conv1/scale
I0626 16:31:22.797289  8977 net.cpp:124] Setting up conv1/scale
I0626 16:31:22.797299  8977 net.cpp:131] Top shape: 96 12 24 24 (663552)
I0626 16:31:22.797303  8977 net.cpp:139] Memory required for data: 10617984
I0626 16:31:22.797318  8977 layer_factory.hpp:77] Creating layer relu1
I0626 16:31:22.797325  8977 net.cpp:86] Creating Layer relu1
I0626 16:31:22.797358  8977 net.cpp:408] relu1 <- conv1
I0626 16:31:22.797364  8977 net.cpp:369] relu1 -> conv1 (in-place)
I0626 16:31:22.797823  8977 net.cpp:124] Setting up relu1
I0626 16:31:22.797834  8977 net.cpp:131] Top shape: 96 12 24 24 (663552)
I0626 16:31:22.797838  8977 net.cpp:139] Memory required for data: 13272192
I0626 16:31:22.797850  8977 layer_factory.hpp:77] Creating layer conv2
I0626 16:31:22.797863  8977 net.cpp:86] Creating Layer conv2
I0626 16:31:22.797868  8977 net.cpp:408] conv2 <- conv1
I0626 16:31:22.797874  8977 net.cpp:382] conv2 -> conv2
I0626 16:31:22.801156  8977 net.cpp:124] Setting up conv2
I0626 16:31:22.801174  8977 net.cpp:131] Top shape: 96 24 12 12 (331776)
I0626 16:31:22.801179  8977 net.cpp:139] Memory required for data: 14599296
I0626 16:31:22.801198  8977 layer_factory.hpp:77] Creating layer conv2/bn
I0626 16:31:22.801209  8977 net.cpp:86] Creating Layer conv2/bn
I0626 16:31:22.801214  8977 net.cpp:408] conv2/bn <- conv2
I0626 16:31:22.801223  8977 net.cpp:369] conv2/bn -> conv2 (in-place)
I0626 16:31:22.801410  8977 net.cpp:124] Setting up conv2/bn
I0626 16:31:22.801419  8977 net.cpp:131] Top shape: 96 24 12 12 (331776)
I0626 16:31:22.801424  8977 net.cpp:139] Memory required for data: 15926400
I0626 16:31:22.801434  8977 layer_factory.hpp:77] Creating layer conv2/scale
I0626 16:31:22.801445  8977 net.cpp:86] Creating Layer conv2/scale
I0626 16:31:22.801450  8977 net.cpp:408] conv2/scale <- conv2
I0626 16:31:22.801455  8977 net.cpp:369] conv2/scale -> conv2 (in-place)
I0626 16:31:22.801499  8977 layer_factory.hpp:77] Creating layer conv2/scale
I0626 16:31:22.801616  8977 net.cpp:124] Setting up conv2/scale
I0626 16:31:22.801626  8977 net.cpp:131] Top shape: 96 24 12 12 (331776)
I0626 16:31:22.801631  8977 net.cpp:139] Memory required for data: 17253504
I0626 16:31:22.801638  8977 layer_factory.hpp:77] Creating layer relu2
I0626 16:31:22.801645  8977 net.cpp:86] Creating Layer relu2
I0626 16:31:22.801650  8977 net.cpp:408] relu2 <- conv2
I0626 16:31:22.801656  8977 net.cpp:369] relu2 -> conv2 (in-place)
I0626 16:31:22.802197  8977 net.cpp:124] Setting up relu2
I0626 16:31:22.802209  8977 net.cpp:131] Top shape: 96 24 12 12 (331776)
I0626 16:31:22.802213  8977 net.cpp:139] Memory required for data: 18580608
I0626 16:31:22.802225  8977 layer_factory.hpp:77] Creating layer conv3
I0626 16:31:22.802237  8977 net.cpp:86] Creating Layer conv3
I0626 16:31:22.802242  8977 net.cpp:408] conv3 <- conv2
I0626 16:31:22.802251  8977 net.cpp:382] conv3 -> conv3
I0626 16:31:22.805354  8977 net.cpp:124] Setting up conv3
I0626 16:31:22.805372  8977 net.cpp:131] Top shape: 96 48 6 6 (165888)
I0626 16:31:22.805377  8977 net.cpp:139] Memory required for data: 19244160
I0626 16:31:22.805385  8977 layer_factory.hpp:77] Creating layer conv3/bn
I0626 16:31:22.805393  8977 net.cpp:86] Creating Layer conv3/bn
I0626 16:31:22.805398  8977 net.cpp:408] conv3/bn <- conv3
I0626 16:31:22.805408  8977 net.cpp:369] conv3/bn -> conv3 (in-place)
I0626 16:31:22.805591  8977 net.cpp:124] Setting up conv3/bn
I0626 16:31:22.805601  8977 net.cpp:131] Top shape: 96 48 6 6 (165888)
I0626 16:31:22.805605  8977 net.cpp:139] Memory required for data: 19907712
I0626 16:31:22.805619  8977 layer_factory.hpp:77] Creating layer conv3/scale
I0626 16:31:22.805627  8977 net.cpp:86] Creating Layer conv3/scale
I0626 16:31:22.805632  8977 net.cpp:408] conv3/scale <- conv3
I0626 16:31:22.805640  8977 net.cpp:369] conv3/scale -> conv3 (in-place)
I0626 16:31:22.805682  8977 layer_factory.hpp:77] Creating layer conv3/scale
I0626 16:31:22.805797  8977 net.cpp:124] Setting up conv3/scale
I0626 16:31:22.805807  8977 net.cpp:131] Top shape: 96 48 6 6 (165888)
I0626 16:31:22.805811  8977 net.cpp:139] Memory required for data: 20571264
I0626 16:31:22.805819  8977 layer_factory.hpp:77] Creating layer relu3
I0626 16:31:22.805825  8977 net.cpp:86] Creating Layer relu3
I0626 16:31:22.805830  8977 net.cpp:408] relu3 <- conv3
I0626 16:31:22.805837  8977 net.cpp:369] relu3 -> conv3 (in-place)
I0626 16:31:22.806685  8977 net.cpp:124] Setting up relu3
I0626 16:31:22.806711  8977 net.cpp:131] Top shape: 96 48 6 6 (165888)
I0626 16:31:22.806717  8977 net.cpp:139] Memory required for data: 21234816
I0626 16:31:22.806721  8977 layer_factory.hpp:77] Creating layer ip1
I0626 16:31:22.806730  8977 net.cpp:86] Creating Layer ip1
I0626 16:31:22.806735  8977 net.cpp:408] ip1 <- conv3
I0626 16:31:22.806743  8977 net.cpp:382] ip1 -> ip1
I0626 16:31:22.808917  8977 net.cpp:124] Setting up ip1
I0626 16:31:22.808933  8977 net.cpp:131] Top shape: 96 128 (12288)
I0626 16:31:22.808946  8977 net.cpp:139] Memory required for data: 21283968
I0626 16:31:22.808956  8977 layer_factory.hpp:77] Creating layer ip2
I0626 16:31:22.808964  8977 net.cpp:86] Creating Layer ip2
I0626 16:31:22.808969  8977 net.cpp:408] ip2 <- ip1
I0626 16:31:22.808979  8977 net.cpp:382] ip2 -> ip2
I0626 16:31:22.809119  8977 net.cpp:124] Setting up ip2
I0626 16:31:22.809134  8977 net.cpp:131] Top shape: 96 2 (192)
I0626 16:31:22.809141  8977 net.cpp:139] Memory required for data: 21284736
I0626 16:31:22.809154  8977 layer_factory.hpp:77] Creating layer ip2_ip2_0_split
I0626 16:31:22.809180  8977 net.cpp:86] Creating Layer ip2_ip2_0_split
I0626 16:31:22.809198  8977 net.cpp:408] ip2_ip2_0_split <- ip2
I0626 16:31:22.809211  8977 net.cpp:382] ip2_ip2_0_split -> ip2_ip2_0_split_0
I0626 16:31:22.809229  8977 net.cpp:382] ip2_ip2_0_split -> ip2_ip2_0_split_1
I0626 16:31:22.809286  8977 net.cpp:124] Setting up ip2_ip2_0_split
I0626 16:31:22.809296  8977 net.cpp:131] Top shape: 96 2 (192)
I0626 16:31:22.809309  8977 net.cpp:131] Top shape: 96 2 (192)
I0626 16:31:22.809314  8977 net.cpp:139] Memory required for data: 21286272
I0626 16:31:22.809319  8977 layer_factory.hpp:77] Creating layer loss
I0626 16:31:22.809334  8977 net.cpp:86] Creating Layer loss
I0626 16:31:22.809339  8977 net.cpp:408] loss <- ip2_ip2_0_split_0
I0626 16:31:22.809345  8977 net.cpp:408] loss <- label_data_1_split_0
I0626 16:31:22.809361  8977 net.cpp:382] loss -> loss
…
I0626 16:31:22.810732  8977 net.cpp:296] The NetState phase (1) differed from the phase (0) specified by a rule in layer data
I0626 16:31:22.810894  8977 net.cpp:53] Initializing net from parameters: 
name: "simpleconv3"
state {
  phase: TEST
}
layer {
  name: "data"
  type: "ImageData"
  top: "data"
  top: "label"
  include {
    phase: TEST
  }
  transform_param {
    mirror: false
    crop_size: 48
    mean_value: 104.008
    mean_value: 116.669
    mean_value: 122.675
  }
  image_data_param {
    source: "val_shuffle.txt"
    batch_size: 16
    shuffle: false
  }
}
layer {
  name: "conv1"
  type: "Convolution"
  bottom: "data"
  top: "conv1"
  param {
    lr_mult: 1
    decay_mult: 1
  }
  param {
    lr_mult: 2
    decay_mult: 0
  }
  convolution_param {
    num_output: 12
    pad: 1
    kernel_size: 3
    stride: 2
    weight_filler {
      type: "xavier"
      std: 0.01
    }
    bias_filler {
      type: "constant"
      value: 0.2
    }
  }
}
layer {
  name: "conv1/bn"
  type: "BatchNorm"
  bottom: "conv1"
  top: "conv1"
  param {
    lr_mult: 0
    decay_mult: 0
  }
  param {
    lr_mult: 0
    decay_mult: 0
  }
  param {
    lr_mult: 0
    decay_mult: 0
  }
}
layer {
  name: "conv1/scale"
  type: "Scale"
  bottom: "conv1"
  top: "conv1"
  param {
    lr_mult: 1
    decay_mult: 0
  }
  param {
    lr_mult: 1
    decay_mult: 0
  }
  scale_param {
    filler {
      value: 1
    }
    bias_term: true
    bias_filler {
      value: 0
    }
  }
}
layer {
  name: "relu1"
  type: "ReLU"
  bottom: "conv1"
  top: "conv1"
}
layer {
  name: "conv2"
  type: "Convolution"
  bottom: "conv1"
  top: "conv2"
  param {
    lr_mult: 1
    decay_mult: 1
  }
  param {
    lr_mult: 2
    decay_mult: 0
  }
  convolution_param {
    num_output: 24
    pad: 1
    kernel_size: 3
    stride: 2
    weight_filler {
      type: "xavier"
      std: 0.1
    }
    bias_filler {
      type: "constant"
      value: 0.2
    }
  }
}
layer {
  name: "conv2/bn"
  type: "BatchNorm"
  bottom: "conv2"
  top: "conv2"
  param {
    lr_mult: 0
    decay_mult: 0
  }
  param {
    lr_mult: 0
    decay_mult: 0
  }
  param {
    lr_mult: 0
    decay_mult: 0
  }
}
layer {
  name: "conv2/scale"
  type: "Scale"
  bottom: "conv2"
  top: "conv2"
  param {
    lr_mult: 1
    decay_mult: 0
  }
  param {
    lr_mult: 1
    decay_mult: 0
  }
  scale_param {
    filler {
      value: 1
    }
    bias_term: true
    bias_filler {
      value: 0
    }
  }
}
layer {
  name: "relu2"
  type: "ReLU"
  bottom: "conv2"
  top: "conv2"
}
layer {
  name: "conv3"
  type: "Convolution"
  bottom: "conv2"
  top: "conv3"
  param {
    lr_mult: 1
    decay_mult: 1
  }
  param {
    lr_mult: 2
    decay_mult: 0
  }
  convolution_param {
    num_output: 48
    pad: 1
    kernel_size: 3
    stride: 2
    weight_filler {
      type: "xavier"
      std: 0.1
    }
    bias_filler {
      type: "constant"
      value: 0.2
    }
  }
}
layer {
  name: "conv3/bn"
  type: "BatchNorm"
  bottom: "conv3"
  top: "conv3"
  param {
    lr_mult: 0
    decay_mult: 0
  }
  param {
    lr_mult: 0
    decay_mult: 0
  }
  param {
    lr_mult: 0
    decay_mult: 0
  }
}
layer {
  name: "conv3/scale"
  type: "Scale"
  bottom: "conv3"
  top: "conv3"
  param {
    lr_mult: 1
    decay_mult: 0
  }
  param {
    lr_mult: 1
    decay_mult: 0
  }
  scale_param {
    filler {
      value: 1
    }
    bias_term: true
    bias_filler {
      value: 0
    }
  }
}
layer {
  name: "relu3"
  type: "ReLU"
  bottom: "conv3"
  top: "conv3"
}
layer {
  name: "ip1"
  type: "InnerProduct"
  bottom: "conv3"
  top: "ip1"
  param {
    lr_mult: 1
    decay_mult: 1
  }
  param {
    lr_mult: 2
    decay_mult: 0
  }
  inner_product_param {
    num_output: 128
    weight_filler {
      type: "xavier"
    }
    bias_filler {
      type: "constant"
      value: 0
    }
  }
}
layer {
  name: "ip2"
  type: "InnerProduct"
  bottom: "ip1"
  top: "ip2"
  param {
    lr_mult: 1
    decay_mult: 1
  }
  param {
    lr_mult: 2
    decay_mult: 1
  }
  inner_product_param {
    num_output: 2
    weight_filler {
      type: "xavier"
    }
    bias_filler {
      type: "constant"
      value: 0
    }
  }
}
layer {
  name: "loss"
  type: "SoftmaxWithLoss"
  bottom: "ip2"
  bottom: "label"
  top: "loss"
}
layer {
  name: "acc"
  type: "Accuracy"
  bottom: "ip2"
  bottom: "label"
  top: "acc"
}
I0626 16:31:22.811017  8977 layer_factory.hpp:77] Creating layer data
I0626 16:31:22.811038  8977 net.cpp:86] Creating Layer data
I0626 16:31:22.811048  8977 net.cpp:382] data -> data
I0626 16:31:22.811064  8977 net.cpp:382] data -> label
I0626 16:31:22.811079  8977 image_data_layer.cpp:38] Opening file val_shuffle.txt
I0626 16:31:22.811157  8977 image_data_layer.cpp:63] A total of 100 images.
I0626 16:31:22.811370  8977 image_data_layer.cpp:90] output data size: 16,3,48,48
I0626 16:31:22.813060  8977 net.cpp:124] Setting up data
I0626 16:31:22.813081  8977 net.cpp:131] Top shape: 16 3 48 48 (110592)
I0626 16:31:22.813087  8977 net.cpp:131] Top shape: 16 (16)
I0626 16:31:22.813091  8977 net.cpp:139] Memory required for data: 442432
I0626 16:31:22.813097  8977 layer_factory.hpp:77] Creating layer label_data_1_split
I0626 16:31:22.813108  8977 net.cpp:86] Creating Layer label_data_1_split
I0626 16:31:22.813113  8977 net.cpp:408] label_data_1_split <- label
I0626 16:31:22.813125  8977 net.cpp:382] label_data_1_split -> label_data_1_split_0
I0626 16:31:22.813138  8977 net.cpp:382] label_data_1_split -> label_data_1_split_1
I0626 16:31:22.813215  8977 net.cpp:124] Setting up label_data_1_split
I0626 16:31:22.813225  8977 net.cpp:131] Top shape: 16 (16)
I0626 16:31:22.813231  8977 net.cpp:131] Top shape: 16 (16)
I0626 16:31:22.813235  8977 net.cpp:139] Memory required for data: 442560
I0626 16:31:22.813239  8977 layer_factory.hpp:77] Creating layer conv1
I0626 16:31:22.813256  8977 net.cpp:86] Creating Layer conv1
I0626 16:31:22.813261  8977 net.cpp:408] conv1 <- data
I0626 16:31:22.813272  8977 net.cpp:382] conv1 -> conv1
I0626 16:31:22.816107  8977 net.cpp:124] Setting up conv1
I0626 16:31:22.816129  8977 net.cpp:131] Top shape: 16 12 24 24 (110592)
I0626 16:31:22.816135  8977 net.cpp:139] Memory required for data: 884928
I0626 16:31:22.816152  8977 layer_factory.hpp:77] Creating layer conv1/bn
I0626 16:31:22.816166  8977 net.cpp:86] Creating Layer conv1/bn
I0626 16:31:22.816174  8977 net.cpp:408] conv1/bn <- conv1
I0626 16:31:22.816186  8977 net.cpp:369] conv1/bn -> conv1 (in-place)
I0626 16:31:22.816399  8977 net.cpp:124] Setting up conv1/bn
I0626 16:31:22.816417  8977 net.cpp:131] Top shape: 16 12 24 24 (110592)
I0626 16:31:22.816422  8977 net.cpp:139] Memory required for data: 1327296
I0626 16:31:22.816435  8977 layer_factory.hpp:77] Creating layer conv1/scale
I0626 16:31:22.816449  8977 net.cpp:86] Creating Layer conv1/scale
I0626 16:31:22.816457  8977 net.cpp:408] conv1/scale <- conv1
I0626 16:31:22.816468  8977 net.cpp:369] conv1/scale -> conv1 (in-place)
I0626 16:31:22.816527  8977 layer_factory.hpp:77] Creating layer conv1/scale
I0626 16:31:22.816675  8977 net.cpp:124] Setting up conv1/scale
I0626 16:31:22.816685  8977 net.cpp:131] Top shape: 16 12 24 24 (110592)
I0626 16:31:22.816691  8977 net.cpp:139] Memory required for data: 1769664
I0626 16:31:22.816707  8977 layer_factory.hpp:77] Creating layer relu1
I0626 16:31:22.816715  8977 net.cpp:86] Creating Layer relu1
I0626 16:31:22.816720  8977 net.cpp:408] relu1 <- conv1
I0626 16:31:22.816745  8977 net.cpp:369] relu1 -> conv1 (in-place)
I0626 16:31:22.817317  8977 net.cpp:124] Setting up relu1
I0626 16:31:22.817328  8977 net.cpp:131] Top shape: 16 12 24 24 (110592)
I0626 16:31:22.817333  8977 net.cpp:139] Memory required for data: 2212032
I0626 16:31:22.817346  8977 layer_factory.hpp:77] Creating layer conv2
I0626 16:31:22.817358  8977 net.cpp:86] Creating Layer conv2
I0626 16:31:22.817364  8977 net.cpp:408] conv2 <- conv1
I0626 16:31:22.817378  8977 net.cpp:382] conv2 -> conv2
I0626 16:31:22.819769  8977 net.cpp:124] Setting up conv2
I0626 16:31:22.819784  8977 net.cpp:131] Top shape: 16 24 12 12 (55296)
I0626 16:31:22.819798  8977 net.cpp:139] Memory required for data: 2433216
I0626 16:31:22.819808  8977 layer_factory.hpp:77] Creating layer conv2/bn
I0626 16:31:22.819818  8977 net.cpp:86] Creating Layer conv2/bn
I0626 16:31:22.819825  8977 net.cpp:408] conv2/bn <- conv2
I0626 16:31:22.819838  8977 net.cpp:369] conv2/bn -> conv2 (in-place)
I0626 16:31:22.820044  8977 net.cpp:124] Setting up conv2/bn
I0626 16:31:22.820055  8977 net.cpp:131] Top shape: 16 24 12 12 (55296)
I0626 16:31:22.820060  8977 net.cpp:139] Memory required for data: 2654400
I0626 16:31:22.820077  8977 layer_factory.hpp:77] Creating layer conv2/scale
I0626 16:31:22.820088  8977 net.cpp:86] Creating Layer conv2/scale
I0626 16:31:22.820096  8977 net.cpp:408] conv2/scale <- conv2
I0626 16:31:22.820106  8977 net.cpp:369] conv2/scale -> conv2 (in-place)
I0626 16:31:22.820158  8977 layer_factory.hpp:77] Creating layer conv2/scale
I0626 16:31:22.820310  8977 net.cpp:124] Setting up conv2/scale
I0626 16:31:22.820320  8977 net.cpp:131] Top shape: 16 24 12 12 (55296)
I0626 16:31:22.820324  8977 net.cpp:139] Memory required for data: 2875584
I0626 16:31:22.820340  8977 layer_factory.hpp:77] Creating layer relu2
I0626 16:31:22.820348  8977 net.cpp:86] Creating Layer relu2
I0626 16:31:22.820359  8977 net.cpp:408] relu2 <- conv2
I0626 16:31:22.820367  8977 net.cpp:369] relu2 -> conv2 (in-place)
I0626 16:31:22.821254  8977 net.cpp:124] Setting up relu2
I0626 16:31:22.821275  8977 net.cpp:131] Top shape: 16 24 12 12 (55296)
I0626 16:31:22.821281  8977 net.cpp:139] Memory required for data: 3096768
I0626 16:31:22.821285  8977 layer_factory.hpp:77] Creating layer conv3
I0626 16:31:22.821300  8977 net.cpp:86] Creating Layer conv3
I0626 16:31:22.821307  8977 net.cpp:408] conv3 <- conv2
I0626 16:31:22.821319  8977 net.cpp:382] conv3 -> conv3
I0626 16:31:22.823627  8977 net.cpp:124] Setting up conv3
I0626 16:31:22.823642  8977 net.cpp:131] Top shape: 16 48 6 6 (27648)
I0626 16:31:22.823647  8977 net.cpp:139] Memory required for data: 3207360
I0626 16:31:22.823658  8977 layer_factory.hpp:77] Creating layer conv3/bn
I0626 16:31:22.823671  8977 net.cpp:86] Creating Layer conv3/bn
I0626 16:31:22.823678  8977 net.cpp:408] conv3/bn <- conv3
I0626 16:31:22.823688  8977 net.cpp:369] conv3/bn -> conv3 (in-place)
I0626 16:31:22.823892  8977 net.cpp:124] Setting up conv3/bn
I0626 16:31:22.823904  8977 net.cpp:131] Top shape: 16 48 6 6 (27648)
I0626 16:31:22.823909  8977 net.cpp:139] Memory required for data: 3317952
I0626 16:31:22.823926  8977 layer_factory.hpp:77] Creating layer conv3/scale
I0626 16:31:22.823940  8977 net.cpp:86] Creating Layer conv3/scale
I0626 16:31:22.823947  8977 net.cpp:408] conv3/scale <- conv3
I0626 16:31:22.823959  8977 net.cpp:369] conv3/scale -> conv3 (in-place)
I0626 16:31:22.824009  8977 layer_factory.hpp:77] Creating layer conv3/scale
I0626 16:31:22.824139  8977 net.cpp:124] Setting up conv3/scale
I0626 16:31:22.824151  8977 net.cpp:131] Top shape: 16 48 6 6 (27648)
I0626 16:31:22.824156  8977 net.cpp:139] Memory required for data: 3428544
I0626 16:31:22.824167  8977 layer_factory.hpp:77] Creating layer relu3
I0626 16:31:22.824177  8977 net.cpp:86] Creating Layer relu3
I0626 16:31:22.824184  8977 net.cpp:408] relu3 <- conv3
I0626 16:31:22.824198  8977 net.cpp:369] relu3 -> conv3 (in-place)
I0626 16:31:22.824754  8977 net.cpp:124] Setting up relu3
I0626 16:31:22.824766  8977 net.cpp:131] Top shape: 16 48 6 6 (27648)
I0626 16:31:22.824784  8977 net.cpp:139] Memory required for data: 3539136
I0626 16:31:22.824792  8977 layer_factory.hpp:77] Creating layer ip1
I0626 16:31:22.824808  8977 net.cpp:86] Creating Layer ip1
I0626 16:31:22.824815  8977 net.cpp:408] ip1 <- conv3
I0626 16:31:22.824826  8977 net.cpp:382] ip1 -> ip1
I0626 16:31:22.826359  8977 net.cpp:124] Setting up ip1
I0626 16:31:22.826375  8977 net.cpp:131] Top shape: 16 128 (2048)
I0626 16:31:22.826380  8977 net.cpp:139] Memory required for data: 3547328
I0626 16:31:22.826396  8977 layer_factory.hpp:77] Creating layer ip2
I0626 16:31:22.826405  8977 net.cpp:86] Creating Layer ip2
I0626 16:31:22.826411  8977 net.cpp:408] ip2 <- ip1
I0626 16:31:22.826421  8977 net.cpp:382] ip2 -> ip2
I0626 16:31:22.826539  8977 net.cpp:124] Setting up ip2
I0626 16:31:22.826550  8977 net.cpp:131] Top shape: 16 2 (32)
I0626 16:31:22.826555  8977 net.cpp:139] Memory required for data: 3547456
I0626 16:31:22.826570  8977 layer_factory.hpp:77] Creating layer ip2_ip2_0_split
I0626 16:31:22.826581  8977 net.cpp:86] Creating Layer ip2_ip2_0_split
I0626 16:31:22.826588  8977 net.cpp:408] ip2_ip2_0_split <- ip2
I0626 16:31:22.826597  8977 net.cpp:382] ip2_ip2_0_split -> ip2_ip2_0_split_0
I0626 16:31:22.826612  8977 net.cpp:382] ip2_ip2_0_split -> ip2_ip2_0_split_1
I0626 16:31:22.826665  8977 net.cpp:124] Setting up ip2_ip2_0_split
I0626 16:31:22.826674  8977 net.cpp:131] Top shape: 16 2 (32)
I0626 16:31:22.826679  8977 net.cpp:131] Top shape: 16 2 (32)
I0626 16:31:22.826691  8977 net.cpp:139] Memory required for data: 3547712
I0626 16:31:22.826695  8977 layer_factory.hpp:77] Creating layer loss
I0626 16:31:22.826705  8977 net.cpp:86] Creating Layer loss
I0626 16:31:22.826711  8977 net.cpp:408] loss <- ip2_ip2_0_split_0
I0626 16:31:22.826720  8977 net.cpp:408] loss <- label_data_1_split_0
I0626 16:31:22.826727  8977 net.cpp:382] loss -> loss
…
