…
I0420 00:54:04.875766  4461 net.cpp:294] The NetState phase (0) differed from the phase (1) specified by a rule in layer data
I0420 00:54:04.876097  4461 net.cpp:51] Initializing net from parameters: 
name: "simpleconv3"
state {
  phase: TRAIN
  level: 0
  stage: ""
}
layer {
  name: "data"
  type: "ImageData"
  top: "data"
  top: "label"
  include {
    phase: TRAIN
  }
  transform_param {
    mirror: true
    crop_size: 48
    mean_value: 104.008
    mean_value: 116.669
    mean_value: 122.675
    contrast_brightness_adjustment: true
    max_color_shift: 10
  }
  image_data_param {
    source: "train_shuffle.txt"
    batch_size: 96
    shuffle: true
  }
}
layer {
  name: "conv1"
  type: "Convolution"
  bottom: "data"
  top: "conv1"
  param {
    lr_mult: 1
    decay_mult: 1
  }
  param {
    lr_mult: 2
    decay_mult: 0
  }
  convolution_param {
    num_output: 12
    pad: 1
    kernel_size: 3
    stride: 2
    weight_filler {
      type: "xavier"
      std: 0.01
    }
    bias_filler {
      type: "constant"
      value: 0.2
    }
  }
}
layer {
  name: "conv1/bn"
  type: "BatchNorm"
  bottom: "conv1"
  top: "conv1"
  param {
    lr_mult: 0
    decay_mult: 0
  }
  param {
    lr_mult: 0
    decay_mult: 0
  }
  param {
    lr_mult: 0
    decay_mult: 0
  }
}
layer {
  name: "conv1/scale"
  type: "Scale"
  bottom: "conv1"
  top: "conv1"
  param {
    lr_mult: 1
    decay_mult: 0
  }
  param {
    lr_mult: 1
    decay_mult: 0
  }
  scale_param {
    filler {
      value: 1
    }
    bias_term: true
    bias_filler {
      value: 0
    }
  }
}
layer {
  name: "relu1"
  type: "ReLU"
  bottom: "conv1"
  top: "conv1"
}
layer {
  name: "conv2"
  type: "Convolution"
  bottom: "conv1"
  top: "conv2"
  param {
    lr_mult: 1
    decay_mult: 1
  }
  param {
    lr_mult: 2
    decay_mult: 0
  }
  convolution_param {
    num_output: 24
    pad: 1
    kernel_size: 3
    stride: 2
    weight_filler {
      type: "xavier"
      std: 0.1
    }
    bias_filler {
      type: "constant"
      value: 0.2
    }
  }
}
layer {
  name: "conv2/bn"
  type: "BatchNorm"
  bottom: "conv2"
  top: "conv2"
  param {
    lr_mult: 0
    decay_mult: 0
  }
  param {
    lr_mult: 0
    decay_mult: 0
  }
  param {
    lr_mult: 0
    decay_mult: 0
  }
}
layer {
  name: "conv2/scale"
  type: "Scale"
  bottom: "conv2"
  top: "conv2"
  param {
    lr_mult: 1
    decay_mult: 0
  }
  param {
    lr_mult: 1
    decay_mult: 0
  }
  scale_param {
    filler {
      value: 1
    }
    bias_term: true
    bias_filler {
      value: 0
    }
  }
}
layer {
  name: "relu2"
  type: "ReLU"
  bottom: "conv2"
  top: "conv2"
}
layer {
  name: "conv3"
  type: "Convolution"
  bottom: "conv2"
  top: "conv3"
  param {
    lr_mult: 1
    decay_mult: 1
  }
  param {
    lr_mult: 2
    decay_mult: 0
  }
  convolution_param {
    num_output: 48
    pad: 1
    kernel_size: 3
    stride: 2
    weight_filler {
      type: "xavier"
      std: 0.1
    }
    bias_filler {
      type: "constant"
      value: 0.2
    }
  }
}
layer {
  name: "conv3/bn"
  type: "BatchNorm"
  bottom: "conv3"
  top: "conv3"
  param {
    lr_mult: 0
    decay_mult: 0
  }
  param {
    lr_mult: 0
    decay_mult: 0
  }
  param {
    lr_mult: 0
    decay_mult: 0
  }
}
layer {
  name: "conv3/scale"
  type: "Scale"
  bottom: "conv3"
  top: "conv3"
  param {
    lr_mult: 1
    decay_mult: 0
  }
  param {
    lr_mult: 1
    decay_mult: 0
  }
  scale_param {
    filler {
      value: 1
    }
    bias_term: true
    bias_filler {
      value: 0
    }
  }
}
layer {
  name: "relu3"
  type: "ReLU"
  bottom: "conv3"
  top: "conv3"
}
layer {
  name: "ip1"
  type: "InnerProduct"
  bottom: "conv3"
  top: "ip1"
  param {
    lr_mult: 1
    decay_mult: 1
  }
  param {
    lr_mult: 2
    decay_mult: 0
  }
  inner_product_param {
    num_output: 128
    weight_filler {
      type: "xavier"
    }
    bias_filler {
      type: "constant"
      value: 0
    }
  }
}
layer {
  name: "ip2"
  type: "InnerProduct"
  bottom: "ip1"
  top: "ip2"
  param {
    lr_mult: 1
    decay_mult: 1
  }
  param {
    lr_mult: 2
    decay_mult: 1
  }
  inner_product_param {
    num_output: 2
    weight_filler {
      type: "xavier"
    }
    bias_filler {
      type: "constant"
      value: 0
    }
  }
}
layer {
  name: "loss"
  type: "SoftmaxWithLoss"
  bottom: "ip2"
  bottom: "label"
  top: "loss"
}
layer {
  name: "acc"
  type: "Accuracy"
  bottom: "ip2"
  bottom: "label"
  top: "acc"
}
I0420 00:54:04.876391  4461 layer_factory.hpp:77] Creating layer data
I0420 00:54:04.876467  4461 net.cpp:84] Creating Layer data
I0420 00:54:04.876488  4461 net.cpp:380] data -> data
I0420 00:54:04.876540  4461 net.cpp:380] data -> label
I0420 00:54:04.877521  4461 image_data_layer.cpp:43] Opening file train_shuffle.txt
I0420 00:54:04.877542  4461 io.cpp:296] Opening file train_shuffle.txt
I0420 00:54:04.881335  4461 io.cpp:321] Read 900 images with 1 labels
I0420 00:54:04.881367  4461 image_data_layer.cpp:61] Shuffling data
I0420 00:54:04.881753  4461 image_data_layer.cpp:71] A total of 900 images.
I0420 00:54:04.883558  4461 image_data_layer.cpp:98] output data size: 96,3,48,48
I0420 00:54:04.901031  4461 net.cpp:122] Setting up data
I0420 00:54:04.901139  4461 net.cpp:129] Top shape: 96 3 48 48 (663552)
I0420 00:54:04.901185  4461 net.cpp:129] Top shape: 96 1 1 1 (96)
I0420 00:54:04.901216  4461 net.cpp:137] Memory required for data: 2654592
I0420 00:54:04.901252  4461 layer_factory.hpp:77] Creating layer label_data_1_split
I0420 00:54:04.901299  4461 net.cpp:84] Creating Layer label_data_1_split
I0420 00:54:04.901337  4461 net.cpp:406] label_data_1_split <- label
I0420 00:54:04.901391  4461 net.cpp:380] label_data_1_split -> label_data_1_split_0
I0420 00:54:04.901441  4461 net.cpp:380] label_data_1_split -> label_data_1_split_1
I0420 00:54:04.901585  4461 net.cpp:122] Setting up label_data_1_split
I0420 00:54:04.901631  4461 net.cpp:129] Top shape: 96 1 1 1 (96)
I0420 00:54:04.901665  4461 net.cpp:129] Top shape: 96 1 1 1 (96)
I0420 00:54:04.901695  4461 net.cpp:137] Memory required for data: 2655360
I0420 00:54:04.901726  4461 layer_factory.hpp:77] Creating layer conv1
I0420 00:54:04.901793  4461 net.cpp:84] Creating Layer conv1
I0420 00:54:04.901829  4461 net.cpp:406] conv1 <- data
I0420 00:54:04.901868  4461 net.cpp:380] conv1 -> conv1
I0420 00:54:04.903767  4461 net.cpp:122] Setting up conv1
I0420 00:54:04.903798  4461 net.cpp:129] Top shape: 96 12 24 24 (663552)
I0420 00:54:04.903810  4461 net.cpp:137] Memory required for data: 5309568
I0420 00:54:04.903847  4461 layer_factory.hpp:77] Creating layer conv1/bn
I0420 00:54:04.903870  4461 net.cpp:84] Creating Layer conv1/bn
I0420 00:54:04.903882  4461 net.cpp:406] conv1/bn <- conv1
I0420 00:54:04.903904  4461 net.cpp:367] conv1/bn -> conv1 (in-place)
I0420 00:54:04.904419  4461 net.cpp:122] Setting up conv1/bn
I0420 00:54:04.904495  4461 net.cpp:129] Top shape: 96 12 24 24 (663552)
I0420 00:54:04.904541  4461 net.cpp:137] Memory required for data: 7963776
I0420 00:54:04.904618  4461 layer_factory.hpp:77] Creating layer conv1/scale
I0420 00:54:04.904682  4461 net.cpp:84] Creating Layer conv1/scale
I0420 00:54:04.904728  4461 net.cpp:406] conv1/scale <- conv1
I0420 00:54:04.904779  4461 net.cpp:367] conv1/scale -> conv1 (in-place)
I0420 00:54:04.904939  4461 layer_factory.hpp:77] Creating layer conv1/scale
I0420 00:54:04.905407  4461 net.cpp:122] Setting up conv1/scale
I0420 00:54:04.905488  4461 net.cpp:129] Top shape: 96 12 24 24 (663552)
I0420 00:54:04.905557  4461 net.cpp:137] Memory required for data: 10617984
I0420 00:54:04.905612  4461 layer_factory.hpp:77] Creating layer relu1
I0420 00:54:04.905664  4461 net.cpp:84] Creating Layer relu1
I0420 00:54:04.905707  4461 net.cpp:406] relu1 <- conv1
I0420 00:54:04.905761  4461 net.cpp:367] relu1 -> conv1 (in-place)
I0420 00:54:04.905813  4461 net.cpp:122] Setting up relu1
I0420 00:54:04.905861  4461 net.cpp:129] Top shape: 96 12 24 24 (663552)
I0420 00:54:04.905901  4461 net.cpp:137] Memory required for data: 13272192
I0420 00:54:04.905942  4461 layer_factory.hpp:77] Creating layer conv2
I0420 00:54:04.906003  4461 net.cpp:84] Creating Layer conv2
I0420 00:54:04.906051  4461 net.cpp:406] conv2 <- conv1
I0420 00:54:04.906105  4461 net.cpp:380] conv2 -> conv2
I0420 00:54:04.907934  4461 net.cpp:122] Setting up conv2
I0420 00:54:04.908010  4461 net.cpp:129] Top shape: 96 24 12 12 (331776)
I0420 00:54:04.908071  4461 net.cpp:137] Memory required for data: 14599296
I0420 00:54:04.908138  4461 layer_factory.hpp:77] Creating layer conv2/bn
I0420 00:54:04.908200  4461 net.cpp:84] Creating Layer conv2/bn
I0420 00:54:04.908244  4461 net.cpp:406] conv2/bn <- conv2
I0420 00:54:04.908295  4461 net.cpp:367] conv2/bn -> conv2 (in-place)
I0420 00:54:04.908829  4461 net.cpp:122] Setting up conv2/bn
I0420 00:54:04.908895  4461 net.cpp:129] Top shape: 96 24 12 12 (331776)
I0420 00:54:04.908941  4461 net.cpp:137] Memory required for data: 15926400
I0420 00:54:04.908998  4461 layer_factory.hpp:77] Creating layer conv2/scale
I0420 00:54:04.909062  4461 net.cpp:84] Creating Layer conv2/scale
I0420 00:54:04.909107  4461 net.cpp:406] conv2/scale <- conv2
I0420 00:54:04.909159  4461 net.cpp:367] conv2/scale -> conv2 (in-place)
I0420 00:54:04.909312  4461 layer_factory.hpp:77] Creating layer conv2/scale
I0420 00:54:04.909670  4461 net.cpp:122] Setting up conv2/scale
I0420 00:54:04.909737  4461 net.cpp:129] Top shape: 96 24 12 12 (331776)
I0420 00:54:04.909786  4461 net.cpp:137] Memory required for data: 17253504
I0420 00:54:04.909842  4461 layer_factory.hpp:77] Creating layer relu2
I0420 00:54:04.909895  4461 net.cpp:84] Creating Layer relu2
I0420 00:54:04.909941  4461 net.cpp:406] relu2 <- conv2
I0420 00:54:04.909992  4461 net.cpp:367] relu2 -> conv2 (in-place)
I0420 00:54:04.910048  4461 net.cpp:122] Setting up relu2
I0420 00:54:04.910100  4461 net.cpp:129] Top shape: 96 24 12 12 (331776)
I0420 00:54:04.910145  4461 net.cpp:137] Memory required for data: 18580608
I0420 00:54:04.910189  4461 layer_factory.hpp:77] Creating layer conv3
I0420 00:54:04.910257  4461 net.cpp:84] Creating Layer conv3
I0420 00:54:04.910305  4461 net.cpp:406] conv3 <- conv2
I0420 00:54:04.910362  4461 net.cpp:380] conv3 -> conv3
I0420 00:54:04.912340  4461 net.cpp:122] Setting up conv3
I0420 00:54:04.912412  4461 net.cpp:129] Top shape: 96 48 6 6 (165888)
I0420 00:54:04.912453  4461 net.cpp:137] Memory required for data: 19244160
I0420 00:54:04.912498  4461 layer_factory.hpp:77] Creating layer conv3/bn
I0420 00:54:04.912549  4461 net.cpp:84] Creating Layer conv3/bn
I0420 00:54:04.912590  4461 net.cpp:406] conv3/bn <- conv3
I0420 00:54:04.912633  4461 net.cpp:367] conv3/bn -> conv3 (in-place)
I0420 00:54:04.913127  4461 net.cpp:122] Setting up conv3/bn
I0420 00:54:04.913184  4461 net.cpp:129] Top shape: 96 48 6 6 (165888)
I0420 00:54:04.913223  4461 net.cpp:137] Memory required for data: 19907712
I0420 00:54:04.913295  4461 layer_factory.hpp:77] Creating layer conv3/scale
I0420 00:54:04.913357  4461 net.cpp:84] Creating Layer conv3/scale
I0420 00:54:04.913405  4461 net.cpp:406] conv3/scale <- conv3
I0420 00:54:04.913461  4461 net.cpp:367] conv3/scale -> conv3 (in-place)
I0420 00:54:04.913624  4461 layer_factory.hpp:77] Creating layer conv3/scale
I0420 00:54:04.913983  4461 net.cpp:122] Setting up conv3/scale
I0420 00:54:04.914043  4461 net.cpp:129] Top shape: 96 48 6 6 (165888)
I0420 00:54:04.914089  4461 net.cpp:137] Memory required for data: 20571264
I0420 00:54:04.914158  4461 layer_factory.hpp:77] Creating layer relu3
I0420 00:54:04.914232  4461 net.cpp:84] Creating Layer relu3
I0420 00:54:04.914279  4461 net.cpp:406] relu3 <- conv3
I0420 00:54:04.914331  4461 net.cpp:367] relu3 -> conv3 (in-place)
I0420 00:54:04.914392  4461 net.cpp:122] Setting up relu3
I0420 00:54:04.914446  4461 net.cpp:129] Top shape: 96 48 6 6 (165888)
I0420 00:54:04.914491  4461 net.cpp:137] Memory required for data: 21234816
I0420 00:54:04.914536  4461 layer_factory.hpp:77] Creating layer ip1
I0420 00:54:04.914590  4461 net.cpp:84] Creating Layer ip1
I0420 00:54:04.914638  4461 net.cpp:406] ip1 <- conv3
I0420 00:54:04.914691  4461 net.cpp:380] ip1 -> ip1
I0420 00:54:04.920922  4461 net.cpp:122] Setting up ip1
I0420 00:54:04.920997  4461 net.cpp:129] Top shape: 96 128 (12288)
I0420 00:54:04.921046  4461 net.cpp:137] Memory required for data: 21283968
I0420 00:54:04.921102  4461 layer_factory.hpp:77] Creating layer ip2
I0420 00:54:04.921165  4461 net.cpp:84] Creating Layer ip2
I0420 00:54:04.921214  4461 net.cpp:406] ip2 <- ip1
I0420 00:54:04.921277  4461 net.cpp:380] ip2 -> ip2
I0420 00:54:04.921592  4461 net.cpp:122] Setting up ip2
I0420 00:54:04.921653  4461 net.cpp:129] Top shape: 96 2 (192)
I0420 00:54:04.921700  4461 net.cpp:137] Memory required for data: 21284736
I0420 00:54:04.921753  4461 layer_factory.hpp:77] Creating layer ip2_ip2_0_split
I0420 00:54:04.921814  4461 net.cpp:84] Creating Layer ip2_ip2_0_split
I0420 00:54:04.921861  4461 net.cpp:406] ip2_ip2_0_split <- ip2
I0420 00:54:04.921922  4461 net.cpp:380] ip2_ip2_0_split -> ip2_ip2_0_split_0
I0420 00:54:04.921984  4461 net.cpp:380] ip2_ip2_0_split -> ip2_ip2_0_split_1
I0420 00:54:04.922130  4461 net.cpp:122] Setting up ip2_ip2_0_split
I0420 00:54:04.922188  4461 net.cpp:129] Top shape: 96 2 (192)
I0420 00:54:04.922236  4461 net.cpp:129] Top shape: 96 2 (192)
I0420 00:54:04.922279  4461 net.cpp:137] Memory required for data: 21286272
I0420 00:54:04.922323  4461 layer_factory.hpp:77] Creating layer loss
I0420 00:54:04.922379  4461 net.cpp:84] Creating Layer loss
I0420 00:54:04.922426  4461 net.cpp:406] loss <- ip2_ip2_0_split_0
I0420 00:54:04.922477  4461 net.cpp:406] loss <- label_data_1_split_0
I0420 00:54:04.922538  4461 net.cpp:380] loss -> loss
…
I0420 00:54:04.925436  4461 net.cpp:294] The NetState phase (1) differed from the phase (0) specified by a rule in layer data
I0420 00:54:04.925859  4461 net.cpp:51] Initializing net from parameters: 
name: "simpleconv3"
state {
  phase: TEST
}
layer {
  name: "data"
  type: "ImageData"
  top: "data"
  top: "label"
  include {
    phase: TEST
  }
  transform_param {
    mirror: false
    crop_size: 48
    mean_value: 104.008
    mean_value: 116.669
    mean_value: 122.675
  }
  image_data_param {
    source: "val_shuffle.txt"
    batch_size: 16
    shuffle: false
  }
}
layer {
  name: "conv1"
  type: "Convolution"
  bottom: "data"
  top: "conv1"
  param {
    lr_mult: 1
    decay_mult: 1
  }
  param {
    lr_mult: 2
    decay_mult: 0
  }
  convolution_param {
    num_output: 12
    pad: 1
    kernel_size: 3
    stride: 2
    weight_filler {
      type: "xavier"
      std: 0.01
    }
    bias_filler {
      type: "constant"
      value: 0.2
    }
  }
}
layer {
  name: "conv1/bn"
  type: "BatchNorm"
  bottom: "conv1"
  top: "conv1"
  param {
    lr_mult: 0
    decay_mult: 0
  }
  param {
    lr_mult: 0
    decay_mult: 0
  }
  param {
    lr_mult: 0
    decay_mult: 0
  }
}
layer {
  name: "conv1/scale"
  type: "Scale"
  bottom: "conv1"
  top: "conv1"
  param {
    lr_mult: 1
    decay_mult: 0
  }
  param {
    lr_mult: 1
    decay_mult: 0
  }
  scale_param {
    filler {
      value: 1
    }
    bias_term: true
    bias_filler {
      value: 0
    }
  }
}
layer {
  name: "relu1"
  type: "ReLU"
  bottom: "conv1"
  top: "conv1"
}
layer {
  name: "conv2"
  type: "Convolution"
  bottom: "conv1"
  top: "conv2"
  param {
    lr_mult: 1
    decay_mult: 1
  }
  param {
    lr_mult: 2
    decay_mult: 0
  }
  convolution_param {
    num_output: 24
    pad: 1
    kernel_size: 3
    stride: 2
    weight_filler {
      type: "xavier"
      std: 0.1
    }
    bias_filler {
      type: "constant"
      value: 0.2
    }
  }
}
layer {
  name: "conv2/bn"
  type: "BatchNorm"
  bottom: "conv2"
  top: "conv2"
  param {
    lr_mult: 0
    decay_mult: 0
  }
  param {
    lr_mult: 0
    decay_mult: 0
  }
  param {
    lr_mult: 0
    decay_mult: 0
  }
}
layer {
  name: "conv2/scale"
  type: "Scale"
  bottom: "conv2"
  top: "conv2"
  param {
    lr_mult: 1
    decay_mult: 0
  }
  param {
    lr_mult: 1
    decay_mult: 0
  }
  scale_param {
    filler {
      value: 1
    }
    bias_term: true
    bias_filler {
      value: 0
    }
  }
}
layer {
  name: "relu2"
  type: "ReLU"
  bottom: "conv2"
  top: "conv2"
}
layer {
  name: "conv3"
  type: "Convolution"
  bottom: "conv2"
  top: "conv3"
  param {
    lr_mult: 1
    decay_mult: 1
  }
  param {
    lr_mult: 2
    decay_mult: 0
  }
  convolution_param {
    num_output: 48
    pad: 1
    kernel_size: 3
    stride: 2
    weight_filler {
      type: "xavier"
      std: 0.1
    }
    bias_filler {
      type: "constant"
      value: 0.2
    }
  }
}
layer {
  name: "conv3/bn"
  type: "BatchNorm"
  bottom: "conv3"
  top: "conv3"
  param {
    lr_mult: 0
    decay_mult: 0
  }
  param {
    lr_mult: 0
    decay_mult: 0
  }
  param {
    lr_mult: 0
    decay_mult: 0
  }
}
layer {
  name: "conv3/scale"
  type: "Scale"
  bottom: "conv3"
  top: "conv3"
  param {
    lr_mult: 1
    decay_mult: 0
  }
  param {
    lr_mult: 1
    decay_mult: 0
  }
  scale_param {
    filler {
      value: 1
    }
    bias_term: true
    bias_filler {
      value: 0
    }
  }
}
layer {
  name: "relu3"
  type: "ReLU"
  bottom: "conv3"
  top: "conv3"
}
layer {
  name: "ip1"
  type: "InnerProduct"
  bottom: "conv3"
  top: "ip1"
  param {
    lr_mult: 1
    decay_mult: 1
  }
  param {
    lr_mult: 2
    decay_mult: 0
  }
  inner_product_param {
    num_output: 128
    weight_filler {
      type: "xavier"
    }
    bias_filler {
      type: "constant"
      value: 0
    }
  }
}
layer {
  name: "ip2"
  type: "InnerProduct"
  bottom: "ip1"
  top: "ip2"
  param {
    lr_mult: 1
    decay_mult: 1
  }
  param {
    lr_mult: 2
    decay_mult: 1
  }
  inner_product_param {
    num_output: 2
    weight_filler {
      type: "xavier"
    }
    bias_filler {
      type: "constant"
      value: 0
    }
  }
}
layer {
  name: "loss"
  type: "SoftmaxWithLoss"
  bottom: "ip2"
  bottom: "label"
  top: "loss"
}
layer {
  name: "acc"
  type: "Accuracy"
  bottom: "ip2"
  bottom: "label"
  top: "acc"
}
I0420 00:54:04.926852  4461 layer_factory.hpp:77] Creating layer data
I0420 00:54:04.926923  4461 net.cpp:84] Creating Layer data
I0420 00:54:04.926968  4461 net.cpp:380] data -> data
I0420 00:54:04.927019  4461 net.cpp:380] data -> label
I0420 00:54:04.927070  4461 image_data_layer.cpp:43] Opening file val_shuffle.txt
I0420 00:54:04.927109  4461 io.cpp:296] Opening file val_shuffle.txt
I0420 00:54:04.927620  4461 io.cpp:321] Read 100 images with 1 labels
I0420 00:54:04.927672  4461 image_data_layer.cpp:71] A total of 100 images.
I0420 00:54:04.928213  4461 image_data_layer.cpp:98] output data size: 16,3,48,48
I0420 00:54:04.939322  4461 net.cpp:122] Setting up data
I0420 00:54:04.939412  4461 net.cpp:129] Top shape: 16 3 48 48 (110592)
I0420 00:54:04.939471  4461 net.cpp:129] Top shape: 16 1 1 1 (16)
I0420 00:54:04.939518  4461 net.cpp:137] Memory required for data: 442432
I0420 00:54:04.939564  4461 layer_factory.hpp:77] Creating layer label_data_1_split
I0420 00:54:04.939628  4461 net.cpp:84] Creating Layer label_data_1_split
I0420 00:54:04.939678  4461 net.cpp:406] label_data_1_split <- label
I0420 00:54:04.939734  4461 net.cpp:380] label_data_1_split -> label_data_1_split_0
I0420 00:54:04.939805  4461 net.cpp:380] label_data_1_split -> label_data_1_split_1
I0420 00:54:04.939968  4461 net.cpp:122] Setting up label_data_1_split
I0420 00:54:04.940027  4461 net.cpp:129] Top shape: 16 1 1 1 (16)
I0420 00:54:04.940096  4461 net.cpp:129] Top shape: 16 1 1 1 (16)
I0420 00:54:04.940143  4461 net.cpp:137] Memory required for data: 442560
I0420 00:54:04.940187  4461 layer_factory.hpp:77] Creating layer conv1
I0420 00:54:04.940258  4461 net.cpp:84] Creating Layer conv1
I0420 00:54:04.940309  4461 net.cpp:406] conv1 <- data
I0420 00:54:04.940371  4461 net.cpp:380] conv1 -> conv1
I0420 00:54:04.941118  4461 net.cpp:122] Setting up conv1
I0420 00:54:04.941184  4461 net.cpp:129] Top shape: 16 12 24 24 (110592)
I0420 00:54:04.941222  4461 net.cpp:137] Memory required for data: 884928
I0420 00:54:04.941277  4461 layer_factory.hpp:77] Creating layer conv1/bn
I0420 00:54:04.941328  4461 net.cpp:84] Creating Layer conv1/bn
I0420 00:54:04.941365  4461 net.cpp:406] conv1/bn <- conv1
I0420 00:54:04.941411  4461 net.cpp:367] conv1/bn -> conv1 (in-place)
I0420 00:54:04.942178  4461 net.cpp:122] Setting up conv1/bn
I0420 00:54:04.942239  4461 net.cpp:129] Top shape: 16 12 24 24 (110592)
I0420 00:54:04.942276  4461 net.cpp:137] Memory required for data: 1327296
I0420 00:54:04.942333  4461 layer_factory.hpp:77] Creating layer conv1/scale
I0420 00:54:04.942384  4461 net.cpp:84] Creating Layer conv1/scale
I0420 00:54:04.942422  4461 net.cpp:406] conv1/scale <- conv1
I0420 00:54:04.942469  4461 net.cpp:367] conv1/scale -> conv1 (in-place)
I0420 00:54:04.942698  4461 layer_factory.hpp:77] Creating layer conv1/scale
I0420 00:54:04.943068  4461 net.cpp:122] Setting up conv1/scale
I0420 00:54:04.943127  4461 net.cpp:129] Top shape: 16 12 24 24 (110592)
I0420 00:54:04.943163  4461 net.cpp:137] Memory required for data: 1769664
I0420 00:54:04.943207  4461 layer_factory.hpp:77] Creating layer relu1
I0420 00:54:04.943248  4461 net.cpp:84] Creating Layer relu1
I0420 00:54:04.943284  4461 net.cpp:406] relu1 <- conv1
I0420 00:54:04.943329  4461 net.cpp:367] relu1 -> conv1 (in-place)
I0420 00:54:04.943372  4461 net.cpp:122] Setting up relu1
I0420 00:54:04.943413  4461 net.cpp:129] Top shape: 16 12 24 24 (110592)
I0420 00:54:04.943447  4461 net.cpp:137] Memory required for data: 2212032
I0420 00:54:04.943481  4461 layer_factory.hpp:77] Creating layer conv2
I0420 00:54:04.943534  4461 net.cpp:84] Creating Layer conv2
I0420 00:54:04.943572  4461 net.cpp:406] conv2 <- conv1
I0420 00:54:04.943619  4461 net.cpp:380] conv2 -> conv2
I0420 00:54:04.944314  4461 net.cpp:122] Setting up conv2
I0420 00:54:04.944384  4461 net.cpp:129] Top shape: 16 24 12 12 (55296)
I0420 00:54:04.944432  4461 net.cpp:137] Memory required for data: 2433216
I0420 00:54:04.944492  4461 layer_factory.hpp:77] Creating layer conv2/bn
I0420 00:54:04.944552  4461 net.cpp:84] Creating Layer conv2/bn
I0420 00:54:04.944603  4461 net.cpp:406] conv2/bn <- conv2
I0420 00:54:04.944665  4461 net.cpp:367] conv2/bn -> conv2 (in-place)
I0420 00:54:04.945219  4461 net.cpp:122] Setting up conv2/bn
I0420 00:54:04.945283  4461 net.cpp:129] Top shape: 16 24 12 12 (55296)
I0420 00:54:04.945329  4461 net.cpp:137] Memory required for data: 2654400
I0420 00:54:04.945389  4461 layer_factory.hpp:77] Creating layer conv2/scale
I0420 00:54:04.945454  4461 net.cpp:84] Creating Layer conv2/scale
I0420 00:54:04.945510  4461 net.cpp:406] conv2/scale <- conv2
I0420 00:54:04.945565  4461 net.cpp:367] conv2/scale -> conv2 (in-place)
I0420 00:54:04.945724  4461 layer_factory.hpp:77] Creating layer conv2/scale
I0420 00:54:04.946087  4461 net.cpp:122] Setting up conv2/scale
I0420 00:54:04.946148  4461 net.cpp:129] Top shape: 16 24 12 12 (55296)
I0420 00:54:04.946193  4461 net.cpp:137] Memory required for data: 2875584
I0420 00:54:04.946246  4461 layer_factory.hpp:77] Creating layer relu2
I0420 00:54:04.946298  4461 net.cpp:84] Creating Layer relu2
I0420 00:54:04.946342  4461 net.cpp:406] relu2 <- conv2
I0420 00:54:04.946393  4461 net.cpp:367] relu2 -> conv2 (in-place)
I0420 00:54:04.946445  4461 net.cpp:122] Setting up relu2
I0420 00:54:04.946497  4461 net.cpp:129] Top shape: 16 24 12 12 (55296)
I0420 00:54:04.946540  4461 net.cpp:137] Memory required for data: 3096768
I0420 00:54:04.946583  4461 layer_factory.hpp:77] Creating layer conv3
I0420 00:54:04.946647  4461 net.cpp:84] Creating Layer conv3
I0420 00:54:04.946694  4461 net.cpp:406] conv3 <- conv2
I0420 00:54:04.946749  4461 net.cpp:380] conv3 -> conv3
I0420 00:54:04.947655  4461 net.cpp:122] Setting up conv3
I0420 00:54:04.947719  4461 net.cpp:129] Top shape: 16 48 6 6 (27648)
I0420 00:54:04.947765  4461 net.cpp:137] Memory required for data: 3207360
I0420 00:54:04.947819  4461 layer_factory.hpp:77] Creating layer conv3/bn
I0420 00:54:04.947878  4461 net.cpp:84] Creating Layer conv3/bn
I0420 00:54:04.947926  4461 net.cpp:406] conv3/bn <- conv3
I0420 00:54:04.947978  4461 net.cpp:367] conv3/bn -> conv3 (in-place)
I0420 00:54:04.948624  4461 net.cpp:122] Setting up conv3/bn
I0420 00:54:04.948690  4461 net.cpp:129] Top shape: 16 48 6 6 (27648)
I0420 00:54:04.948736  4461 net.cpp:137] Memory required for data: 3317952
I0420 00:54:04.948803  4461 layer_factory.hpp:77] Creating layer conv3/scale
I0420 00:54:04.948873  4461 net.cpp:84] Creating Layer conv3/scale
I0420 00:54:04.948922  4461 net.cpp:406] conv3/scale <- conv3
I0420 00:54:04.948983  4461 net.cpp:367] conv3/scale -> conv3 (in-place)
I0420 00:54:04.949128  4461 layer_factory.hpp:77] Creating layer conv3/scale
I0420 00:54:04.949453  4461 net.cpp:122] Setting up conv3/scale
I0420 00:54:04.949504  4461 net.cpp:129] Top shape: 16 48 6 6 (27648)
I0420 00:54:04.949549  4461 net.cpp:137] Memory required for data: 3428544
I0420 00:54:04.949609  4461 layer_factory.hpp:77] Creating layer relu3
I0420 00:54:04.949651  4461 net.cpp:84] Creating Layer relu3
I0420 00:54:04.949687  4461 net.cpp:406] relu3 <- conv3
I0420 00:54:04.949730  4461 net.cpp:367] relu3 -> conv3 (in-place)
I0420 00:54:04.949774  4461 net.cpp:122] Setting up relu3
I0420 00:54:04.949813  4461 net.cpp:129] Top shape: 16 48 6 6 (27648)
I0420 00:54:04.949847  4461 net.cpp:137] Memory required for data: 3539136
I0420 00:54:04.949882  4461 layer_factory.hpp:77] Creating layer ip1
I0420 00:54:04.949924  4461 net.cpp:84] Creating Layer ip1
I0420 00:54:04.949959  4461 net.cpp:406] ip1 <- conv3
I0420 00:54:04.950006  4461 net.cpp:380] ip1 -> ip1
I0420 00:54:04.955930  4461 net.cpp:122] Setting up ip1
I0420 00:54:04.956007  4461 net.cpp:129] Top shape: 16 128 (2048)
I0420 00:54:04.956053  4461 net.cpp:137] Memory required for data: 3547328
I0420 00:54:04.956104  4461 layer_factory.hpp:77] Creating layer ip2
I0420 00:54:04.956151  4461 net.cpp:84] Creating Layer ip2
I0420 00:54:04.956188  4461 net.cpp:406] ip2 <- ip1
I0420 00:54:04.956238  4461 net.cpp:380] ip2 -> ip2
I0420 00:54:04.956528  4461 net.cpp:122] Setting up ip2
I0420 00:54:04.956581  4461 net.cpp:129] Top shape: 16 2 (32)
I0420 00:54:04.956624  4461 net.cpp:137] Memory required for data: 3547456
I0420 00:54:04.956678  4461 layer_factory.hpp:77] Creating layer ip2_ip2_0_split
I0420 00:54:04.956744  4461 net.cpp:84] Creating Layer ip2_ip2_0_split
I0420 00:54:04.956786  4461 net.cpp:406] ip2_ip2_0_split <- ip2
I0420 00:54:04.956828  4461 net.cpp:380] ip2_ip2_0_split -> ip2_ip2_0_split_0
I0420 00:54:04.956876  4461 net.cpp:380] ip2_ip2_0_split -> ip2_ip2_0_split_1
I0420 00:54:04.957011  4461 net.cpp:122] Setting up ip2_ip2_0_split
I0420 00:54:04.957059  4461 net.cpp:129] Top shape: 16 2 (32)
I0420 00:54:04.957098  4461 net.cpp:129] Top shape: 16 2 (32)
I0420 00:54:04.957130  4461 net.cpp:137] Memory required for data: 3547712
I0420 00:54:04.957165  4461 layer_factory.hpp:77] Creating layer loss
I0420 00:54:04.957204  4461 net.cpp:84] Creating Layer loss
I0420 00:54:04.957239  4461 net.cpp:406] loss <- ip2_ip2_0_split_0
I0420 00:54:04.957278  4461 net.cpp:406] loss <- label_data_1_split_0
I0420 00:54:04.957324  4461 net.cpp:380] loss -> loss
…
