…
W0706 23:49:59.976281  9582 _caffe.cpp:142] Net('./deploy.prototxt', 1, weights='./mobilenet_finetune_iter_20000.caffemodel')
I0706 23:49:59.978807  9582 upgrade_proto.cpp:79] Attempting to upgrade batch norm layers using deprecated params: ./deploy.prototxt
I0706 23:49:59.978823  9582 upgrade_proto.cpp:82] Successfully upgraded batch norm layers using deprecated params.
I0706 23:50:00.459801  9582 net.cpp:53] Initializing net from parameters: 
name: "mouth"
state {
  phase: TEST
  level: 0
}
layer {
  name: "data"
  type: "Input"
  top: "data"
  input_param {
    shape {
      dim: 1
      dim: 3
      dim: 96
      dim: 96
    }
  }
}
layer {
  name: "conv1"
  type: "Convolution"
  bottom: "data"
  top: "conv1"
  param {
    lr_mult: 1
    decay_mult: 1
  }
  convolution_param {
    num_output: 32
    bias_term: false
    pad: 1
    kernel_size: 3
    stride: 2
    weight_filler {
      type: "msra"
    }
  }
}
layer {
  name: "conv1/bn"
  type: "BatchNorm"
  bottom: "conv1"
  top: "conv1"
  param {
    lr_mult: 0
    decay_mult: 0
  }
  param {
    lr_mult: 0
    decay_mult: 0
  }
  param {
    lr_mult: 0
    decay_mult: 0
  }
}
layer {
  name: "conv1/scale"
  type: "Scale"
  bottom: "conv1"
  top: "conv1"
  param {
    lr_mult: 1
    decay_mult: 0
  }
  param {
    lr_mult: 1
    decay_mult: 0
  }
  scale_param {
    filler {
      value: 1
    }
    bias_term: true
    bias_filler {
      value: 0
    }
  }
}
layer {
  name: "relu1"
  type: "ReLU"
  bottom: "conv1"
  top: "conv1"
}
layer {
  name: "conv2_1/dw"
  type: "Convolution"
  bottom: "conv1"
  top: "conv2_1/dw"
  param {
    lr_mult: 1
    decay_mult: 1
  }
  convolution_param {
    num_output: 32
    bias_term: false
    pad: 1
    kernel_size: 3
    group: 32
    stride: 1
    weight_filler {
      type: "msra"
    }
    engine: CAFFE
  }
}
layer {
  name: "conv2_1/dw/bn"
  type: "BatchNorm"
  bottom: "conv2_1/dw"
  top: "conv2_1/dw"
  param {
    lr_mult: 0
    decay_mult: 0
  }
  param {
    lr_mult: 0
    decay_mult: 0
  }
  param {
    lr_mult: 0
    decay_mult: 0
  }
}
layer {
  name: "conv2_1/dw/scale"
  type: "Scale"
  bottom: "conv2_1/dw"
  top: "conv2_1/dw"
  param {
    lr_mult: 1
    decay_mult: 0
  }
  param {
    lr_mult: 1
    decay_mult: 0
  }
  scale_param {
    filler {
      value: 1
    }
    bias_term: true
    bias_filler {
      value: 0
    }
  }
}
layer {
  name: "relu2_1/dw"
  type: "ReLU"
  bottom: "conv2_1/dw"
  top: "conv2_1/dw"
}
layer {
  name: "conv2_1/sep"
  type: "Convolution"
  bottom: "conv2_1/dw"
  top: "conv2_1/sep"
  param {
    lr_mult: 1
    decay_mult: 1
  }
  convolution_param {
    num_output: 64
    bias_term: false
    pad: 0
    kernel_size: 1
    stride: 1
    weight_filler {
      type: "msra"
    }
  }
}
layer {
  name: "conv2_1/sep/bn"
  type: "BatchNorm"
  bottom: "conv2_1/sep"
  top: "conv2_1/sep"
  param {
    lr_mult: 0
    decay_mult: 0
  }
  param {
    lr_mult: 0
    decay_mult: 0
  }
  param {
    lr_mult: 0
    decay_mult: 0
  }
}
layer {
  name: "conv2_1/sep/scale"
  type: "Scale"
  bottom: "conv2_1/sep"
  top: "conv2_1/sep"
  param {
    lr_mult: 1
    decay_mult: 0
  }
  param {
    lr_mult: 1
    decay_mult: 0
  }
  scale_param {
    filler {
      value: 1
    }
    bias_term: true
    bias_filler {
      value: 0
    }
  }
}
layer {
  name: "relu2_1/sep"
  type: "ReLU"
  bottom: "conv2_1/sep"
  top: "conv2_1/sep"
}
layer {
  name: "conv2_2/dw"
  type: "Convolution"
  bottom: "conv2_1/sep"
  top: "conv2_2/dw"
  param {
    lr_mult: 1
    decay_mult: 1
  }
  convolution_param {
    num_output: 64
    bias_term: false
    pad: 1
    kernel_size: 3
    group: 64
    stride: 2
    weight_filler {
      type: "msra"
    }
    engine: CAFFE
  }
}
layer {
  name: "conv2_2/dw/bn"
  type: "BatchNorm"
  bottom: "conv2_2/dw"
  top: "conv2_2/dw"
  param {
    lr_mult: 0
    decay_mult: 0
  }
  param {
    lr_mult: 0
    decay_mult: 0
  }
  param {
    lr_mult: 0
    decay_mult: 0
  }
}
layer {
  name: "conv2_2/dw/scale"
  type: "Scale"
  bottom: "conv2_2/dw"
  top: "conv2_2/dw"
  param {
    lr_mult: 1
    decay_mult: 0
  }
  param {
    lr_mult: 1
    decay_mult: 0
  }
  scale_param {
    filler {
      value: 1
    }
    bias_term: true
    bias_filler {
      value: 0
    }
  }
}
layer {
  name: "relu2_2/dw"
  type: "ReLU"
  bottom: "conv2_2/dw"
  top: "conv2_2/dw"
}
layer {
  name: "conv2_2/sep"
  type: "Convolution"
  bottom: "conv2_2/dw"
  top: "conv2_2/sep"
  param {
    lr_mult: 1
    decay_mult: 1
  }
  convolution_param {
    num_output: 128
    bias_term: false
    pad: 0
    kernel_size: 1
    stride: 1
    weight_filler {
      type: "msra"
    }
  }
}
layer {
  name: "conv2_2/sep/bn"
  type: "BatchNorm"
  bottom: "conv2_2/sep"
  top: "conv2_2/sep"
  param {
    lr_mult: 0
    decay_mult: 0
  }
  param {
    lr_mult: 0
    decay_mult: 0
  }
  param {
    lr_mult: 0
    decay_mult: 0
  }
}
layer {
  name: "conv2_2/sep/scale"
  type: "Scale"
  bottom: "conv2_2/sep"
  top: "conv2_2/sep"
  param {
    lr_mult: 1
    decay_mult: 0
  }
  param {
    lr_mult: 1
    decay_mult: 0
  }
  scale_param {
    filler {
      value: 1
    }
    bias_term: true
    bias_filler {
      value: 0
    }
  }
}
layer {
  name: "relu2_2/sep"
  type: "ReLU"
  bottom: "conv2_2/sep"
  top: "conv2_2/sep"
}
layer {
  name: "conv3_1/dw"
  type: "Convolution"
  bottom: "conv2_2/sep"
  top: "conv3_1/dw"
  param {
    lr_mult: 1
    decay_mult: 1
  }
  convolution_param {
    num_output: 128
    bias_term: false
    pad: 1
    kernel_size: 3
    group: 128
    stride: 1
    weight_filler {
      type: "msra"
    }
    engine: CAFFE
  }
}
layer {
  name: "conv3_1/dw/bn"
  type: "BatchNorm"
  bottom: "conv3_1/dw"
  top: "conv3_1/dw"
  param {
    lr_mult: 0
    decay_mult: 0
  }
  param {
    lr_mult: 0
    decay_mult: 0
  }
  param {
    lr_mult: 0
    decay_mult: 0
  }
}
layer {
  name: "conv3_1/dw/scale"
  type: "Scale"
  bottom: "conv3_1/dw"
  top: "conv3_1/dw"
  param {
    lr_mult: 1
    decay_mult: 0
  }
  param {
    lr_mult: 1
    decay_mult: 0
  }
  scale_param {
    filler {
      value: 1
    }
    bias_term: true
    bias_filler {
      value: 0
    }
  }
}
layer {
  name: "relu3_1/dw"
  type: "ReLU"
  bottom: "conv3_1/dw"
  top: "conv3_1/dw"
}
layer {
  name: "conv3_1/sep"
  type: "Convolution"
  bottom: "conv3_1/dw"
  top: "conv3_1/sep"
  param {
    lr_mult: 1
    decay_mult: 1
  }
  convolution_param {
    num_output: 128
    bias_term: false
    pad: 0
    kernel_size: 1
    stride: 1
    weight_filler {
      type: "msra"
    }
  }
}
layer {
  name: "conv3_1/sep/bn"
  type: "BatchNorm"
  bottom: "conv3_1/sep"
  top: "conv3_1/sep"
  param {
    lr_mult: 0
    decay_mult: 0
  }
  param {
    lr_mult: 0
    decay_mult: 0
  }
  param {
    lr_mult: 0
    decay_mult: 0
  }
}
layer {
  name: "conv3_1/sep/scale"
  type: "Scale"
  bottom: "conv3_1/sep"
  top: "conv3_1/sep"
  param {
    lr_mult: 1
    decay_mult: 0
  }
  param {
    lr_mult: 1
    decay_mult: 0
  }
  scale_param {
    filler {
      value: 1
    }
    bias_term: true
    bias_filler {
      value: 0
    }
  }
}
layer {
  name: "relu3_1/sep"
  type: "ReLU"
  bottom: "conv3_1/sep"
  top: "conv3_1/sep"
}
layer {
  name: "conv3_2/dw"
  type: "Convolution"
  bottom: "conv3_1/sep"
  top: "conv3_2/dw"
  param {
    lr_mult: 1
    decay_mult: 1
  }
  convolution_param {
    num_output: 128
    bias_term: false
    pad: 1
    kernel_size: 3
    group: 128
    stride: 2
    weight_filler {
      type: "msra"
    }
    engine: CAFFE
  }
}
layer {
  name: "conv3_2/dw/bn"
  type: "BatchNorm"
  bottom: "conv3_2/dw"
  top: "conv3_2/dw"
  param {
    lr_mult: 0
    decay_mult: 0
  }
  param {
    lr_mult: 0
    decay_mult: 0
  }
  param {
    lr_mult: 0
    decay_mult: 0
  }
}
layer {
  name: "conv3_2/dw/scale"
  type: "Scale"
  bottom: "conv3_2/dw"
  top: "conv3_2/dw"
  param {
    lr_mult: 1
    decay_mult: 0
  }
  param {
    lr_mult: 1
    decay_mult: 0
  }
  scale_param {
    filler {
      value: 1
    }
    bias_term: true
    bias_filler {
      value: 0
    }
  }
}
layer {
  name: "relu3_2/dw"
  type: "ReLU"
  bottom: "conv3_2/dw"
  top: "conv3_2/dw"
}
layer {
  name: "conv3_2/sep"
  type: "Convolution"
  bottom: "conv3_2/dw"
  top: "conv3_2/sep"
  param {
    lr_mult: 1
    decay_mult: 1
  }
  convolution_param {
    num_output: 256
    bias_term: false
    pad: 0
    kernel_size: 1
    stride: 1
    weight_filler {
      type: "msra"
    }
  }
}
layer {
  name: "conv3_2/sep/bn"
  type: "BatchNorm"
  bottom: "conv3_2/sep"
  top: "conv3_2/sep"
  param {
    lr_mult: 0
    decay_mult: 0
  }
  param {
    lr_mult: 0
    decay_mult: 0
  }
  param {
    lr_mult: 0
    decay_mult: 0
  }
}
layer {
  name: "conv3_2/sep/scale"
  type: "Scale"
  bottom: "conv3_2/sep"
  top: "conv3_2/sep"
  param {
    lr_mult: 1
    decay_mult: 0
  }
  param {
    lr_mult: 1
    decay_mult: 0
  }
  scale_param {
    filler {
      value: 1
    }
    bias_term: true
    bias_filler {
      value: 0
    }
  }
}
layer {
  name: "relu3_2/sep"
  type: "ReLU"
  bottom: "conv3_2/sep"
  top: "conv3_2/sep"
}
layer {
  name: "conv4_1/dw"
  type: "Convolution"
  bottom: "conv3_2/sep"
  top: "conv4_1/dw"
  param {
    lr_mult: 1
    decay_mult: 1
  }
  convolution_param {
    num_output: 256
    bias_term: false
    pad: 1
    kernel_size: 3
    group: 256
    stride: 1
    weight_filler {
      type: "msra"
    }
    engine: CAFFE
  }
}
layer {
  name: "conv4_1/dw/bn"
  type: "BatchNorm"
  bottom: "conv4_1/dw"
  top: "conv4_1/dw"
  param {
    lr_mult: 0
    decay_mult: 0
  }
  param {
    lr_mult: 0
    decay_mult: 0
  }
  param {
    lr_mult: 0
    decay_mult: 0
  }
}
layer {
  name: "conv4_1/dw/scale"
  type: "Scale"
  bottom: "conv4_1/dw"
  top: "conv4_1/dw"
  param {
    lr_mult: 1
    decay_mult: 0
  }
  param {
    lr_mult: 1
    decay_mult: 0
  }
  scale_param {
    filler {
      value: 1
    }
    bias_term: true
    bias_filler {
      value: 0
    }
  }
}
layer {
  name: "relu4_1/dw"
  type: "ReLU"
  bottom: "conv4_1/dw"
  top: "conv4_1/dw"
}
layer {
  name: "conv4_1/sep"
  type: "Convolution"
  bottom: "conv4_1/dw"
  top: "conv4_1/sep"
  param {
    lr_mult: 1
    decay_mult: 1
  }
  convolution_param {
    num_output: 256
    bias_term: false
    pad: 0
    kernel_size: 1
    stride: 1
    weight_filler {
      type: "msra"
    }
  }
}
layer {
  name: "conv4_1/sep/bn"
  type: "BatchNorm"
  bottom: "conv4_1/sep"
  top: "conv4_1/sep"
  param {
    lr_mult: 0
    decay_mult: 0
  }
  param {
    lr_mult: 0
    decay_mult: 0
  }
  param {
    lr_mult: 0
    decay_mult: 0
  }
}
layer {
  name: "conv4_1/sep/scale"
  type: "Scale"
  bottom: "conv4_1/sep"
  top: "conv4_1/sep"
  param {
    lr_mult: 1
    decay_mult: 0
  }
  param {
    lr_mult: 1
    decay_mult: 0
  }
  scale_param {
    filler {
      value: 1
    }
    bias_term: true
    bias_filler {
      value: 0
    }
  }
}
layer {
  name: "relu4_1/sep"
  type: "ReLU"
  bottom: "conv4_1/sep"
  top: "conv4_1/sep"
}
layer {
  name: "conv4_2/dw"
  type: "Convolution"
  bottom: "conv4_1/sep"
  top: "conv4_2/dw"
  param {
    lr_mult: 1
    decay_mult: 1
  }
  convolution_param {
    num_output: 256
    bias_term: false
    pad: 1
    kernel_size: 3
    group: 256
    stride: 2
    weight_filler {
      type: "msra"
    }
    engine: CAFFE
  }
}
layer {
  name: "conv4_2/dw/bn"
  type: "BatchNorm"
  bottom: "conv4_2/dw"
  top: "conv4_2/dw"
  param {
    lr_mult: 0
    decay_mult: 0
  }
  param {
    lr_mult: 0
    decay_mult: 0
  }
  param {
    lr_mult: 0
    decay_mult: 0
  }
}
layer {
  name: "conv4_2/dw/scale"
  type: "Scale"
  bottom: "conv4_2/dw"
  top: "conv4_2/dw"
  param {
    lr_mult: 1
    decay_mult: 0
  }
  param {
    lr_mult: 1
    decay_mult: 0
  }
  scale_param {
    filler {
      value: 1
    }
    bias_term: true
    bias_filler {
      value: 0
    }
  }
}
layer {
  name: "relu4_2/dw"
  type: "ReLU"
  bottom: "conv4_2/dw"
  top: "conv4_2/dw"
}
layer {
  name: "conv4_2/sep"
  type: "Convolution"
  bottom: "conv4_2/dw"
  top: "conv4_2/sep"
  param {
    lr_mult: 1
    decay_mult: 1
  }
  convolution_param {
    num_output: 512
    bias_term: false
    pad: 0
    kernel_size: 1
    stride: 1
    weight_filler {
      type: "msra"
    }
  }
}
layer {
  name: "conv4_2/sep/bn"
  type: "BatchNorm"
  bottom: "conv4_2/sep"
  top: "conv4_2/sep"
  param {
    lr_mult: 0
    decay_mult: 0
  }
  param {
    lr_mult: 0
    decay_mult: 0
  }
  param {
    lr_mult: 0
    decay_mult: 0
  }
}
layer {
  name: "conv4_2/sep/scale"
  type: "Scale"
  bottom: "conv4_2/sep"
  top: "conv4_2/sep"
  param {
    lr_mult: 1
    decay_mult: 0
  }
  param {
    lr_mult: 1
    decay_mult: 0
  }
  scale_param {
    filler {
      value: 1
    }
    bias_term: true
    bias_filler {
      value: 0
    }
  }
}
layer {
  name: "relu4_2/sep"
  type: "ReLU"
  bottom: "conv4_2/sep"
  top: "conv4_2/sep"
}
layer {
  name: "conv5_1/dw"
  type: "Convolution"
  bottom: "conv4_2/sep"
  top: "conv5_1/dw"
  param {
    lr_mult: 1
    decay_mult: 1
  }
  convolution_param {
    num_output: 512
    bias_term: false
    pad: 1
    kernel_size: 3
    group: 512
    stride: 1
    weight_filler {
      type: "msra"
    }
    engine: CAFFE
  }
}
layer {
  name: "conv5_1/dw/bn"
  type: "BatchNorm"
  bottom: "conv5_1/dw"
  top: "conv5_1/dw"
  param {
    lr_mult: 0
    decay_mult: 0
  }
  param {
    lr_mult: 0
    decay_mult: 0
  }
  param {
    lr_mult: 0
    decay_mult: 0
  }
}
layer {
  name: "conv5_1/dw/scale"
  type: "Scale"
  bottom: "conv5_1/dw"
  top: "conv5_1/dw"
  param {
    lr_mult: 1
    decay_mult: 0
  }
  param {
    lr_mult: 1
    decay_mult: 0
  }
  scale_param {
    filler {
      value: 1
    }
    bias_term: true
    bias_filler {
      value: 0
    }
  }
}
layer {
  name: "relu5_1/dw"
  type: "ReLU"
  bottom: "conv5_1/dw"
  top: "conv5_1/dw"
}
layer {
  name: "conv5_1/sep"
  type: "Convolution"
  bottom: "conv5_1/dw"
  top: "conv5_1/sep"
  param {
    lr_mult: 1
    decay_mult: 1
  }
  convolution_param {
    num_output: 512
    bias_term: false
    pad: 0
    kernel_size: 1
    stride: 1
    weight_filler {
      type: "msra"
    }
  }
}
layer {
  name: "conv5_1/sep/bn"
  type: "BatchNorm"
  bottom: "conv5_1/sep"
  top: "conv5_1/sep"
  param {
    lr_mult: 0
    decay_mult: 0
  }
  param {
    lr_mult: 0
    decay_mult: 0
  }
  param {
    lr_mult: 0
    decay_mult: 0
  }
}
layer {
  name: "conv5_1/sep/scale"
  type: "Scale"
  bottom: "conv5_1/sep"
  top: "conv5_1/sep"
  param {
    lr_mult: 1
    decay_mult: 0
  }
  param {
    lr_mult: 1
    decay_mult: 0
  }
  scale_param {
    filler {
      value: 1
    }
    bias_term: true
    bias_filler {
      value: 0
    }
  }
}
layer {
  name: "relu5_1/sep"
  type: "ReLU"
  bottom: "conv5_1/sep"
  top: "conv5_1/sep"
}
layer {
  name: "conv5_2/dw"
  type: "Convolution"
  bottom: "conv5_1/sep"
  top: "conv5_2/dw"
  param {
    lr_mult: 1
    decay_mult: 1
  }
  convolution_param {
    num_output: 512
    bias_term: false
    pad: 1
    kernel_size: 3
    group: 512
    stride: 1
    weight_filler {
      type: "msra"
    }
    engine: CAFFE
  }
}
layer {
  name: "conv5_2/dw/bn"
  type: "BatchNorm"
  bottom: "conv5_2/dw"
  top: "conv5_2/dw"
  param {
    lr_mult: 0
    decay_mult: 0
  }
  param {
    lr_mult: 0
    decay_mult: 0
  }
  param {
    lr_mult: 0
    decay_mult: 0
  }
}
layer {
  name: "conv5_2/dw/scale"
  type: "Scale"
  bottom: "conv5_2/dw"
  top: "conv5_2/dw"
  param {
    lr_mult: 1
    decay_mult: 0
  }
  param {
    lr_mult: 1
    decay_mult: 0
  }
  scale_param {
    filler {
      value: 1
    }
    bias_term: true
    bias_filler {
      value: 0
    }
  }
}
layer {
  name: "relu5_2/dw"
  type: "ReLU"
  bottom: "conv5_2/dw"
  top: "conv5_2/dw"
}
layer {
  name: "conv5_2/sep"
  type: "Convolution"
  bottom: "conv5_2/dw"
  top: "conv5_2/sep"
  param {
    lr_mult: 1
    decay_mult: 1
  }
  convolution_param {
    num_output: 512
    bias_term: false
    pad: 0
    kernel_size: 1
    stride: 1
    weight_filler {
      type: "msra"
    }
  }
}
layer {
  name: "conv5_2/sep/bn"
  type: "BatchNorm"
  bottom: "conv5_2/sep"
  top: "conv5_2/sep"
  param {
    lr_mult: 0
    decay_mult: 0
  }
  param {
    lr_mult: 0
    decay_mult: 0
  }
  param {
    lr_mult: 0
    decay_mult: 0
  }
}
layer {
  name: "conv5_2/sep/scale"
  type: "Scale"
  bottom: "conv5_2/sep"
  top: "conv5_2/sep"
  param {
    lr_mult: 1
    decay_mult: 0
  }
  param {
    lr_mult: 1
    decay_mult: 0
  }
  scale_param {
    filler {
      value: 1
    }
    bias_term: true
    bias_filler {
      value: 0
    }
  }
}
layer {
  name: "relu5_2/sep"
  type: "ReLU"
  bottom: "conv5_2/sep"
  top: "conv5_2/sep"
}
layer {
  name: "conv5_3/dw"
  type: "Convolution"
  bottom: "conv5_2/sep"
  top: "conv5_3/dw"
  param {
    lr_mult: 1
    decay_mult: 1
  }
  convolution_param {
    num_output: 512
    bias_term: false
    pad: 1
    kernel_size: 3
    group: 512
    stride: 1
    weight_filler {
      type: "msra"
    }
    engine: CAFFE
  }
}
layer {
  name: "conv5_3/dw/bn"
  type: "BatchNorm"
  bottom: "conv5_3/dw"
  top: "conv5_3/dw"
  param {
    lr_mult: 0
    decay_mult: 0
  }
  param {
    lr_mult: 0
    decay_mult: 0
  }
  param {
    lr_mult: 0
    decay_mult: 0
  }
}
layer {
  name: "conv5_3/dw/scale"
  type: "Scale"
  bottom: "conv5_3/dw"
  top: "conv5_3/dw"
  param {
    lr_mult: 1
    decay_mult: 0
  }
  param {
    lr_mult: 1
    decay_mult: 0
  }
  scale_param {
    filler {
      value: 1
    }
    bias_term: true
    bias_filler {
      value: 0
    }
  }
}
layer {
  name: "relu5_3/dw"
  type: "ReLU"
  bottom: "conv5_3/dw"
  top: "conv5_3/dw"
}
layer {
  name: "conv5_3/sep"
  type: "Convolution"
  bottom: "conv5_3/dw"
  top: "conv5_3/sep"
  param {
    lr_mult: 1
    decay_mult: 1
  }
  convolution_param {
    num_output: 512
    bias_term: false
    pad: 0
    kernel_size: 1
    stride: 1
    weight_filler {
      type: "msra"
    }
  }
}
layer {
  name: "conv5_3/sep/bn"
  type: "BatchNorm"
  bottom: "conv5_3/sep"
  top: "conv5_3/sep"
  param {
    lr_mult: 0
    decay_mult: 0
  }
  param {
    lr_mult: 0
    decay_mult: 0
  }
  param {
    lr_mult: 0
    decay_mult: 0
  }
}
layer {
  name: "conv5_3/sep/scale"
  type: "Scale"
  bottom: "conv5_3/sep"
  top: "conv5_3/sep"
  param {
    lr_mult: 1
    decay_mult: 0
  }
  param {
    lr_mult: 1
    decay_mult: 0
  }
  scale_param {
    filler {
      value: 1
    }
    bias_term: true
    bias_filler {
      value: 0
    }
  }
}
layer {
  name: "relu5_3/sep"
  type: "ReLU"
  bottom: "conv5_3/sep"
  top: "conv5_3/sep"
}
layer {
  name: "conv5_4/dw"
  type: "Convolution"
  bottom: "conv5_3/sep"
  top: "conv5_4/dw"
  param {
    lr_mult: 1
    decay_mult: 1
  }
  convolution_param {
    num_output: 512
    bias_term: false
    pad: 1
    kernel_size: 3
    group: 512
    stride: 1
    weight_filler {
      type: "msra"
    }
    engine: CAFFE
  }
}
layer {
  name: "conv5_4/dw/bn"
  type: "BatchNorm"
  bottom: "conv5_4/dw"
  top: "conv5_4/dw"
  param {
    lr_mult: 0
    decay_mult: 0
  }
  param {
    lr_mult: 0
    decay_mult: 0
  }
  param {
    lr_mult: 0
    decay_mult: 0
  }
}
layer {
  name: "conv5_4/dw/scale"
  type: "Scale"
  bottom: "conv5_4/dw"
  top: "conv5_4/dw"
  param {
    lr_mult: 1
    decay_mult: 0
  }
  param {
    lr_mult: 1
    decay_mult: 0
  }
  scale_param {
    filler {
      value: 1
    }
    bias_term: true
    bias_filler {
      value: 0
    }
  }
}
layer {
  name: "relu5_4/dw"
  type: "ReLU"
  bottom: "conv5_4/dw"
  top: "conv5_4/dw"
}
layer {
  name: "conv5_4/sep"
  type: "Convolution"
  bottom: "conv5_4/dw"
  top: "conv5_4/sep"
  param {
    lr_mult: 1
    decay_mult: 1
  }
  convolution_param {
    num_output: 512
    bias_term: false
    pad: 0
    kernel_size: 1
    stride: 1
    weight_filler {
      type: "msra"
    }
  }
}
layer {
  name: "conv5_4/sep/bn"
  type: "BatchNorm"
  bottom: "conv5_4/sep"
  top: "conv5_4/sep"
  param {
    lr_mult: 0
    decay_mult: 0
  }
  param {
    lr_mult: 0
    decay_mult: 0
  }
  param {
    lr_mult: 0
    decay_mult: 0
  }
}
layer {
  name: "conv5_4/sep/scale"
  type: "Scale"
  bottom: "conv5_4/sep"
  top: "conv5_4/sep"
  param {
    lr_mult: 1
    decay_mult: 0
  }
  param {
    lr_mult: 1
    decay_mult: 0
  }
  scale_param {
    filler {
      value: 1
    }
    bias_term: true
    bias_filler {
      value: 0
    }
  }
}
layer {
  name: "relu5_4/sep"
  type: "ReLU"
  bottom: "conv5_4/sep"
  top: "conv5_4/sep"
}
layer {
  name: "conv5_5/dw"
  type: "Convolution"
  bottom: "conv5_4/sep"
  top: "conv5_5/dw"
  param {
    lr_mult: 1
    decay_mult: 1
  }
  convolution_param {
    num_output: 512
    bias_term: false
    pad: 1
    kernel_size: 3
    group: 512
    stride: 1
    weight_filler {
      type: "msra"
    }
    engine: CAFFE
  }
}
layer {
  name: "conv5_5/dw/bn"
  type: "BatchNorm"
  bottom: "conv5_5/dw"
  top: "conv5_5/dw"
  param {
    lr_mult: 0
    decay_mult: 0
  }
  param {
    lr_mult: 0
    decay_mult: 0
  }
  param {
    lr_mult: 0
    decay_mult: 0
  }
}
layer {
  name: "conv5_5/dw/scale"
  type: "Scale"
  bottom: "conv5_5/dw"
  top: "conv5_5/dw"
  param {
    lr_mult: 1
    decay_mult: 0
  }
  param {
    lr_mult: 1
    decay_mult: 0
  }
  scale_param {
    filler {
      value: 1
    }
    bias_term: true
    bias_filler {
      value: 0
    }
  }
}
layer {
  name: "relu5_5/dw"
  type: "ReLU"
  bottom: "conv5_5/dw"
  top: "conv5_5/dw"
}
layer {
  name: "conv5_5/sep"
  type: "Convolution"
  bottom: "conv5_5/dw"
  top: "conv5_5/sep"
  param {
    lr_mult: 1
    decay_mult: 1
  }
  convolution_param {
    num_output: 512
    bias_term: false
    pad: 0
    kernel_size: 1
    stride: 1
    weight_filler {
      type: "msra"
    }
  }
}
layer {
  name: "conv5_5/sep/bn"
  type: "BatchNorm"
  bottom: "conv5_5/sep"
  top: "conv5_5/sep"
  param {
    lr_mult: 0
    decay_mult: 0
  }
  param {
    lr_mult: 0
    decay_mult: 0
  }
  param {
    lr_mult: 0
    decay_mult: 0
  }
}
layer {
  name: "conv5_5/sep/scale"
  type: "Scale"
  bottom: "conv5_5/sep"
  top: "conv5_5/sep"
  param {
    lr_mult: 1
    decay_mult: 0
  }
  param {
    lr_mult: 1
    decay_mult: 0
  }
  scale_param {
    filler {
      value: 1
    }
    bias_term: true
    bias_filler {
      value: 0
    }
  }
}
layer {
  name: "relu5_5/sep"
  type: "ReLU"
  bottom: "conv5_5/sep"
  top: "conv5_5/sep"
}
layer {
  name: "pool6"
  type: "Pooling"
  bottom: "conv5_5/sep"
  top: "pool6"
  pooling_param {
    pool: AVE
    global_pooling: true
  }
}
layer {
  name: "fc7-mouth"
  type: "Convolution"
  bottom: "pool6"
  top: "fc7-mouth"
  param {
    lr_mult: 1
    decay_mult: 1
  }
  param {
    lr_mult: 2
    decay_mult: 0
  }
  convolution_param {
    num_output: 4
    kernel_size: 1
    weight_filler {
      type: "msra"
    }
    bias_filler {
      type: "constant"
      value: 0
    }
  }
}
layer {
  name: "loss"
  type: "Softmax"
  bottom: "fc7-mouth"
  top: "classifier"
}
I0706 23:50:00.460081  9582 layer_factory.hpp:77] Creating layer data
I0706 23:50:00.460098  9582 net.cpp:86] Creating Layer data
I0706 23:50:00.460109  9582 net.cpp:382] data -> data
I0706 23:50:00.460148  9582 net.cpp:124] Setting up data
I0706 23:50:00.460162  9582 net.cpp:131] Top shape: 1 3 96 96 (27648)
I0706 23:50:00.460166  9582 net.cpp:139] Memory required for data: 110592
I0706 23:50:00.460171  9582 layer_factory.hpp:77] Creating layer conv1
I0706 23:50:00.460187  9582 net.cpp:86] Creating Layer conv1
I0706 23:50:00.460193  9582 net.cpp:408] conv1 <- data
I0706 23:50:00.460201  9582 net.cpp:382] conv1 -> conv1
I0706 23:50:01.753003  9582 net.cpp:124] Setting up conv1
I0706 23:50:01.755713  9582 net.cpp:131] Top shape: 1 32 48 48 (73728)
I0706 23:50:01.755740  9582 net.cpp:139] Memory required for data: 405504
I0706 23:50:01.762048  9582 layer_factory.hpp:77] Creating layer conv1/bn
I0706 23:50:01.847411  9582 net.cpp:86] Creating Layer conv1/bn
I0706 23:50:01.847445  9582 net.cpp:408] conv1/bn <- conv1
I0706 23:50:01.847457  9582 net.cpp:369] conv1/bn -> conv1 (in-place)
I0706 23:50:01.850733  9582 net.cpp:124] Setting up conv1/bn
I0706 23:50:01.850757  9582 net.cpp:131] Top shape: 1 32 48 48 (73728)
I0706 23:50:01.850764  9582 net.cpp:139] Memory required for data: 700416
I0706 23:50:01.850783  9582 layer_factory.hpp:77] Creating layer conv1/scale
I0706 23:50:01.876425  9582 net.cpp:86] Creating Layer conv1/scale
I0706 23:50:01.876437  9582 net.cpp:408] conv1/scale <- conv1
I0706 23:50:01.876456  9582 net.cpp:369] conv1/scale -> conv1 (in-place)
I0706 23:50:01.877763  9582 layer_factory.hpp:77] Creating layer conv1/scale
I0706 23:50:01.879165  9582 net.cpp:124] Setting up conv1/scale
I0706 23:50:01.879186  9582 net.cpp:131] Top shape: 1 32 48 48 (73728)
I0706 23:50:01.879195  9582 net.cpp:139] Memory required for data: 995328
I0706 23:50:01.879216  9582 layer_factory.hpp:77] Creating layer relu1
I0706 23:50:01.879240  9582 net.cpp:86] Creating Layer relu1
I0706 23:50:01.879251  9582 net.cpp:408] relu1 <- conv1
I0706 23:50:01.879261  9582 net.cpp:369] relu1 -> conv1 (in-place)
I0706 23:50:01.882066  9582 net.cpp:124] Setting up relu1
I0706 23:50:01.882086  9582 net.cpp:131] Top shape: 1 32 48 48 (73728)
I0706 23:50:01.882091  9582 net.cpp:139] Memory required for data: 1290240
I0706 23:50:01.882097  9582 layer_factory.hpp:77] Creating layer conv2_1/dw
I0706 23:50:01.882108  9582 net.cpp:86] Creating Layer conv2_1/dw
I0706 23:50:01.882114  9582 net.cpp:408] conv2_1/dw <- conv1
I0706 23:50:01.882123  9582 net.cpp:382] conv2_1/dw -> conv2_1/dw
I0706 23:50:01.893229  9582 net.cpp:124] Setting up conv2_1/dw
I0706 23:50:01.893319  9582 net.cpp:131] Top shape: 1 32 48 48 (73728)
I0706 23:50:01.893324  9582 net.cpp:139] Memory required for data: 1585152
I0706 23:50:01.893342  9582 layer_factory.hpp:77] Creating layer conv2_1/dw/bn
I0706 23:50:01.893369  9582 net.cpp:86] Creating Layer conv2_1/dw/bn
I0706 23:50:01.893375  9582 net.cpp:408] conv2_1/dw/bn <- conv2_1/dw
I0706 23:50:01.893383  9582 net.cpp:369] conv2_1/dw/bn -> conv2_1/dw (in-place)
I0706 23:50:01.893419  9582 net.cpp:124] Setting up conv2_1/dw/bn
I0706 23:50:01.893435  9582 net.cpp:131] Top shape: 1 32 48 48 (73728)
I0706 23:50:01.893448  9582 net.cpp:139] Memory required for data: 1880064
I0706 23:50:01.893467  9582 layer_factory.hpp:77] Creating layer conv2_1/dw/scale
I0706 23:50:01.893477  9582 net.cpp:86] Creating Layer conv2_1/dw/scale
I0706 23:50:01.893491  9582 net.cpp:408] conv2_1/dw/scale <- conv2_1/dw
I0706 23:50:01.893499  9582 net.cpp:369] conv2_1/dw/scale -> conv2_1/dw (in-place)
I0706 23:50:01.893512  9582 layer_factory.hpp:77] Creating layer conv2_1/dw/scale
I0706 23:50:01.893607  9582 net.cpp:124] Setting up conv2_1/dw/scale
I0706 23:50:01.893616  9582 net.cpp:131] Top shape: 1 32 48 48 (73728)
I0706 23:50:01.893620  9582 net.cpp:139] Memory required for data: 2174976
I0706 23:50:01.893627  9582 layer_factory.hpp:77] Creating layer relu2_1/dw
I0706 23:50:01.893636  9582 net.cpp:86] Creating Layer relu2_1/dw
I0706 23:50:01.893640  9582 net.cpp:408] relu2_1/dw <- conv2_1/dw
I0706 23:50:01.893646  9582 net.cpp:369] relu2_1/dw -> conv2_1/dw (in-place)
I0706 23:50:01.894660  9582 net.cpp:124] Setting up relu2_1/dw
I0706 23:50:01.894681  9582 net.cpp:131] Top shape: 1 32 48 48 (73728)
I0706 23:50:01.894685  9582 net.cpp:139] Memory required for data: 2469888
I0706 23:50:01.894690  9582 layer_factory.hpp:77] Creating layer conv2_1/sep
I0706 23:50:01.894702  9582 net.cpp:86] Creating Layer conv2_1/sep
I0706 23:50:01.894707  9582 net.cpp:408] conv2_1/sep <- conv2_1/dw
I0706 23:50:01.894723  9582 net.cpp:382] conv2_1/sep -> conv2_1/sep
I0706 23:50:01.950740  9582 net.cpp:124] Setting up conv2_1/sep
I0706 23:50:01.950773  9582 net.cpp:131] Top shape: 1 64 48 48 (147456)
I0706 23:50:01.950779  9582 net.cpp:139] Memory required for data: 3059712
I0706 23:50:01.950794  9582 layer_factory.hpp:77] Creating layer conv2_1/sep/bn
I0706 23:50:01.950809  9582 net.cpp:86] Creating Layer conv2_1/sep/bn
I0706 23:50:01.950816  9582 net.cpp:408] conv2_1/sep/bn <- conv2_1/sep
I0706 23:50:01.950824  9582 net.cpp:369] conv2_1/sep/bn -> conv2_1/sep (in-place)
I0706 23:50:01.950860  9582 net.cpp:124] Setting up conv2_1/sep/bn
I0706 23:50:01.950877  9582 net.cpp:131] Top shape: 1 64 48 48 (147456)
I0706 23:50:01.950882  9582 net.cpp:139] Memory required for data: 3649536
I0706 23:50:01.950891  9582 layer_factory.hpp:77] Creating layer conv2_1/sep/scale
I0706 23:50:01.950901  9582 net.cpp:86] Creating Layer conv2_1/sep/scale
I0706 23:50:01.950906  9582 net.cpp:408] conv2_1/sep/scale <- conv2_1/sep
I0706 23:50:01.950913  9582 net.cpp:369] conv2_1/sep/scale -> conv2_1/sep (in-place)
I0706 23:50:01.950927  9582 layer_factory.hpp:77] Creating layer conv2_1/sep/scale
I0706 23:50:01.950956  9582 net.cpp:124] Setting up conv2_1/sep/scale
I0706 23:50:01.950964  9582 net.cpp:131] Top shape: 1 64 48 48 (147456)
I0706 23:50:01.950969  9582 net.cpp:139] Memory required for data: 4239360
I0706 23:50:01.950980  9582 layer_factory.hpp:77] Creating layer relu2_1/sep
I0706 23:50:01.950992  9582 net.cpp:86] Creating Layer relu2_1/sep
I0706 23:50:01.950999  9582 net.cpp:408] relu2_1/sep <- conv2_1/sep
I0706 23:50:01.951004  9582 net.cpp:369] relu2_1/sep -> conv2_1/sep (in-place)
I0706 23:50:01.952147  9582 net.cpp:124] Setting up relu2_1/sep
I0706 23:50:01.952162  9582 net.cpp:131] Top shape: 1 64 48 48 (147456)
I0706 23:50:01.952168  9582 net.cpp:139] Memory required for data: 4829184
I0706 23:50:01.952173  9582 layer_factory.hpp:77] Creating layer conv2_2/dw
I0706 23:50:01.952186  9582 net.cpp:86] Creating Layer conv2_2/dw
I0706 23:50:01.952193  9582 net.cpp:408] conv2_2/dw <- conv2_1/sep
I0706 23:50:01.952204  9582 net.cpp:382] conv2_2/dw -> conv2_2/dw
I0706 23:50:01.952255  9582 net.cpp:124] Setting up conv2_2/dw
I0706 23:50:01.952270  9582 net.cpp:131] Top shape: 1 64 24 24 (36864)
I0706 23:50:01.952278  9582 net.cpp:139] Memory required for data: 4976640
I0706 23:50:01.952289  9582 layer_factory.hpp:77] Creating layer conv2_2/dw/bn
I0706 23:50:01.952306  9582 net.cpp:86] Creating Layer conv2_2/dw/bn
I0706 23:50:01.952316  9582 net.cpp:408] conv2_2/dw/bn <- conv2_2/dw
I0706 23:50:01.952327  9582 net.cpp:369] conv2_2/dw/bn -> conv2_2/dw (in-place)
I0706 23:50:01.952356  9582 net.cpp:124] Setting up conv2_2/dw/bn
I0706 23:50:01.952366  9582 net.cpp:131] Top shape: 1 64 24 24 (36864)
I0706 23:50:01.952370  9582 net.cpp:139] Memory required for data: 5124096
I0706 23:50:01.952379  9582 layer_factory.hpp:77] Creating layer conv2_2/dw/scale
I0706 23:50:01.952389  9582 net.cpp:86] Creating Layer conv2_2/dw/scale
I0706 23:50:01.952394  9582 net.cpp:408] conv2_2/dw/scale <- conv2_2/dw
I0706 23:50:01.952402  9582 net.cpp:369] conv2_2/dw/scale -> conv2_2/dw (in-place)
I0706 23:50:01.952414  9582 layer_factory.hpp:77] Creating layer conv2_2/dw/scale
I0706 23:50:01.952432  9582 net.cpp:124] Setting up conv2_2/dw/scale
I0706 23:50:01.952440  9582 net.cpp:131] Top shape: 1 64 24 24 (36864)
I0706 23:50:01.952445  9582 net.cpp:139] Memory required for data: 5271552
I0706 23:50:01.952451  9582 layer_factory.hpp:77] Creating layer relu2_2/dw
I0706 23:50:01.952461  9582 net.cpp:86] Creating Layer relu2_2/dw
I0706 23:50:01.952468  9582 net.cpp:408] relu2_2/dw <- conv2_2/dw
I0706 23:50:01.952474  9582 net.cpp:369] relu2_2/dw -> conv2_2/dw (in-place)
I0706 23:50:01.953071  9582 net.cpp:124] Setting up relu2_2/dw
I0706 23:50:01.953088  9582 net.cpp:131] Top shape: 1 64 24 24 (36864)
I0706 23:50:01.953097  9582 net.cpp:139] Memory required for data: 5419008
I0706 23:50:01.953104  9582 layer_factory.hpp:77] Creating layer conv2_2/sep
I0706 23:50:01.953121  9582 net.cpp:86] Creating Layer conv2_2/sep
I0706 23:50:01.953132  9582 net.cpp:408] conv2_2/sep <- conv2_2/dw
I0706 23:50:01.953150  9582 net.cpp:382] conv2_2/sep -> conv2_2/sep
I0706 23:50:01.955723  9582 net.cpp:124] Setting up conv2_2/sep
I0706 23:50:01.955740  9582 net.cpp:131] Top shape: 1 128 24 24 (73728)
I0706 23:50:01.955746  9582 net.cpp:139] Memory required for data: 5713920
I0706 23:50:01.955755  9582 layer_factory.hpp:77] Creating layer conv2_2/sep/bn
I0706 23:50:01.955765  9582 net.cpp:86] Creating Layer conv2_2/sep/bn
I0706 23:50:01.955772  9582 net.cpp:408] conv2_2/sep/bn <- conv2_2/sep
I0706 23:50:01.955780  9582 net.cpp:369] conv2_2/sep/bn -> conv2_2/sep (in-place)
I0706 23:50:01.955797  9582 net.cpp:124] Setting up conv2_2/sep/bn
I0706 23:50:01.955806  9582 net.cpp:131] Top shape: 1 128 24 24 (73728)
I0706 23:50:01.955811  9582 net.cpp:139] Memory required for data: 6008832
I0706 23:50:01.955819  9582 layer_factory.hpp:77] Creating layer conv2_2/sep/scale
I0706 23:50:01.955827  9582 net.cpp:86] Creating Layer conv2_2/sep/scale
I0706 23:50:01.955832  9582 net.cpp:408] conv2_2/sep/scale <- conv2_2/sep
I0706 23:50:01.955840  9582 net.cpp:369] conv2_2/sep/scale -> conv2_2/sep (in-place)
I0706 23:50:01.955854  9582 layer_factory.hpp:77] Creating layer conv2_2/sep/scale
I0706 23:50:01.955874  9582 net.cpp:124] Setting up conv2_2/sep/scale
I0706 23:50:01.955883  9582 net.cpp:131] Top shape: 1 128 24 24 (73728)
I0706 23:50:01.955888  9582 net.cpp:139] Memory required for data: 6303744
I0706 23:50:01.955977  9582 layer_factory.hpp:77] Creating layer relu2_2/sep
I0706 23:50:01.955989  9582 net.cpp:86] Creating Layer relu2_2/sep
I0706 23:50:01.955996  9582 net.cpp:408] relu2_2/sep <- conv2_2/sep
I0706 23:50:01.956001  9582 net.cpp:369] relu2_2/sep -> conv2_2/sep (in-place)
I0706 23:50:01.957017  9582 net.cpp:124] Setting up relu2_2/sep
I0706 23:50:01.957031  9582 net.cpp:131] Top shape: 1 128 24 24 (73728)
I0706 23:50:01.957036  9582 net.cpp:139] Memory required for data: 6598656
I0706 23:50:01.957041  9582 layer_factory.hpp:77] Creating layer conv3_1/dw
I0706 23:50:01.957053  9582 net.cpp:86] Creating Layer conv3_1/dw
I0706 23:50:01.957060  9582 net.cpp:408] conv3_1/dw <- conv2_2/sep
I0706 23:50:01.957069  9582 net.cpp:382] conv3_1/dw -> conv3_1/dw
I0706 23:50:01.957105  9582 net.cpp:124] Setting up conv3_1/dw
I0706 23:50:01.957114  9582 net.cpp:131] Top shape: 1 128 24 24 (73728)
I0706 23:50:01.957120  9582 net.cpp:139] Memory required for data: 6893568
I0706 23:50:01.957126  9582 layer_factory.hpp:77] Creating layer conv3_1/dw/bn
I0706 23:50:01.957136  9582 net.cpp:86] Creating Layer conv3_1/dw/bn
I0706 23:50:01.957142  9582 net.cpp:408] conv3_1/dw/bn <- conv3_1/dw
I0706 23:50:01.957149  9582 net.cpp:369] conv3_1/dw/bn -> conv3_1/dw (in-place)
I0706 23:50:01.957166  9582 net.cpp:124] Setting up conv3_1/dw/bn
I0706 23:50:01.957176  9582 net.cpp:131] Top shape: 1 128 24 24 (73728)
I0706 23:50:01.957181  9582 net.cpp:139] Memory required for data: 7188480
I0706 23:50:01.957196  9582 layer_factory.hpp:77] Creating layer conv3_1/dw/scale
I0706 23:50:01.957204  9582 net.cpp:86] Creating Layer conv3_1/dw/scale
I0706 23:50:01.957211  9582 net.cpp:408] conv3_1/dw/scale <- conv3_1/dw
I0706 23:50:01.957218  9582 net.cpp:369] conv3_1/dw/scale -> conv3_1/dw (in-place)
I0706 23:50:01.957231  9582 layer_factory.hpp:77] Creating layer conv3_1/dw/scale
I0706 23:50:01.957248  9582 net.cpp:124] Setting up conv3_1/dw/scale
I0706 23:50:01.957257  9582 net.cpp:131] Top shape: 1 128 24 24 (73728)
I0706 23:50:01.957260  9582 net.cpp:139] Memory required for data: 7483392
I0706 23:50:01.957267  9582 layer_factory.hpp:77] Creating layer relu3_1/dw
I0706 23:50:01.957274  9582 net.cpp:86] Creating Layer relu3_1/dw
I0706 23:50:01.957278  9582 net.cpp:408] relu3_1/dw <- conv3_1/dw
I0706 23:50:01.957284  9582 net.cpp:369] relu3_1/dw -> conv3_1/dw (in-place)
I0706 23:50:01.957866  9582 net.cpp:124] Setting up relu3_1/dw
I0706 23:50:01.957881  9582 net.cpp:131] Top shape: 1 128 24 24 (73728)
I0706 23:50:01.957888  9582 net.cpp:139] Memory required for data: 7778304
I0706 23:50:01.957893  9582 layer_factory.hpp:77] Creating layer conv3_1/sep
I0706 23:50:01.957904  9582 net.cpp:86] Creating Layer conv3_1/sep
I0706 23:50:01.957911  9582 net.cpp:408] conv3_1/sep <- conv3_1/dw
I0706 23:50:01.957917  9582 net.cpp:382] conv3_1/sep -> conv3_1/sep
I0706 23:50:01.960434  9582 net.cpp:124] Setting up conv3_1/sep
I0706 23:50:01.960449  9582 net.cpp:131] Top shape: 1 128 24 24 (73728)
I0706 23:50:01.960456  9582 net.cpp:139] Memory required for data: 8073216
I0706 23:50:01.960464  9582 layer_factory.hpp:77] Creating layer conv3_1/sep/bn
I0706 23:50:01.960474  9582 net.cpp:86] Creating Layer conv3_1/sep/bn
I0706 23:50:01.960480  9582 net.cpp:408] conv3_1/sep/bn <- conv3_1/sep
I0706 23:50:01.960489  9582 net.cpp:369] conv3_1/sep/bn -> conv3_1/sep (in-place)
I0706 23:50:01.960508  9582 net.cpp:124] Setting up conv3_1/sep/bn
I0706 23:50:01.960516  9582 net.cpp:131] Top shape: 1 128 24 24 (73728)
I0706 23:50:01.960521  9582 net.cpp:139] Memory required for data: 8368128
I0706 23:50:01.960528  9582 layer_factory.hpp:77] Creating layer conv3_1/sep/scale
I0706 23:50:01.960538  9582 net.cpp:86] Creating Layer conv3_1/sep/scale
I0706 23:50:01.960544  9582 net.cpp:408] conv3_1/sep/scale <- conv3_1/sep
I0706 23:50:01.960551  9582 net.cpp:369] conv3_1/sep/scale -> conv3_1/sep (in-place)
I0706 23:50:01.960562  9582 layer_factory.hpp:77] Creating layer conv3_1/sep/scale
I0706 23:50:01.960582  9582 net.cpp:124] Setting up conv3_1/sep/scale
I0706 23:50:01.960592  9582 net.cpp:131] Top shape: 1 128 24 24 (73728)
I0706 23:50:01.960595  9582 net.cpp:139] Memory required for data: 8663040
I0706 23:50:01.960602  9582 layer_factory.hpp:77] Creating layer relu3_1/sep
I0706 23:50:01.960611  9582 net.cpp:86] Creating Layer relu3_1/sep
I0706 23:50:01.960618  9582 net.cpp:408] relu3_1/sep <- conv3_1/sep
I0706 23:50:01.960623  9582 net.cpp:369] relu3_1/sep -> conv3_1/sep (in-place)
I0706 23:50:01.961630  9582 net.cpp:124] Setting up relu3_1/sep
I0706 23:50:01.961644  9582 net.cpp:131] Top shape: 1 128 24 24 (73728)
I0706 23:50:01.961650  9582 net.cpp:139] Memory required for data: 8957952
I0706 23:50:01.961655  9582 layer_factory.hpp:77] Creating layer conv3_2/dw
I0706 23:50:01.961666  9582 net.cpp:86] Creating Layer conv3_2/dw
I0706 23:50:01.961673  9582 net.cpp:408] conv3_2/dw <- conv3_1/sep
I0706 23:50:01.961683  9582 net.cpp:382] conv3_2/dw -> conv3_2/dw
I0706 23:50:01.961720  9582 net.cpp:124] Setting up conv3_2/dw
I0706 23:50:01.961730  9582 net.cpp:131] Top shape: 1 128 12 12 (18432)
I0706 23:50:01.961735  9582 net.cpp:139] Memory required for data: 9031680
I0706 23:50:01.961741  9582 layer_factory.hpp:77] Creating layer conv3_2/dw/bn
I0706 23:50:01.961750  9582 net.cpp:86] Creating Layer conv3_2/dw/bn
I0706 23:50:01.961756  9582 net.cpp:408] conv3_2/dw/bn <- conv3_2/dw
I0706 23:50:01.961763  9582 net.cpp:369] conv3_2/dw/bn -> conv3_2/dw (in-place)
I0706 23:50:01.961781  9582 net.cpp:124] Setting up conv3_2/dw/bn
I0706 23:50:01.961789  9582 net.cpp:131] Top shape: 1 128 12 12 (18432)
I0706 23:50:01.961794  9582 net.cpp:139] Memory required for data: 9105408
I0706 23:50:01.961865  9582 layer_factory.hpp:77] Creating layer conv3_2/dw/scale
I0706 23:50:01.961876  9582 net.cpp:86] Creating Layer conv3_2/dw/scale
I0706 23:50:01.961882  9582 net.cpp:408] conv3_2/dw/scale <- conv3_2/dw
I0706 23:50:01.961890  9582 net.cpp:369] conv3_2/dw/scale -> conv3_2/dw (in-place)
I0706 23:50:01.961902  9582 layer_factory.hpp:77] Creating layer conv3_2/dw/scale
I0706 23:50:01.961920  9582 net.cpp:124] Setting up conv3_2/dw/scale
I0706 23:50:01.961928  9582 net.cpp:131] Top shape: 1 128 12 12 (18432)
I0706 23:50:01.961935  9582 net.cpp:139] Memory required for data: 9179136
I0706 23:50:01.961941  9582 layer_factory.hpp:77] Creating layer relu3_2/dw
I0706 23:50:01.961953  9582 net.cpp:86] Creating Layer relu3_2/dw
I0706 23:50:01.961959  9582 net.cpp:408] relu3_2/dw <- conv3_2/dw
I0706 23:50:01.961966  9582 net.cpp:369] relu3_2/dw -> conv3_2/dw (in-place)
I0706 23:50:01.962704  9582 net.cpp:124] Setting up relu3_2/dw
I0706 23:50:01.962725  9582 net.cpp:131] Top shape: 1 128 12 12 (18432)
I0706 23:50:01.962733  9582 net.cpp:139] Memory required for data: 9252864
I0706 23:50:01.962741  9582 layer_factory.hpp:77] Creating layer conv3_2/sep
I0706 23:50:01.962754  9582 net.cpp:86] Creating Layer conv3_2/sep
I0706 23:50:01.962760  9582 net.cpp:408] conv3_2/sep <- conv3_2/dw
I0706 23:50:01.962769  9582 net.cpp:382] conv3_2/sep -> conv3_2/sep
I0706 23:50:01.966599  9582 net.cpp:124] Setting up conv3_2/sep
I0706 23:50:01.966626  9582 net.cpp:131] Top shape: 1 256 12 12 (36864)
I0706 23:50:01.966631  9582 net.cpp:139] Memory required for data: 9400320
I0706 23:50:01.966652  9582 layer_factory.hpp:77] Creating layer conv3_2/sep/bn
I0706 23:50:01.966667  9582 net.cpp:86] Creating Layer conv3_2/sep/bn
I0706 23:50:01.966675  9582 net.cpp:408] conv3_2/sep/bn <- conv3_2/sep
I0706 23:50:01.966686  9582 net.cpp:369] conv3_2/sep/bn -> conv3_2/sep (in-place)
I0706 23:50:01.966823  9582 net.cpp:124] Setting up conv3_2/sep/bn
I0706 23:50:01.966835  9582 net.cpp:131] Top shape: 1 256 12 12 (36864)
I0706 23:50:01.966840  9582 net.cpp:139] Memory required for data: 9547776
I0706 23:50:01.966858  9582 layer_factory.hpp:77] Creating layer conv3_2/sep/scale
I0706 23:50:01.966871  9582 net.cpp:86] Creating Layer conv3_2/sep/scale
I0706 23:50:01.966876  9582 net.cpp:408] conv3_2/sep/scale <- conv3_2/sep
I0706 23:50:01.966884  9582 net.cpp:369] conv3_2/sep/scale -> conv3_2/sep (in-place)
I0706 23:50:01.966902  9582 layer_factory.hpp:77] Creating layer conv3_2/sep/scale
I0706 23:50:01.966922  9582 net.cpp:124] Setting up conv3_2/sep/scale
I0706 23:50:01.966930  9582 net.cpp:131] Top shape: 1 256 12 12 (36864)
I0706 23:50:01.966936  9582 net.cpp:139] Memory required for data: 9695232
I0706 23:50:01.966943  9582 layer_factory.hpp:77] Creating layer relu3_2/sep
I0706 23:50:01.966953  9582 net.cpp:86] Creating Layer relu3_2/sep
I0706 23:50:01.966958  9582 net.cpp:408] relu3_2/sep <- conv3_2/sep
I0706 23:50:01.966964  9582 net.cpp:369] relu3_2/sep -> conv3_2/sep (in-place)
I0706 23:50:01.967836  9582 net.cpp:124] Setting up relu3_2/sep
I0706 23:50:01.967849  9582 net.cpp:131] Top shape: 1 256 12 12 (36864)
I0706 23:50:01.967854  9582 net.cpp:139] Memory required for data: 9842688
I0706 23:50:01.967859  9582 layer_factory.hpp:77] Creating layer conv4_1/dw
I0706 23:50:01.967880  9582 net.cpp:86] Creating Layer conv4_1/dw
I0706 23:50:01.967885  9582 net.cpp:408] conv4_1/dw <- conv3_2/sep
I0706 23:50:01.967895  9582 net.cpp:382] conv4_1/dw -> conv4_1/dw
I0706 23:50:01.967953  9582 net.cpp:124] Setting up conv4_1/dw
I0706 23:50:01.967965  9582 net.cpp:131] Top shape: 1 256 12 12 (36864)
I0706 23:50:01.968065  9582 net.cpp:139] Memory required for data: 9990144
I0706 23:50:01.968075  9582 layer_factory.hpp:77] Creating layer conv4_1/dw/bn
I0706 23:50:01.968083  9582 net.cpp:86] Creating Layer conv4_1/dw/bn
I0706 23:50:01.968097  9582 net.cpp:408] conv4_1/dw/bn <- conv4_1/dw
I0706 23:50:01.968106  9582 net.cpp:369] conv4_1/dw/bn -> conv4_1/dw (in-place)
I0706 23:50:01.968124  9582 net.cpp:124] Setting up conv4_1/dw/bn
I0706 23:50:01.968134  9582 net.cpp:131] Top shape: 1 256 12 12 (36864)
I0706 23:50:01.968139  9582 net.cpp:139] Memory required for data: 10137600
I0706 23:50:01.968147  9582 layer_factory.hpp:77] Creating layer conv4_1/dw/scale
I0706 23:50:01.968155  9582 net.cpp:86] Creating Layer conv4_1/dw/scale
I0706 23:50:01.968161  9582 net.cpp:408] conv4_1/dw/scale <- conv4_1/dw
I0706 23:50:01.968169  9582 net.cpp:369] conv4_1/dw/scale -> conv4_1/dw (in-place)
I0706 23:50:01.968181  9582 layer_factory.hpp:77] Creating layer conv4_1/dw/scale
I0706 23:50:01.968197  9582 net.cpp:124] Setting up conv4_1/dw/scale
I0706 23:50:01.968205  9582 net.cpp:131] Top shape: 1 256 12 12 (36864)
I0706 23:50:01.968211  9582 net.cpp:139] Memory required for data: 10285056
I0706 23:50:01.968217  9582 layer_factory.hpp:77] Creating layer relu4_1/dw
I0706 23:50:01.968225  9582 net.cpp:86] Creating Layer relu4_1/dw
I0706 23:50:01.968231  9582 net.cpp:408] relu4_1/dw <- conv4_1/dw
I0706 23:50:01.968238  9582 net.cpp:369] relu4_1/dw -> conv4_1/dw (in-place)
I0706 23:50:01.968807  9582 net.cpp:124] Setting up relu4_1/dw
I0706 23:50:01.968818  9582 net.cpp:131] Top shape: 1 256 12 12 (36864)
I0706 23:50:01.968823  9582 net.cpp:139] Memory required for data: 10432512
I0706 23:50:01.968828  9582 layer_factory.hpp:77] Creating layer conv4_1/sep
I0706 23:50:01.968847  9582 net.cpp:86] Creating Layer conv4_1/sep
I0706 23:50:01.968853  9582 net.cpp:408] conv4_1/sep <- conv4_1/dw
I0706 23:50:01.968863  9582 net.cpp:382] conv4_1/sep -> conv4_1/sep
I0706 23:50:01.972595  9582 net.cpp:124] Setting up conv4_1/sep
I0706 23:50:01.972620  9582 net.cpp:131] Top shape: 1 256 12 12 (36864)
I0706 23:50:01.972625  9582 net.cpp:139] Memory required for data: 10579968
I0706 23:50:01.972637  9582 layer_factory.hpp:77] Creating layer conv4_1/sep/bn
I0706 23:50:01.972666  9582 net.cpp:86] Creating Layer conv4_1/sep/bn
I0706 23:50:01.972673  9582 net.cpp:408] conv4_1/sep/bn <- conv4_1/sep
I0706 23:50:01.972681  9582 net.cpp:369] conv4_1/sep/bn -> conv4_1/sep (in-place)
I0706 23:50:01.972712  9582 net.cpp:124] Setting up conv4_1/sep/bn
I0706 23:50:01.972720  9582 net.cpp:131] Top shape: 1 256 12 12 (36864)
I0706 23:50:01.972725  9582 net.cpp:139] Memory required for data: 10727424
I0706 23:50:01.972733  9582 layer_factory.hpp:77] Creating layer conv4_1/sep/scale
I0706 23:50:01.972743  9582 net.cpp:86] Creating Layer conv4_1/sep/scale
I0706 23:50:01.972828  9582 net.cpp:408] conv4_1/sep/scale <- conv4_1/sep
I0706 23:50:01.972846  9582 net.cpp:369] conv4_1/sep/scale -> conv4_1/sep (in-place)
I0706 23:50:01.972862  9582 layer_factory.hpp:77] Creating layer conv4_1/sep/scale
I0706 23:50:01.972900  9582 net.cpp:124] Setting up conv4_1/sep/scale
I0706 23:50:01.972918  9582 net.cpp:131] Top shape: 1 256 12 12 (36864)
I0706 23:50:01.972923  9582 net.cpp:139] Memory required for data: 10874880
I0706 23:50:01.972959  9582 layer_factory.hpp:77] Creating layer relu4_1/sep
I0706 23:50:01.972967  9582 net.cpp:86] Creating Layer relu4_1/sep
I0706 23:50:01.972973  9582 net.cpp:408] relu4_1/sep <- conv4_1/sep
I0706 23:50:01.972987  9582 net.cpp:369] relu4_1/sep -> conv4_1/sep (in-place)
I0706 23:50:01.973569  9582 net.cpp:124] Setting up relu4_1/sep
I0706 23:50:01.973584  9582 net.cpp:131] Top shape: 1 256 12 12 (36864)
I0706 23:50:01.973590  9582 net.cpp:139] Memory required for data: 11022336
I0706 23:50:01.973595  9582 layer_factory.hpp:77] Creating layer conv4_2/dw
I0706 23:50:01.973606  9582 net.cpp:86] Creating Layer conv4_2/dw
I0706 23:50:01.973613  9582 net.cpp:408] conv4_2/dw <- conv4_1/sep
I0706 23:50:01.973621  9582 net.cpp:382] conv4_2/dw -> conv4_2/dw
I0706 23:50:01.973675  9582 net.cpp:124] Setting up conv4_2/dw
I0706 23:50:01.973685  9582 net.cpp:131] Top shape: 1 256 6 6 (9216)
I0706 23:50:01.973690  9582 net.cpp:139] Memory required for data: 11059200
I0706 23:50:01.973696  9582 layer_factory.hpp:77] Creating layer conv4_2/dw/bn
I0706 23:50:01.973706  9582 net.cpp:86] Creating Layer conv4_2/dw/bn
I0706 23:50:01.973711  9582 net.cpp:408] conv4_2/dw/bn <- conv4_2/dw
I0706 23:50:01.973719  9582 net.cpp:369] conv4_2/dw/bn -> conv4_2/dw (in-place)
I0706 23:50:01.973737  9582 net.cpp:124] Setting up conv4_2/dw/bn
I0706 23:50:01.973744  9582 net.cpp:131] Top shape: 1 256 6 6 (9216)
I0706 23:50:01.973750  9582 net.cpp:139] Memory required for data: 11096064
I0706 23:50:01.973757  9582 layer_factory.hpp:77] Creating layer conv4_2/dw/scale
I0706 23:50:01.973767  9582 net.cpp:86] Creating Layer conv4_2/dw/scale
I0706 23:50:01.973773  9582 net.cpp:408] conv4_2/dw/scale <- conv4_2/dw
I0706 23:50:01.973780  9582 net.cpp:369] conv4_2/dw/scale -> conv4_2/dw (in-place)
I0706 23:50:01.973793  9582 layer_factory.hpp:77] Creating layer conv4_2/dw/scale
I0706 23:50:01.973809  9582 net.cpp:124] Setting up conv4_2/dw/scale
I0706 23:50:01.973817  9582 net.cpp:131] Top shape: 1 256 6 6 (9216)
I0706 23:50:01.973822  9582 net.cpp:139] Memory required for data: 11132928
I0706 23:50:01.973829  9582 layer_factory.hpp:77] Creating layer relu4_2/dw
I0706 23:50:01.973836  9582 net.cpp:86] Creating Layer relu4_2/dw
I0706 23:50:01.973842  9582 net.cpp:408] relu4_2/dw <- conv4_2/dw
I0706 23:50:01.973848  9582 net.cpp:369] relu4_2/dw -> conv4_2/dw (in-place)
I0706 23:50:01.974457  9582 net.cpp:124] Setting up relu4_2/dw
I0706 23:50:01.974470  9582 net.cpp:131] Top shape: 1 256 6 6 (9216)
I0706 23:50:01.974475  9582 net.cpp:139] Memory required for data: 11169792
I0706 23:50:01.974479  9582 layer_factory.hpp:77] Creating layer conv4_2/sep
I0706 23:50:01.974490  9582 net.cpp:86] Creating Layer conv4_2/sep
I0706 23:50:01.974498  9582 net.cpp:408] conv4_2/sep <- conv4_2/dw
I0706 23:50:01.974506  9582 net.cpp:382] conv4_2/sep -> conv4_2/sep
I0706 23:50:01.979840  9582 net.cpp:124] Setting up conv4_2/sep
I0706 23:50:01.979872  9582 net.cpp:131] Top shape: 1 512 6 6 (18432)
I0706 23:50:01.979881  9582 net.cpp:139] Memory required for data: 11243520
I0706 23:50:01.979905  9582 layer_factory.hpp:77] Creating layer conv4_2/sep/bn
I0706 23:50:01.979940  9582 net.cpp:86] Creating Layer conv4_2/sep/bn
I0706 23:50:01.979951  9582 net.cpp:408] conv4_2/sep/bn <- conv4_2/sep
I0706 23:50:01.979971  9582 net.cpp:369] conv4_2/sep/bn -> conv4_2/sep (in-place)
I0706 23:50:01.980028  9582 net.cpp:124] Setting up conv4_2/sep/bn
I0706 23:50:01.980041  9582 net.cpp:131] Top shape: 1 512 6 6 (18432)
I0706 23:50:01.980049  9582 net.cpp:139] Memory required for data: 11317248
I0706 23:50:01.980065  9582 layer_factory.hpp:77] Creating layer conv4_2/sep/scale
I0706 23:50:01.980082  9582 net.cpp:86] Creating Layer conv4_2/sep/scale
I0706 23:50:01.980091  9582 net.cpp:408] conv4_2/sep/scale <- conv4_2/sep
I0706 23:50:01.980103  9582 net.cpp:369] conv4_2/sep/scale -> conv4_2/sep (in-place)
I0706 23:50:01.980129  9582 layer_factory.hpp:77] Creating layer conv4_2/sep/scale
I0706 23:50:01.980247  9582 net.cpp:124] Setting up conv4_2/sep/scale
I0706 23:50:01.980262  9582 net.cpp:131] Top shape: 1 512 6 6 (18432)
I0706 23:50:01.980276  9582 net.cpp:139] Memory required for data: 11390976
I0706 23:50:01.980295  9582 layer_factory.hpp:77] Creating layer relu4_2/sep
I0706 23:50:01.980314  9582 net.cpp:86] Creating Layer relu4_2/sep
I0706 23:50:01.980322  9582 net.cpp:408] relu4_2/sep <- conv4_2/sep
I0706 23:50:01.980334  9582 net.cpp:369] relu4_2/sep -> conv4_2/sep (in-place)
I0706 23:50:01.981138  9582 net.cpp:124] Setting up relu4_2/sep
I0706 23:50:01.981215  9582 net.cpp:131] Top shape: 1 512 6 6 (18432)
I0706 23:50:01.981222  9582 net.cpp:139] Memory required for data: 11464704
I0706 23:50:01.981227  9582 layer_factory.hpp:77] Creating layer conv5_1/dw
I0706 23:50:01.981245  9582 net.cpp:86] Creating Layer conv5_1/dw
I0706 23:50:01.981251  9582 net.cpp:408] conv5_1/dw <- conv4_2/sep
I0706 23:50:01.981261  9582 net.cpp:382] conv5_1/dw -> conv5_1/dw
I0706 23:50:01.981423  9582 net.cpp:124] Setting up conv5_1/dw
I0706 23:50:01.981436  9582 net.cpp:131] Top shape: 1 512 6 6 (18432)
I0706 23:50:01.981439  9582 net.cpp:139] Memory required for data: 11538432
I0706 23:50:01.981446  9582 layer_factory.hpp:77] Creating layer conv5_1/dw/bn
I0706 23:50:01.981456  9582 net.cpp:86] Creating Layer conv5_1/dw/bn
I0706 23:50:01.981526  9582 net.cpp:408] conv5_1/dw/bn <- conv5_1/dw
I0706 23:50:01.981536  9582 net.cpp:369] conv5_1/dw/bn -> conv5_1/dw (in-place)
I0706 23:50:01.981554  9582 net.cpp:124] Setting up conv5_1/dw/bn
I0706 23:50:01.981561  9582 net.cpp:131] Top shape: 1 512 6 6 (18432)
I0706 23:50:01.981567  9582 net.cpp:139] Memory required for data: 11612160
I0706 23:50:01.981575  9582 layer_factory.hpp:77] Creating layer conv5_1/dw/scale
I0706 23:50:01.981583  9582 net.cpp:86] Creating Layer conv5_1/dw/scale
I0706 23:50:01.981590  9582 net.cpp:408] conv5_1/dw/scale <- conv5_1/dw
I0706 23:50:01.981597  9582 net.cpp:369] conv5_1/dw/scale -> conv5_1/dw (in-place)
I0706 23:50:01.981611  9582 layer_factory.hpp:77] Creating layer conv5_1/dw/scale
I0706 23:50:01.981629  9582 net.cpp:124] Setting up conv5_1/dw/scale
I0706 23:50:01.981637  9582 net.cpp:131] Top shape: 1 512 6 6 (18432)
I0706 23:50:01.981642  9582 net.cpp:139] Memory required for data: 11685888
I0706 23:50:01.981649  9582 layer_factory.hpp:77] Creating layer relu5_1/dw
I0706 23:50:01.981657  9582 net.cpp:86] Creating Layer relu5_1/dw
I0706 23:50:01.981662  9582 net.cpp:408] relu5_1/dw <- conv5_1/dw
I0706 23:50:01.981670  9582 net.cpp:369] relu5_1/dw -> conv5_1/dw (in-place)
I0706 23:50:01.982303  9582 net.cpp:124] Setting up relu5_1/dw
I0706 23:50:01.982316  9582 net.cpp:131] Top shape: 1 512 6 6 (18432)
I0706 23:50:01.982321  9582 net.cpp:139] Memory required for data: 11759616
I0706 23:50:01.982326  9582 layer_factory.hpp:77] Creating layer conv5_1/sep
I0706 23:50:01.982337  9582 net.cpp:86] Creating Layer conv5_1/sep
I0706 23:50:01.982343  9582 net.cpp:408] conv5_1/sep <- conv5_1/dw
I0706 23:50:01.982352  9582 net.cpp:382] conv5_1/sep -> conv5_1/sep
I0706 23:50:01.988791  9582 net.cpp:124] Setting up conv5_1/sep
I0706 23:50:01.988816  9582 net.cpp:131] Top shape: 1 512 6 6 (18432)
I0706 23:50:01.988821  9582 net.cpp:139] Memory required for data: 11833344
I0706 23:50:01.988832  9582 layer_factory.hpp:77] Creating layer conv5_1/sep/bn
I0706 23:50:01.988845  9582 net.cpp:86] Creating Layer conv5_1/sep/bn
I0706 23:50:01.988852  9582 net.cpp:408] conv5_1/sep/bn <- conv5_1/sep
I0706 23:50:01.988859  9582 net.cpp:369] conv5_1/sep/bn -> conv5_1/sep (in-place)
I0706 23:50:01.988878  9582 net.cpp:124] Setting up conv5_1/sep/bn
I0706 23:50:01.988896  9582 net.cpp:131] Top shape: 1 512 6 6 (18432)
I0706 23:50:01.988900  9582 net.cpp:139] Memory required for data: 11907072
I0706 23:50:01.988917  9582 layer_factory.hpp:77] Creating layer conv5_1/sep/scale
I0706 23:50:01.988925  9582 net.cpp:86] Creating Layer conv5_1/sep/scale
I0706 23:50:01.988930  9582 net.cpp:408] conv5_1/sep/scale <- conv5_1/sep
I0706 23:50:01.988940  9582 net.cpp:369] conv5_1/sep/scale -> conv5_1/sep (in-place)
I0706 23:50:01.988955  9582 layer_factory.hpp:77] Creating layer conv5_1/sep/scale
I0706 23:50:01.988975  9582 net.cpp:124] Setting up conv5_1/sep/scale
I0706 23:50:01.988997  9582 net.cpp:131] Top shape: 1 512 6 6 (18432)
I0706 23:50:01.989002  9582 net.cpp:139] Memory required for data: 11980800
I0706 23:50:01.989009  9582 layer_factory.hpp:77] Creating layer relu5_1/sep
I0706 23:50:01.989017  9582 net.cpp:86] Creating Layer relu5_1/sep
I0706 23:50:01.989022  9582 net.cpp:408] relu5_1/sep <- conv5_1/sep
I0706 23:50:01.989028  9582 net.cpp:369] relu5_1/sep -> conv5_1/sep (in-place)
I0706 23:50:01.989626  9582 net.cpp:124] Setting up relu5_1/sep
I0706 23:50:01.989639  9582 net.cpp:131] Top shape: 1 512 6 6 (18432)
I0706 23:50:01.989645  9582 net.cpp:139] Memory required for data: 12054528
I0706 23:50:01.989648  9582 layer_factory.hpp:77] Creating layer conv5_2/dw
I0706 23:50:01.989661  9582 net.cpp:86] Creating Layer conv5_2/dw
I0706 23:50:01.989667  9582 net.cpp:408] conv5_2/dw <- conv5_1/sep
I0706 23:50:01.989675  9582 net.cpp:382] conv5_2/dw -> conv5_2/dw
I0706 23:50:01.989761  9582 net.cpp:124] Setting up conv5_2/dw
I0706 23:50:01.989771  9582 net.cpp:131] Top shape: 1 512 6 6 (18432)
I0706 23:50:01.989775  9582 net.cpp:139] Memory required for data: 12128256
I0706 23:50:01.989789  9582 layer_factory.hpp:77] Creating layer conv5_2/dw/bn
I0706 23:50:01.989796  9582 net.cpp:86] Creating Layer conv5_2/dw/bn
I0706 23:50:01.989801  9582 net.cpp:408] conv5_2/dw/bn <- conv5_2/dw
I0706 23:50:01.989807  9582 net.cpp:369] conv5_2/dw/bn -> conv5_2/dw (in-place)
I0706 23:50:01.989822  9582 net.cpp:124] Setting up conv5_2/dw/bn
I0706 23:50:01.989830  9582 net.cpp:131] Top shape: 1 512 6 6 (18432)
I0706 23:50:01.989835  9582 net.cpp:139] Memory required for data: 12201984
I0706 23:50:01.989842  9582 layer_factory.hpp:77] Creating layer conv5_2/dw/scale
I0706 23:50:01.989851  9582 net.cpp:86] Creating Layer conv5_2/dw/scale
I0706 23:50:01.989856  9582 net.cpp:408] conv5_2/dw/scale <- conv5_2/dw
I0706 23:50:01.989862  9582 net.cpp:369] conv5_2/dw/scale -> conv5_2/dw (in-place)
I0706 23:50:01.989874  9582 layer_factory.hpp:77] Creating layer conv5_2/dw/scale
I0706 23:50:01.989892  9582 net.cpp:124] Setting up conv5_2/dw/scale
I0706 23:50:01.989900  9582 net.cpp:131] Top shape: 1 512 6 6 (18432)
I0706 23:50:01.989904  9582 net.cpp:139] Memory required for data: 12275712
I0706 23:50:01.989912  9582 layer_factory.hpp:77] Creating layer relu5_2/dw
I0706 23:50:01.989929  9582 net.cpp:86] Creating Layer relu5_2/dw
I0706 23:50:01.989935  9582 net.cpp:408] relu5_2/dw <- conv5_2/dw
I0706 23:50:01.989941  9582 net.cpp:369] relu5_2/dw -> conv5_2/dw (in-place)
I0706 23:50:01.991036  9582 net.cpp:124] Setting up relu5_2/dw
I0706 23:50:01.991050  9582 net.cpp:131] Top shape: 1 512 6 6 (18432)
I0706 23:50:01.991055  9582 net.cpp:139] Memory required for data: 12349440
I0706 23:50:01.991060  9582 layer_factory.hpp:77] Creating layer conv5_2/sep
I0706 23:50:01.991071  9582 net.cpp:86] Creating Layer conv5_2/sep
I0706 23:50:01.991078  9582 net.cpp:408] conv5_2/sep <- conv5_2/dw
I0706 23:50:01.991086  9582 net.cpp:382] conv5_2/sep -> conv5_2/sep
I0706 23:50:01.997355  9582 net.cpp:124] Setting up conv5_2/sep
I0706 23:50:01.997375  9582 net.cpp:131] Top shape: 1 512 6 6 (18432)
I0706 23:50:01.997388  9582 net.cpp:139] Memory required for data: 12423168
I0706 23:50:01.997400  9582 layer_factory.hpp:77] Creating layer conv5_2/sep/bn
I0706 23:50:01.997411  9582 net.cpp:86] Creating Layer conv5_2/sep/bn
I0706 23:50:01.997417  9582 net.cpp:408] conv5_2/sep/bn <- conv5_2/sep
I0706 23:50:01.997427  9582 net.cpp:369] conv5_2/sep/bn -> conv5_2/sep (in-place)
I0706 23:50:01.997524  9582 net.cpp:124] Setting up conv5_2/sep/bn
I0706 23:50:01.997534  9582 net.cpp:131] Top shape: 1 512 6 6 (18432)
I0706 23:50:01.997537  9582 net.cpp:139] Memory required for data: 12496896
I0706 23:50:01.997557  9582 layer_factory.hpp:77] Creating layer conv5_2/sep/scale
I0706 23:50:01.997573  9582 net.cpp:86] Creating Layer conv5_2/sep/scale
I0706 23:50:01.997582  9582 net.cpp:408] conv5_2/sep/scale <- conv5_2/sep
I0706 23:50:01.997596  9582 net.cpp:369] conv5_2/sep/scale -> conv5_2/sep (in-place)
I0706 23:50:01.997615  9582 layer_factory.hpp:77] Creating layer conv5_2/sep/scale
I0706 23:50:01.997722  9582 net.cpp:124] Setting up conv5_2/sep/scale
I0706 23:50:01.997732  9582 net.cpp:131] Top shape: 1 512 6 6 (18432)
I0706 23:50:01.997736  9582 net.cpp:139] Memory required for data: 12570624
I0706 23:50:01.997752  9582 layer_factory.hpp:77] Creating layer relu5_2/sep
I0706 23:50:01.997761  9582 net.cpp:86] Creating Layer relu5_2/sep
I0706 23:50:01.997766  9582 net.cpp:408] relu5_2/sep <- conv5_2/sep
I0706 23:50:01.997772  9582 net.cpp:369] relu5_2/sep -> conv5_2/sep (in-place)
I0706 23:50:01.998375  9582 net.cpp:124] Setting up relu5_2/sep
I0706 23:50:01.998389  9582 net.cpp:131] Top shape: 1 512 6 6 (18432)
I0706 23:50:01.998402  9582 net.cpp:139] Memory required for data: 12644352
I0706 23:50:01.998407  9582 layer_factory.hpp:77] Creating layer conv5_3/dw
I0706 23:50:01.998420  9582 net.cpp:86] Creating Layer conv5_3/dw
I0706 23:50:01.998425  9582 net.cpp:408] conv5_3/dw <- conv5_2/sep
I0706 23:50:01.998432  9582 net.cpp:382] conv5_3/dw -> conv5_3/dw
I0706 23:50:01.998574  9582 net.cpp:124] Setting up conv5_3/dw
I0706 23:50:01.998584  9582 net.cpp:131] Top shape: 1 512 6 6 (18432)
I0706 23:50:01.998587  9582 net.cpp:139] Memory required for data: 12718080
I0706 23:50:01.998602  9582 layer_factory.hpp:77] Creating layer conv5_3/dw/bn
I0706 23:50:01.998611  9582 net.cpp:86] Creating Layer conv5_3/dw/bn
I0706 23:50:01.998616  9582 net.cpp:408] conv5_3/dw/bn <- conv5_3/dw
I0706 23:50:01.998622  9582 net.cpp:369] conv5_3/dw/bn -> conv5_3/dw (in-place)
I0706 23:50:01.998636  9582 net.cpp:124] Setting up conv5_3/dw/bn
I0706 23:50:01.998644  9582 net.cpp:131] Top shape: 1 512 6 6 (18432)
I0706 23:50:01.998648  9582 net.cpp:139] Memory required for data: 12791808
I0706 23:50:01.998656  9582 layer_factory.hpp:77] Creating layer conv5_3/dw/scale
I0706 23:50:01.998666  9582 net.cpp:86] Creating Layer conv5_3/dw/scale
I0706 23:50:01.998670  9582 net.cpp:408] conv5_3/dw/scale <- conv5_3/dw
I0706 23:50:01.998677  9582 net.cpp:369] conv5_3/dw/scale -> conv5_3/dw (in-place)
I0706 23:50:01.998690  9582 layer_factory.hpp:77] Creating layer conv5_3/dw/scale
I0706 23:50:01.998724  9582 net.cpp:124] Setting up conv5_3/dw/scale
I0706 23:50:01.998731  9582 net.cpp:131] Top shape: 1 512 6 6 (18432)
I0706 23:50:01.998735  9582 net.cpp:139] Memory required for data: 12865536
I0706 23:50:01.998742  9582 layer_factory.hpp:77] Creating layer relu5_3/dw
I0706 23:50:01.998750  9582 net.cpp:86] Creating Layer relu5_3/dw
I0706 23:50:01.998755  9582 net.cpp:408] relu5_3/dw <- conv5_3/dw
I0706 23:50:01.998761  9582 net.cpp:369] relu5_3/dw -> conv5_3/dw (in-place)
I0706 23:50:01.999733  9582 net.cpp:124] Setting up relu5_3/dw
I0706 23:50:01.999748  9582 net.cpp:131] Top shape: 1 512 6 6 (18432)
I0706 23:50:01.999754  9582 net.cpp:139] Memory required for data: 12939264
I0706 23:50:01.999759  9582 layer_factory.hpp:77] Creating layer conv5_3/sep
I0706 23:50:01.999768  9582 net.cpp:86] Creating Layer conv5_3/sep
I0706 23:50:01.999773  9582 net.cpp:408] conv5_3/sep <- conv5_3/dw
I0706 23:50:01.999783  9582 net.cpp:382] conv5_3/sep -> conv5_3/sep
I0706 23:50:02.005435  9582 net.cpp:124] Setting up conv5_3/sep
I0706 23:50:02.005475  9582 net.cpp:131] Top shape: 1 512 6 6 (18432)
I0706 23:50:02.005486  9582 net.cpp:139] Memory required for data: 13012992
I0706 23:50:02.005599  9582 layer_factory.hpp:77] Creating layer conv5_3/sep/bn
I0706 23:50:02.005700  9582 net.cpp:86] Creating Layer conv5_3/sep/bn
I0706 23:50:02.005715  9582 net.cpp:408] conv5_3/sep/bn <- conv5_3/sep
I0706 23:50:02.005739  9582 net.cpp:369] conv5_3/sep/bn -> conv5_3/sep (in-place)
I0706 23:50:02.005774  9582 net.cpp:124] Setting up conv5_3/sep/bn
I0706 23:50:02.005796  9582 net.cpp:131] Top shape: 1 512 6 6 (18432)
I0706 23:50:02.005811  9582 net.cpp:139] Memory required for data: 13086720
I0706 23:50:02.005829  9582 layer_factory.hpp:77] Creating layer conv5_3/sep/scale
I0706 23:50:02.005848  9582 net.cpp:86] Creating Layer conv5_3/sep/scale
I0706 23:50:02.005867  9582 net.cpp:408] conv5_3/sep/scale <- conv5_3/sep
I0706 23:50:02.005887  9582 net.cpp:369] conv5_3/sep/scale -> conv5_3/sep (in-place)
I0706 23:50:02.005915  9582 layer_factory.hpp:77] Creating layer conv5_3/sep/scale
I0706 23:50:02.005956  9582 net.cpp:124] Setting up conv5_3/sep/scale
I0706 23:50:02.005966  9582 net.cpp:131] Top shape: 1 512 6 6 (18432)
I0706 23:50:02.006045  9582 net.cpp:139] Memory required for data: 13160448
I0706 23:50:02.006057  9582 layer_factory.hpp:77] Creating layer relu5_3/sep
I0706 23:50:02.006074  9582 net.cpp:86] Creating Layer relu5_3/sep
I0706 23:50:02.006080  9582 net.cpp:408] relu5_3/sep <- conv5_3/sep
I0706 23:50:02.006086  9582 net.cpp:369] relu5_3/sep -> conv5_3/sep (in-place)
I0706 23:50:02.006619  9582 net.cpp:124] Setting up relu5_3/sep
I0706 23:50:02.006633  9582 net.cpp:131] Top shape: 1 512 6 6 (18432)
I0706 23:50:02.006636  9582 net.cpp:139] Memory required for data: 13234176
I0706 23:50:02.006641  9582 layer_factory.hpp:77] Creating layer conv5_4/dw
I0706 23:50:02.006747  9582 net.cpp:86] Creating Layer conv5_4/dw
I0706 23:50:02.006814  9582 net.cpp:408] conv5_4/dw <- conv5_3/sep
I0706 23:50:02.006824  9582 net.cpp:382] conv5_4/dw -> conv5_4/dw
I0706 23:50:02.006906  9582 net.cpp:124] Setting up conv5_4/dw
I0706 23:50:02.006916  9582 net.cpp:131] Top shape: 1 512 6 6 (18432)
I0706 23:50:02.006920  9582 net.cpp:139] Memory required for data: 13307904
I0706 23:50:02.006927  9582 layer_factory.hpp:77] Creating layer conv5_4/dw/bn
I0706 23:50:02.006934  9582 net.cpp:86] Creating Layer conv5_4/dw/bn
I0706 23:50:02.006939  9582 net.cpp:408] conv5_4/dw/bn <- conv5_4/dw
I0706 23:50:02.006947  9582 net.cpp:369] conv5_4/dw/bn -> conv5_4/dw (in-place)
I0706 23:50:02.006961  9582 net.cpp:124] Setting up conv5_4/dw/bn
I0706 23:50:02.006968  9582 net.cpp:131] Top shape: 1 512 6 6 (18432)
I0706 23:50:02.006973  9582 net.cpp:139] Memory required for data: 13381632
I0706 23:50:02.006981  9582 layer_factory.hpp:77] Creating layer conv5_4/dw/scale
I0706 23:50:02.006989  9582 net.cpp:86] Creating Layer conv5_4/dw/scale
I0706 23:50:02.006994  9582 net.cpp:408] conv5_4/dw/scale <- conv5_4/dw
I0706 23:50:02.007000  9582 net.cpp:369] conv5_4/dw/scale -> conv5_4/dw (in-place)
I0706 23:50:02.007015  9582 layer_factory.hpp:77] Creating layer conv5_4/dw/scale
I0706 23:50:02.007036  9582 net.cpp:124] Setting up conv5_4/dw/scale
I0706 23:50:02.007046  9582 net.cpp:131] Top shape: 1 512 6 6 (18432)
I0706 23:50:02.007051  9582 net.cpp:139] Memory required for data: 13455360
I0706 23:50:02.007058  9582 layer_factory.hpp:77] Creating layer relu5_4/dw
I0706 23:50:02.007066  9582 net.cpp:86] Creating Layer relu5_4/dw
I0706 23:50:02.007069  9582 net.cpp:408] relu5_4/dw <- conv5_4/dw
I0706 23:50:02.007077  9582 net.cpp:369] relu5_4/dw -> conv5_4/dw (in-place)
I0706 23:50:02.008002  9582 net.cpp:124] Setting up relu5_4/dw
I0706 23:50:02.008018  9582 net.cpp:131] Top shape: 1 512 6 6 (18432)
I0706 23:50:02.008023  9582 net.cpp:139] Memory required for data: 13529088
I0706 23:50:02.008028  9582 layer_factory.hpp:77] Creating layer conv5_4/sep
I0706 23:50:02.008040  9582 net.cpp:86] Creating Layer conv5_4/sep
I0706 23:50:02.008045  9582 net.cpp:408] conv5_4/sep <- conv5_4/dw
I0706 23:50:02.008054  9582 net.cpp:382] conv5_4/sep -> conv5_4/sep
I0706 23:50:02.014071  9582 net.cpp:124] Setting up conv5_4/sep
I0706 23:50:02.014111  9582 net.cpp:131] Top shape: 1 512 6 6 (18432)
I0706 23:50:02.014117  9582 net.cpp:139] Memory required for data: 13602816
I0706 23:50:02.014134  9582 layer_factory.hpp:77] Creating layer conv5_4/sep/bn
I0706 23:50:02.014148  9582 net.cpp:86] Creating Layer conv5_4/sep/bn
I0706 23:50:02.014158  9582 net.cpp:408] conv5_4/sep/bn <- conv5_4/sep
I0706 23:50:02.014166  9582 net.cpp:369] conv5_4/sep/bn -> conv5_4/sep (in-place)
I0706 23:50:02.014192  9582 net.cpp:124] Setting up conv5_4/sep/bn
I0706 23:50:02.014211  9582 net.cpp:131] Top shape: 1 512 6 6 (18432)
I0706 23:50:02.014228  9582 net.cpp:139] Memory required for data: 13676544
I0706 23:50:02.014245  9582 layer_factory.hpp:77] Creating layer conv5_4/sep/scale
I0706 23:50:02.014281  9582 net.cpp:86] Creating Layer conv5_4/sep/scale
I0706 23:50:02.014286  9582 net.cpp:408] conv5_4/sep/scale <- conv5_4/sep
I0706 23:50:02.014293  9582 net.cpp:369] conv5_4/sep/scale -> conv5_4/sep (in-place)
I0706 23:50:02.014312  9582 layer_factory.hpp:77] Creating layer conv5_4/sep/scale
I0706 23:50:02.014338  9582 net.cpp:124] Setting up conv5_4/sep/scale
I0706 23:50:02.014348  9582 net.cpp:131] Top shape: 1 512 6 6 (18432)
I0706 23:50:02.014353  9582 net.cpp:139] Memory required for data: 13750272
I0706 23:50:02.014360  9582 layer_factory.hpp:77] Creating layer relu5_4/sep
I0706 23:50:02.014369  9582 net.cpp:86] Creating Layer relu5_4/sep
I0706 23:50:02.014376  9582 net.cpp:408] relu5_4/sep <- conv5_4/sep
I0706 23:50:02.014384  9582 net.cpp:369] relu5_4/sep -> conv5_4/sep (in-place)
I0706 23:50:02.014981  9582 net.cpp:124] Setting up relu5_4/sep
I0706 23:50:02.014992  9582 net.cpp:131] Top shape: 1 512 6 6 (18432)
I0706 23:50:02.014997  9582 net.cpp:139] Memory required for data: 13824000
I0706 23:50:02.015002  9582 layer_factory.hpp:77] Creating layer conv5_5/dw
I0706 23:50:02.015015  9582 net.cpp:86] Creating Layer conv5_5/dw
I0706 23:50:02.015022  9582 net.cpp:408] conv5_5/dw <- conv5_4/sep
I0706 23:50:02.015030  9582 net.cpp:382] conv5_5/dw -> conv5_5/dw
I0706 23:50:02.015108  9582 net.cpp:124] Setting up conv5_5/dw
I0706 23:50:02.015117  9582 net.cpp:131] Top shape: 1 512 6 6 (18432)
I0706 23:50:02.015122  9582 net.cpp:139] Memory required for data: 13897728
I0706 23:50:02.015128  9582 layer_factory.hpp:77] Creating layer conv5_5/dw/bn
I0706 23:50:02.015136  9582 net.cpp:86] Creating Layer conv5_5/dw/bn
I0706 23:50:02.015141  9582 net.cpp:408] conv5_5/dw/bn <- conv5_5/dw
I0706 23:50:02.015147  9582 net.cpp:369] conv5_5/dw/bn -> conv5_5/dw (in-place)
I0706 23:50:02.015163  9582 net.cpp:124] Setting up conv5_5/dw/bn
I0706 23:50:02.015172  9582 net.cpp:131] Top shape: 1 512 6 6 (18432)
I0706 23:50:02.015178  9582 net.cpp:139] Memory required for data: 13971456
I0706 23:50:02.015204  9582 layer_factory.hpp:77] Creating layer conv5_5/dw/scale
I0706 23:50:02.015259  9582 net.cpp:86] Creating Layer conv5_5/dw/scale
I0706 23:50:02.015269  9582 net.cpp:408] conv5_5/dw/scale <- conv5_5/dw
I0706 23:50:02.015276  9582 net.cpp:369] conv5_5/dw/scale -> conv5_5/dw (in-place)
I0706 23:50:02.015290  9582 layer_factory.hpp:77] Creating layer conv5_5/dw/scale
I0706 23:50:02.015308  9582 net.cpp:124] Setting up conv5_5/dw/scale
I0706 23:50:02.015316  9582 net.cpp:131] Top shape: 1 512 6 6 (18432)
I0706 23:50:02.015321  9582 net.cpp:139] Memory required for data: 14045184
I0706 23:50:02.015328  9582 layer_factory.hpp:77] Creating layer relu5_5/dw
I0706 23:50:02.015336  9582 net.cpp:86] Creating Layer relu5_5/dw
I0706 23:50:02.015341  9582 net.cpp:408] relu5_5/dw <- conv5_5/dw
I0706 23:50:02.015347  9582 net.cpp:369] relu5_5/dw -> conv5_5/dw (in-place)
I0706 23:50:02.016579  9582 net.cpp:124] Setting up relu5_5/dw
I0706 23:50:02.016593  9582 net.cpp:131] Top shape: 1 512 6 6 (18432)
I0706 23:50:02.016598  9582 net.cpp:139] Memory required for data: 14118912
I0706 23:50:02.016603  9582 layer_factory.hpp:77] Creating layer conv5_5/sep
I0706 23:50:02.016616  9582 net.cpp:86] Creating Layer conv5_5/sep
I0706 23:50:02.016623  9582 net.cpp:408] conv5_5/sep <- conv5_5/dw
I0706 23:50:02.016633  9582 net.cpp:382] conv5_5/sep -> conv5_5/sep
I0706 23:50:02.021972  9582 net.cpp:124] Setting up conv5_5/sep
I0706 23:50:02.021996  9582 net.cpp:131] Top shape: 1 512 6 6 (18432)
I0706 23:50:02.022001  9582 net.cpp:139] Memory required for data: 14192640
I0706 23:50:02.022019  9582 layer_factory.hpp:77] Creating layer conv5_5/sep/bn
I0706 23:50:02.022030  9582 net.cpp:86] Creating Layer conv5_5/sep/bn
I0706 23:50:02.022039  9582 net.cpp:408] conv5_5/sep/bn <- conv5_5/sep
I0706 23:50:02.022055  9582 net.cpp:369] conv5_5/sep/bn -> conv5_5/sep (in-place)
I0706 23:50:02.022075  9582 net.cpp:124] Setting up conv5_5/sep/bn
I0706 23:50:02.022094  9582 net.cpp:131] Top shape: 1 512 6 6 (18432)
I0706 23:50:02.022097  9582 net.cpp:139] Memory required for data: 14266368
I0706 23:50:02.022114  9582 layer_factory.hpp:77] Creating layer conv5_5/sep/scale
I0706 23:50:02.022130  9582 net.cpp:86] Creating Layer conv5_5/sep/scale
I0706 23:50:02.022136  9582 net.cpp:408] conv5_5/sep/scale <- conv5_5/sep
I0706 23:50:02.022145  9582 net.cpp:369] conv5_5/sep/scale -> conv5_5/sep (in-place)
I0706 23:50:02.022182  9582 layer_factory.hpp:77] Creating layer conv5_5/sep/scale
I0706 23:50:02.022204  9582 net.cpp:124] Setting up conv5_5/sep/scale
I0706 23:50:02.022220  9582 net.cpp:131] Top shape: 1 512 6 6 (18432)
I0706 23:50:02.022225  9582 net.cpp:139] Memory required for data: 14340096
I0706 23:50:02.022233  9582 layer_factory.hpp:77] Creating layer relu5_5/sep
I0706 23:50:02.022256  9582 net.cpp:86] Creating Layer relu5_5/sep
I0706 23:50:02.022261  9582 net.cpp:408] relu5_5/sep <- conv5_5/sep
I0706 23:50:02.022269  9582 net.cpp:369] relu5_5/sep -> conv5_5/sep (in-place)
I0706 23:50:02.023212  9582 net.cpp:124] Setting up relu5_5/sep
I0706 23:50:02.023226  9582 net.cpp:131] Top shape: 1 512 6 6 (18432)
I0706 23:50:02.023237  9582 net.cpp:139] Memory required for data: 14413824
I0706 23:50:02.023242  9582 layer_factory.hpp:77] Creating layer pool6
I0706 23:50:02.023250  9582 net.cpp:86] Creating Layer pool6
I0706 23:50:02.023257  9582 net.cpp:408] pool6 <- conv5_5/sep
I0706 23:50:02.023272  9582 net.cpp:382] pool6 -> pool6
I0706 23:50:02.024093  9582 net.cpp:124] Setting up pool6
I0706 23:50:02.024106  9582 net.cpp:131] Top shape: 1 512 1 1 (512)
I0706 23:50:02.024111  9582 net.cpp:139] Memory required for data: 14415872
I0706 23:50:02.024116  9582 layer_factory.hpp:77] Creating layer fc7-mouth
I0706 23:50:02.024129  9582 net.cpp:86] Creating Layer fc7-mouth
I0706 23:50:02.024135  9582 net.cpp:408] fc7-mouth <- pool6
I0706 23:50:02.024145  9582 net.cpp:382] fc7-mouth -> fc7-mouth
I0706 23:50:02.026139  9582 net.cpp:124] Setting up fc7-mouth
I0706 23:50:02.026152  9582 net.cpp:131] Top shape: 1 4 1 1 (4)
I0706 23:50:02.026157  9582 net.cpp:139] Memory required for data: 14415888
I0706 23:50:02.026166  9582 layer_factory.hpp:77] Creating layer loss
I0706 23:50:02.026180  9582 net.cpp:86] Creating Layer loss
I0706 23:50:02.026185  9582 net.cpp:408] loss <- fc7-mouth
I0706 23:50:02.026192  9582 net.cpp:382] loss -> classifier
I0706 23:50:02.026980  9582 net.cpp:124] Setting up loss
I0706 23:50:02.027000  9582 net.cpp:131] Top shape: 1 4 1 1 (4)
I0706 23:50:02.027005  9582 net.cpp:139] Memory required for data: 14415904
I0706 23:50:02.027010  9582 net.cpp:202] loss does not need backward computation.
I0706 23:50:02.027014  9582 net.cpp:202] fc7-mouth does not need backward computation.
I0706 23:50:02.027019  9582 net.cpp:202] pool6 does not need backward computation.
I0706 23:50:02.027024  9582 net.cpp:202] relu5_5/sep does not need backward computation.
…
