…
I0630 16:50:46.675588 28406 net.cpp:296] The NetState phase (0) differed from the phase (1) specified by a rule in layer data
I0630 16:50:46.676214 28406 net.cpp:53] Initializing net from parameters: 
name: "mouth"
state {
  phase: TRAIN
  level: 0
  stage: ""
}
layer {
  name: "data"
  type: "ImageData"
  top: "data"
  top: "clc-label"
  include {
    phase: TRAIN
  }
  transform_param {
    mirror: true
    crop_size: 96
    mean_value: 104.008
    mean_value: 116.669
    mean_value: 122.675
    min_side_min: 96
    min_side_max: 128
  }
  image_data_param {
    source: "all_shuffle_train.txt"
    batch_size: 64
    shuffle: true
  }
}
layer {
  name: "conv1"
  type: "Convolution"
  bottom: "data"
  top: "conv1"
  param {
    lr_mult: 1
    decay_mult: 1
  }
  convolution_param {
    num_output: 32
    bias_term: false
    pad: 1
    kernel_size: 3
    stride: 2
    weight_filler {
      type: "msra"
    }
  }
}
layer {
  name: "conv1/bn"
  type: "BatchNorm"
  bottom: "conv1"
  top: "conv1"
  param {
    lr_mult: 0
    decay_mult: 0
  }
  param {
    lr_mult: 0
    decay_mult: 0
  }
  param {
    lr_mult: 0
    decay_mult: 0
  }
  batch_norm_param {
    use_global_stats: false
    eps: 1e-05
  }
}
layer {
  name: "conv1/scale"
  type: "Scale"
  bottom: "conv1"
  top: "conv1"
  param {
    lr_mult: 1
    decay_mult: 0
  }
  param {
    lr_mult: 1
    decay_mult: 0
  }
  scale_param {
    filler {
      value: 1
    }
    bias_term: true
    bias_filler {
      value: 0
    }
  }
}
layer {
  name: "relu1"
  type: "ReLU"
  bottom: "conv1"
  top: "conv1"
}
layer {
  name: "conv2_1/dw"
  type: "Convolution"
  bottom: "conv1"
  top: "conv2_1/dw"
  param {
    lr_mult: 1
    decay_mult: 1
  }
  convolution_param {
    num_output: 32
    bias_term: false
    pad: 1
    kernel_size: 3
    group: 32
    stride: 1
    weight_filler {
      type: "msra"
    }
    engine: CAFFE
  }
}
layer {
  name: "conv2_1/dw/bn"
  type: "BatchNorm"
  bottom: "conv2_1/dw"
  top: "conv2_1/dw"
  param {
    lr_mult: 0
    decay_mult: 0
  }
  param {
    lr_mult: 0
    decay_mult: 0
  }
  param {
    lr_mult: 0
    decay_mult: 0
  }
  batch_norm_param {
    use_global_stats: false
    eps: 1e-05
  }
}
layer {
  name: "conv2_1/dw/scale"
  type: "Scale"
  bottom: "conv2_1/dw"
  top: "conv2_1/dw"
  param {
    lr_mult: 1
    decay_mult: 0
  }
  param {
    lr_mult: 1
    decay_mult: 0
  }
  scale_param {
    filler {
      value: 1
    }
    bias_term: true
    bias_filler {
      value: 0
    }
  }
}
layer {
  name: "relu2_1/dw"
  type: "ReLU"
  bottom: "conv2_1/dw"
  top: "conv2_1/dw"
}
layer {
  name: "conv2_1/sep"
  type: "Convolution"
  bottom: "conv2_1/dw"
  top: "conv2_1/sep"
  param {
    lr_mult: 1
    decay_mult: 1
  }
  convolution_param {
    num_output: 64
    bias_term: false
    pad: 0
    kernel_size: 1
    stride: 1
    weight_filler {
      type: "msra"
    }
  }
}
layer {
  name: "conv2_1/sep/bn"
  type: "BatchNorm"
  bottom: "conv2_1/sep"
  top: "conv2_1/sep"
  param {
    lr_mult: 0
    decay_mult: 0
  }
  param {
    lr_mult: 0
    decay_mult: 0
  }
  param {
    lr_mult: 0
    decay_mult: 0
  }
  batch_norm_param {
    use_global_stats: false
    eps: 1e-05
  }
}
layer {
  name: "conv2_1/sep/scale"
  type: "Scale"
  bottom: "conv2_1/sep"
  top: "conv2_1/sep"
  param {
    lr_mult: 1
    decay_mult: 0
  }
  param {
    lr_mult: 1
    decay_mult: 0
  }
  scale_param {
    filler {
      value: 1
    }
    bias_term: true
    bias_filler {
      value: 0
    }
  }
}
layer {
  name: "relu2_1/sep"
  type: "ReLU"
  bottom: "conv2_1/sep"
  top: "conv2_1/sep"
}
layer {
  name: "conv2_2/dw"
  type: "Convolution"
  bottom: "conv2_1/sep"
  top: "conv2_2/dw"
  param {
    lr_mult: 1
    decay_mult: 1
  }
  convolution_param {
    num_output: 64
    bias_term: false
    pad: 1
    kernel_size: 3
    group: 64
    stride: 2
    weight_filler {
      type: "msra"
    }
    engine: CAFFE
  }
}
layer {
  name: "conv2_2/dw/bn"
  type: "BatchNorm"
  bottom: "conv2_2/dw"
  top: "conv2_2/dw"
  param {
    lr_mult: 0
    decay_mult: 0
  }
  param {
    lr_mult: 0
    decay_mult: 0
  }
  param {
    lr_mult: 0
    decay_mult: 0
  }
  batch_norm_param {
    use_global_stats: false
    eps: 1e-05
  }
}
layer {
  name: "conv2_2/dw/scale"
  type: "Scale"
  bottom: "conv2_2/dw"
  top: "conv2_2/dw"
  param {
    lr_mult: 1
    decay_mult: 0
  }
  param {
    lr_mult: 1
    decay_mult: 0
  }
  scale_param {
    filler {
      value: 1
    }
    bias_term: true
    bias_filler {
      value: 0
    }
  }
}
layer {
  name: "relu2_2/dw"
  type: "ReLU"
  bottom: "conv2_2/dw"
  top: "conv2_2/dw"
}
layer {
  name: "conv2_2/sep"
  type: "Convolution"
  bottom: "conv2_2/dw"
  top: "conv2_2/sep"
  param {
    lr_mult: 1
    decay_mult: 1
  }
  convolution_param {
    num_output: 128
    bias_term: false
    pad: 0
    kernel_size: 1
    stride: 1
    weight_filler {
      type: "msra"
    }
  }
}
layer {
  name: "conv2_2/sep/bn"
  type: "BatchNorm"
  bottom: "conv2_2/sep"
  top: "conv2_2/sep"
  param {
    lr_mult: 0
    decay_mult: 0
  }
  param {
    lr_mult: 0
    decay_mult: 0
  }
  param {
    lr_mult: 0
    decay_mult: 0
  }
  batch_norm_param {
    use_global_stats: false
    eps: 1e-05
  }
}
layer {
  name: "conv2_2/sep/scale"
  type: "Scale"
  bottom: "conv2_2/sep"
  top: "conv2_2/sep"
  param {
    lr_mult: 1
    decay_mult: 0
  }
  param {
    lr_mult: 1
    decay_mult: 0
  }
  scale_param {
    filler {
      value: 1
    }
    bias_term: true
    bias_filler {
      value: 0
    }
  }
}
layer {
  name: "relu2_2/sep"
  type: "ReLU"
  bottom: "conv2_2/sep"
  top: "conv2_2/sep"
}
layer {
  name: "conv3_1/dw"
  type: "Convolution"
  bottom: "conv2_2/sep"
  top: "conv3_1/dw"
  param {
    lr_mult: 1
    decay_mult: 1
  }
  convolution_param {
    num_output: 128
    bias_term: false
    pad: 1
    kernel_size: 3
    group: 128
    stride: 1
    weight_filler {
      type: "msra"
    }
    engine: CAFFE
  }
}
layer {
  name: "conv3_1/dw/bn"
  type: "BatchNorm"
  bottom: "conv3_1/dw"
  top: "conv3_1/dw"
  param {
    lr_mult: 0
    decay_mult: 0
  }
  param {
    lr_mult: 0
    decay_mult: 0
  }
  param {
    lr_mult: 0
    decay_mult: 0
  }
  batch_norm_param {
    use_global_stats: false
    eps: 1e-05
  }
}
layer {
  name: "conv3_1/dw/scale"
  type: "Scale"
  bottom: "conv3_1/dw"
  top: "conv3_1/dw"
  param {
    lr_mult: 1
    decay_mult: 0
  }
  param {
    lr_mult: 1
    decay_mult: 0
  }
  scale_param {
    filler {
      value: 1
    }
    bias_term: true
    bias_filler {
      value: 0
    }
  }
}
layer {
  name: "relu3_1/dw"
  type: "ReLU"
  bottom: "conv3_1/dw"
  top: "conv3_1/dw"
}
layer {
  name: "conv3_1/sep"
  type: "Convolution"
  bottom: "conv3_1/dw"
  top: "conv3_1/sep"
  param {
    lr_mult: 1
    decay_mult: 1
  }
  convolution_param {
    num_output: 128
    bias_term: false
    pad: 0
    kernel_size: 1
    stride: 1
    weight_filler {
      type: "msra"
    }
  }
}
layer {
  name: "conv3_1/sep/bn"
  type: "BatchNorm"
  bottom: "conv3_1/sep"
  top: "conv3_1/sep"
  param {
    lr_mult: 0
    decay_mult: 0
  }
  param {
    lr_mult: 0
    decay_mult: 0
  }
  param {
    lr_mult: 0
    decay_mult: 0
  }
  batch_norm_param {
    use_global_stats: false
    eps: 1e-05
  }
}
layer {
  name: "conv3_1/sep/scale"
  type: "Scale"
  bottom: "conv3_1/sep"
  top: "conv3_1/sep"
  param {
    lr_mult: 1
    decay_mult: 0
  }
  param {
    lr_mult: 1
    decay_mult: 0
  }
  scale_param {
    filler {
      value: 1
    }
    bias_term: true
    bias_filler {
      value: 0
    }
  }
}
layer {
  name: "relu3_1/sep"
  type: "ReLU"
  bottom: "conv3_1/sep"
  top: "conv3_1/sep"
}
layer {
  name: "conv3_2/dw"
  type: "Convolution"
  bottom: "conv3_1/sep"
  top: "conv3_2/dw"
  param {
    lr_mult: 1
    decay_mult: 1
  }
  convolution_param {
    num_output: 128
    bias_term: false
    pad: 1
    kernel_size: 3
    group: 128
    stride: 2
    weight_filler {
      type: "msra"
    }
    engine: CAFFE
  }
}
layer {
  name: "conv3_2/dw/bn"
  type: "BatchNorm"
  bottom: "conv3_2/dw"
  top: "conv3_2/dw"
  param {
    lr_mult: 0
    decay_mult: 0
  }
  param {
    lr_mult: 0
    decay_mult: 0
  }
  param {
    lr_mult: 0
    decay_mult: 0
  }
  batch_norm_param {
    use_global_stats: false
    eps: 1e-05
  }
}
layer {
  name: "conv3_2/dw/scale"
  type: "Scale"
  bottom: "conv3_2/dw"
  top: "conv3_2/dw"
  param {
    lr_mult: 1
    decay_mult: 0
  }
  param {
    lr_mult: 1
    decay_mult: 0
  }
  scale_param {
    filler {
      value: 1
    }
    bias_term: true
    bias_filler {
      value: 0
    }
  }
}
layer {
  name: "relu3_2/dw"
  type: "ReLU"
  bottom: "conv3_2/dw"
  top: "conv3_2/dw"
}
layer {
  name: "conv3_2/sep"
  type: "Convolution"
  bottom: "conv3_2/dw"
  top: "conv3_2/sep"
  param {
    lr_mult: 1
    decay_mult: 1
  }
  convolution_param {
    num_output: 256
    bias_term: false
    pad: 0
    kernel_size: 1
    stride: 1
    weight_filler {
      type: "msra"
    }
  }
}
layer {
  name: "conv3_2/sep/bn"
  type: "BatchNorm"
  bottom: "conv3_2/sep"
  top: "conv3_2/sep"
  param {
    lr_mult: 0
    decay_mult: 0
  }
  param {
    lr_mult: 0
    decay_mult: 0
  }
  param {
    lr_mult: 0
    decay_mult: 0
  }
  batch_norm_param {
    use_global_stats: false
    eps: 1e-05
  }
}
layer {
  name: "conv3_2/sep/scale"
  type: "Scale"
  bottom: "conv3_2/sep"
  top: "conv3_2/sep"
  param {
    lr_mult: 1
    decay_mult: 0
  }
  param {
    lr_mult: 1
    decay_mult: 0
  }
  scale_param {
    filler {
      value: 1
    }
    bias_term: true
    bias_filler {
      value: 0
    }
  }
}
layer {
  name: "relu3_2/sep"
  type: "ReLU"
  bottom: "conv3_2/sep"
  top: "conv3_2/sep"
}
layer {
  name: "conv4_1/dw"
  type: "Convolution"
  bottom: "conv3_2/sep"
  top: "conv4_1/dw"
  param {
    lr_mult: 1
    decay_mult: 1
  }
  convolution_param {
    num_output: 256
    bias_term: false
    pad: 1
    kernel_size: 3
    group: 256
    stride: 1
    weight_filler {
      type: "msra"
    }
    engine: CAFFE
  }
}
layer {
  name: "conv4_1/dw/bn"
  type: "BatchNorm"
  bottom: "conv4_1/dw"
  top: "conv4_1/dw"
  param {
    lr_mult: 0
    decay_mult: 0
  }
  param {
    lr_mult: 0
    decay_mult: 0
  }
  param {
    lr_mult: 0
    decay_mult: 0
  }
  batch_norm_param {
    use_global_stats: false
    eps: 1e-05
  }
}
layer {
  name: "conv4_1/dw/scale"
  type: "Scale"
  bottom: "conv4_1/dw"
  top: "conv4_1/dw"
  param {
    lr_mult: 1
    decay_mult: 0
  }
  param {
    lr_mult: 1
    decay_mult: 0
  }
  scale_param {
    filler {
      value: 1
    }
    bias_term: true
    bias_filler {
      value: 0
    }
  }
}
layer {
  name: "relu4_1/dw"
  type: "ReLU"
  bottom: "conv4_1/dw"
  top: "conv4_1/dw"
}
layer {
  name: "conv4_1/sep"
  type: "Convolution"
  bottom: "conv4_1/dw"
  top: "conv4_1/sep"
  param {
    lr_mult: 1
    decay_mult: 1
  }
  convolution_param {
    num_output: 256
    bias_term: false
    pad: 0
    kernel_size: 1
    stride: 1
    weight_filler {
      type: "msra"
    }
  }
}
layer {
  name: "conv4_1/sep/bn"
  type: "BatchNorm"
  bottom: "conv4_1/sep"
  top: "conv4_1/sep"
  param {
    lr_mult: 0
    decay_mult: 0
  }
  param {
    lr_mult: 0
    decay_mult: 0
  }
  param {
    lr_mult: 0
    decay_mult: 0
  }
  batch_norm_param {
    use_global_stats: false
    eps: 1e-05
  }
}
layer {
  name: "conv4_1/sep/scale"
  type: "Scale"
  bottom: "conv4_1/sep"
  top: "conv4_1/sep"
  param {
    lr_mult: 1
    decay_mult: 0
  }
  param {
    lr_mult: 1
    decay_mult: 0
  }
  scale_param {
    filler {
      value: 1
    }
    bias_term: true
    bias_filler {
      value: 0
    }
  }
}
layer {
  name: "relu4_1/sep"
  type: "ReLU"
  bottom: "conv4_1/sep"
  top: "conv4_1/sep"
}
layer {
  name: "conv4_2/dw"
  type: "Convolution"
  bottom: "conv4_1/sep"
  top: "conv4_2/dw"
  param {
    lr_mult: 1
    decay_mult: 1
  }
  convolution_param {
    num_output: 256
    bias_term: false
    pad: 1
    kernel_size: 3
    group: 256
    stride: 2
    weight_filler {
      type: "msra"
    }
    engine: CAFFE
  }
}
layer {
  name: "conv4_2/dw/bn"
  type: "BatchNorm"
  bottom: "conv4_2/dw"
  top: "conv4_2/dw"
  param {
    lr_mult: 0
    decay_mult: 0
  }
  param {
    lr_mult: 0
    decay_mult: 0
  }
  param {
    lr_mult: 0
    decay_mult: 0
  }
  batch_norm_param {
    use_global_stats: false
    eps: 1e-05
  }
}
layer {
  name: "conv4_2/dw/scale"
  type: "Scale"
  bottom: "conv4_2/dw"
  top: "conv4_2/dw"
  param {
    lr_mult: 1
    decay_mult: 0
  }
  param {
    lr_mult: 1
    decay_mult: 0
  }
  scale_param {
    filler {
      value: 1
    }
    bias_term: true
    bias_filler {
      value: 0
    }
  }
}
layer {
  name: "relu4_2/dw"
  type: "ReLU"
  bottom: "conv4_2/dw"
  top: "conv4_2/dw"
}
layer {
  name: "conv4_2/sep"
  type: "Convolution"
  bottom: "conv4_2/dw"
  top: "conv4_2/sep"
  param {
    lr_mult: 1
    decay_mult: 1
  }
  convolution_param {
    num_output: 512
    bias_term: false
    pad: 0
    kernel_size: 1
    stride: 1
    weight_filler {
      type: "msra"
    }
  }
}
layer {
  name: "conv4_2/sep/bn"
  type: "BatchNorm"
  bottom: "conv4_2/sep"
  top: "conv4_2/sep"
  param {
    lr_mult: 0
    decay_mult: 0
  }
  param {
    lr_mult: 0
    decay_mult: 0
  }
  param {
    lr_mult: 0
    decay_mult: 0
  }
  batch_norm_param {
    use_global_stats: false
    eps: 1e-05
  }
}
layer {
  name: "conv4_2/sep/scale"
  type: "Scale"
  bottom: "conv4_2/sep"
  top: "conv4_2/sep"
  param {
    lr_mult: 1
    decay_mult: 0
  }
  param {
    lr_mult: 1
    decay_mult: 0
  }
  scale_param {
    filler {
      value: 1
    }
    bias_term: true
    bias_filler {
      value: 0
    }
  }
}
layer {
  name: "relu4_2/sep"
  type: "ReLU"
  bottom: "conv4_2/sep"
  top: "conv4_2/sep"
}
layer {
  name: "conv5_1/dw"
  type: "Convolution"
  bottom: "conv4_2/sep"
  top: "conv5_1/dw"
  param {
    lr_mult: 1
    decay_mult: 1
  }
  convolution_param {
    num_output: 512
    bias_term: false
    pad: 1
    kernel_size: 3
    group: 512
    stride: 1
    weight_filler {
      type: "msra"
    }
    engine: CAFFE
  }
}
layer {
  name: "conv5_1/dw/bn"
  type: "BatchNorm"
  bottom: "conv5_1/dw"
  top: "conv5_1/dw"
  param {
    lr_mult: 0
    decay_mult: 0
  }
  param {
    lr_mult: 0
    decay_mult: 0
  }
  param {
    lr_mult: 0
    decay_mult: 0
  }
  batch_norm_param {
    use_global_stats: false
    eps: 1e-05
  }
}
layer {
  name: "conv5_1/dw/scale"
  type: "Scale"
  bottom: "conv5_1/dw"
  top: "conv5_1/dw"
  param {
    lr_mult: 1
    decay_mult: 0
  }
  param {
    lr_mult: 1
    decay_mult: 0
  }
  scale_param {
    filler {
      value: 1
    }
    bias_term: true
    bias_filler {
      value: 0
    }
  }
}
layer {
  name: "relu5_1/dw"
  type: "ReLU"
  bottom: "conv5_1/dw"
  top: "conv5_1/dw"
}
layer {
  name: "conv5_1/sep"
  type: "Convolution"
  bottom: "conv5_1/dw"
  top: "conv5_1/sep"
  param {
    lr_mult: 1
    decay_mult: 1
  }
  convolution_param {
    num_output: 512
    bias_term: false
    pad: 0
    kernel_size: 1
    stride: 1
    weight_filler {
      type: "msra"
    }
  }
}
layer {
  name: "conv5_1/sep/bn"
  type: "BatchNorm"
  bottom: "conv5_1/sep"
  top: "conv5_1/sep"
  param {
    lr_mult: 0
    decay_mult: 0
  }
  param {
    lr_mult: 0
    decay_mult: 0
  }
  param {
    lr_mult: 0
    decay_mult: 0
  }
  batch_norm_param {
    use_global_stats: false
    eps: 1e-05
  }
}
layer {
  name: "conv5_1/sep/scale"
  type: "Scale"
  bottom: "conv5_1/sep"
  top: "conv5_1/sep"
  param {
    lr_mult: 1
    decay_mult: 0
  }
  param {
    lr_mult: 1
    decay_mult: 0
  }
  scale_param {
    filler {
      value: 1
    }
    bias_term: true
    bias_filler {
      value: 0
    }
  }
}
layer {
  name: "relu5_1/sep"
  type: "ReLU"
  bottom: "conv5_1/sep"
  top: "conv5_1/sep"
}
layer {
  name: "conv5_2/dw"
  type: "Convolution"
  bottom: "conv5_1/sep"
  top: "conv5_2/dw"
  param {
    lr_mult: 1
    decay_mult: 1
  }
  convolution_param {
    num_output: 512
    bias_term: false
    pad: 1
    kernel_size: 3
    group: 512
    stride: 1
    weight_filler {
      type: "msra"
    }
    engine: CAFFE
  }
}
layer {
  name: "conv5_2/dw/bn"
  type: "BatchNorm"
  bottom: "conv5_2/dw"
  top: "conv5_2/dw"
  param {
    lr_mult: 0
    decay_mult: 0
  }
  param {
    lr_mult: 0
    decay_mult: 0
  }
  param {
    lr_mult: 0
    decay_mult: 0
  }
  batch_norm_param {
    use_global_stats: false
    eps: 1e-05
  }
}
layer {
  name: "conv5_2/dw/scale"
  type: "Scale"
  bottom: "conv5_2/dw"
  top: "conv5_2/dw"
  param {
    lr_mult: 1
    decay_mult: 0
  }
  param {
    lr_mult: 1
    decay_mult: 0
  }
  scale_param {
    filler {
      value: 1
    }
    bias_term: true
    bias_filler {
      value: 0
    }
  }
}
layer {
  name: "relu5_2/dw"
  type: "ReLU"
  bottom: "conv5_2/dw"
  top: "conv5_2/dw"
}
layer {
  name: "conv5_2/sep"
  type: "Convolution"
  bottom: "conv5_2/dw"
  top: "conv5_2/sep"
  param {
    lr_mult: 1
    decay_mult: 1
  }
  convolution_param {
    num_output: 512
    bias_term: false
    pad: 0
    kernel_size: 1
    stride: 1
    weight_filler {
      type: "msra"
    }
  }
}
layer {
  name: "conv5_2/sep/bn"
  type: "BatchNorm"
  bottom: "conv5_2/sep"
  top: "conv5_2/sep"
  param {
    lr_mult: 0
    decay_mult: 0
  }
  param {
    lr_mult: 0
    decay_mult: 0
  }
  param {
    lr_mult: 0
    decay_mult: 0
  }
  batch_norm_param {
    use_global_stats: false
    eps: 1e-05
  }
}
layer {
  name: "conv5_2/sep/scale"
  type: "Scale"
  bottom: "conv5_2/sep"
  top: "conv5_2/sep"
  param {
    lr_mult: 1
    decay_mult: 0
  }
  param {
    lr_mult: 1
    decay_mult: 0
  }
  scale_param {
    filler {
      value: 1
    }
    bias_term: true
    bias_filler {
      value: 0
    }
  }
}
layer {
  name: "relu5_2/sep"
  type: "ReLU"
  bottom: "conv5_2/sep"
  top: "conv5_2/sep"
}
layer {
  name: "conv5_3/dw"
  type: "Convolution"
  bottom: "conv5_2/sep"
  top: "conv5_3/dw"
  param {
    lr_mult: 1
    decay_mult: 1
  }
  convolution_param {
    num_output: 512
    bias_term: false
    pad: 1
    kernel_size: 3
    group: 512
    stride: 1
    weight_filler {
      type: "msra"
    }
    engine: CAFFE
  }
}
layer {
  name: "conv5_3/dw/bn"
  type: "BatchNorm"
  bottom: "conv5_3/dw"
  top: "conv5_3/dw"
  param {
    lr_mult: 0
    decay_mult: 0
  }
  param {
    lr_mult: 0
    decay_mult: 0
  }
  param {
    lr_mult: 0
    decay_mult: 0
  }
  batch_norm_param {
    use_global_stats: false
    eps: 1e-05
  }
}
layer {
  name: "conv5_3/dw/scale"
  type: "Scale"
  bottom: "conv5_3/dw"
  top: "conv5_3/dw"
  param {
    lr_mult: 1
    decay_mult: 0
  }
  param {
    lr_mult: 1
    decay_mult: 0
  }
  scale_param {
    filler {
      value: 1
    }
    bias_term: true
    bias_filler {
      value: 0
    }
  }
}
layer {
  name: "relu5_3/dw"
  type: "ReLU"
  bottom: "conv5_3/dw"
  top: "conv5_3/dw"
}
layer {
  name: "conv5_3/sep"
  type: "Convolution"
  bottom: "conv5_3/dw"
  top: "conv5_3/sep"
  param {
    lr_mult: 1
    decay_mult: 1
  }
  convolution_param {
    num_output: 512
    bias_term: false
    pad: 0
    kernel_size: 1
    stride: 1
    weight_filler {
      type: "msra"
    }
  }
}
layer {
  name: "conv5_3/sep/bn"
  type: "BatchNorm"
  bottom: "conv5_3/sep"
  top: "conv5_3/sep"
  param {
    lr_mult: 0
    decay_mult: 0
  }
  param {
    lr_mult: 0
    decay_mult: 0
  }
  param {
    lr_mult: 0
    decay_mult: 0
  }
  batch_norm_param {
    use_global_stats: false
    eps: 1e-05
  }
}
layer {
  name: "conv5_3/sep/scale"
  type: "Scale"
  bottom: "conv5_3/sep"
  top: "conv5_3/sep"
  param {
    lr_mult: 1
    decay_mult: 0
  }
  param {
    lr_mult: 1
    decay_mult: 0
  }
  scale_param {
    filler {
      value: 1
    }
    bias_term: true
    bias_filler {
      value: 0
    }
  }
}
layer {
  name: "relu5_3/sep"
  type: "ReLU"
  bottom: "conv5_3/sep"
  top: "conv5_3/sep"
}
layer {
  name: "conv5_4/dw"
  type: "Convolution"
  bottom: "conv5_3/sep"
  top: "conv5_4/dw"
  param {
    lr_mult: 1
    decay_mult: 1
  }
  convolution_param {
    num_output: 512
    bias_term: false
    pad: 1
    kernel_size: 3
    group: 512
    stride: 1
    weight_filler {
      type: "msra"
    }
    engine: CAFFE
  }
}
layer {
  name: "conv5_4/dw/bn"
  type: "BatchNorm"
  bottom: "conv5_4/dw"
  top: "conv5_4/dw"
  param {
    lr_mult: 0
    decay_mult: 0
  }
  param {
    lr_mult: 0
    decay_mult: 0
  }
  param {
    lr_mult: 0
    decay_mult: 0
  }
  batch_norm_param {
    use_global_stats: false
    eps: 1e-05
  }
}
layer {
  name: "conv5_4/dw/scale"
  type: "Scale"
  bottom: "conv5_4/dw"
  top: "conv5_4/dw"
  param {
    lr_mult: 1
    decay_mult: 0
  }
  param {
    lr_mult: 1
    decay_mult: 0
  }
  scale_param {
    filler {
      value: 1
    }
    bias_term: true
    bias_filler {
      value: 0
    }
  }
}
layer {
  name: "relu5_4/dw"
  type: "ReLU"
  bottom: "conv5_4/dw"
  top: "conv5_4/dw"
}
layer {
  name: "conv5_4/sep"
  type: "Convolution"
  bottom: "conv5_4/dw"
  top: "conv5_4/sep"
  param {
    lr_mult: 1
    decay_mult: 1
  }
  convolution_param {
    num_output: 512
    bias_term: false
    pad: 0
    kernel_size: 1
    stride: 1
    weight_filler {
      type: "msra"
    }
  }
}
layer {
  name: "conv5_4/sep/bn"
  type: "BatchNorm"
  bottom: "conv5_4/sep"
  top: "conv5_4/sep"
  param {
    lr_mult: 0
    decay_mult: 0
  }
  param {
    lr_mult: 0
    decay_mult: 0
  }
  param {
    lr_mult: 0
    decay_mult: 0
  }
  batch_norm_param {
    use_global_stats: false
    eps: 1e-05
  }
}
layer {
  name: "conv5_4/sep/scale"
  type: "Scale"
  bottom: "conv5_4/sep"
  top: "conv5_4/sep"
  param {
    lr_mult: 1
    decay_mult: 0
  }
  param {
    lr_mult: 1
    decay_mult: 0
  }
  scale_param {
    filler {
      value: 1
    }
    bias_term: true
    bias_filler {
      value: 0
    }
  }
}
layer {
  name: "relu5_4/sep"
  type: "ReLU"
  bottom: "conv5_4/sep"
  top: "conv5_4/sep"
}
layer {
  name: "conv5_5/dw"
  type: "Convolution"
  bottom: "conv5_4/sep"
  top: "conv5_5/dw"
  param {
    lr_mult: 1
    decay_mult: 1
  }
  convolution_param {
    num_output: 512
    bias_term: false
    pad: 1
    kernel_size: 3
    group: 512
    stride: 1
    weight_filler {
      type: "msra"
    }
    engine: CAFFE
  }
}
layer {
  name: "conv5_5/dw/bn"
  type: "BatchNorm"
  bottom: "conv5_5/dw"
  top: "conv5_5/dw"
  param {
    lr_mult: 0
    decay_mult: 0
  }
  param {
    lr_mult: 0
    decay_mult: 0
  }
  param {
    lr_mult: 0
    decay_mult: 0
  }
  batch_norm_param {
    use_global_stats: false
    eps: 1e-05
  }
}
layer {
  name: "conv5_5/dw/scale"
  type: "Scale"
  bottom: "conv5_5/dw"
  top: "conv5_5/dw"
  param {
    lr_mult: 1
    decay_mult: 0
  }
  param {
    lr_mult: 1
    decay_mult: 0
  }
  scale_param {
    filler {
      value: 1
    }
    bias_term: true
    bias_filler {
      value: 0
    }
  }
}
layer {
  name: "relu5_5/dw"
  type: "ReLU"
  bottom: "conv5_5/dw"
  top: "conv5_5/dw"
}
layer {
  name: "conv5_5/sep"
  type: "Convolution"
  bottom: "conv5_5/dw"
  top: "conv5_5/sep"
  param {
    lr_mult: 1
    decay_mult: 1
  }
  convolution_param {
    num_output: 512
    bias_term: false
    pad: 0
    kernel_size: 1
    stride: 1
    weight_filler {
      type: "msra"
    }
  }
}
layer {
  name: "conv5_5/sep/bn"
  type: "BatchNorm"
  bottom: "conv5_5/sep"
  top: "conv5_5/sep"
  param {
    lr_mult: 0
    decay_mult: 0
  }
  param {
    lr_mult: 0
    decay_mult: 0
  }
  param {
    lr_mult: 0
    decay_mult: 0
  }
  batch_norm_param {
    use_global_stats: false
    eps: 1e-05
  }
}
layer {
  name: "conv5_5/sep/scale"
  type: "Scale"
  bottom: "conv5_5/sep"
  top: "conv5_5/sep"
  param {
    lr_mult: 1
    decay_mult: 0
  }
  param {
    lr_mult: 1
    decay_mult: 0
  }
  scale_param {
    filler {
      value: 1
    }
    bias_term: true
    bias_filler {
      value: 0
    }
  }
}
layer {
  name: "relu5_5/sep"
  type: "ReLU"
  bottom: "conv5_5/sep"
  top: "conv5_5/sep"
}
layer {
  name: "pool6"
  type: "Pooling"
  bottom: "conv5_5/sep"
  top: "pool6"
  pooling_param {
    pool: AVE
    global_pooling: true
  }
}
layer {
  name: "fc7-mouth"
  type: "Convolution"
  bottom: "pool6"
  top: "fc7-mouth"
  param {
    lr_mult: 1
    decay_mult: 1
  }
  param {
    lr_mult: 2
    decay_mult: 0
  }
  convolution_param {
    num_output: 4
    kernel_size: 1
    weight_filler {
      type: "msra"
    }
    bias_filler {
      type: "constant"
      value: 0
    }
  }
}
layer {
  name: "loss"
  type: "SoftmaxWithLoss"
  bottom: "fc7-mouth"
  bottom: "clc-label"
  top: "loss"
}
layer {
  name: "acc"
  type: "Accuracy"
  bottom: "fc7-mouth"
  bottom: "clc-label"
  top: "acc"
  include {
    phase: TRAIN
  }
  include {
    phase: TEST
  }
}
I0630 16:50:46.676723 28406 layer_factory.hpp:77] Creating layer data
I0630 16:50:46.676762 28406 net.cpp:86] Creating Layer data
I0630 16:50:46.676780 28406 net.cpp:382] data -> data
I0630 16:50:46.676812 28406 net.cpp:382] data -> clc-label
I0630 16:50:46.676899 28406 image_data_layer.cpp:38] Opening file all_shuffle_train.txt
I0630 16:50:46.681514 28406 image_data_layer.cpp:53] Shuffling data
I0630 16:50:46.683982 28406 image_data_layer.cpp:63] A total of 13596 images.
I0630 16:50:46.687383 28406 image_data_layer.cpp:90] output data size: 64,3,96,96
I0630 16:50:46.705593 28406 net.cpp:124] Setting up data
I0630 16:50:46.705639 28406 net.cpp:131] Top shape: 64 3 96 96 (1769472)
I0630 16:50:46.705646 28406 net.cpp:131] Top shape: 64 (64)
I0630 16:50:46.705651 28406 net.cpp:139] Memory required for data: 7078144
I0630 16:50:46.705659 28406 layer_factory.hpp:77] Creating layer clc-label_data_1_split
I0630 16:50:46.705682 28406 net.cpp:86] Creating Layer clc-label_data_1_split
I0630 16:50:46.705688 28406 net.cpp:408] clc-label_data_1_split <- clc-label
I0630 16:50:46.705703 28406 net.cpp:382] clc-label_data_1_split -> clc-label_data_1_split_0
I0630 16:50:46.705730 28406 net.cpp:382] clc-label_data_1_split -> clc-label_data_1_split_1
I0630 16:50:46.705917 28406 net.cpp:124] Setting up clc-label_data_1_split
I0630 16:50:46.705953 28406 net.cpp:131] Top shape: 64 (64)
I0630 16:50:46.705960 28406 net.cpp:131] Top shape: 64 (64)
I0630 16:50:46.705965 28406 net.cpp:139] Memory required for data: 7078656
I0630 16:50:46.705968 28406 layer_factory.hpp:77] Creating layer conv1
I0630 16:50:46.705991 28406 net.cpp:86] Creating Layer conv1
I0630 16:50:46.706001 28406 net.cpp:408] conv1 <- data
I0630 16:50:46.706010 28406 net.cpp:382] conv1 -> conv1
I0630 16:50:47.318622 28406 net.cpp:124] Setting up conv1
I0630 16:50:47.318662 28406 net.cpp:131] Top shape: 64 32 48 48 (4718592)
I0630 16:50:47.318667 28406 net.cpp:139] Memory required for data: 25953024
I0630 16:50:47.318688 28406 layer_factory.hpp:77] Creating layer conv1/bn
I0630 16:50:47.318713 28406 net.cpp:86] Creating Layer conv1/bn
I0630 16:50:47.318722 28406 net.cpp:408] conv1/bn <- conv1
I0630 16:50:47.318743 28406 net.cpp:369] conv1/bn -> conv1 (in-place)
I0630 16:50:47.319806 28406 net.cpp:124] Setting up conv1/bn
I0630 16:50:47.319819 28406 net.cpp:131] Top shape: 64 32 48 48 (4718592)
I0630 16:50:47.319823 28406 net.cpp:139] Memory required for data: 44827392
I0630 16:50:47.319835 28406 layer_factory.hpp:77] Creating layer conv1/scale
I0630 16:50:47.319846 28406 net.cpp:86] Creating Layer conv1/scale
I0630 16:50:47.319851 28406 net.cpp:408] conv1/scale <- conv1
I0630 16:50:47.319860 28406 net.cpp:369] conv1/scale -> conv1 (in-place)
I0630 16:50:47.319927 28406 layer_factory.hpp:77] Creating layer conv1/scale
I0630 16:50:47.320077 28406 net.cpp:124] Setting up conv1/scale
I0630 16:50:47.320086 28406 net.cpp:131] Top shape: 64 32 48 48 (4718592)
I0630 16:50:47.320091 28406 net.cpp:139] Memory required for data: 63701760
I0630 16:50:47.320099 28406 layer_factory.hpp:77] Creating layer relu1
I0630 16:50:47.320124 28406 net.cpp:86] Creating Layer relu1
I0630 16:50:47.320132 28406 net.cpp:408] relu1 <- conv1
I0630 16:50:47.320147 28406 net.cpp:369] relu1 -> conv1 (in-place)
I0630 16:50:47.320578 28406 net.cpp:124] Setting up relu1
I0630 16:50:47.320590 28406 net.cpp:131] Top shape: 64 32 48 48 (4718592)
I0630 16:50:47.320593 28406 net.cpp:139] Memory required for data: 82576128
I0630 16:50:47.320597 28406 layer_factory.hpp:77] Creating layer conv2_1/dw
I0630 16:50:47.320608 28406 net.cpp:86] Creating Layer conv2_1/dw
I0630 16:50:47.320613 28406 net.cpp:408] conv2_1/dw <- conv1
I0630 16:50:47.320621 28406 net.cpp:382] conv2_1/dw -> conv2_1/dw
I0630 16:50:47.320812 28406 net.cpp:124] Setting up conv2_1/dw
I0630 16:50:47.320822 28406 net.cpp:131] Top shape: 64 32 48 48 (4718592)
I0630 16:50:47.320827 28406 net.cpp:139] Memory required for data: 101450496
I0630 16:50:47.320832 28406 layer_factory.hpp:77] Creating layer conv2_1/dw/bn
I0630 16:50:47.320838 28406 net.cpp:86] Creating Layer conv2_1/dw/bn
I0630 16:50:47.320843 28406 net.cpp:408] conv2_1/dw/bn <- conv2_1/dw
I0630 16:50:47.320848 28406 net.cpp:369] conv2_1/dw/bn -> conv2_1/dw (in-place)
I0630 16:50:47.321024 28406 net.cpp:124] Setting up conv2_1/dw/bn
I0630 16:50:47.321034 28406 net.cpp:131] Top shape: 64 32 48 48 (4718592)
I0630 16:50:47.321038 28406 net.cpp:139] Memory required for data: 120324864
I0630 16:50:47.321048 28406 layer_factory.hpp:77] Creating layer conv2_1/dw/scale
I0630 16:50:47.321056 28406 net.cpp:86] Creating Layer conv2_1/dw/scale
I0630 16:50:47.321060 28406 net.cpp:408] conv2_1/dw/scale <- conv2_1/dw
I0630 16:50:47.321066 28406 net.cpp:369] conv2_1/dw/scale -> conv2_1/dw (in-place)
I0630 16:50:47.321125 28406 layer_factory.hpp:77] Creating layer conv2_1/dw/scale
I0630 16:50:47.321282 28406 net.cpp:124] Setting up conv2_1/dw/scale
I0630 16:50:47.321292 28406 net.cpp:131] Top shape: 64 32 48 48 (4718592)
I0630 16:50:47.321297 28406 net.cpp:139] Memory required for data: 139199232
I0630 16:50:47.321305 28406 layer_factory.hpp:77] Creating layer relu2_1/dw
I0630 16:50:47.321310 28406 net.cpp:86] Creating Layer relu2_1/dw
I0630 16:50:47.321314 28406 net.cpp:408] relu2_1/dw <- conv2_1/dw
I0630 16:50:47.321321 28406 net.cpp:369] relu2_1/dw -> conv2_1/dw (in-place)
I0630 16:50:47.322044 28406 net.cpp:124] Setting up relu2_1/dw
I0630 16:50:47.322057 28406 net.cpp:131] Top shape: 64 32 48 48 (4718592)
I0630 16:50:47.322062 28406 net.cpp:139] Memory required for data: 158073600
I0630 16:50:47.322067 28406 layer_factory.hpp:77] Creating layer conv2_1/sep
I0630 16:50:47.322075 28406 net.cpp:86] Creating Layer conv2_1/sep
I0630 16:50:47.322080 28406 net.cpp:408] conv2_1/sep <- conv2_1/dw
I0630 16:50:47.322088 28406 net.cpp:382] conv2_1/sep -> conv2_1/sep
I0630 16:50:47.323823 28406 net.cpp:124] Setting up conv2_1/sep
I0630 16:50:47.323837 28406 net.cpp:131] Top shape: 64 64 48 48 (9437184)
I0630 16:50:47.323841 28406 net.cpp:139] Memory required for data: 195822336
I0630 16:50:47.323848 28406 layer_factory.hpp:77] Creating layer conv2_1/sep/bn
I0630 16:50:47.323855 28406 net.cpp:86] Creating Layer conv2_1/sep/bn
I0630 16:50:47.323860 28406 net.cpp:408] conv2_1/sep/bn <- conv2_1/sep
I0630 16:50:47.323866 28406 net.cpp:369] conv2_1/sep/bn -> conv2_1/sep (in-place)
I0630 16:50:47.324023 28406 net.cpp:124] Setting up conv2_1/sep/bn
I0630 16:50:47.324033 28406 net.cpp:131] Top shape: 64 64 48 48 (9437184)
I0630 16:50:47.324036 28406 net.cpp:139] Memory required for data: 233571072
I0630 16:50:47.324044 28406 layer_factory.hpp:77] Creating layer conv2_1/sep/scale
I0630 16:50:47.324052 28406 net.cpp:86] Creating Layer conv2_1/sep/scale
I0630 16:50:47.324056 28406 net.cpp:408] conv2_1/sep/scale <- conv2_1/sep
I0630 16:50:47.324062 28406 net.cpp:369] conv2_1/sep/scale -> conv2_1/sep (in-place)
I0630 16:50:47.324097 28406 layer_factory.hpp:77] Creating layer conv2_1/sep/scale
I0630 16:50:47.324209 28406 net.cpp:124] Setting up conv2_1/sep/scale
I0630 16:50:47.324219 28406 net.cpp:131] Top shape: 64 64 48 48 (9437184)
I0630 16:50:47.324223 28406 net.cpp:139] Memory required for data: 271319808
I0630 16:50:47.324244 28406 layer_factory.hpp:77] Creating layer relu2_1/sep
I0630 16:50:47.324250 28406 net.cpp:86] Creating Layer relu2_1/sep
I0630 16:50:47.324255 28406 net.cpp:408] relu2_1/sep <- conv2_1/sep
I0630 16:50:47.324260 28406 net.cpp:369] relu2_1/sep -> conv2_1/sep (in-place)
I0630 16:50:47.325002 28406 net.cpp:124] Setting up relu2_1/sep
I0630 16:50:47.325016 28406 net.cpp:131] Top shape: 64 64 48 48 (9437184)
I0630 16:50:47.325019 28406 net.cpp:139] Memory required for data: 309068544
I0630 16:50:47.325024 28406 layer_factory.hpp:77] Creating layer conv2_2/dw
I0630 16:50:47.325033 28406 net.cpp:86] Creating Layer conv2_2/dw
I0630 16:50:47.325037 28406 net.cpp:408] conv2_2/dw <- conv2_1/sep
I0630 16:50:47.325045 28406 net.cpp:382] conv2_2/dw -> conv2_2/dw
I0630 16:50:47.325220 28406 net.cpp:124] Setting up conv2_2/dw
I0630 16:50:47.325232 28406 net.cpp:131] Top shape: 64 64 24 24 (2359296)
I0630 16:50:47.325237 28406 net.cpp:139] Memory required for data: 318505728
I0630 16:50:47.325242 28406 layer_factory.hpp:77] Creating layer conv2_2/dw/bn
I0630 16:50:47.325248 28406 net.cpp:86] Creating Layer conv2_2/dw/bn
I0630 16:50:47.325253 28406 net.cpp:408] conv2_2/dw/bn <- conv2_2/dw
I0630 16:50:47.325259 28406 net.cpp:369] conv2_2/dw/bn -> conv2_2/dw (in-place)
I0630 16:50:47.325417 28406 net.cpp:124] Setting up conv2_2/dw/bn
I0630 16:50:47.325428 28406 net.cpp:131] Top shape: 64 64 24 24 (2359296)
I0630 16:50:47.325431 28406 net.cpp:139] Memory required for data: 327942912
I0630 16:50:47.325439 28406 layer_factory.hpp:77] Creating layer conv2_2/dw/scale
I0630 16:50:47.325448 28406 net.cpp:86] Creating Layer conv2_2/dw/scale
I0630 16:50:47.325453 28406 net.cpp:408] conv2_2/dw/scale <- conv2_2/dw
I0630 16:50:47.325459 28406 net.cpp:369] conv2_2/dw/scale -> conv2_2/dw (in-place)
I0630 16:50:47.325493 28406 layer_factory.hpp:77] Creating layer conv2_2/dw/scale
I0630 16:50:47.325610 28406 net.cpp:124] Setting up conv2_2/dw/scale
I0630 16:50:47.325619 28406 net.cpp:131] Top shape: 64 64 24 24 (2359296)
I0630 16:50:47.325624 28406 net.cpp:139] Memory required for data: 337380096
I0630 16:50:47.325630 28406 layer_factory.hpp:77] Creating layer relu2_2/dw
I0630 16:50:47.325636 28406 net.cpp:86] Creating Layer relu2_2/dw
I0630 16:50:47.325640 28406 net.cpp:408] relu2_2/dw <- conv2_2/dw
I0630 16:50:47.325646 28406 net.cpp:369] relu2_2/dw -> conv2_2/dw (in-place)
I0630 16:50:47.326050 28406 net.cpp:124] Setting up relu2_2/dw
I0630 16:50:47.326061 28406 net.cpp:131] Top shape: 64 64 24 24 (2359296)
I0630 16:50:47.326066 28406 net.cpp:139] Memory required for data: 346817280
I0630 16:50:47.326078 28406 layer_factory.hpp:77] Creating layer conv2_2/sep
I0630 16:50:47.326090 28406 net.cpp:86] Creating Layer conv2_2/sep
I0630 16:50:47.326097 28406 net.cpp:408] conv2_2/sep <- conv2_2/dw
I0630 16:50:47.326104 28406 net.cpp:382] conv2_2/sep -> conv2_2/sep
I0630 16:50:47.329056 28406 net.cpp:124] Setting up conv2_2/sep
I0630 16:50:47.329073 28406 net.cpp:131] Top shape: 64 128 24 24 (4718592)
I0630 16:50:47.329078 28406 net.cpp:139] Memory required for data: 365691648
I0630 16:50:47.329085 28406 layer_factory.hpp:77] Creating layer conv2_2/sep/bn
I0630 16:50:47.329094 28406 net.cpp:86] Creating Layer conv2_2/sep/bn
I0630 16:50:47.329099 28406 net.cpp:408] conv2_2/sep/bn <- conv2_2/sep
I0630 16:50:47.329107 28406 net.cpp:369] conv2_2/sep/bn -> conv2_2/sep (in-place)
I0630 16:50:47.329290 28406 net.cpp:124] Setting up conv2_2/sep/bn
I0630 16:50:47.329300 28406 net.cpp:131] Top shape: 64 128 24 24 (4718592)
I0630 16:50:47.329305 28406 net.cpp:139] Memory required for data: 384566016
I0630 16:50:47.329313 28406 layer_factory.hpp:77] Creating layer conv2_2/sep/scale
I0630 16:50:47.329320 28406 net.cpp:86] Creating Layer conv2_2/sep/scale
I0630 16:50:47.329325 28406 net.cpp:408] conv2_2/sep/scale <- conv2_2/sep
I0630 16:50:47.329332 28406 net.cpp:369] conv2_2/sep/scale -> conv2_2/sep (in-place)
I0630 16:50:47.329389 28406 layer_factory.hpp:77] Creating layer conv2_2/sep/scale
I0630 16:50:47.329530 28406 net.cpp:124] Setting up conv2_2/sep/scale
I0630 16:50:47.329540 28406 net.cpp:131] Top shape: 64 128 24 24 (4718592)
I0630 16:50:47.329545 28406 net.cpp:139] Memory required for data: 403440384
I0630 16:50:47.329551 28406 layer_factory.hpp:77] Creating layer relu2_2/sep
I0630 16:50:47.329558 28406 net.cpp:86] Creating Layer relu2_2/sep
I0630 16:50:47.329565 28406 net.cpp:408] relu2_2/sep <- conv2_2/sep
I0630 16:50:47.329571 28406 net.cpp:369] relu2_2/sep -> conv2_2/sep (in-place)
I0630 16:50:47.330381 28406 net.cpp:124] Setting up relu2_2/sep
I0630 16:50:47.330394 28406 net.cpp:131] Top shape: 64 128 24 24 (4718592)
I0630 16:50:47.330399 28406 net.cpp:139] Memory required for data: 422314752
I0630 16:50:47.330404 28406 layer_factory.hpp:77] Creating layer conv3_1/dw
I0630 16:50:47.330415 28406 net.cpp:86] Creating Layer conv3_1/dw
I0630 16:50:47.330420 28406 net.cpp:408] conv3_1/dw <- conv2_2/sep
I0630 16:50:47.330427 28406 net.cpp:382] conv3_1/dw -> conv3_1/dw
I0630 16:50:47.330618 28406 net.cpp:124] Setting up conv3_1/dw
I0630 16:50:47.330628 28406 net.cpp:131] Top shape: 64 128 24 24 (4718592)
I0630 16:50:47.330632 28406 net.cpp:139] Memory required for data: 441189120
I0630 16:50:47.330638 28406 layer_factory.hpp:77] Creating layer conv3_1/dw/bn
I0630 16:50:47.330644 28406 net.cpp:86] Creating Layer conv3_1/dw/bn
I0630 16:50:47.330648 28406 net.cpp:408] conv3_1/dw/bn <- conv3_1/dw
I0630 16:50:47.330658 28406 net.cpp:369] conv3_1/dw/bn -> conv3_1/dw (in-place)
I0630 16:50:47.330842 28406 net.cpp:124] Setting up conv3_1/dw/bn
I0630 16:50:47.330858 28406 net.cpp:131] Top shape: 64 128 24 24 (4718592)
I0630 16:50:47.330862 28406 net.cpp:139] Memory required for data: 460063488
I0630 16:50:47.330880 28406 layer_factory.hpp:77] Creating layer conv3_1/dw/scale
I0630 16:50:47.330907 28406 net.cpp:86] Creating Layer conv3_1/dw/scale
I0630 16:50:47.330914 28406 net.cpp:408] conv3_1/dw/scale <- conv3_1/dw
I0630 16:50:47.330930 28406 net.cpp:369] conv3_1/dw/scale -> conv3_1/dw (in-place)
I0630 16:50:47.331001 28406 layer_factory.hpp:77] Creating layer conv3_1/dw/scale
I0630 16:50:47.331126 28406 net.cpp:124] Setting up conv3_1/dw/scale
I0630 16:50:47.331143 28406 net.cpp:131] Top shape: 64 128 24 24 (4718592)
I0630 16:50:47.331148 28406 net.cpp:139] Memory required for data: 478937856
I0630 16:50:47.331159 28406 layer_factory.hpp:77] Creating layer relu3_1/dw
I0630 16:50:47.331177 28406 net.cpp:86] Creating Layer relu3_1/dw
I0630 16:50:47.331190 28406 net.cpp:408] relu3_1/dw <- conv3_1/dw
I0630 16:50:47.331199 28406 net.cpp:369] relu3_1/dw -> conv3_1/dw (in-place)
I0630 16:50:47.331676 28406 net.cpp:124] Setting up relu3_1/dw
I0630 16:50:47.331691 28406 net.cpp:131] Top shape: 64 128 24 24 (4718592)
I0630 16:50:47.331698 28406 net.cpp:139] Memory required for data: 497812224
I0630 16:50:47.331703 28406 layer_factory.hpp:77] Creating layer conv3_1/sep
I0630 16:50:47.331717 28406 net.cpp:86] Creating Layer conv3_1/sep
I0630 16:50:47.331724 28406 net.cpp:408] conv3_1/sep <- conv3_1/dw
I0630 16:50:47.331734 28406 net.cpp:382] conv3_1/sep -> conv3_1/sep
I0630 16:50:47.334167 28406 net.cpp:124] Setting up conv3_1/sep
I0630 16:50:47.334184 28406 net.cpp:131] Top shape: 64 128 24 24 (4718592)
I0630 16:50:47.334189 28406 net.cpp:139] Memory required for data: 516686592
I0630 16:50:47.334197 28406 layer_factory.hpp:77] Creating layer conv3_1/sep/bn
I0630 16:50:47.334206 28406 net.cpp:86] Creating Layer conv3_1/sep/bn
I0630 16:50:47.334214 28406 net.cpp:408] conv3_1/sep/bn <- conv3_1/sep
I0630 16:50:47.334236 28406 net.cpp:369] conv3_1/sep/bn -> conv3_1/sep (in-place)
I0630 16:50:47.334430 28406 net.cpp:124] Setting up conv3_1/sep/bn
I0630 16:50:47.334439 28406 net.cpp:131] Top shape: 64 128 24 24 (4718592)
I0630 16:50:47.334444 28406 net.cpp:139] Memory required for data: 535560960
I0630 16:50:47.334452 28406 layer_factory.hpp:77] Creating layer conv3_1/sep/scale
I0630 16:50:47.334460 28406 net.cpp:86] Creating Layer conv3_1/sep/scale
I0630 16:50:47.334467 28406 net.cpp:408] conv3_1/sep/scale <- conv3_1/sep
I0630 16:50:47.334516 28406 net.cpp:369] conv3_1/sep/scale -> conv3_1/sep (in-place)
I0630 16:50:47.334573 28406 layer_factory.hpp:77] Creating layer conv3_1/sep/scale
I0630 16:50:47.334725 28406 net.cpp:124] Setting up conv3_1/sep/scale
I0630 16:50:47.334735 28406 net.cpp:131] Top shape: 64 128 24 24 (4718592)
I0630 16:50:47.334751 28406 net.cpp:139] Memory required for data: 554435328
I0630 16:50:47.334764 28406 layer_factory.hpp:77] Creating layer relu3_1/sep
I0630 16:50:47.334774 28406 net.cpp:86] Creating Layer relu3_1/sep
I0630 16:50:47.334782 28406 net.cpp:408] relu3_1/sep <- conv3_1/sep
I0630 16:50:47.334797 28406 net.cpp:369] relu3_1/sep -> conv3_1/sep (in-place)
I0630 16:50:47.335721 28406 net.cpp:124] Setting up relu3_1/sep
I0630 16:50:47.335737 28406 net.cpp:131] Top shape: 64 128 24 24 (4718592)
I0630 16:50:47.335747 28406 net.cpp:139] Memory required for data: 573309696
I0630 16:50:47.335755 28406 layer_factory.hpp:77] Creating layer conv3_2/dw
I0630 16:50:47.335772 28406 net.cpp:86] Creating Layer conv3_2/dw
I0630 16:50:47.335778 28406 net.cpp:408] conv3_2/dw <- conv3_1/sep
I0630 16:50:47.335791 28406 net.cpp:382] conv3_2/dw -> conv3_2/dw
I0630 16:50:47.335999 28406 net.cpp:124] Setting up conv3_2/dw
I0630 16:50:47.336009 28406 net.cpp:131] Top shape: 64 128 12 12 (1179648)
I0630 16:50:47.336015 28406 net.cpp:139] Memory required for data: 578028288
I0630 16:50:47.336027 28406 layer_factory.hpp:77] Creating layer conv3_2/dw/bn
I0630 16:50:47.336041 28406 net.cpp:86] Creating Layer conv3_2/dw/bn
I0630 16:50:47.336052 28406 net.cpp:408] conv3_2/dw/bn <- conv3_2/dw
I0630 16:50:47.336064 28406 net.cpp:369] conv3_2/dw/bn -> conv3_2/dw (in-place)
I0630 16:50:47.336259 28406 net.cpp:124] Setting up conv3_2/dw/bn
I0630 16:50:47.336271 28406 net.cpp:131] Top shape: 64 128 12 12 (1179648)
I0630 16:50:47.336278 28406 net.cpp:139] Memory required for data: 582746880
I0630 16:50:47.336294 28406 layer_factory.hpp:77] Creating layer conv3_2/dw/scale
I0630 16:50:47.336310 28406 net.cpp:86] Creating Layer conv3_2/dw/scale
I0630 16:50:47.336318 28406 net.cpp:408] conv3_2/dw/scale <- conv3_2/dw
I0630 16:50:47.336328 28406 net.cpp:369] conv3_2/dw/scale -> conv3_2/dw (in-place)
I0630 16:50:47.336374 28406 layer_factory.hpp:77] Creating layer conv3_2/dw/scale
I0630 16:50:47.336486 28406 net.cpp:124] Setting up conv3_2/dw/scale
I0630 16:50:47.336496 28406 net.cpp:131] Top shape: 64 128 12 12 (1179648)
I0630 16:50:47.336504 28406 net.cpp:139] Memory required for data: 587465472
I0630 16:50:47.336519 28406 layer_factory.hpp:77] Creating layer relu3_2/dw
I0630 16:50:47.336529 28406 net.cpp:86] Creating Layer relu3_2/dw
I0630 16:50:47.336536 28406 net.cpp:408] relu3_2/dw <- conv3_2/dw
I0630 16:50:47.336547 28406 net.cpp:369] relu3_2/dw -> conv3_2/dw (in-place)
I0630 16:50:47.337100 28406 net.cpp:124] Setting up relu3_2/dw
I0630 16:50:47.337116 28406 net.cpp:131] Top shape: 64 128 12 12 (1179648)
I0630 16:50:47.337123 28406 net.cpp:139] Memory required for data: 592184064
I0630 16:50:47.337133 28406 layer_factory.hpp:77] Creating layer conv3_2/sep
I0630 16:50:47.337149 28406 net.cpp:86] Creating Layer conv3_2/sep
I0630 16:50:47.337157 28406 net.cpp:408] conv3_2/sep <- conv3_2/dw
I0630 16:50:47.337168 28406 net.cpp:382] conv3_2/sep -> conv3_2/sep
I0630 16:50:47.340819 28406 net.cpp:124] Setting up conv3_2/sep
I0630 16:50:47.340837 28406 net.cpp:131] Top shape: 64 256 12 12 (2359296)
I0630 16:50:47.340844 28406 net.cpp:139] Memory required for data: 601621248
I0630 16:50:47.340855 28406 layer_factory.hpp:77] Creating layer conv3_2/sep/bn
I0630 16:50:47.340869 28406 net.cpp:86] Creating Layer conv3_2/sep/bn
I0630 16:50:47.340876 28406 net.cpp:408] conv3_2/sep/bn <- conv3_2/sep
I0630 16:50:47.340884 28406 net.cpp:369] conv3_2/sep/bn -> conv3_2/sep (in-place)
I0630 16:50:47.341068 28406 net.cpp:124] Setting up conv3_2/sep/bn
I0630 16:50:47.341078 28406 net.cpp:131] Top shape: 64 256 12 12 (2359296)
I0630 16:50:47.341081 28406 net.cpp:139] Memory required for data: 611058432
I0630 16:50:47.341097 28406 layer_factory.hpp:77] Creating layer conv3_2/sep/scale
I0630 16:50:47.341121 28406 net.cpp:86] Creating Layer conv3_2/sep/scale
I0630 16:50:47.341127 28406 net.cpp:408] conv3_2/sep/scale <- conv3_2/sep
I0630 16:50:47.341133 28406 net.cpp:369] conv3_2/sep/scale -> conv3_2/sep (in-place)
I0630 16:50:47.341192 28406 layer_factory.hpp:77] Creating layer conv3_2/sep/scale
I0630 16:50:47.341333 28406 net.cpp:124] Setting up conv3_2/sep/scale
I0630 16:50:47.341342 28406 net.cpp:131] Top shape: 64 256 12 12 (2359296)
I0630 16:50:47.341346 28406 net.cpp:139] Memory required for data: 620495616
I0630 16:50:47.341361 28406 layer_factory.hpp:77] Creating layer relu3_2/sep
I0630 16:50:47.341370 28406 net.cpp:86] Creating Layer relu3_2/sep
I0630 16:50:47.341377 28406 net.cpp:408] relu3_2/sep <- conv3_2/sep
I0630 16:50:47.341382 28406 net.cpp:369] relu3_2/sep -> conv3_2/sep (in-place)
I0630 16:50:47.342159 28406 net.cpp:124] Setting up relu3_2/sep
I0630 16:50:47.342173 28406 net.cpp:131] Top shape: 64 256 12 12 (2359296)
I0630 16:50:47.342186 28406 net.cpp:139] Memory required for data: 629932800
I0630 16:50:47.342191 28406 layer_factory.hpp:77] Creating layer conv4_1/dw
I0630 16:50:47.342200 28406 net.cpp:86] Creating Layer conv4_1/dw
I0630 16:50:47.342207 28406 net.cpp:408] conv4_1/dw <- conv3_2/sep
I0630 16:50:47.342216 28406 net.cpp:382] conv4_1/dw -> conv4_1/dw
I0630 16:50:47.342427 28406 net.cpp:124] Setting up conv4_1/dw
I0630 16:50:47.342437 28406 net.cpp:131] Top shape: 64 256 12 12 (2359296)
I0630 16:50:47.342442 28406 net.cpp:139] Memory required for data: 639369984
I0630 16:50:47.342447 28406 layer_factory.hpp:77] Creating layer conv4_1/dw/bn
I0630 16:50:47.342454 28406 net.cpp:86] Creating Layer conv4_1/dw/bn
I0630 16:50:47.342458 28406 net.cpp:408] conv4_1/dw/bn <- conv4_1/dw
I0630 16:50:47.342464 28406 net.cpp:369] conv4_1/dw/bn -> conv4_1/dw (in-place)
I0630 16:50:47.342633 28406 net.cpp:124] Setting up conv4_1/dw/bn
I0630 16:50:47.342641 28406 net.cpp:131] Top shape: 64 256 12 12 (2359296)
I0630 16:50:47.342645 28406 net.cpp:139] Memory required for data: 648807168
I0630 16:50:47.342653 28406 layer_factory.hpp:77] Creating layer conv4_1/dw/scale
I0630 16:50:47.342661 28406 net.cpp:86] Creating Layer conv4_1/dw/scale
I0630 16:50:47.342667 28406 net.cpp:408] conv4_1/dw/scale <- conv4_1/dw
I0630 16:50:47.342674 28406 net.cpp:369] conv4_1/dw/scale -> conv4_1/dw (in-place)
I0630 16:50:47.342712 28406 layer_factory.hpp:77] Creating layer conv4_1/dw/scale
I0630 16:50:47.342814 28406 net.cpp:124] Setting up conv4_1/dw/scale
I0630 16:50:47.342823 28406 net.cpp:131] Top shape: 64 256 12 12 (2359296)
I0630 16:50:47.342828 28406 net.cpp:139] Memory required for data: 658244352
I0630 16:50:47.342833 28406 layer_factory.hpp:77] Creating layer relu4_1/dw
I0630 16:50:47.342839 28406 net.cpp:86] Creating Layer relu4_1/dw
I0630 16:50:47.342844 28406 net.cpp:408] relu4_1/dw <- conv4_1/dw
I0630 16:50:47.342850 28406 net.cpp:369] relu4_1/dw -> conv4_1/dw (in-place)
I0630 16:50:47.343330 28406 net.cpp:124] Setting up relu4_1/dw
I0630 16:50:47.343343 28406 net.cpp:131] Top shape: 64 256 12 12 (2359296)
I0630 16:50:47.343346 28406 net.cpp:139] Memory required for data: 667681536
I0630 16:50:47.343350 28406 layer_factory.hpp:77] Creating layer conv4_1/sep
I0630 16:50:47.343360 28406 net.cpp:86] Creating Layer conv4_1/sep
I0630 16:50:47.343365 28406 net.cpp:408] conv4_1/sep <- conv4_1/dw
I0630 16:50:47.343374 28406 net.cpp:382] conv4_1/sep -> conv4_1/sep
I0630 16:50:47.346544 28406 net.cpp:124] Setting up conv4_1/sep
I0630 16:50:47.346571 28406 net.cpp:131] Top shape: 64 256 12 12 (2359296)
I0630 16:50:47.346580 28406 net.cpp:139] Memory required for data: 677118720
I0630 16:50:47.346586 28406 layer_factory.hpp:77] Creating layer conv4_1/sep/bn
I0630 16:50:47.346594 28406 net.cpp:86] Creating Layer conv4_1/sep/bn
I0630 16:50:47.346598 28406 net.cpp:408] conv4_1/sep/bn <- conv4_1/sep
I0630 16:50:47.346606 28406 net.cpp:369] conv4_1/sep/bn -> conv4_1/sep (in-place)
I0630 16:50:47.346851 28406 net.cpp:124] Setting up conv4_1/sep/bn
I0630 16:50:47.346866 28406 net.cpp:131] Top shape: 64 256 12 12 (2359296)
I0630 16:50:47.346897 28406 net.cpp:139] Memory required for data: 686555904
I0630 16:50:47.346913 28406 layer_factory.hpp:77] Creating layer conv4_1/sep/scale
I0630 16:50:47.346927 28406 net.cpp:86] Creating Layer conv4_1/sep/scale
I0630 16:50:47.346935 28406 net.cpp:408] conv4_1/sep/scale <- conv4_1/sep
I0630 16:50:47.346951 28406 net.cpp:369] conv4_1/sep/scale -> conv4_1/sep (in-place)
I0630 16:50:47.347019 28406 layer_factory.hpp:77] Creating layer conv4_1/sep/scale
I0630 16:50:47.347214 28406 net.cpp:124] Setting up conv4_1/sep/scale
I0630 16:50:47.347226 28406 net.cpp:131] Top shape: 64 256 12 12 (2359296)
I0630 16:50:47.347239 28406 net.cpp:139] Memory required for data: 695993088
I0630 16:50:47.347259 28406 layer_factory.hpp:77] Creating layer relu4_1/sep
I0630 16:50:47.347276 28406 net.cpp:86] Creating Layer relu4_1/sep
I0630 16:50:47.347290 28406 net.cpp:408] relu4_1/sep <- conv4_1/sep
I0630 16:50:47.347296 28406 net.cpp:369] relu4_1/sep -> conv4_1/sep (in-place)
I0630 16:50:47.348016 28406 net.cpp:124] Setting up relu4_1/sep
I0630 16:50:47.348032 28406 net.cpp:131] Top shape: 64 256 12 12 (2359296)
I0630 16:50:47.348039 28406 net.cpp:139] Memory required for data: 705430272
I0630 16:50:47.348048 28406 layer_factory.hpp:77] Creating layer conv4_2/dw
I0630 16:50:47.348064 28406 net.cpp:86] Creating Layer conv4_2/dw
I0630 16:50:47.348075 28406 net.cpp:408] conv4_2/dw <- conv4_1/sep
I0630 16:50:47.348088 28406 net.cpp:382] conv4_2/dw -> conv4_2/dw
I0630 16:50:47.348418 28406 net.cpp:124] Setting up conv4_2/dw
I0630 16:50:47.348433 28406 net.cpp:131] Top shape: 64 256 6 6 (589824)
I0630 16:50:47.348441 28406 net.cpp:139] Memory required for data: 707789568
I0630 16:50:47.348453 28406 layer_factory.hpp:77] Creating layer conv4_2/dw/bn
I0630 16:50:47.348464 28406 net.cpp:86] Creating Layer conv4_2/dw/bn
I0630 16:50:47.348474 28406 net.cpp:408] conv4_2/dw/bn <- conv4_2/dw
I0630 16:50:47.348489 28406 net.cpp:369] conv4_2/dw/bn -> conv4_2/dw (in-place)
I0630 16:50:47.348723 28406 net.cpp:124] Setting up conv4_2/dw/bn
I0630 16:50:47.348733 28406 net.cpp:131] Top shape: 64 256 6 6 (589824)
I0630 16:50:47.348739 28406 net.cpp:139] Memory required for data: 710148864
I0630 16:50:47.348747 28406 layer_factory.hpp:77] Creating layer conv4_2/dw/scale
I0630 16:50:47.348757 28406 net.cpp:86] Creating Layer conv4_2/dw/scale
I0630 16:50:47.348773 28406 net.cpp:408] conv4_2/dw/scale <- conv4_2/dw
I0630 16:50:47.348795 28406 net.cpp:369] conv4_2/dw/scale -> conv4_2/dw (in-place)
I0630 16:50:47.348839 28406 layer_factory.hpp:77] Creating layer conv4_2/dw/scale
I0630 16:50:47.348953 28406 net.cpp:124] Setting up conv4_2/dw/scale
I0630 16:50:47.348963 28406 net.cpp:131] Top shape: 64 256 6 6 (589824)
I0630 16:50:47.348971 28406 net.cpp:139] Memory required for data: 712508160
I0630 16:50:47.348984 28406 layer_factory.hpp:77] Creating layer relu4_2/dw
I0630 16:50:47.348994 28406 net.cpp:86] Creating Layer relu4_2/dw
I0630 16:50:47.349001 28406 net.cpp:408] relu4_2/dw <- conv4_2/dw
I0630 16:50:47.349012 28406 net.cpp:369] relu4_2/dw -> conv4_2/dw (in-place)
I0630 16:50:47.349573 28406 net.cpp:124] Setting up relu4_2/dw
I0630 16:50:47.349586 28406 net.cpp:131] Top shape: 64 256 6 6 (589824)
I0630 16:50:47.349593 28406 net.cpp:139] Memory required for data: 714867456
I0630 16:50:47.349602 28406 layer_factory.hpp:77] Creating layer conv4_2/sep
I0630 16:50:47.349627 28406 net.cpp:86] Creating Layer conv4_2/sep
I0630 16:50:47.349642 28406 net.cpp:408] conv4_2/sep <- conv4_2/dw
I0630 16:50:47.349656 28406 net.cpp:382] conv4_2/sep -> conv4_2/sep
I0630 16:50:47.354506 28406 net.cpp:124] Setting up conv4_2/sep
I0630 16:50:47.354532 28406 net.cpp:131] Top shape: 64 512 6 6 (1179648)
I0630 16:50:47.354539 28406 net.cpp:139] Memory required for data: 719586048
I0630 16:50:47.354554 28406 layer_factory.hpp:77] Creating layer conv4_2/sep/bn
I0630 16:50:47.354568 28406 net.cpp:86] Creating Layer conv4_2/sep/bn
I0630 16:50:47.354576 28406 net.cpp:408] conv4_2/sep/bn <- conv4_2/sep
I0630 16:50:47.354591 28406 net.cpp:369] conv4_2/sep/bn -> conv4_2/sep (in-place)
I0630 16:50:47.354807 28406 net.cpp:124] Setting up conv4_2/sep/bn
I0630 16:50:47.354818 28406 net.cpp:131] Top shape: 64 512 6 6 (1179648)
I0630 16:50:47.354826 28406 net.cpp:139] Memory required for data: 724304640
I0630 16:50:47.354841 28406 layer_factory.hpp:77] Creating layer conv4_2/sep/scale
I0630 16:50:47.354852 28406 net.cpp:86] Creating Layer conv4_2/sep/scale
I0630 16:50:47.354861 28406 net.cpp:408] conv4_2/sep/scale <- conv4_2/sep
I0630 16:50:47.354873 28406 net.cpp:369] conv4_2/sep/scale -> conv4_2/sep (in-place)
I0630 16:50:47.354918 28406 layer_factory.hpp:77] Creating layer conv4_2/sep/scale
I0630 16:50:47.355041 28406 net.cpp:124] Setting up conv4_2/sep/scale
I0630 16:50:47.355051 28406 net.cpp:131] Top shape: 64 512 6 6 (1179648)
I0630 16:50:47.355059 28406 net.cpp:139] Memory required for data: 729023232
I0630 16:50:47.355072 28406 layer_factory.hpp:77] Creating layer relu4_2/sep
I0630 16:50:47.355082 28406 net.cpp:86] Creating Layer relu4_2/sep
I0630 16:50:47.355090 28406 net.cpp:408] relu4_2/sep <- conv4_2/sep
I0630 16:50:47.355103 28406 net.cpp:369] relu4_2/sep -> conv4_2/sep (in-place)
I0630 16:50:47.355600 28406 net.cpp:124] Setting up relu4_2/sep
I0630 16:50:47.355612 28406 net.cpp:131] Top shape: 64 512 6 6 (1179648)
I0630 16:50:47.355621 28406 net.cpp:139] Memory required for data: 733741824
I0630 16:50:47.355629 28406 layer_factory.hpp:77] Creating layer conv5_1/dw
I0630 16:50:47.355646 28406 net.cpp:86] Creating Layer conv5_1/dw
I0630 16:50:47.355654 28406 net.cpp:408] conv5_1/dw <- conv4_2/sep
I0630 16:50:47.355666 28406 net.cpp:382] conv5_1/dw -> conv5_1/dw
I0630 16:50:47.355909 28406 net.cpp:124] Setting up conv5_1/dw
I0630 16:50:47.355921 28406 net.cpp:131] Top shape: 64 512 6 6 (1179648)
I0630 16:50:47.355928 28406 net.cpp:139] Memory required for data: 738460416
I0630 16:50:47.355938 28406 layer_factory.hpp:77] Creating layer conv5_1/dw/bn
I0630 16:50:47.355949 28406 net.cpp:86] Creating Layer conv5_1/dw/bn
I0630 16:50:47.355957 28406 net.cpp:408] conv5_1/dw/bn <- conv5_1/dw
I0630 16:50:47.355969 28406 net.cpp:369] conv5_1/dw/bn -> conv5_1/dw (in-place)
I0630 16:50:47.356155 28406 net.cpp:124] Setting up conv5_1/dw/bn
I0630 16:50:47.356165 28406 net.cpp:131] Top shape: 64 512 6 6 (1179648)
I0630 16:50:47.356174 28406 net.cpp:139] Memory required for data: 743179008
I0630 16:50:47.356189 28406 layer_factory.hpp:77] Creating layer conv5_1/dw/scale
I0630 16:50:47.356199 28406 net.cpp:86] Creating Layer conv5_1/dw/scale
I0630 16:50:47.356206 28406 net.cpp:408] conv5_1/dw/scale <- conv5_1/dw
I0630 16:50:47.356218 28406 net.cpp:369] conv5_1/dw/scale -> conv5_1/dw (in-place)
I0630 16:50:47.356261 28406 layer_factory.hpp:77] Creating layer conv5_1/dw/scale
I0630 16:50:47.356379 28406 net.cpp:124] Setting up conv5_1/dw/scale
I0630 16:50:47.356391 28406 net.cpp:131] Top shape: 64 512 6 6 (1179648)
I0630 16:50:47.356398 28406 net.cpp:139] Memory required for data: 747897600
I0630 16:50:47.356410 28406 layer_factory.hpp:77] Creating layer relu5_1/dw
I0630 16:50:47.356418 28406 net.cpp:86] Creating Layer relu5_1/dw
I0630 16:50:47.356426 28406 net.cpp:408] relu5_1/dw <- conv5_1/dw
I0630 16:50:47.356437 28406 net.cpp:369] relu5_1/dw -> conv5_1/dw (in-place)
I0630 16:50:47.356930 28406 net.cpp:124] Setting up relu5_1/dw
I0630 16:50:47.356945 28406 net.cpp:131] Top shape: 64 512 6 6 (1179648)
I0630 16:50:47.356952 28406 net.cpp:139] Memory required for data: 752616192
I0630 16:50:47.356961 28406 layer_factory.hpp:77] Creating layer conv5_1/sep
I0630 16:50:47.356976 28406 net.cpp:86] Creating Layer conv5_1/sep
I0630 16:50:47.356981 28406 net.cpp:408] conv5_1/sep <- conv5_1/dw
I0630 16:50:47.356994 28406 net.cpp:382] conv5_1/sep -> conv5_1/sep
I0630 16:50:47.362099 28406 net.cpp:124] Setting up conv5_1/sep
I0630 16:50:47.362114 28406 net.cpp:131] Top shape: 64 512 6 6 (1179648)
I0630 16:50:47.362123 28406 net.cpp:139] Memory required for data: 757334784
I0630 16:50:47.362141 28406 layer_factory.hpp:77] Creating layer conv5_1/sep/bn
I0630 16:50:47.362155 28406 net.cpp:86] Creating Layer conv5_1/sep/bn
I0630 16:50:47.362172 28406 net.cpp:408] conv5_1/sep/bn <- conv5_1/sep
I0630 16:50:47.362185 28406 net.cpp:369] conv5_1/sep/bn -> conv5_1/sep (in-place)
I0630 16:50:47.362382 28406 net.cpp:124] Setting up conv5_1/sep/bn
I0630 16:50:47.362392 28406 net.cpp:131] Top shape: 64 512 6 6 (1179648)
I0630 16:50:47.362401 28406 net.cpp:139] Memory required for data: 762053376
I0630 16:50:47.362423 28406 layer_factory.hpp:77] Creating layer conv5_1/sep/scale
I0630 16:50:47.362437 28406 net.cpp:86] Creating Layer conv5_1/sep/scale
I0630 16:50:47.362443 28406 net.cpp:408] conv5_1/sep/scale <- conv5_1/sep
I0630 16:50:47.362453 28406 net.cpp:369] conv5_1/sep/scale -> conv5_1/sep (in-place)
I0630 16:50:47.362515 28406 layer_factory.hpp:77] Creating layer conv5_1/sep/scale
I0630 16:50:47.362645 28406 net.cpp:124] Setting up conv5_1/sep/scale
I0630 16:50:47.362655 28406 net.cpp:131] Top shape: 64 512 6 6 (1179648)
I0630 16:50:47.362660 28406 net.cpp:139] Memory required for data: 766771968
I0630 16:50:47.362668 28406 layer_factory.hpp:77] Creating layer relu5_1/sep
I0630 16:50:47.362674 28406 net.cpp:86] Creating Layer relu5_1/sep
I0630 16:50:47.362679 28406 net.cpp:408] relu5_1/sep <- conv5_1/sep
I0630 16:50:47.362686 28406 net.cpp:369] relu5_1/sep -> conv5_1/sep (in-place)
I0630 16:50:47.363202 28406 net.cpp:124] Setting up relu5_1/sep
I0630 16:50:47.363214 28406 net.cpp:131] Top shape: 64 512 6 6 (1179648)
I0630 16:50:47.363219 28406 net.cpp:139] Memory required for data: 771490560
I0630 16:50:47.363222 28406 layer_factory.hpp:77] Creating layer conv5_2/dw
I0630 16:50:47.363240 28406 net.cpp:86] Creating Layer conv5_2/dw
I0630 16:50:47.363246 28406 net.cpp:408] conv5_2/dw <- conv5_1/sep
I0630 16:50:47.363262 28406 net.cpp:382] conv5_2/dw -> conv5_2/dw
I0630 16:50:47.363505 28406 net.cpp:124] Setting up conv5_2/dw
I0630 16:50:47.363515 28406 net.cpp:131] Top shape: 64 512 6 6 (1179648)
I0630 16:50:47.363521 28406 net.cpp:139] Memory required for data: 776209152
I0630 16:50:47.363526 28406 layer_factory.hpp:77] Creating layer conv5_2/dw/bn
I0630 16:50:47.363534 28406 net.cpp:86] Creating Layer conv5_2/dw/bn
I0630 16:50:47.363540 28406 net.cpp:408] conv5_2/dw/bn <- conv5_2/dw
I0630 16:50:47.363548 28406 net.cpp:369] conv5_2/dw/bn -> conv5_2/dw (in-place)
I0630 16:50:47.363744 28406 net.cpp:124] Setting up conv5_2/dw/bn
I0630 16:50:47.363754 28406 net.cpp:131] Top shape: 64 512 6 6 (1179648)
I0630 16:50:47.363762 28406 net.cpp:139] Memory required for data: 780927744
I0630 16:50:47.363777 28406 layer_factory.hpp:77] Creating layer conv5_2/dw/scale
I0630 16:50:47.363797 28406 net.cpp:86] Creating Layer conv5_2/dw/scale
I0630 16:50:47.363804 28406 net.cpp:408] conv5_2/dw/scale <- conv5_2/dw
I0630 16:50:47.363814 28406 net.cpp:369] conv5_2/dw/scale -> conv5_2/dw (in-place)
I0630 16:50:47.363862 28406 layer_factory.hpp:77] Creating layer conv5_2/dw/scale
I0630 16:50:47.363982 28406 net.cpp:124] Setting up conv5_2/dw/scale
I0630 16:50:47.363993 28406 net.cpp:131] Top shape: 64 512 6 6 (1179648)
I0630 16:50:47.364001 28406 net.cpp:139] Memory required for data: 785646336
I0630 16:50:47.364015 28406 layer_factory.hpp:77] Creating layer relu5_2/dw
I0630 16:50:47.364027 28406 net.cpp:86] Creating Layer relu5_2/dw
I0630 16:50:47.364034 28406 net.cpp:408] relu5_2/dw <- conv5_2/dw
I0630 16:50:47.364045 28406 net.cpp:369] relu5_2/dw -> conv5_2/dw (in-place)
I0630 16:50:47.364892 28406 net.cpp:124] Setting up relu5_2/dw
I0630 16:50:47.364905 28406 net.cpp:131] Top shape: 64 512 6 6 (1179648)
I0630 16:50:47.364914 28406 net.cpp:139] Memory required for data: 790364928
I0630 16:50:47.364923 28406 layer_factory.hpp:77] Creating layer conv5_2/sep
I0630 16:50:47.364940 28406 net.cpp:86] Creating Layer conv5_2/sep
I0630 16:50:47.364948 28406 net.cpp:408] conv5_2/sep <- conv5_2/dw
I0630 16:50:47.364960 28406 net.cpp:382] conv5_2/sep -> conv5_2/sep
I0630 16:50:47.370602 28406 net.cpp:124] Setting up conv5_2/sep
I0630 16:50:47.370620 28406 net.cpp:131] Top shape: 64 512 6 6 (1179648)
I0630 16:50:47.370626 28406 net.cpp:139] Memory required for data: 795083520
I0630 16:50:47.370658 28406 layer_factory.hpp:77] Creating layer conv5_2/sep/bn
I0630 16:50:47.370678 28406 net.cpp:86] Creating Layer conv5_2/sep/bn
I0630 16:50:47.370693 28406 net.cpp:408] conv5_2/sep/bn <- conv5_2/sep
I0630 16:50:47.370702 28406 net.cpp:369] conv5_2/sep/bn -> conv5_2/sep (in-place)
I0630 16:50:47.370908 28406 net.cpp:124] Setting up conv5_2/sep/bn
I0630 16:50:47.370918 28406 net.cpp:131] Top shape: 64 512 6 6 (1179648)
I0630 16:50:47.370921 28406 net.cpp:139] Memory required for data: 799802112
I0630 16:50:47.370929 28406 layer_factory.hpp:77] Creating layer conv5_2/sep/scale
I0630 16:50:47.370946 28406 net.cpp:86] Creating Layer conv5_2/sep/scale
I0630 16:50:47.370951 28406 net.cpp:408] conv5_2/sep/scale <- conv5_2/sep
I0630 16:50:47.370967 28406 net.cpp:369] conv5_2/sep/scale -> conv5_2/sep (in-place)
I0630 16:50:47.371026 28406 layer_factory.hpp:77] Creating layer conv5_2/sep/scale
I0630 16:50:47.371155 28406 net.cpp:124] Setting up conv5_2/sep/scale
I0630 16:50:47.371165 28406 net.cpp:131] Top shape: 64 512 6 6 (1179648)
I0630 16:50:47.371173 28406 net.cpp:139] Memory required for data: 804520704
I0630 16:50:47.371194 28406 layer_factory.hpp:77] Creating layer relu5_2/sep
I0630 16:50:47.371208 28406 net.cpp:86] Creating Layer relu5_2/sep
I0630 16:50:47.371215 28406 net.cpp:408] relu5_2/sep <- conv5_2/sep
I0630 16:50:47.371227 28406 net.cpp:369] relu5_2/sep -> conv5_2/sep (in-place)
I0630 16:50:47.371773 28406 net.cpp:124] Setting up relu5_2/sep
I0630 16:50:47.371784 28406 net.cpp:131] Top shape: 64 512 6 6 (1179648)
I0630 16:50:47.371795 28406 net.cpp:139] Memory required for data: 809239296
I0630 16:50:47.371803 28406 layer_factory.hpp:77] Creating layer conv5_3/dw
I0630 16:50:47.371819 28406 net.cpp:86] Creating Layer conv5_3/dw
I0630 16:50:47.371825 28406 net.cpp:408] conv5_3/dw <- conv5_2/sep
I0630 16:50:47.371837 28406 net.cpp:382] conv5_3/dw -> conv5_3/dw
I0630 16:50:47.372086 28406 net.cpp:124] Setting up conv5_3/dw
I0630 16:50:47.372097 28406 net.cpp:131] Top shape: 64 512 6 6 (1179648)
I0630 16:50:47.372104 28406 net.cpp:139] Memory required for data: 813957888
I0630 16:50:47.372115 28406 layer_factory.hpp:77] Creating layer conv5_3/dw/bn
I0630 16:50:47.372128 28406 net.cpp:86] Creating Layer conv5_3/dw/bn
I0630 16:50:47.372135 28406 net.cpp:408] conv5_3/dw/bn <- conv5_3/dw
I0630 16:50:47.372148 28406 net.cpp:369] conv5_3/dw/bn -> conv5_3/dw (in-place)
I0630 16:50:47.372332 28406 net.cpp:124] Setting up conv5_3/dw/bn
I0630 16:50:47.372344 28406 net.cpp:131] Top shape: 64 512 6 6 (1179648)
I0630 16:50:47.372351 28406 net.cpp:139] Memory required for data: 818676480
I0630 16:50:47.372366 28406 layer_factory.hpp:77] Creating layer conv5_3/dw/scale
I0630 16:50:47.372378 28406 net.cpp:86] Creating Layer conv5_3/dw/scale
I0630 16:50:47.372386 28406 net.cpp:408] conv5_3/dw/scale <- conv5_3/dw
I0630 16:50:47.372395 28406 net.cpp:369] conv5_3/dw/scale -> conv5_3/dw (in-place)
I0630 16:50:47.372440 28406 layer_factory.hpp:77] Creating layer conv5_3/dw/scale
I0630 16:50:47.372565 28406 net.cpp:124] Setting up conv5_3/dw/scale
I0630 16:50:47.372575 28406 net.cpp:131] Top shape: 64 512 6 6 (1179648)
I0630 16:50:47.372582 28406 net.cpp:139] Memory required for data: 823395072
I0630 16:50:47.372596 28406 layer_factory.hpp:77] Creating layer relu5_3/dw
I0630 16:50:47.372604 28406 net.cpp:86] Creating Layer relu5_3/dw
I0630 16:50:47.372612 28406 net.cpp:408] relu5_3/dw <- conv5_3/dw
I0630 16:50:47.372627 28406 net.cpp:369] relu5_3/dw -> conv5_3/dw (in-place)
I0630 16:50:47.373453 28406 net.cpp:124] Setting up relu5_3/dw
I0630 16:50:47.373466 28406 net.cpp:131] Top shape: 64 512 6 6 (1179648)
I0630 16:50:47.373474 28406 net.cpp:139] Memory required for data: 828113664
I0630 16:50:47.373483 28406 layer_factory.hpp:77] Creating layer conv5_3/sep
I0630 16:50:47.373499 28406 net.cpp:86] Creating Layer conv5_3/sep
I0630 16:50:47.373507 28406 net.cpp:408] conv5_3/sep <- conv5_3/dw
I0630 16:50:47.373522 28406 net.cpp:382] conv5_3/sep -> conv5_3/sep
I0630 16:50:47.378229 28406 net.cpp:124] Setting up conv5_3/sep
I0630 16:50:47.378252 28406 net.cpp:131] Top shape: 64 512 6 6 (1179648)
I0630 16:50:47.378262 28406 net.cpp:139] Memory required for data: 832832256
I0630 16:50:47.378280 28406 layer_factory.hpp:77] Creating layer conv5_3/sep/bn
I0630 16:50:47.378294 28406 net.cpp:86] Creating Layer conv5_3/sep/bn
I0630 16:50:47.378301 28406 net.cpp:408] conv5_3/sep/bn <- conv5_3/sep
I0630 16:50:47.378312 28406 net.cpp:369] conv5_3/sep/bn -> conv5_3/sep (in-place)
I0630 16:50:47.378509 28406 net.cpp:124] Setting up conv5_3/sep/bn
I0630 16:50:47.378520 28406 net.cpp:131] Top shape: 64 512 6 6 (1179648)
I0630 16:50:47.378528 28406 net.cpp:139] Memory required for data: 837550848
I0630 16:50:47.378543 28406 layer_factory.hpp:77] Creating layer conv5_3/sep/scale
I0630 16:50:47.378553 28406 net.cpp:86] Creating Layer conv5_3/sep/scale
I0630 16:50:47.378561 28406 net.cpp:408] conv5_3/sep/scale <- conv5_3/sep
I0630 16:50:47.378572 28406 net.cpp:369] conv5_3/sep/scale -> conv5_3/sep (in-place)
I0630 16:50:47.378619 28406 layer_factory.hpp:77] Creating layer conv5_3/sep/scale
I0630 16:50:47.378742 28406 net.cpp:124] Setting up conv5_3/sep/scale
I0630 16:50:47.378752 28406 net.cpp:131] Top shape: 64 512 6 6 (1179648)
I0630 16:50:47.378760 28406 net.cpp:139] Memory required for data: 842269440
I0630 16:50:47.378772 28406 layer_factory.hpp:77] Creating layer relu5_3/sep
I0630 16:50:47.378787 28406 net.cpp:86] Creating Layer relu5_3/sep
I0630 16:50:47.378793 28406 net.cpp:408] relu5_3/sep <- conv5_3/sep
I0630 16:50:47.378801 28406 net.cpp:369] relu5_3/sep -> conv5_3/sep (in-place)
I0630 16:50:47.379289 28406 net.cpp:124] Setting up relu5_3/sep
I0630 16:50:47.379300 28406 net.cpp:131] Top shape: 64 512 6 6 (1179648)
I0630 16:50:47.379308 28406 net.cpp:139] Memory required for data: 846988032
I0630 16:50:47.379317 28406 layer_factory.hpp:77] Creating layer conv5_4/dw
I0630 16:50:47.379333 28406 net.cpp:86] Creating Layer conv5_4/dw
I0630 16:50:47.379340 28406 net.cpp:408] conv5_4/dw <- conv5_3/sep
I0630 16:50:47.379354 28406 net.cpp:382] conv5_4/dw -> conv5_4/dw
I0630 16:50:47.379600 28406 net.cpp:124] Setting up conv5_4/dw
I0630 16:50:47.379609 28406 net.cpp:131] Top shape: 64 512 6 6 (1179648)
I0630 16:50:47.379617 28406 net.cpp:139] Memory required for data: 851706624
I0630 16:50:47.379629 28406 layer_factory.hpp:77] Creating layer conv5_4/dw/bn
I0630 16:50:47.379642 28406 net.cpp:86] Creating Layer conv5_4/dw/bn
I0630 16:50:47.379649 28406 net.cpp:408] conv5_4/dw/bn <- conv5_4/dw
I0630 16:50:47.379659 28406 net.cpp:369] conv5_4/dw/bn -> conv5_4/dw (in-place)
I0630 16:50:47.379846 28406 net.cpp:124] Setting up conv5_4/dw/bn
I0630 16:50:47.379856 28406 net.cpp:131] Top shape: 64 512 6 6 (1179648)
I0630 16:50:47.379864 28406 net.cpp:139] Memory required for data: 856425216
I0630 16:50:47.379878 28406 layer_factory.hpp:77] Creating layer conv5_4/dw/scale
I0630 16:50:47.379890 28406 net.cpp:86] Creating Layer conv5_4/dw/scale
I0630 16:50:47.379899 28406 net.cpp:408] conv5_4/dw/scale <- conv5_4/dw
I0630 16:50:47.379907 28406 net.cpp:369] conv5_4/dw/scale -> conv5_4/dw (in-place)
I0630 16:50:47.379952 28406 layer_factory.hpp:77] Creating layer conv5_4/dw/scale
I0630 16:50:47.380074 28406 net.cpp:124] Setting up conv5_4/dw/scale
I0630 16:50:47.380085 28406 net.cpp:131] Top shape: 64 512 6 6 (1179648)
I0630 16:50:47.380092 28406 net.cpp:139] Memory required for data: 861143808
I0630 16:50:47.380105 28406 layer_factory.hpp:77] Creating layer relu5_4/dw
I0630 16:50:47.380115 28406 net.cpp:86] Creating Layer relu5_4/dw
I0630 16:50:47.380122 28406 net.cpp:408] relu5_4/dw <- conv5_4/dw
I0630 16:50:47.380132 28406 net.cpp:369] relu5_4/dw -> conv5_4/dw (in-place)
I0630 16:50:47.381054 28406 net.cpp:124] Setting up relu5_4/dw
I0630 16:50:47.381072 28406 net.cpp:131] Top shape: 64 512 6 6 (1179648)
I0630 16:50:47.381088 28406 net.cpp:139] Memory required for data: 865862400
I0630 16:50:47.381095 28406 layer_factory.hpp:77] Creating layer conv5_4/sep
I0630 16:50:47.381129 28406 net.cpp:86] Creating Layer conv5_4/sep
I0630 16:50:47.381137 28406 net.cpp:408] conv5_4/sep <- conv5_4/dw
I0630 16:50:47.381157 28406 net.cpp:382] conv5_4/sep -> conv5_4/sep
I0630 16:50:47.387627 28406 net.cpp:124] Setting up conv5_4/sep
I0630 16:50:47.387655 28406 net.cpp:131] Top shape: 64 512 6 6 (1179648)
I0630 16:50:47.387660 28406 net.cpp:139] Memory required for data: 870580992
I0630 16:50:47.387670 28406 layer_factory.hpp:77] Creating layer conv5_4/sep/bn
I0630 16:50:47.387688 28406 net.cpp:86] Creating Layer conv5_4/sep/bn
I0630 16:50:47.387696 28406 net.cpp:408] conv5_4/sep/bn <- conv5_4/sep
I0630 16:50:47.387706 28406 net.cpp:369] conv5_4/sep/bn -> conv5_4/sep (in-place)
I0630 16:50:47.387924 28406 net.cpp:124] Setting up conv5_4/sep/bn
I0630 16:50:47.387933 28406 net.cpp:131] Top shape: 64 512 6 6 (1179648)
I0630 16:50:47.387938 28406 net.cpp:139] Memory required for data: 875299584
I0630 16:50:47.387954 28406 layer_factory.hpp:77] Creating layer conv5_4/sep/scale
I0630 16:50:47.387964 28406 net.cpp:86] Creating Layer conv5_4/sep/scale
I0630 16:50:47.387969 28406 net.cpp:408] conv5_4/sep/scale <- conv5_4/sep
I0630 16:50:47.387974 28406 net.cpp:369] conv5_4/sep/scale -> conv5_4/sep (in-place)
I0630 16:50:47.388032 28406 layer_factory.hpp:77] Creating layer conv5_4/sep/scale
I0630 16:50:47.388180 28406 net.cpp:124] Setting up conv5_4/sep/scale
I0630 16:50:47.388188 28406 net.cpp:131] Top shape: 64 512 6 6 (1179648)
I0630 16:50:47.388192 28406 net.cpp:139] Memory required for data: 880018176
I0630 16:50:47.388206 28406 layer_factory.hpp:77] Creating layer relu5_4/sep
I0630 16:50:47.388214 28406 net.cpp:86] Creating Layer relu5_4/sep
I0630 16:50:47.388218 28406 net.cpp:408] relu5_4/sep <- conv5_4/sep
I0630 16:50:47.388226 28406 net.cpp:369] relu5_4/sep -> conv5_4/sep (in-place)
I0630 16:50:47.388727 28406 net.cpp:124] Setting up relu5_4/sep
I0630 16:50:47.388738 28406 net.cpp:131] Top shape: 64 512 6 6 (1179648)
I0630 16:50:47.388742 28406 net.cpp:139] Memory required for data: 884736768
I0630 16:50:47.388754 28406 layer_factory.hpp:77] Creating layer conv5_5/dw
I0630 16:50:47.388765 28406 net.cpp:86] Creating Layer conv5_5/dw
I0630 16:50:47.388770 28406 net.cpp:408] conv5_5/dw <- conv5_4/sep
I0630 16:50:47.388777 28406 net.cpp:382] conv5_5/dw -> conv5_5/dw
I0630 16:50:47.389042 28406 net.cpp:124] Setting up conv5_5/dw
I0630 16:50:47.389051 28406 net.cpp:131] Top shape: 64 512 6 6 (1179648)
I0630 16:50:47.389055 28406 net.cpp:139] Memory required for data: 889455360
I0630 16:50:47.389070 28406 layer_factory.hpp:77] Creating layer conv5_5/dw/bn
I0630 16:50:47.389078 28406 net.cpp:86] Creating Layer conv5_5/dw/bn
I0630 16:50:47.389082 28406 net.cpp:408] conv5_5/dw/bn <- conv5_5/dw
I0630 16:50:47.389088 28406 net.cpp:369] conv5_5/dw/bn -> conv5_5/dw (in-place)
I0630 16:50:47.389340 28406 net.cpp:124] Setting up conv5_5/dw/bn
I0630 16:50:47.389350 28406 net.cpp:131] Top shape: 64 512 6 6 (1179648)
I0630 16:50:47.389355 28406 net.cpp:139] Memory required for data: 894173952
I0630 16:50:47.389379 28406 layer_factory.hpp:77] Creating layer conv5_5/dw/scale
I0630 16:50:47.389394 28406 net.cpp:86] Creating Layer conv5_5/dw/scale
I0630 16:50:47.389400 28406 net.cpp:408] conv5_5/dw/scale <- conv5_5/dw
I0630 16:50:47.389405 28406 net.cpp:369] conv5_5/dw/scale -> conv5_5/dw (in-place)
I0630 16:50:47.389451 28406 layer_factory.hpp:77] Creating layer conv5_5/dw/scale
I0630 16:50:47.389566 28406 net.cpp:124] Setting up conv5_5/dw/scale
I0630 16:50:47.389578 28406 net.cpp:131] Top shape: 64 512 6 6 (1179648)
I0630 16:50:47.389583 28406 net.cpp:139] Memory required for data: 898892544
I0630 16:50:47.389590 28406 layer_factory.hpp:77] Creating layer relu5_5/dw
I0630 16:50:47.389596 28406 net.cpp:86] Creating Layer relu5_5/dw
I0630 16:50:47.389601 28406 net.cpp:408] relu5_5/dw <- conv5_5/dw
I0630 16:50:47.389606 28406 net.cpp:369] relu5_5/dw -> conv5_5/dw (in-place)
I0630 16:50:47.390453 28406 net.cpp:124] Setting up relu5_5/dw
I0630 16:50:47.390465 28406 net.cpp:131] Top shape: 64 512 6 6 (1179648)
I0630 16:50:47.390470 28406 net.cpp:139] Memory required for data: 903611136
I0630 16:50:47.390475 28406 layer_factory.hpp:77] Creating layer conv5_5/sep
I0630 16:50:47.390501 28406 net.cpp:86] Creating Layer conv5_5/sep
I0630 16:50:47.390507 28406 net.cpp:408] conv5_5/sep <- conv5_5/dw
I0630 16:50:47.390516 28406 net.cpp:382] conv5_5/sep -> conv5_5/sep
I0630 16:50:47.395313 28406 net.cpp:124] Setting up conv5_5/sep
I0630 16:50:47.395326 28406 net.cpp:131] Top shape: 64 512 6 6 (1179648)
I0630 16:50:47.395331 28406 net.cpp:139] Memory required for data: 908329728
I0630 16:50:47.395345 28406 layer_factory.hpp:77] Creating layer conv5_5/sep/bn
I0630 16:50:47.395352 28406 net.cpp:86] Creating Layer conv5_5/sep/bn
I0630 16:50:47.395356 28406 net.cpp:408] conv5_5/sep/bn <- conv5_5/sep
I0630 16:50:47.395372 28406 net.cpp:369] conv5_5/sep/bn -> conv5_5/sep (in-place)
I0630 16:50:47.395594 28406 net.cpp:124] Setting up conv5_5/sep/bn
I0630 16:50:47.395612 28406 net.cpp:131] Top shape: 64 512 6 6 (1179648)
I0630 16:50:47.395617 28406 net.cpp:139] Memory required for data: 913048320
I0630 16:50:47.395624 28406 layer_factory.hpp:77] Creating layer conv5_5/sep/scale
I0630 16:50:47.395632 28406 net.cpp:86] Creating Layer conv5_5/sep/scale
I0630 16:50:47.395635 28406 net.cpp:408] conv5_5/sep/scale <- conv5_5/sep
I0630 16:50:47.395651 28406 net.cpp:369] conv5_5/sep/scale -> conv5_5/sep (in-place)
I0630 16:50:47.395706 28406 layer_factory.hpp:77] Creating layer conv5_5/sep/scale
I0630 16:50:47.395874 28406 net.cpp:124] Setting up conv5_5/sep/scale
I0630 16:50:47.395884 28406 net.cpp:131] Top shape: 64 512 6 6 (1179648)
I0630 16:50:47.395887 28406 net.cpp:139] Memory required for data: 917766912
I0630 16:50:47.395902 28406 layer_factory.hpp:77] Creating layer relu5_5/sep
I0630 16:50:47.395917 28406 net.cpp:86] Creating Layer relu5_5/sep
I0630 16:50:47.395922 28406 net.cpp:408] relu5_5/sep <- conv5_5/sep
I0630 16:50:47.395927 28406 net.cpp:369] relu5_5/sep -> conv5_5/sep (in-place)
I0630 16:50:47.397059 28406 net.cpp:124] Setting up relu5_5/sep
I0630 16:50:47.397079 28406 net.cpp:131] Top shape: 64 512 6 6 (1179648)
I0630 16:50:47.397084 28406 net.cpp:139] Memory required for data: 922485504
I0630 16:50:47.397089 28406 layer_factory.hpp:77] Creating layer pool6
I0630 16:50:47.397096 28406 net.cpp:86] Creating Layer pool6
I0630 16:50:47.397100 28406 net.cpp:408] pool6 <- conv5_5/sep
I0630 16:50:47.397115 28406 net.cpp:382] pool6 -> pool6
I0630 16:50:47.397712 28406 net.cpp:124] Setting up pool6
I0630 16:50:47.397727 28406 net.cpp:131] Top shape: 64 512 1 1 (32768)
I0630 16:50:47.397732 28406 net.cpp:139] Memory required for data: 922616576
I0630 16:50:47.397735 28406 layer_factory.hpp:77] Creating layer fc7-mouth
I0630 16:50:47.397745 28406 net.cpp:86] Creating Layer fc7-mouth
I0630 16:50:47.397752 28406 net.cpp:408] fc7-mouth <- pool6
I0630 16:50:47.397758 28406 net.cpp:382] fc7-mouth -> fc7-mouth
I0630 16:50:47.400168 28406 net.cpp:124] Setting up fc7-mouth
I0630 16:50:47.400182 28406 net.cpp:131] Top shape: 64 4 1 1 (256)
I0630 16:50:47.400187 28406 net.cpp:139] Memory required for data: 922617600
I0630 16:50:47.400194 28406 layer_factory.hpp:77] Creating layer fc7-mouth_fc7-mouth_0_split
I0630 16:50:47.400203 28406 net.cpp:86] Creating Layer fc7-mouth_fc7-mouth_0_split
I0630 16:50:47.400209 28406 net.cpp:408] fc7-mouth_fc7-mouth_0_split <- fc7-mouth
I0630 16:50:47.400218 28406 net.cpp:382] fc7-mouth_fc7-mouth_0_split -> fc7-mouth_fc7-mouth_0_split_0
I0630 16:50:47.400225 28406 net.cpp:382] fc7-mouth_fc7-mouth_0_split -> fc7-mouth_fc7-mouth_0_split_1
I0630 16:50:47.400267 28406 net.cpp:124] Setting up fc7-mouth_fc7-mouth_0_split
I0630 16:50:47.400279 28406 net.cpp:131] Top shape: 64 4 1 1 (256)
I0630 16:50:47.400285 28406 net.cpp:131] Top shape: 64 4 1 1 (256)
I0630 16:50:47.400287 28406 net.cpp:139] Memory required for data: 922619648
I0630 16:50:47.400292 28406 layer_factory.hpp:77] Creating layer loss
I0630 16:50:47.400298 28406 net.cpp:86] Creating Layer loss
I0630 16:50:47.400303 28406 net.cpp:408] loss <- fc7-mouth_fc7-mouth_0_split_0
I0630 16:50:47.400308 28406 net.cpp:408] loss <- clc-label_data_1_split_0
I0630 16:50:47.400315 28406 net.cpp:382] loss -> loss
…
I0630 16:50:47.479697 28406 net.cpp:296] The NetState phase (1) differed from the phase (0) specified by a rule in layer acc
I0630 16:50:47.480265 28406 net.cpp:53] Initializing net from parameters: 
name: "mouth"
state {
  phase: TEST
}
layer {
  name: "data"
  type: "ImageData"
  top: "data"
  top: "clc-label"
  include {
    phase: TEST
  }
  transform_param {
    mirror: false
    crop_size: 96
    mean_value: 104.008
    mean_value: 116.669
    mean_value: 122.675
    min_side_min: 96
    min_side_max: 128
  }
  image_data_param {
    source: "all_shuffle_val.txt"
    batch_size: 16
    shuffle: false
  }
}
layer {
  name: "conv1"
  type: "Convolution"
  bottom: "data"
  top: "conv1"
  param {
    lr_mult: 1
    decay_mult: 1
  }
  convolution_param {
    num_output: 32
    bias_term: false
    pad: 1
    kernel_size: 3
    stride: 2
    weight_filler {
      type: "msra"
    }
  }
}
layer {
  name: "conv1/bn"
  type: "BatchNorm"
  bottom: "conv1"
  top: "conv1"
  param {
    lr_mult: 0
    decay_mult: 0
  }
  param {
    lr_mult: 0
    decay_mult: 0
  }
  param {
    lr_mult: 0
    decay_mult: 0
  }
  batch_norm_param {
    use_global_stats: false
    eps: 1e-05
  }
}
layer {
  name: "conv1/scale"
  type: "Scale"
  bottom: "conv1"
  top: "conv1"
  param {
    lr_mult: 1
    decay_mult: 0
  }
  param {
    lr_mult: 1
    decay_mult: 0
  }
  scale_param {
    filler {
      value: 1
    }
    bias_term: true
    bias_filler {
      value: 0
    }
  }
}
layer {
  name: "relu1"
  type: "ReLU"
  bottom: "conv1"
  top: "conv1"
}
layer {
  name: "conv2_1/dw"
  type: "Convolution"
  bottom: "conv1"
  top: "conv2_1/dw"
  param {
    lr_mult: 1
    decay_mult: 1
  }
  convolution_param {
    num_output: 32
    bias_term: false
    pad: 1
    kernel_size: 3
    group: 32
    stride: 1
    weight_filler {
      type: "msra"
    }
    engine: CAFFE
  }
}
layer {
  name: "conv2_1/dw/bn"
  type: "BatchNorm"
  bottom: "conv2_1/dw"
  top: "conv2_1/dw"
  param {
    lr_mult: 0
    decay_mult: 0
  }
  param {
    lr_mult: 0
    decay_mult: 0
  }
  param {
    lr_mult: 0
    decay_mult: 0
  }
  batch_norm_param {
    use_global_stats: false
    eps: 1e-05
  }
}
layer {
  name: "conv2_1/dw/scale"
  type: "Scale"
  bottom: "conv2_1/dw"
  top: "conv2_1/dw"
  param {
    lr_mult: 1
    decay_mult: 0
  }
  param {
    lr_mult: 1
    decay_mult: 0
  }
  scale_param {
    filler {
      value: 1
    }
    bias_term: true
    bias_filler {
      value: 0
    }
  }
}
layer {
  name: "relu2_1/dw"
  type: "ReLU"
  bottom: "conv2_1/dw"
  top: "conv2_1/dw"
}
layer {
  name: "conv2_1/sep"
  type: "Convolution"
  bottom: "conv2_1/dw"
  top: "conv2_1/sep"
  param {
    lr_mult: 1
    decay_mult: 1
  }
  convolution_param {
    num_output: 64
    bias_term: false
    pad: 0
    kernel_size: 1
    stride: 1
    weight_filler {
      type: "msra"
    }
  }
}
layer {
  name: "conv2_1/sep/bn"
  type: "BatchNorm"
  bottom: "conv2_1/sep"
  top: "conv2_1/sep"
  param {
    lr_mult: 0
    decay_mult: 0
  }
  param {
    lr_mult: 0
    decay_mult: 0
  }
  param {
    lr_mult: 0
    decay_mult: 0
  }
  batch_norm_param {
    use_global_stats: false
    eps: 1e-05
  }
}
layer {
  name: "conv2_1/sep/scale"
  type: "Scale"
  bottom: "conv2_1/sep"
  top: "conv2_1/sep"
  param {
    lr_mult: 1
    decay_mult: 0
  }
  param {
    lr_mult: 1
    decay_mult: 0
  }
  scale_param {
    filler {
      value: 1
    }
    bias_term: true
    bias_filler {
      value: 0
    }
  }
}
layer {
  name: "relu2_1/sep"
  type: "ReLU"
  bottom: "conv2_1/sep"
  top: "conv2_1/sep"
}
layer {
  name: "conv2_2/dw"
  type: "Convolution"
  bottom: "conv2_1/sep"
  top: "conv2_2/dw"
  param {
    lr_mult: 1
    decay_mult: 1
  }
  convolution_param {
    num_output: 64
    bias_term: false
    pad: 1
    kernel_size: 3
    group: 64
    stride: 2
    weight_filler {
      type: "msra"
    }
    engine: CAFFE
  }
}
layer {
  name: "conv2_2/dw/bn"
  type: "BatchNorm"
  bottom: "conv2_2/dw"
  top: "conv2_2/dw"
  param {
    lr_mult: 0
    decay_mult: 0
  }
  param {
    lr_mult: 0
    decay_mult: 0
  }
  param {
    lr_mult: 0
    decay_mult: 0
  }
  batch_norm_param {
    use_global_stats: false
    eps: 1e-05
  }
}
layer {
  name: "conv2_2/dw/scale"
  type: "Scale"
  bottom: "conv2_2/dw"
  top: "conv2_2/dw"
  param {
    lr_mult: 1
    decay_mult: 0
  }
  param {
    lr_mult: 1
    decay_mult: 0
  }
  scale_param {
    filler {
      value: 1
    }
    bias_term: true
    bias_filler {
      value: 0
    }
  }
}
layer {
  name: "relu2_2/dw"
  type: "ReLU"
  bottom: "conv2_2/dw"
  top: "conv2_2/dw"
}
layer {
  name: "conv2_2/sep"
  type: "Convolution"
  bottom: "conv2_2/dw"
  top: "conv2_2/sep"
  param {
    lr_mult: 1
    decay_mult: 1
  }
  convolution_param {
    num_output: 128
    bias_term: false
    pad: 0
    kernel_size: 1
    stride: 1
    weight_filler {
      type: "msra"
    }
  }
}
layer {
  name: "conv2_2/sep/bn"
  type: "BatchNorm"
  bottom: "conv2_2/sep"
  top: "conv2_2/sep"
  param {
    lr_mult: 0
    decay_mult: 0
  }
  param {
    lr_mult: 0
    decay_mult: 0
  }
  param {
    lr_mult: 0
    decay_mult: 0
  }
  batch_norm_param {
    use_global_stats: false
    eps: 1e-05
  }
}
layer {
  name: "conv2_2/sep/scale"
  type: "Scale"
  bottom: "conv2_2/sep"
  top: "conv2_2/sep"
  param {
    lr_mult: 1
    decay_mult: 0
  }
  param {
    lr_mult: 1
    decay_mult: 0
  }
  scale_param {
    filler {
      value: 1
    }
    bias_term: true
    bias_filler {
      value: 0
    }
  }
}
layer {
  name: "relu2_2/sep"
  type: "ReLU"
  bottom: "conv2_2/sep"
  top: "conv2_2/sep"
}
layer {
  name: "conv3_1/dw"
  type: "Convolution"
  bottom: "conv2_2/sep"
  top: "conv3_1/dw"
  param {
    lr_mult: 1
    decay_mult: 1
  }
  convolution_param {
    num_output: 128
    bias_term: false
    pad: 1
    kernel_size: 3
    group: 128
    stride: 1
    weight_filler {
      type: "msra"
    }
    engine: CAFFE
  }
}
layer {
  name: "conv3_1/dw/bn"
  type: "BatchNorm"
  bottom: "conv3_1/dw"
  top: "conv3_1/dw"
  param {
    lr_mult: 0
    decay_mult: 0
  }
  param {
    lr_mult: 0
    decay_mult: 0
  }
  param {
    lr_mult: 0
    decay_mult: 0
  }
  batch_norm_param {
    use_global_stats: false
    eps: 1e-05
  }
}
layer {
  name: "conv3_1/dw/scale"
  type: "Scale"
  bottom: "conv3_1/dw"
  top: "conv3_1/dw"
  param {
    lr_mult: 1
    decay_mult: 0
  }
  param {
    lr_mult: 1
    decay_mult: 0
  }
  scale_param {
    filler {
      value: 1
    }
    bias_term: true
    bias_filler {
      value: 0
    }
  }
}
layer {
  name: "relu3_1/dw"
  type: "ReLU"
  bottom: "conv3_1/dw"
  top: "conv3_1/dw"
}
layer {
  name: "conv3_1/sep"
  type: "Convolution"
  bottom: "conv3_1/dw"
  top: "conv3_1/sep"
  param {
    lr_mult: 1
    decay_mult: 1
  }
  convolution_param {
    num_output: 128
    bias_term: false
    pad: 0
    kernel_size: 1
    stride: 1
    weight_filler {
      type: "msra"
    }
  }
}
layer {
  name: "conv3_1/sep/bn"
  type: "BatchNorm"
  bottom: "conv3_1/sep"
  top: "conv3_1/sep"
  param {
    lr_mult: 0
    decay_mult: 0
  }
  param {
    lr_mult: 0
    decay_mult: 0
  }
  param {
    lr_mult: 0
    decay_mult: 0
  }
  batch_norm_param {
    use_global_stats: false
    eps: 1e-05
  }
}
layer {
  name: "conv3_1/sep/scale"
  type: "Scale"
  bottom: "conv3_1/sep"
  top: "conv3_1/sep"
  param {
    lr_mult: 1
    decay_mult: 0
  }
  param {
    lr_mult: 1
    decay_mult: 0
  }
  scale_param {
    filler {
      value: 1
    }
    bias_term: true
    bias_filler {
      value: 0
    }
  }
}
layer {
  name: "relu3_1/sep"
  type: "ReLU"
  bottom: "conv3_1/sep"
  top: "conv3_1/sep"
}
layer {
  name: "conv3_2/dw"
  type: "Convolution"
  bottom: "conv3_1/sep"
  top: "conv3_2/dw"
  param {
    lr_mult: 1
    decay_mult: 1
  }
  convolution_param {
    num_output: 128
    bias_term: false
    pad: 1
    kernel_size: 3
    group: 128
    stride: 2
    weight_filler {
      type: "msra"
    }
    engine: CAFFE
  }
}
layer {
  name: "conv3_2/dw/bn"
  type: "BatchNorm"
  bottom: "conv3_2/dw"
  top: "conv3_2/dw"
  param {
    lr_mult: 0
    decay_mult: 0
  }
  param {
    lr_mult: 0
    decay_mult: 0
  }
  param {
    lr_mult: 0
    decay_mult: 0
  }
  batch_norm_param {
    use_global_stats: false
    eps: 1e-05
  }
}
layer {
  name: "conv3_2/dw/scale"
  type: "Scale"
  bottom: "conv3_2/dw"
  top: "conv3_2/dw"
  param {
    lr_mult: 1
    decay_mult: 0
  }
  param {
    lr_mult: 1
    decay_mult: 0
  }
  scale_param {
    filler {
      value: 1
    }
    bias_term: true
    bias_filler {
      value: 0
    }
  }
}
layer {
  name: "relu3_2/dw"
  type: "ReLU"
  bottom: "conv3_2/dw"
  top: "conv3_2/dw"
}
layer {
  name: "conv3_2/sep"
  type: "Convolution"
  bottom: "conv3_2/dw"
  top: "conv3_2/sep"
  param {
    lr_mult: 1
    decay_mult: 1
  }
  convolution_param {
    num_output: 256
    bias_term: false
    pad: 0
    kernel_size: 1
    stride: 1
    weight_filler {
      type: "msra"
    }
  }
}
layer {
  name: "conv3_2/sep/bn"
  type: "BatchNorm"
  bottom: "conv3_2/sep"
  top: "conv3_2/sep"
  param {
    lr_mult: 0
    decay_mult: 0
  }
  param {
    lr_mult: 0
    decay_mult: 0
  }
  param {
    lr_mult: 0
    decay_mult: 0
  }
  batch_norm_param {
    use_global_stats: false
    eps: 1e-05
  }
}
layer {
  name: "conv3_2/sep/scale"
  type: "Scale"
  bottom: "conv3_2/sep"
  top: "conv3_2/sep"
  param {
    lr_mult: 1
    decay_mult: 0
  }
  param {
    lr_mult: 1
    decay_mult: 0
  }
  scale_param {
    filler {
      value: 1
    }
    bias_term: true
    bias_filler {
      value: 0
    }
  }
}
layer {
  name: "relu3_2/sep"
  type: "ReLU"
  bottom: "conv3_2/sep"
  top: "conv3_2/sep"
}
layer {
  name: "conv4_1/dw"
  type: "Convolution"
  bottom: "conv3_2/sep"
  top: "conv4_1/dw"
  param {
    lr_mult: 1
    decay_mult: 1
  }
  convolution_param {
    num_output: 256
    bias_term: false
    pad: 1
    kernel_size: 3
    group: 256
    stride: 1
    weight_filler {
      type: "msra"
    }
    engine: CAFFE
  }
}
layer {
  name: "conv4_1/dw/bn"
  type: "BatchNorm"
  bottom: "conv4_1/dw"
  top: "conv4_1/dw"
  param {
    lr_mult: 0
    decay_mult: 0
  }
  param {
    lr_mult: 0
    decay_mult: 0
  }
  param {
    lr_mult: 0
    decay_mult: 0
  }
  batch_norm_param {
    use_global_stats: false
    eps: 1e-05
  }
}
layer {
  name: "conv4_1/dw/scale"
  type: "Scale"
  bottom: "conv4_1/dw"
  top: "conv4_1/dw"
  param {
    lr_mult: 1
    decay_mult: 0
  }
  param {
    lr_mult: 1
    decay_mult: 0
  }
  scale_param {
    filler {
      value: 1
    }
    bias_term: true
    bias_filler {
      value: 0
    }
  }
}
layer {
  name: "relu4_1/dw"
  type: "ReLU"
  bottom: "conv4_1/dw"
  top: "conv4_1/dw"
}
layer {
  name: "conv4_1/sep"
  type: "Convolution"
  bottom: "conv4_1/dw"
  top: "conv4_1/sep"
  param {
    lr_mult: 1
    decay_mult: 1
  }
  convolution_param {
    num_output: 256
    bias_term: false
    pad: 0
    kernel_size: 1
    stride: 1
    weight_filler {
      type: "msra"
    }
  }
}
layer {
  name: "conv4_1/sep/bn"
  type: "BatchNorm"
  bottom: "conv4_1/sep"
  top: "conv4_1/sep"
  param {
    lr_mult: 0
    decay_mult: 0
  }
  param {
    lr_mult: 0
    decay_mult: 0
  }
  param {
    lr_mult: 0
    decay_mult: 0
  }
  batch_norm_param {
    use_global_stats: false
    eps: 1e-05
  }
}
layer {
  name: "conv4_1/sep/scale"
  type: "Scale"
  bottom: "conv4_1/sep"
  top: "conv4_1/sep"
  param {
    lr_mult: 1
    decay_mult: 0
  }
  param {
    lr_mult: 1
    decay_mult: 0
  }
  scale_param {
    filler {
      value: 1
    }
    bias_term: true
    bias_filler {
      value: 0
    }
  }
}
layer {
  name: "relu4_1/sep"
  type: "ReLU"
  bottom: "conv4_1/sep"
  top: "conv4_1/sep"
}
layer {
  name: "conv4_2/dw"
  type: "Convolution"
  bottom: "conv4_1/sep"
  top: "conv4_2/dw"
  param {
    lr_mult: 1
    decay_mult: 1
  }
  convolution_param {
    num_output: 256
    bias_term: false
    pad: 1
    kernel_size: 3
    group: 256
    stride: 2
    weight_filler {
      type: "msra"
    }
    engine: CAFFE
  }
}
layer {
  name: "conv4_2/dw/bn"
  type: "BatchNorm"
  bottom: "conv4_2/dw"
  top: "conv4_2/dw"
  param {
    lr_mult: 0
    decay_mult: 0
  }
  param {
    lr_mult: 0
    decay_mult: 0
  }
  param {
    lr_mult: 0
    decay_mult: 0
  }
  batch_norm_param {
    use_global_stats: false
    eps: 1e-05
  }
}
layer {
  name: "conv4_2/dw/scale"
  type: "Scale"
  bottom: "conv4_2/dw"
  top: "conv4_2/dw"
  param {
    lr_mult: 1
    decay_mult: 0
  }
  param {
    lr_mult: 1
    decay_mult: 0
  }
  scale_param {
    filler {
      value: 1
    }
    bias_term: true
    bias_filler {
      value: 0
    }
  }
}
layer {
  name: "relu4_2/dw"
  type: "ReLU"
  bottom: "conv4_2/dw"
  top: "conv4_2/dw"
}
layer {
  name: "conv4_2/sep"
  type: "Convolution"
  bottom: "conv4_2/dw"
  top: "conv4_2/sep"
  param {
    lr_mult: 1
    decay_mult: 1
  }
  convolution_param {
    num_output: 512
    bias_term: false
    pad: 0
    kernel_size: 1
    stride: 1
    weight_filler {
      type: "msra"
    }
  }
}
layer {
  name: "conv4_2/sep/bn"
  type: "BatchNorm"
  bottom: "conv4_2/sep"
  top: "conv4_2/sep"
  param {
    lr_mult: 0
    decay_mult: 0
  }
  param {
    lr_mult: 0
    decay_mult: 0
  }
  param {
    lr_mult: 0
    decay_mult: 0
  }
  batch_norm_param {
    use_global_stats: false
    eps: 1e-05
  }
}
layer {
  name: "conv4_2/sep/scale"
  type: "Scale"
  bottom: "conv4_2/sep"
  top: "conv4_2/sep"
  param {
    lr_mult: 1
    decay_mult: 0
  }
  param {
    lr_mult: 1
    decay_mult: 0
  }
  scale_param {
    filler {
      value: 1
    }
    bias_term: true
    bias_filler {
      value: 0
    }
  }
}
layer {
  name: "relu4_2/sep"
  type: "ReLU"
  bottom: "conv4_2/sep"
  top: "conv4_2/sep"
}
layer {
  name: "conv5_1/dw"
  type: "Convolution"
  bottom: "conv4_2/sep"
  top: "conv5_1/dw"
  param {
    lr_mult: 1
    decay_mult: 1
  }
  convolution_param {
    num_output: 512
    bias_term: false
    pad: 1
    kernel_size: 3
    group: 512
    stride: 1
    weight_filler {
      type: "msra"
    }
    engine: CAFFE
  }
}
layer {
  name: "conv5_1/dw/bn"
  type: "BatchNorm"
  bottom: "conv5_1/dw"
  top: "conv5_1/dw"
  param {
    lr_mult: 0
    decay_mult: 0
  }
  param {
    lr_mult: 0
    decay_mult: 0
  }
  param {
    lr_mult: 0
    decay_mult: 0
  }
  batch_norm_param {
    use_global_stats: false
    eps: 1e-05
  }
}
layer {
  name: "conv5_1/dw/scale"
  type: "Scale"
  bottom: "conv5_1/dw"
  top: "conv5_1/dw"
  param {
    lr_mult: 1
    decay_mult: 0
  }
  param {
    lr_mult: 1
    decay_mult: 0
  }
  scale_param {
    filler {
      value: 1
    }
    bias_term: true
    bias_filler {
      value: 0
    }
  }
}
layer {
  name: "relu5_1/dw"
  type: "ReLU"
  bottom: "conv5_1/dw"
  top: "conv5_1/dw"
}
layer {
  name: "conv5_1/sep"
  type: "Convolution"
  bottom: "conv5_1/dw"
  top: "conv5_1/sep"
  param {
    lr_mult: 1
    decay_mult: 1
  }
  convolution_param {
    num_output: 512
    bias_term: false
    pad: 0
    kernel_size: 1
    stride: 1
    weight_filler {
      type: "msra"
    }
  }
}
layer {
  name: "conv5_1/sep/bn"
  type: "BatchNorm"
  bottom: "conv5_1/sep"
  top: "conv5_1/sep"
  param {
    lr_mult: 0
    decay_mult: 0
  }
  param {
    lr_mult: 0
    decay_mult: 0
  }
  param {
    lr_mult: 0
    decay_mult: 0
  }
  batch_norm_param {
    use_global_stats: false
    eps: 1e-05
  }
}
layer {
  name: "conv5_1/sep/scale"
  type: "Scale"
  bottom: "conv5_1/sep"
  top: "conv5_1/sep"
  param {
    lr_mult: 1
    decay_mult: 0
  }
  param {
    lr_mult: 1
    decay_mult: 0
  }
  scale_param {
    filler {
      value: 1
    }
    bias_term: true
    bias_filler {
      value: 0
    }
  }
}
layer {
  name: "relu5_1/sep"
  type: "ReLU"
  bottom: "conv5_1/sep"
  top: "conv5_1/sep"
}
layer {
  name: "conv5_2/dw"
  type: "Convolution"
  bottom: "conv5_1/sep"
  top: "conv5_2/dw"
  param {
    lr_mult: 1
    decay_mult: 1
  }
  convolution_param {
    num_output: 512
    bias_term: false
    pad: 1
    kernel_size: 3
    group: 512
    stride: 1
    weight_filler {
      type: "msra"
    }
    engine: CAFFE
  }
}
layer {
  name: "conv5_2/dw/bn"
  type: "BatchNorm"
  bottom: "conv5_2/dw"
  top: "conv5_2/dw"
  param {
    lr_mult: 0
    decay_mult: 0
  }
  param {
    lr_mult: 0
    decay_mult: 0
  }
  param {
    lr_mult: 0
    decay_mult: 0
  }
  batch_norm_param {
    use_global_stats: false
    eps: 1e-05
  }
}
layer {
  name: "conv5_2/dw/scale"
  type: "Scale"
  bottom: "conv5_2/dw"
  top: "conv5_2/dw"
  param {
    lr_mult: 1
    decay_mult: 0
  }
  param {
    lr_mult: 1
    decay_mult: 0
  }
  scale_param {
    filler {
      value: 1
    }
    bias_term: true
    bias_filler {
      value: 0
    }
  }
}
layer {
  name: "relu5_2/dw"
  type: "ReLU"
  bottom: "conv5_2/dw"
  top: "conv5_2/dw"
}
layer {
  name: "conv5_2/sep"
  type: "Convolution"
  bottom: "conv5_2/dw"
  top: "conv5_2/sep"
  param {
    lr_mult: 1
    decay_mult: 1
  }
  convolution_param {
    num_output: 512
    bias_term: false
    pad: 0
    kernel_size: 1
    stride: 1
    weight_filler {
      type: "msra"
    }
  }
}
layer {
  name: "conv5_2/sep/bn"
  type: "BatchNorm"
  bottom: "conv5_2/sep"
  top: "conv5_2/sep"
  param {
    lr_mult: 0
    decay_mult: 0
  }
  param {
    lr_mult: 0
    decay_mult: 0
  }
  param {
    lr_mult: 0
    decay_mult: 0
  }
  batch_norm_param {
    use_global_stats: false
    eps: 1e-05
  }
}
layer {
  name: "conv5_2/sep/scale"
  type: "Scale"
  bottom: "conv5_2/sep"
  top: "conv5_2/sep"
  param {
    lr_mult: 1
    decay_mult: 0
  }
  param {
    lr_mult: 1
    decay_mult: 0
  }
  scale_param {
    filler {
      value: 1
    }
    bias_term: true
    bias_filler {
      value: 0
    }
  }
}
layer {
  name: "relu5_2/sep"
  type: "ReLU"
  bottom: "conv5_2/sep"
  top: "conv5_2/sep"
}
layer {
  name: "conv5_3/dw"
  type: "Convolution"
  bottom: "conv5_2/sep"
  top: "conv5_3/dw"
  param {
    lr_mult: 1
    decay_mult: 1
  }
  convolution_param {
    num_output: 512
    bias_term: false
    pad: 1
    kernel_size: 3
    group: 512
    stride: 1
    weight_filler {
      type: "msra"
    }
    engine: CAFFE
  }
}
layer {
  name: "conv5_3/dw/bn"
  type: "BatchNorm"
  bottom: "conv5_3/dw"
  top: "conv5_3/dw"
  param {
    lr_mult: 0
    decay_mult: 0
  }
  param {
    lr_mult: 0
    decay_mult: 0
  }
  param {
    lr_mult: 0
    decay_mult: 0
  }
  batch_norm_param {
    use_global_stats: false
    eps: 1e-05
  }
}
layer {
  name: "conv5_3/dw/scale"
  type: "Scale"
  bottom: "conv5_3/dw"
  top: "conv5_3/dw"
  param {
    lr_mult: 1
    decay_mult: 0
  }
  param {
    lr_mult: 1
    decay_mult: 0
  }
  scale_param {
    filler {
      value: 1
    }
    bias_term: true
    bias_filler {
      value: 0
    }
  }
}
layer {
  name: "relu5_3/dw"
  type: "ReLU"
  bottom: "conv5_3/dw"
  top: "conv5_3/dw"
}
layer {
  name: "conv5_3/sep"
  type: "Convolution"
  bottom: "conv5_3/dw"
  top: "conv5_3/sep"
  param {
    lr_mult: 1
    decay_mult: 1
  }
  convolution_param {
    num_output: 512
    bias_term: false
    pad: 0
    kernel_size: 1
    stride: 1
    weight_filler {
      type: "msra"
    }
  }
}
layer {
  name: "conv5_3/sep/bn"
  type: "BatchNorm"
  bottom: "conv5_3/sep"
  top: "conv5_3/sep"
  param {
    lr_mult: 0
    decay_mult: 0
  }
  param {
    lr_mult: 0
    decay_mult: 0
  }
  param {
    lr_mult: 0
    decay_mult: 0
  }
  batch_norm_param {
    use_global_stats: false
    eps: 1e-05
  }
}
layer {
  name: "conv5_3/sep/scale"
  type: "Scale"
  bottom: "conv5_3/sep"
  top: "conv5_3/sep"
  param {
    lr_mult: 1
    decay_mult: 0
  }
  param {
    lr_mult: 1
    decay_mult: 0
  }
  scale_param {
    filler {
      value: 1
    }
    bias_term: true
    bias_filler {
      value: 0
    }
  }
}
layer {
  name: "relu5_3/sep"
  type: "ReLU"
  bottom: "conv5_3/sep"
  top: "conv5_3/sep"
}
layer {
  name: "conv5_4/dw"
  type: "Convolution"
  bottom: "conv5_3/sep"
  top: "conv5_4/dw"
  param {
    lr_mult: 1
    decay_mult: 1
  }
  convolution_param {
    num_output: 512
    bias_term: false
    pad: 1
    kernel_size: 3
    group: 512
    stride: 1
    weight_filler {
      type: "msra"
    }
    engine: CAFFE
  }
}
layer {
  name: "conv5_4/dw/bn"
  type: "BatchNorm"
  bottom: "conv5_4/dw"
  top: "conv5_4/dw"
  param {
    lr_mult: 0
    decay_mult: 0
  }
  param {
    lr_mult: 0
    decay_mult: 0
  }
  param {
    lr_mult: 0
    decay_mult: 0
  }
  batch_norm_param {
    use_global_stats: false
    eps: 1e-05
  }
}
layer {
  name: "conv5_4/dw/scale"
  type: "Scale"
  bottom: "conv5_4/dw"
  top: "conv5_4/dw"
  param {
    lr_mult: 1
    decay_mult: 0
  }
  param {
    lr_mult: 1
    decay_mult: 0
  }
  scale_param {
    filler {
      value: 1
    }
    bias_term: true
    bias_filler {
      value: 0
    }
  }
}
layer {
  name: "relu5_4/dw"
  type: "ReLU"
  bottom: "conv5_4/dw"
  top: "conv5_4/dw"
}
layer {
  name: "conv5_4/sep"
  type: "Convolution"
  bottom: "conv5_4/dw"
  top: "conv5_4/sep"
  param {
    lr_mult: 1
    decay_mult: 1
  }
  convolution_param {
    num_output: 512
    bias_term: false
    pad: 0
    kernel_size: 1
    stride: 1
    weight_filler {
      type: "msra"
    }
  }
}
layer {
  name: "conv5_4/sep/bn"
  type: "BatchNorm"
  bottom: "conv5_4/sep"
  top: "conv5_4/sep"
  param {
    lr_mult: 0
    decay_mult: 0
  }
  param {
    lr_mult: 0
    decay_mult: 0
  }
  param {
    lr_mult: 0
    decay_mult: 0
  }
  batch_norm_param {
    use_global_stats: false
    eps: 1e-05
  }
}
layer {
  name: "conv5_4/sep/scale"
  type: "Scale"
  bottom: "conv5_4/sep"
  top: "conv5_4/sep"
  param {
    lr_mult: 1
    decay_mult: 0
  }
  param {
    lr_mult: 1
    decay_mult: 0
  }
  scale_param {
    filler {
      value: 1
    }
    bias_term: true
    bias_filler {
      value: 0
    }
  }
}
layer {
  name: "relu5_4/sep"
  type: "ReLU"
  bottom: "conv5_4/sep"
  top: "conv5_4/sep"
}
layer {
  name: "conv5_5/dw"
  type: "Convolution"
  bottom: "conv5_4/sep"
  top: "conv5_5/dw"
  param {
    lr_mult: 1
    decay_mult: 1
  }
  convolution_param {
    num_output: 512
    bias_term: false
    pad: 1
    kernel_size: 3
    group: 512
    stride: 1
    weight_filler {
      type: "msra"
    }
    engine: CAFFE
  }
}
layer {
  name: "conv5_5/dw/bn"
  type: "BatchNorm"
  bottom: "conv5_5/dw"
  top: "conv5_5/dw"
  param {
    lr_mult: 0
    decay_mult: 0
  }
  param {
    lr_mult: 0
    decay_mult: 0
  }
  param {
    lr_mult: 0
    decay_mult: 0
  }
  batch_norm_param {
    use_global_stats: false
    eps: 1e-05
  }
}
layer {
  name: "conv5_5/dw/scale"
  type: "Scale"
  bottom: "conv5_5/dw"
  top: "conv5_5/dw"
  param {
    lr_mult: 1
    decay_mult: 0
  }
  param {
    lr_mult: 1
    decay_mult: 0
  }
  scale_param {
    filler {
      value: 1
    }
    bias_term: true
    bias_filler {
      value: 0
    }
  }
}
layer {
  name: "relu5_5/dw"
  type: "ReLU"
  bottom: "conv5_5/dw"
  top: "conv5_5/dw"
}
layer {
  name: "conv5_5/sep"
  type: "Convolution"
  bottom: "conv5_5/dw"
  top: "conv5_5/sep"
  param {
    lr_mult: 1
    decay_mult: 1
  }
  convolution_param {
    num_output: 512
    bias_term: false
    pad: 0
    kernel_size: 1
    stride: 1
    weight_filler {
      type: "msra"
    }
  }
}
layer {
  name: "conv5_5/sep/bn"
  type: "BatchNorm"
  bottom: "conv5_5/sep"
  top: "conv5_5/sep"
  param {
    lr_mult: 0
    decay_mult: 0
  }
  param {
    lr_mult: 0
    decay_mult: 0
  }
  param {
    lr_mult: 0
    decay_mult: 0
  }
  batch_norm_param {
    use_global_stats: false
    eps: 1e-05
  }
}
layer {
  name: "conv5_5/sep/scale"
  type: "Scale"
  bottom: "conv5_5/sep"
  top: "conv5_5/sep"
  param {
    lr_mult: 1
    decay_mult: 0
  }
  param {
    lr_mult: 1
    decay_mult: 0
  }
  scale_param {
    filler {
      value: 1
    }
    bias_term: true
    bias_filler {
      value: 0
    }
  }
}
layer {
  name: "relu5_5/sep"
  type: "ReLU"
  bottom: "conv5_5/sep"
  top: "conv5_5/sep"
}
layer {
  name: "pool6"
  type: "Pooling"
  bottom: "conv5_5/sep"
  top: "pool6"
  pooling_param {
    pool: AVE
    global_pooling: true
  }
}
layer {
  name: "fc7-mouth"
  type: "Convolution"
  bottom: "pool6"
  top: "fc7-mouth"
  param {
    lr_mult: 1
    decay_mult: 1
  }
  param {
    lr_mult: 2
    decay_mult: 0
  }
  convolution_param {
    num_output: 4
    kernel_size: 1
    weight_filler {
      type: "msra"
    }
    bias_filler {
      type: "constant"
      value: 0
    }
  }
}
layer {
  name: "loss"
  type: "SoftmaxWithLoss"
  bottom: "fc7-mouth"
  bottom: "clc-label"
  top: "loss"
}
layer {
  name: "acc"
  type: "Accuracy"
  bottom: "fc7-mouth"
  bottom: "clc-label"
  top: "acc"
  include {
    phase: TRAIN
  }
  include {
    phase: TEST
  }
}
I0630 16:50:47.480522 28406 layer_factory.hpp:77] Creating layer data
I0630 16:50:47.480540 28406 net.cpp:86] Creating Layer data
I0630 16:50:47.480546 28406 net.cpp:382] data -> data
I0630 16:50:47.480557 28406 net.cpp:382] data -> clc-label
I0630 16:50:47.480567 28406 image_data_layer.cpp:38] Opening file all_shuffle_val.txt
I0630 16:50:47.481207 28406 image_data_layer.cpp:63] A total of 1510 images.
I0630 16:50:47.481621 28406 image_data_layer.cpp:90] output data size: 16,3,96,96
I0630 16:50:47.488240 28406 net.cpp:124] Setting up data
I0630 16:50:47.488270 28406 net.cpp:131] Top shape: 16 3 96 96 (442368)
I0630 16:50:47.488276 28406 net.cpp:131] Top shape: 16 (16)
I0630 16:50:47.488281 28406 net.cpp:139] Memory required for data: 1769536
I0630 16:50:47.488291 28406 layer_factory.hpp:77] Creating layer clc-label_data_1_split
I0630 16:50:47.488307 28406 net.cpp:86] Creating Layer clc-label_data_1_split
I0630 16:50:47.488314 28406 net.cpp:408] clc-label_data_1_split <- clc-label
I0630 16:50:47.488329 28406 net.cpp:382] clc-label_data_1_split -> clc-label_data_1_split_0
I0630 16:50:47.488348 28406 net.cpp:382] clc-label_data_1_split -> clc-label_data_1_split_1
I0630 16:50:47.488441 28406 net.cpp:124] Setting up clc-label_data_1_split
I0630 16:50:47.488451 28406 net.cpp:131] Top shape: 16 (16)
I0630 16:50:47.488456 28406 net.cpp:131] Top shape: 16 (16)
I0630 16:50:47.488461 28406 net.cpp:139] Memory required for data: 1769664
I0630 16:50:47.488468 28406 layer_factory.hpp:77] Creating layer conv1
I0630 16:50:47.488487 28406 net.cpp:86] Creating Layer conv1
I0630 16:50:47.488495 28406 net.cpp:408] conv1 <- data
I0630 16:50:47.488504 28406 net.cpp:382] conv1 -> conv1
I0630 16:50:47.491333 28406 net.cpp:124] Setting up conv1
I0630 16:50:47.491359 28406 net.cpp:131] Top shape: 16 32 48 48 (1179648)
I0630 16:50:47.491367 28406 net.cpp:139] Memory required for data: 6488256
I0630 16:50:47.491384 28406 layer_factory.hpp:77] Creating layer conv1/bn
I0630 16:50:47.491405 28406 net.cpp:86] Creating Layer conv1/bn
I0630 16:50:47.491415 28406 net.cpp:408] conv1/bn <- conv1
I0630 16:50:47.491430 28406 net.cpp:369] conv1/bn -> conv1 (in-place)
I0630 16:50:47.491698 28406 net.cpp:124] Setting up conv1/bn
I0630 16:50:47.491710 28406 net.cpp:131] Top shape: 16 32 48 48 (1179648)
I0630 16:50:47.491715 28406 net.cpp:139] Memory required for data: 11206848
I0630 16:50:47.491727 28406 layer_factory.hpp:77] Creating layer conv1/scale
I0630 16:50:47.491740 28406 net.cpp:86] Creating Layer conv1/scale
I0630 16:50:47.491746 28406 net.cpp:408] conv1/scale <- conv1
I0630 16:50:47.491752 28406 net.cpp:369] conv1/scale -> conv1 (in-place)
I0630 16:50:47.491801 28406 layer_factory.hpp:77] Creating layer conv1/scale
I0630 16:50:47.491919 28406 net.cpp:124] Setting up conv1/scale
I0630 16:50:47.491930 28406 net.cpp:131] Top shape: 16 32 48 48 (1179648)
I0630 16:50:47.491935 28406 net.cpp:139] Memory required for data: 15925440
I0630 16:50:47.491943 28406 layer_factory.hpp:77] Creating layer relu1
I0630 16:50:47.491950 28406 net.cpp:86] Creating Layer relu1
I0630 16:50:47.491956 28406 net.cpp:408] relu1 <- conv1
I0630 16:50:47.491962 28406 net.cpp:369] relu1 -> conv1 (in-place)
I0630 16:50:47.492431 28406 net.cpp:124] Setting up relu1
I0630 16:50:47.492444 28406 net.cpp:131] Top shape: 16 32 48 48 (1179648)
I0630 16:50:47.492449 28406 net.cpp:139] Memory required for data: 20644032
I0630 16:50:47.492452 28406 layer_factory.hpp:77] Creating layer conv2_1/dw
I0630 16:50:47.492462 28406 net.cpp:86] Creating Layer conv2_1/dw
I0630 16:50:47.492467 28406 net.cpp:408] conv2_1/dw <- conv1
I0630 16:50:47.492475 28406 net.cpp:382] conv2_1/dw -> conv2_1/dw
I0630 16:50:47.492681 28406 net.cpp:124] Setting up conv2_1/dw
I0630 16:50:47.492692 28406 net.cpp:131] Top shape: 16 32 48 48 (1179648)
I0630 16:50:47.492697 28406 net.cpp:139] Memory required for data: 25362624
I0630 16:50:47.492702 28406 layer_factory.hpp:77] Creating layer conv2_1/dw/bn
I0630 16:50:47.492709 28406 net.cpp:86] Creating Layer conv2_1/dw/bn
I0630 16:50:47.492713 28406 net.cpp:408] conv2_1/dw/bn <- conv2_1/dw
I0630 16:50:47.492719 28406 net.cpp:369] conv2_1/dw/bn -> conv2_1/dw (in-place)
I0630 16:50:47.492933 28406 net.cpp:124] Setting up conv2_1/dw/bn
I0630 16:50:47.492944 28406 net.cpp:131] Top shape: 16 32 48 48 (1179648)
I0630 16:50:47.492949 28406 net.cpp:139] Memory required for data: 30081216
I0630 16:50:47.492959 28406 layer_factory.hpp:77] Creating layer conv2_1/dw/scale
I0630 16:50:47.492969 28406 net.cpp:86] Creating Layer conv2_1/dw/scale
I0630 16:50:47.492987 28406 net.cpp:408] conv2_1/dw/scale <- conv2_1/dw
I0630 16:50:47.492995 28406 net.cpp:369] conv2_1/dw/scale -> conv2_1/dw (in-place)
I0630 16:50:47.493038 28406 layer_factory.hpp:77] Creating layer conv2_1/dw/scale
I0630 16:50:47.493152 28406 net.cpp:124] Setting up conv2_1/dw/scale
I0630 16:50:47.493161 28406 net.cpp:131] Top shape: 16 32 48 48 (1179648)
I0630 16:50:47.493166 28406 net.cpp:139] Memory required for data: 34799808
I0630 16:50:47.493173 28406 layer_factory.hpp:77] Creating layer relu2_1/dw
I0630 16:50:47.493180 28406 net.cpp:86] Creating Layer relu2_1/dw
I0630 16:50:47.493191 28406 net.cpp:408] relu2_1/dw <- conv2_1/dw
I0630 16:50:47.493197 28406 net.cpp:369] relu2_1/dw -> conv2_1/dw (in-place)
I0630 16:50:47.494079 28406 net.cpp:124] Setting up relu2_1/dw
I0630 16:50:47.494094 28406 net.cpp:131] Top shape: 16 32 48 48 (1179648)
I0630 16:50:47.494099 28406 net.cpp:139] Memory required for data: 39518400
I0630 16:50:47.494104 28406 layer_factory.hpp:77] Creating layer conv2_1/sep
I0630 16:50:47.494114 28406 net.cpp:86] Creating Layer conv2_1/sep
I0630 16:50:47.494119 28406 net.cpp:408] conv2_1/sep <- conv2_1/dw
I0630 16:50:47.494129 28406 net.cpp:382] conv2_1/sep -> conv2_1/sep
I0630 16:50:47.496112 28406 net.cpp:124] Setting up conv2_1/sep
I0630 16:50:47.496127 28406 net.cpp:131] Top shape: 16 64 48 48 (2359296)
I0630 16:50:47.496132 28406 net.cpp:139] Memory required for data: 48955584
I0630 16:50:47.496143 28406 layer_factory.hpp:77] Creating layer conv2_1/sep/bn
I0630 16:50:47.496157 28406 net.cpp:86] Creating Layer conv2_1/sep/bn
I0630 16:50:47.496165 28406 net.cpp:408] conv2_1/sep/bn <- conv2_1/sep
I0630 16:50:47.496174 28406 net.cpp:369] conv2_1/sep/bn -> conv2_1/sep (in-place)
I0630 16:50:47.496399 28406 net.cpp:124] Setting up conv2_1/sep/bn
I0630 16:50:47.496409 28406 net.cpp:131] Top shape: 16 64 48 48 (2359296)
I0630 16:50:47.496414 28406 net.cpp:139] Memory required for data: 58392768
I0630 16:50:47.496428 28406 layer_factory.hpp:77] Creating layer conv2_1/sep/scale
I0630 16:50:47.496439 28406 net.cpp:86] Creating Layer conv2_1/sep/scale
I0630 16:50:47.496448 28406 net.cpp:408] conv2_1/sep/scale <- conv2_1/sep
I0630 16:50:47.496457 28406 net.cpp:369] conv2_1/sep/scale -> conv2_1/sep (in-place)
I0630 16:50:47.496510 28406 layer_factory.hpp:77] Creating layer conv2_1/sep/scale
I0630 16:50:47.496628 28406 net.cpp:124] Setting up conv2_1/sep/scale
I0630 16:50:47.496637 28406 net.cpp:131] Top shape: 16 64 48 48 (2359296)
I0630 16:50:47.496641 28406 net.cpp:139] Memory required for data: 67829952
I0630 16:50:47.496657 28406 layer_factory.hpp:77] Creating layer relu2_1/sep
I0630 16:50:47.496666 28406 net.cpp:86] Creating Layer relu2_1/sep
I0630 16:50:47.496673 28406 net.cpp:408] relu2_1/sep <- conv2_1/sep
I0630 16:50:47.496682 28406 net.cpp:369] relu2_1/sep -> conv2_1/sep (in-place)
I0630 16:50:47.497129 28406 net.cpp:124] Setting up relu2_1/sep
I0630 16:50:47.497141 28406 net.cpp:131] Top shape: 16 64 48 48 (2359296)
I0630 16:50:47.497145 28406 net.cpp:139] Memory required for data: 77267136
I0630 16:50:47.497153 28406 layer_factory.hpp:77] Creating layer conv2_2/dw
I0630 16:50:47.497177 28406 net.cpp:86] Creating Layer conv2_2/dw
I0630 16:50:47.497193 28406 net.cpp:408] conv2_2/dw <- conv2_1/sep
I0630 16:50:47.497205 28406 net.cpp:382] conv2_2/dw -> conv2_2/dw
I0630 16:50:47.497442 28406 net.cpp:124] Setting up conv2_2/dw
I0630 16:50:47.497452 28406 net.cpp:131] Top shape: 16 64 24 24 (589824)
I0630 16:50:47.497457 28406 net.cpp:139] Memory required for data: 79626432
I0630 16:50:47.497472 28406 layer_factory.hpp:77] Creating layer conv2_2/dw/bn
I0630 16:50:47.497479 28406 net.cpp:86] Creating Layer conv2_2/dw/bn
I0630 16:50:47.497484 28406 net.cpp:408] conv2_2/dw/bn <- conv2_2/dw
I0630 16:50:47.497490 28406 net.cpp:369] conv2_2/dw/bn -> conv2_2/dw (in-place)
I0630 16:50:47.497710 28406 net.cpp:124] Setting up conv2_2/dw/bn
I0630 16:50:47.497720 28406 net.cpp:131] Top shape: 16 64 24 24 (589824)
I0630 16:50:47.497725 28406 net.cpp:139] Memory required for data: 81985728
I0630 16:50:47.497754 28406 layer_factory.hpp:77] Creating layer conv2_2/dw/scale
I0630 16:50:47.497766 28406 net.cpp:86] Creating Layer conv2_2/dw/scale
I0630 16:50:47.497771 28406 net.cpp:408] conv2_2/dw/scale <- conv2_2/dw
I0630 16:50:47.497778 28406 net.cpp:369] conv2_2/dw/scale -> conv2_2/dw (in-place)
I0630 16:50:47.497820 28406 layer_factory.hpp:77] Creating layer conv2_2/dw/scale
I0630 16:50:47.497938 28406 net.cpp:124] Setting up conv2_2/dw/scale
I0630 16:50:47.497947 28406 net.cpp:131] Top shape: 16 64 24 24 (589824)
I0630 16:50:47.497951 28406 net.cpp:139] Memory required for data: 84345024
I0630 16:50:47.497958 28406 layer_factory.hpp:77] Creating layer relu2_2/dw
I0630 16:50:47.497964 28406 net.cpp:86] Creating Layer relu2_2/dw
I0630 16:50:47.497968 28406 net.cpp:408] relu2_2/dw <- conv2_2/dw
I0630 16:50:47.497974 28406 net.cpp:369] relu2_2/dw -> conv2_2/dw (in-place)
I0630 16:50:47.498775 28406 net.cpp:124] Setting up relu2_2/dw
I0630 16:50:47.498787 28406 net.cpp:131] Top shape: 16 64 24 24 (589824)
I0630 16:50:47.498791 28406 net.cpp:139] Memory required for data: 86704320
I0630 16:50:47.498796 28406 layer_factory.hpp:77] Creating layer conv2_2/sep
I0630 16:50:47.498805 28406 net.cpp:86] Creating Layer conv2_2/sep
I0630 16:50:47.498811 28406 net.cpp:408] conv2_2/sep <- conv2_2/dw
I0630 16:50:47.498816 28406 net.cpp:382] conv2_2/sep -> conv2_2/sep
I0630 16:50:47.501116 28406 net.cpp:124] Setting up conv2_2/sep
I0630 16:50:47.501132 28406 net.cpp:131] Top shape: 16 128 24 24 (1179648)
I0630 16:50:47.501135 28406 net.cpp:139] Memory required for data: 91422912
I0630 16:50:47.501142 28406 layer_factory.hpp:77] Creating layer conv2_2/sep/bn
I0630 16:50:47.501149 28406 net.cpp:86] Creating Layer conv2_2/sep/bn
I0630 16:50:47.501154 28406 net.cpp:408] conv2_2/sep/bn <- conv2_2/sep
I0630 16:50:47.501168 28406 net.cpp:369] conv2_2/sep/bn -> conv2_2/sep (in-place)
I0630 16:50:47.501400 28406 net.cpp:124] Setting up conv2_2/sep/bn
I0630 16:50:47.501411 28406 net.cpp:131] Top shape: 16 128 24 24 (1179648)
I0630 16:50:47.501415 28406 net.cpp:139] Memory required for data: 96141504
I0630 16:50:47.501425 28406 layer_factory.hpp:77] Creating layer conv2_2/sep/scale
I0630 16:50:47.501432 28406 net.cpp:86] Creating Layer conv2_2/sep/scale
I0630 16:50:47.501436 28406 net.cpp:408] conv2_2/sep/scale <- conv2_2/sep
I0630 16:50:47.501442 28406 net.cpp:369] conv2_2/sep/scale -> conv2_2/sep (in-place)
I0630 16:50:47.501484 28406 layer_factory.hpp:77] Creating layer conv2_2/sep/scale
I0630 16:50:47.501597 28406 net.cpp:124] Setting up conv2_2/sep/scale
I0630 16:50:47.501606 28406 net.cpp:131] Top shape: 16 128 24 24 (1179648)
I0630 16:50:47.501610 28406 net.cpp:139] Memory required for data: 100860096
I0630 16:50:47.501617 28406 layer_factory.hpp:77] Creating layer relu2_2/sep
I0630 16:50:47.501623 28406 net.cpp:86] Creating Layer relu2_2/sep
I0630 16:50:47.501628 28406 net.cpp:408] relu2_2/sep <- conv2_2/sep
I0630 16:50:47.501633 28406 net.cpp:369] relu2_2/sep -> conv2_2/sep (in-place)
I0630 16:50:47.502446 28406 net.cpp:124] Setting up relu2_2/sep
I0630 16:50:47.502460 28406 net.cpp:131] Top shape: 16 128 24 24 (1179648)
I0630 16:50:47.502465 28406 net.cpp:139] Memory required for data: 105578688
I0630 16:50:47.502468 28406 layer_factory.hpp:77] Creating layer conv3_1/dw
I0630 16:50:47.502496 28406 net.cpp:86] Creating Layer conv3_1/dw
I0630 16:50:47.502504 28406 net.cpp:408] conv3_1/dw <- conv2_2/sep
I0630 16:50:47.502511 28406 net.cpp:382] conv3_1/dw -> conv3_1/dw
I0630 16:50:47.502713 28406 net.cpp:124] Setting up conv3_1/dw
I0630 16:50:47.502723 28406 net.cpp:131] Top shape: 16 128 24 24 (1179648)
I0630 16:50:47.502727 28406 net.cpp:139] Memory required for data: 110297280
I0630 16:50:47.502733 28406 layer_factory.hpp:77] Creating layer conv3_1/dw/bn
I0630 16:50:47.502740 28406 net.cpp:86] Creating Layer conv3_1/dw/bn
I0630 16:50:47.502744 28406 net.cpp:408] conv3_1/dw/bn <- conv3_1/dw
I0630 16:50:47.502750 28406 net.cpp:369] conv3_1/dw/bn -> conv3_1/dw (in-place)
I0630 16:50:47.502933 28406 net.cpp:124] Setting up conv3_1/dw/bn
I0630 16:50:47.502954 28406 net.cpp:131] Top shape: 16 128 24 24 (1179648)
I0630 16:50:47.502957 28406 net.cpp:139] Memory required for data: 115015872
I0630 16:50:47.502969 28406 layer_factory.hpp:77] Creating layer conv3_1/dw/scale
I0630 16:50:47.502979 28406 net.cpp:86] Creating Layer conv3_1/dw/scale
I0630 16:50:47.502982 28406 net.cpp:408] conv3_1/dw/scale <- conv3_1/dw
I0630 16:50:47.502988 28406 net.cpp:369] conv3_1/dw/scale -> conv3_1/dw (in-place)
I0630 16:50:47.503032 28406 layer_factory.hpp:77] Creating layer conv3_1/dw/scale
I0630 16:50:47.503170 28406 net.cpp:124] Setting up conv3_1/dw/scale
I0630 16:50:47.503180 28406 net.cpp:131] Top shape: 16 128 24 24 (1179648)
I0630 16:50:47.503185 28406 net.cpp:139] Memory required for data: 119734464
I0630 16:50:47.503191 28406 layer_factory.hpp:77] Creating layer relu3_1/dw
I0630 16:50:47.503197 28406 net.cpp:86] Creating Layer relu3_1/dw
I0630 16:50:47.503201 28406 net.cpp:408] relu3_1/dw <- conv3_1/dw
I0630 16:50:47.503207 28406 net.cpp:369] relu3_1/dw -> conv3_1/dw (in-place)
I0630 16:50:47.503624 28406 net.cpp:124] Setting up relu3_1/dw
I0630 16:50:47.503636 28406 net.cpp:131] Top shape: 16 128 24 24 (1179648)
I0630 16:50:47.503640 28406 net.cpp:139] Memory required for data: 124453056
I0630 16:50:47.503644 28406 layer_factory.hpp:77] Creating layer conv3_1/sep
I0630 16:50:47.503654 28406 net.cpp:86] Creating Layer conv3_1/sep
I0630 16:50:47.503657 28406 net.cpp:408] conv3_1/sep <- conv3_1/dw
I0630 16:50:47.503664 28406 net.cpp:382] conv3_1/sep -> conv3_1/sep
I0630 16:50:47.505965 28406 net.cpp:124] Setting up conv3_1/sep
I0630 16:50:47.505983 28406 net.cpp:131] Top shape: 16 128 24 24 (1179648)
I0630 16:50:47.505987 28406 net.cpp:139] Memory required for data: 129171648
I0630 16:50:47.506003 28406 layer_factory.hpp:77] Creating layer conv3_1/sep/bn
I0630 16:50:47.506014 28406 net.cpp:86] Creating Layer conv3_1/sep/bn
I0630 16:50:47.506021 28406 net.cpp:408] conv3_1/sep/bn <- conv3_1/sep
I0630 16:50:47.506045 28406 net.cpp:369] conv3_1/sep/bn -> conv3_1/sep (in-place)
I0630 16:50:47.506289 28406 net.cpp:124] Setting up conv3_1/sep/bn
I0630 16:50:47.506300 28406 net.cpp:131] Top shape: 16 128 24 24 (1179648)
I0630 16:50:47.506304 28406 net.cpp:139] Memory required for data: 133890240
I0630 16:50:47.506321 28406 layer_factory.hpp:77] Creating layer conv3_1/sep/scale
I0630 16:50:47.506340 28406 net.cpp:86] Creating Layer conv3_1/sep/scale
I0630 16:50:47.506355 28406 net.cpp:408] conv3_1/sep/scale <- conv3_1/sep
I0630 16:50:47.506368 28406 net.cpp:369] conv3_1/sep/scale -> conv3_1/sep (in-place)
I0630 16:50:47.506431 28406 layer_factory.hpp:77] Creating layer conv3_1/sep/scale
I0630 16:50:47.506557 28406 net.cpp:124] Setting up conv3_1/sep/scale
I0630 16:50:47.506567 28406 net.cpp:131] Top shape: 16 128 24 24 (1179648)
I0630 16:50:47.506572 28406 net.cpp:139] Memory required for data: 138608832
I0630 16:50:47.506578 28406 layer_factory.hpp:77] Creating layer relu3_1/sep
I0630 16:50:47.506585 28406 net.cpp:86] Creating Layer relu3_1/sep
I0630 16:50:47.506589 28406 net.cpp:408] relu3_1/sep <- conv3_1/sep
I0630 16:50:47.506595 28406 net.cpp:369] relu3_1/sep -> conv3_1/sep (in-place)
I0630 16:50:47.507463 28406 net.cpp:124] Setting up relu3_1/sep
I0630 16:50:47.507477 28406 net.cpp:131] Top shape: 16 128 24 24 (1179648)
I0630 16:50:47.507480 28406 net.cpp:139] Memory required for data: 143327424
I0630 16:50:47.507485 28406 layer_factory.hpp:77] Creating layer conv3_2/dw
I0630 16:50:47.507495 28406 net.cpp:86] Creating Layer conv3_2/dw
I0630 16:50:47.507500 28406 net.cpp:408] conv3_2/dw <- conv3_1/sep
I0630 16:50:47.507508 28406 net.cpp:382] conv3_2/dw -> conv3_2/dw
I0630 16:50:47.507731 28406 net.cpp:124] Setting up conv3_2/dw
I0630 16:50:47.507742 28406 net.cpp:131] Top shape: 16 128 12 12 (294912)
I0630 16:50:47.507746 28406 net.cpp:139] Memory required for data: 144507072
I0630 16:50:47.507752 28406 layer_factory.hpp:77] Creating layer conv3_2/dw/bn
I0630 16:50:47.507760 28406 net.cpp:86] Creating Layer conv3_2/dw/bn
I0630 16:50:47.507764 28406 net.cpp:408] conv3_2/dw/bn <- conv3_2/dw
I0630 16:50:47.507783 28406 net.cpp:369] conv3_2/dw/bn -> conv3_2/dw (in-place)
I0630 16:50:47.507992 28406 net.cpp:124] Setting up conv3_2/dw/bn
I0630 16:50:47.508002 28406 net.cpp:131] Top shape: 16 128 12 12 (294912)
I0630 16:50:47.508006 28406 net.cpp:139] Memory required for data: 145686720
I0630 16:50:47.508015 28406 layer_factory.hpp:77] Creating layer conv3_2/dw/scale
I0630 16:50:47.508028 28406 net.cpp:86] Creating Layer conv3_2/dw/scale
I0630 16:50:47.508033 28406 net.cpp:408] conv3_2/dw/scale <- conv3_2/dw
I0630 16:50:47.508039 28406 net.cpp:369] conv3_2/dw/scale -> conv3_2/dw (in-place)
I0630 16:50:47.508081 28406 layer_factory.hpp:77] Creating layer conv3_2/dw/scale
I0630 16:50:47.508193 28406 net.cpp:124] Setting up conv3_2/dw/scale
I0630 16:50:47.508203 28406 net.cpp:131] Top shape: 16 128 12 12 (294912)
I0630 16:50:47.508206 28406 net.cpp:139] Memory required for data: 146866368
I0630 16:50:47.508213 28406 layer_factory.hpp:77] Creating layer relu3_2/dw
I0630 16:50:47.508219 28406 net.cpp:86] Creating Layer relu3_2/dw
I0630 16:50:47.508224 28406 net.cpp:408] relu3_2/dw <- conv3_2/dw
I0630 16:50:47.508229 28406 net.cpp:369] relu3_2/dw -> conv3_2/dw (in-place)
I0630 16:50:47.508680 28406 net.cpp:124] Setting up relu3_2/dw
I0630 16:50:47.508692 28406 net.cpp:131] Top shape: 16 128 12 12 (294912)
I0630 16:50:47.508697 28406 net.cpp:139] Memory required for data: 148046016
I0630 16:50:47.508702 28406 layer_factory.hpp:77] Creating layer conv3_2/sep
I0630 16:50:47.508710 28406 net.cpp:86] Creating Layer conv3_2/sep
I0630 16:50:47.508714 28406 net.cpp:408] conv3_2/sep <- conv3_2/dw
I0630 16:50:47.508721 28406 net.cpp:382] conv3_2/sep -> conv3_2/sep
I0630 16:50:47.511458 28406 net.cpp:124] Setting up conv3_2/sep
I0630 16:50:47.511476 28406 net.cpp:131] Top shape: 16 256 12 12 (589824)
I0630 16:50:47.511482 28406 net.cpp:139] Memory required for data: 150405312
I0630 16:50:47.511488 28406 layer_factory.hpp:77] Creating layer conv3_2/sep/bn
I0630 16:50:47.511497 28406 net.cpp:86] Creating Layer conv3_2/sep/bn
I0630 16:50:47.511502 28406 net.cpp:408] conv3_2/sep/bn <- conv3_2/sep
I0630 16:50:47.511509 28406 net.cpp:369] conv3_2/sep/bn -> conv3_2/sep (in-place)
I0630 16:50:47.511703 28406 net.cpp:124] Setting up conv3_2/sep/bn
I0630 16:50:47.511713 28406 net.cpp:131] Top shape: 16 256 12 12 (589824)
I0630 16:50:47.511718 28406 net.cpp:139] Memory required for data: 152764608
I0630 16:50:47.511726 28406 layer_factory.hpp:77] Creating layer conv3_2/sep/scale
I0630 16:50:47.511734 28406 net.cpp:86] Creating Layer conv3_2/sep/scale
I0630 16:50:47.511740 28406 net.cpp:408] conv3_2/sep/scale <- conv3_2/sep
I0630 16:50:47.511746 28406 net.cpp:369] conv3_2/sep/scale -> conv3_2/sep (in-place)
I0630 16:50:47.511790 28406 layer_factory.hpp:77] Creating layer conv3_2/sep/scale
I0630 16:50:47.511904 28406 net.cpp:124] Setting up conv3_2/sep/scale
I0630 16:50:47.511921 28406 net.cpp:131] Top shape: 16 256 12 12 (589824)
I0630 16:50:47.511934 28406 net.cpp:139] Memory required for data: 155123904
I0630 16:50:47.511941 28406 layer_factory.hpp:77] Creating layer relu3_2/sep
I0630 16:50:47.511948 28406 net.cpp:86] Creating Layer relu3_2/sep
I0630 16:50:47.511953 28406 net.cpp:408] relu3_2/sep <- conv3_2/sep
I0630 16:50:47.511958 28406 net.cpp:369] relu3_2/sep -> conv3_2/sep (in-place)
I0630 16:50:47.512820 28406 net.cpp:124] Setting up relu3_2/sep
I0630 16:50:47.512832 28406 net.cpp:131] Top shape: 16 256 12 12 (589824)
I0630 16:50:47.512837 28406 net.cpp:139] Memory required for data: 157483200
I0630 16:50:47.512841 28406 layer_factory.hpp:77] Creating layer conv4_1/dw
I0630 16:50:47.512852 28406 net.cpp:86] Creating Layer conv4_1/dw
I0630 16:50:47.512857 28406 net.cpp:408] conv4_1/dw <- conv3_2/sep
I0630 16:50:47.512864 28406 net.cpp:382] conv4_1/dw -> conv4_1/dw
I0630 16:50:47.513094 28406 net.cpp:124] Setting up conv4_1/dw
I0630 16:50:47.513104 28406 net.cpp:131] Top shape: 16 256 12 12 (589824)
I0630 16:50:47.513109 28406 net.cpp:139] Memory required for data: 159842496
I0630 16:50:47.513115 28406 layer_factory.hpp:77] Creating layer conv4_1/dw/bn
I0630 16:50:47.513154 28406 net.cpp:86] Creating Layer conv4_1/dw/bn
I0630 16:50:47.513161 28406 net.cpp:408] conv4_1/dw/bn <- conv4_1/dw
I0630 16:50:47.513168 28406 net.cpp:369] conv4_1/dw/bn -> conv4_1/dw (in-place)
I0630 16:50:47.513373 28406 net.cpp:124] Setting up conv4_1/dw/bn
I0630 16:50:47.513384 28406 net.cpp:131] Top shape: 16 256 12 12 (589824)
I0630 16:50:47.513389 28406 net.cpp:139] Memory required for data: 162201792
I0630 16:50:47.513397 28406 layer_factory.hpp:77] Creating layer conv4_1/dw/scale
I0630 16:50:47.513406 28406 net.cpp:86] Creating Layer conv4_1/dw/scale
I0630 16:50:47.513411 28406 net.cpp:408] conv4_1/dw/scale <- conv4_1/dw
I0630 16:50:47.513417 28406 net.cpp:369] conv4_1/dw/scale -> conv4_1/dw (in-place)
I0630 16:50:47.513458 28406 layer_factory.hpp:77] Creating layer conv4_1/dw/scale
I0630 16:50:47.513571 28406 net.cpp:124] Setting up conv4_1/dw/scale
I0630 16:50:47.513579 28406 net.cpp:131] Top shape: 16 256 12 12 (589824)
I0630 16:50:47.513597 28406 net.cpp:139] Memory required for data: 164561088
I0630 16:50:47.513604 28406 layer_factory.hpp:77] Creating layer relu4_1/dw
I0630 16:50:47.513610 28406 net.cpp:86] Creating Layer relu4_1/dw
I0630 16:50:47.513614 28406 net.cpp:408] relu4_1/dw <- conv4_1/dw
I0630 16:50:47.513620 28406 net.cpp:369] relu4_1/dw -> conv4_1/dw (in-place)
I0630 16:50:47.514076 28406 net.cpp:124] Setting up relu4_1/dw
I0630 16:50:47.514088 28406 net.cpp:131] Top shape: 16 256 12 12 (589824)
I0630 16:50:47.514093 28406 net.cpp:139] Memory required for data: 166920384
I0630 16:50:47.514097 28406 layer_factory.hpp:77] Creating layer conv4_1/sep
I0630 16:50:47.514106 28406 net.cpp:86] Creating Layer conv4_1/sep
I0630 16:50:47.514111 28406 net.cpp:408] conv4_1/sep <- conv4_1/dw
I0630 16:50:47.514127 28406 net.cpp:382] conv4_1/sep -> conv4_1/sep
I0630 16:50:47.516799 28406 net.cpp:124] Setting up conv4_1/sep
I0630 16:50:47.516813 28406 net.cpp:131] Top shape: 16 256 12 12 (589824)
I0630 16:50:47.516819 28406 net.cpp:139] Memory required for data: 169279680
I0630 16:50:47.516825 28406 layer_factory.hpp:77] Creating layer conv4_1/sep/bn
I0630 16:50:47.516834 28406 net.cpp:86] Creating Layer conv4_1/sep/bn
I0630 16:50:47.516839 28406 net.cpp:408] conv4_1/sep/bn <- conv4_1/sep
I0630 16:50:47.516845 28406 net.cpp:369] conv4_1/sep/bn -> conv4_1/sep (in-place)
I0630 16:50:47.517061 28406 net.cpp:124] Setting up conv4_1/sep/bn
I0630 16:50:47.517071 28406 net.cpp:131] Top shape: 16 256 12 12 (589824)
I0630 16:50:47.517076 28406 net.cpp:139] Memory required for data: 171638976
I0630 16:50:47.517086 28406 layer_factory.hpp:77] Creating layer conv4_1/sep/scale
I0630 16:50:47.517092 28406 net.cpp:86] Creating Layer conv4_1/sep/scale
I0630 16:50:47.517099 28406 net.cpp:408] conv4_1/sep/scale <- conv4_1/sep
I0630 16:50:47.517105 28406 net.cpp:369] conv4_1/sep/scale -> conv4_1/sep (in-place)
I0630 16:50:47.517148 28406 layer_factory.hpp:77] Creating layer conv4_1/sep/scale
I0630 16:50:47.517287 28406 net.cpp:124] Setting up conv4_1/sep/scale
I0630 16:50:47.517297 28406 net.cpp:131] Top shape: 16 256 12 12 (589824)
I0630 16:50:47.517302 28406 net.cpp:139] Memory required for data: 173998272
I0630 16:50:47.517315 28406 layer_factory.hpp:77] Creating layer relu4_1/sep
I0630 16:50:47.517323 28406 net.cpp:86] Creating Layer relu4_1/sep
I0630 16:50:47.517328 28406 net.cpp:408] relu4_1/sep <- conv4_1/sep
I0630 16:50:47.517333 28406 net.cpp:369] relu4_1/sep -> conv4_1/sep (in-place)
I0630 16:50:47.518132 28406 net.cpp:124] Setting up relu4_1/sep
I0630 16:50:47.518144 28406 net.cpp:131] Top shape: 16 256 12 12 (589824)
I0630 16:50:47.518149 28406 net.cpp:139] Memory required for data: 176357568
I0630 16:50:47.518153 28406 layer_factory.hpp:77] Creating layer conv4_2/dw
I0630 16:50:47.518163 28406 net.cpp:86] Creating Layer conv4_2/dw
I0630 16:50:47.518168 28406 net.cpp:408] conv4_2/dw <- conv4_1/sep
I0630 16:50:47.518174 28406 net.cpp:382] conv4_2/dw -> conv4_2/dw
I0630 16:50:47.518394 28406 net.cpp:124] Setting up conv4_2/dw
I0630 16:50:47.518415 28406 net.cpp:131] Top shape: 16 256 6 6 (147456)
I0630 16:50:47.518420 28406 net.cpp:139] Memory required for data: 176947392
I0630 16:50:47.518426 28406 layer_factory.hpp:77] Creating layer conv4_2/dw/bn
I0630 16:50:47.518434 28406 net.cpp:86] Creating Layer conv4_2/dw/bn
I0630 16:50:47.518438 28406 net.cpp:408] conv4_2/dw/bn <- conv4_2/dw
I0630 16:50:47.518445 28406 net.cpp:369] conv4_2/dw/bn -> conv4_2/dw (in-place)
I0630 16:50:47.518636 28406 net.cpp:124] Setting up conv4_2/dw/bn
I0630 16:50:47.518646 28406 net.cpp:131] Top shape: 16 256 6 6 (147456)
I0630 16:50:47.518649 28406 net.cpp:139] Memory required for data: 177537216
I0630 16:50:47.518658 28406 layer_factory.hpp:77] Creating layer conv4_2/dw/scale
I0630 16:50:47.518666 28406 net.cpp:86] Creating Layer conv4_2/dw/scale
I0630 16:50:47.518689 28406 net.cpp:408] conv4_2/dw/scale <- conv4_2/dw
I0630 16:50:47.518698 28406 net.cpp:369] conv4_2/dw/scale -> conv4_2/dw (in-place)
I0630 16:50:47.518741 28406 layer_factory.hpp:77] Creating layer conv4_2/dw/scale
I0630 16:50:47.518851 28406 net.cpp:124] Setting up conv4_2/dw/scale
I0630 16:50:47.518860 28406 net.cpp:131] Top shape: 16 256 6 6 (147456)
I0630 16:50:47.518864 28406 net.cpp:139] Memory required for data: 178127040
I0630 16:50:47.518872 28406 layer_factory.hpp:77] Creating layer relu4_2/dw
I0630 16:50:47.518877 28406 net.cpp:86] Creating Layer relu4_2/dw
I0630 16:50:47.518882 28406 net.cpp:408] relu4_2/dw <- conv4_2/dw
I0630 16:50:47.518887 28406 net.cpp:369] relu4_2/dw -> conv4_2/dw (in-place)
I0630 16:50:47.519363 28406 net.cpp:124] Setting up relu4_2/dw
I0630 16:50:47.519374 28406 net.cpp:131] Top shape: 16 256 6 6 (147456)
I0630 16:50:47.519379 28406 net.cpp:139] Memory required for data: 178716864
I0630 16:50:47.519383 28406 layer_factory.hpp:77] Creating layer conv4_2/sep
I0630 16:50:47.519393 28406 net.cpp:86] Creating Layer conv4_2/sep
I0630 16:50:47.519398 28406 net.cpp:408] conv4_2/sep <- conv4_2/dw
I0630 16:50:47.519407 28406 net.cpp:382] conv4_2/sep -> conv4_2/sep
I0630 16:50:47.523133 28406 net.cpp:124] Setting up conv4_2/sep
I0630 16:50:47.523149 28406 net.cpp:131] Top shape: 16 512 6 6 (294912)
I0630 16:50:47.523154 28406 net.cpp:139] Memory required for data: 179896512
I0630 16:50:47.523160 28406 layer_factory.hpp:77] Creating layer conv4_2/sep/bn
I0630 16:50:47.523176 28406 net.cpp:86] Creating Layer conv4_2/sep/bn
I0630 16:50:47.523182 28406 net.cpp:408] conv4_2/sep/bn <- conv4_2/sep
I0630 16:50:47.523190 28406 net.cpp:369] conv4_2/sep/bn -> conv4_2/sep (in-place)
I0630 16:50:47.523427 28406 net.cpp:124] Setting up conv4_2/sep/bn
I0630 16:50:47.523437 28406 net.cpp:131] Top shape: 16 512 6 6 (294912)
I0630 16:50:47.523442 28406 net.cpp:139] Memory required for data: 181076160
I0630 16:50:47.523452 28406 layer_factory.hpp:77] Creating layer conv4_2/sep/scale
I0630 16:50:47.523458 28406 net.cpp:86] Creating Layer conv4_2/sep/scale
I0630 16:50:47.523468 28406 net.cpp:408] conv4_2/sep/scale <- conv4_2/sep
I0630 16:50:47.523474 28406 net.cpp:369] conv4_2/sep/scale -> conv4_2/sep (in-place)
I0630 16:50:47.523515 28406 layer_factory.hpp:77] Creating layer conv4_2/sep/scale
I0630 16:50:47.523633 28406 net.cpp:124] Setting up conv4_2/sep/scale
I0630 16:50:47.523643 28406 net.cpp:131] Top shape: 16 512 6 6 (294912)
I0630 16:50:47.523648 28406 net.cpp:139] Memory required for data: 182255808
I0630 16:50:47.523653 28406 layer_factory.hpp:77] Creating layer relu4_2/sep
I0630 16:50:47.523660 28406 net.cpp:86] Creating Layer relu4_2/sep
I0630 16:50:47.523664 28406 net.cpp:408] relu4_2/sep <- conv4_2/sep
I0630 16:50:47.523670 28406 net.cpp:369] relu4_2/sep -> conv4_2/sep (in-place)
I0630 16:50:47.524113 28406 net.cpp:124] Setting up relu4_2/sep
I0630 16:50:47.524125 28406 net.cpp:131] Top shape: 16 512 6 6 (294912)
I0630 16:50:47.524129 28406 net.cpp:139] Memory required for data: 183435456
I0630 16:50:47.524133 28406 layer_factory.hpp:77] Creating layer conv5_1/dw
I0630 16:50:47.524142 28406 net.cpp:86] Creating Layer conv5_1/dw
I0630 16:50:47.524147 28406 net.cpp:408] conv5_1/dw <- conv4_2/sep
I0630 16:50:47.524168 28406 net.cpp:382] conv5_1/dw -> conv5_1/dw
I0630 16:50:47.524416 28406 net.cpp:124] Setting up conv5_1/dw
I0630 16:50:47.524427 28406 net.cpp:131] Top shape: 16 512 6 6 (294912)
I0630 16:50:47.524431 28406 net.cpp:139] Memory required for data: 184615104
I0630 16:50:47.524436 28406 layer_factory.hpp:77] Creating layer conv5_1/dw/bn
I0630 16:50:47.524446 28406 net.cpp:86] Creating Layer conv5_1/dw/bn
I0630 16:50:47.524451 28406 net.cpp:408] conv5_1/dw/bn <- conv5_1/dw
I0630 16:50:47.524456 28406 net.cpp:369] conv5_1/dw/bn -> conv5_1/dw (in-place)
I0630 16:50:47.524668 28406 net.cpp:124] Setting up conv5_1/dw/bn
I0630 16:50:47.524678 28406 net.cpp:131] Top shape: 16 512 6 6 (294912)
I0630 16:50:47.524682 28406 net.cpp:139] Memory required for data: 185794752
I0630 16:50:47.524691 28406 layer_factory.hpp:77] Creating layer conv5_1/dw/scale
I0630 16:50:47.524698 28406 net.cpp:86] Creating Layer conv5_1/dw/scale
I0630 16:50:47.524703 28406 net.cpp:408] conv5_1/dw/scale <- conv5_1/dw
I0630 16:50:47.524708 28406 net.cpp:369] conv5_1/dw/scale -> conv5_1/dw (in-place)
I0630 16:50:47.524749 28406 layer_factory.hpp:77] Creating layer conv5_1/dw/scale
I0630 16:50:47.524864 28406 net.cpp:124] Setting up conv5_1/dw/scale
I0630 16:50:47.524873 28406 net.cpp:131] Top shape: 16 512 6 6 (294912)
I0630 16:50:47.524878 28406 net.cpp:139] Memory required for data: 186974400
I0630 16:50:47.524884 28406 layer_factory.hpp:77] Creating layer relu5_1/dw
I0630 16:50:47.524890 28406 net.cpp:86] Creating Layer relu5_1/dw
I0630 16:50:47.524894 28406 net.cpp:408] relu5_1/dw <- conv5_1/dw
I0630 16:50:47.524900 28406 net.cpp:369] relu5_1/dw -> conv5_1/dw (in-place)
I0630 16:50:47.525514 28406 net.cpp:124] Setting up relu5_1/dw
I0630 16:50:47.525527 28406 net.cpp:131] Top shape: 16 512 6 6 (294912)
I0630 16:50:47.525530 28406 net.cpp:139] Memory required for data: 188154048
I0630 16:50:47.525534 28406 layer_factory.hpp:77] Creating layer conv5_1/sep
I0630 16:50:47.525543 28406 net.cpp:86] Creating Layer conv5_1/sep
I0630 16:50:47.525548 28406 net.cpp:408] conv5_1/sep <- conv5_1/dw
I0630 16:50:47.525554 28406 net.cpp:382] conv5_1/sep -> conv5_1/sep
I0630 16:50:47.531491 28406 net.cpp:124] Setting up conv5_1/sep
I0630 16:50:47.531510 28406 net.cpp:131] Top shape: 16 512 6 6 (294912)
I0630 16:50:47.531515 28406 net.cpp:139] Memory required for data: 189333696
I0630 16:50:47.531522 28406 layer_factory.hpp:77] Creating layer conv5_1/sep/bn
I0630 16:50:47.531533 28406 net.cpp:86] Creating Layer conv5_1/sep/bn
I0630 16:50:47.531539 28406 net.cpp:408] conv5_1/sep/bn <- conv5_1/sep
I0630 16:50:47.531548 28406 net.cpp:369] conv5_1/sep/bn -> conv5_1/sep (in-place)
I0630 16:50:47.531749 28406 net.cpp:124] Setting up conv5_1/sep/bn
I0630 16:50:47.531759 28406 net.cpp:131] Top shape: 16 512 6 6 (294912)
I0630 16:50:47.531764 28406 net.cpp:139] Memory required for data: 190513344
I0630 16:50:47.531771 28406 layer_factory.hpp:77] Creating layer conv5_1/sep/scale
I0630 16:50:47.531780 28406 net.cpp:86] Creating Layer conv5_1/sep/scale
I0630 16:50:47.531785 28406 net.cpp:408] conv5_1/sep/scale <- conv5_1/sep
I0630 16:50:47.531791 28406 net.cpp:369] conv5_1/sep/scale -> conv5_1/sep (in-place)
I0630 16:50:47.531836 28406 layer_factory.hpp:77] Creating layer conv5_1/sep/scale
I0630 16:50:47.531955 28406 net.cpp:124] Setting up conv5_1/sep/scale
I0630 16:50:47.531963 28406 net.cpp:131] Top shape: 16 512 6 6 (294912)
I0630 16:50:47.531967 28406 net.cpp:139] Memory required for data: 191692992
I0630 16:50:47.531975 28406 layer_factory.hpp:77] Creating layer relu5_1/sep
I0630 16:50:47.531981 28406 net.cpp:86] Creating Layer relu5_1/sep
I0630 16:50:47.531987 28406 net.cpp:408] relu5_1/sep <- conv5_1/sep
I0630 16:50:47.531993 28406 net.cpp:369] relu5_1/sep -> conv5_1/sep (in-place)
I0630 16:50:47.532416 28406 net.cpp:124] Setting up relu5_1/sep
I0630 16:50:47.532428 28406 net.cpp:131] Top shape: 16 512 6 6 (294912)
I0630 16:50:47.532431 28406 net.cpp:139] Memory required for data: 192872640
I0630 16:50:47.532435 28406 layer_factory.hpp:77] Creating layer conv5_2/dw
I0630 16:50:47.532459 28406 net.cpp:86] Creating Layer conv5_2/dw
I0630 16:50:47.532464 28406 net.cpp:408] conv5_2/dw <- conv5_1/sep
I0630 16:50:47.532471 28406 net.cpp:382] conv5_2/dw -> conv5_2/dw
I0630 16:50:47.532721 28406 net.cpp:124] Setting up conv5_2/dw
I0630 16:50:47.532732 28406 net.cpp:131] Top shape: 16 512 6 6 (294912)
I0630 16:50:47.532735 28406 net.cpp:139] Memory required for data: 194052288
I0630 16:50:47.532742 28406 layer_factory.hpp:77] Creating layer conv5_2/dw/bn
I0630 16:50:47.532749 28406 net.cpp:86] Creating Layer conv5_2/dw/bn
I0630 16:50:47.532754 28406 net.cpp:408] conv5_2/dw/bn <- conv5_2/dw
I0630 16:50:47.532760 28406 net.cpp:369] conv5_2/dw/bn -> conv5_2/dw (in-place)
I0630 16:50:47.532953 28406 net.cpp:124] Setting up conv5_2/dw/bn
I0630 16:50:47.532963 28406 net.cpp:131] Top shape: 16 512 6 6 (294912)
I0630 16:50:47.532968 28406 net.cpp:139] Memory required for data: 195231936
I0630 16:50:47.532975 28406 layer_factory.hpp:77] Creating layer conv5_2/dw/scale
I0630 16:50:47.532989 28406 net.cpp:86] Creating Layer conv5_2/dw/scale
I0630 16:50:47.532995 28406 net.cpp:408] conv5_2/dw/scale <- conv5_2/dw
I0630 16:50:47.533001 28406 net.cpp:369] conv5_2/dw/scale -> conv5_2/dw (in-place)
I0630 16:50:47.533041 28406 layer_factory.hpp:77] Creating layer conv5_2/dw/scale
I0630 16:50:47.533166 28406 net.cpp:124] Setting up conv5_2/dw/scale
I0630 16:50:47.533176 28406 net.cpp:131] Top shape: 16 512 6 6 (294912)
I0630 16:50:47.533180 28406 net.cpp:139] Memory required for data: 196411584
I0630 16:50:47.533196 28406 layer_factory.hpp:77] Creating layer relu5_2/dw
I0630 16:50:47.533205 28406 net.cpp:86] Creating Layer relu5_2/dw
I0630 16:50:47.533210 28406 net.cpp:408] relu5_2/dw <- conv5_2/dw
I0630 16:50:47.533215 28406 net.cpp:369] relu5_2/dw -> conv5_2/dw (in-place)
I0630 16:50:47.533648 28406 net.cpp:124] Setting up relu5_2/dw
I0630 16:50:47.533659 28406 net.cpp:131] Top shape: 16 512 6 6 (294912)
I0630 16:50:47.533663 28406 net.cpp:139] Memory required for data: 197591232
I0630 16:50:47.533676 28406 layer_factory.hpp:77] Creating layer conv5_2/sep
I0630 16:50:47.533684 28406 net.cpp:86] Creating Layer conv5_2/sep
I0630 16:50:47.533689 28406 net.cpp:408] conv5_2/sep <- conv5_2/dw
I0630 16:50:47.533704 28406 net.cpp:382] conv5_2/sep -> conv5_2/sep
I0630 16:50:47.538520 28406 net.cpp:124] Setting up conv5_2/sep
I0630 16:50:47.538535 28406 net.cpp:131] Top shape: 16 512 6 6 (294912)
I0630 16:50:47.538540 28406 net.cpp:139] Memory required for data: 198770880
I0630 16:50:47.538555 28406 layer_factory.hpp:77] Creating layer conv5_2/sep/bn
I0630 16:50:47.538563 28406 net.cpp:86] Creating Layer conv5_2/sep/bn
I0630 16:50:47.538568 28406 net.cpp:408] conv5_2/sep/bn <- conv5_2/sep
I0630 16:50:47.538581 28406 net.cpp:369] conv5_2/sep/bn -> conv5_2/sep (in-place)
I0630 16:50:47.538794 28406 net.cpp:124] Setting up conv5_2/sep/bn
I0630 16:50:47.538803 28406 net.cpp:131] Top shape: 16 512 6 6 (294912)
I0630 16:50:47.538807 28406 net.cpp:139] Memory required for data: 199950528
I0630 16:50:47.538825 28406 layer_factory.hpp:77] Creating layer conv5_2/sep/scale
I0630 16:50:47.538832 28406 net.cpp:86] Creating Layer conv5_2/sep/scale
I0630 16:50:47.538836 28406 net.cpp:408] conv5_2/sep/scale <- conv5_2/sep
I0630 16:50:47.538851 28406 net.cpp:369] conv5_2/sep/scale -> conv5_2/sep (in-place)
I0630 16:50:47.538909 28406 layer_factory.hpp:77] Creating layer conv5_2/sep/scale
I0630 16:50:47.539062 28406 net.cpp:124] Setting up conv5_2/sep/scale
I0630 16:50:47.539072 28406 net.cpp:131] Top shape: 16 512 6 6 (294912)
I0630 16:50:47.539075 28406 net.cpp:139] Memory required for data: 201130176
I0630 16:50:47.539090 28406 layer_factory.hpp:77] Creating layer relu5_2/sep
I0630 16:50:47.539096 28406 net.cpp:86] Creating Layer relu5_2/sep
I0630 16:50:47.539101 28406 net.cpp:408] relu5_2/sep <- conv5_2/sep
I0630 16:50:47.539106 28406 net.cpp:369] relu5_2/sep -> conv5_2/sep (in-place)
I0630 16:50:47.539598 28406 net.cpp:124] Setting up relu5_2/sep
I0630 16:50:47.539618 28406 net.cpp:131] Top shape: 16 512 6 6 (294912)
I0630 16:50:47.539635 28406 net.cpp:139] Memory required for data: 202309824
I0630 16:50:47.539641 28406 layer_factory.hpp:77] Creating layer conv5_3/dw
I0630 16:50:47.539655 28406 net.cpp:86] Creating Layer conv5_3/dw
I0630 16:50:47.539669 28406 net.cpp:408] conv5_3/dw <- conv5_2/sep
I0630 16:50:47.539682 28406 net.cpp:382] conv5_3/dw -> conv5_3/dw
I0630 16:50:47.540050 28406 net.cpp:124] Setting up conv5_3/dw
I0630 16:50:47.540061 28406 net.cpp:131] Top shape: 16 512 6 6 (294912)
I0630 16:50:47.540066 28406 net.cpp:139] Memory required for data: 203489472
I0630 16:50:47.540071 28406 layer_factory.hpp:77] Creating layer conv5_3/dw/bn
I0630 16:50:47.540079 28406 net.cpp:86] Creating Layer conv5_3/dw/bn
I0630 16:50:47.540083 28406 net.cpp:408] conv5_3/dw/bn <- conv5_3/dw
I0630 16:50:47.540089 28406 net.cpp:369] conv5_3/dw/bn -> conv5_3/dw (in-place)
I0630 16:50:47.540290 28406 net.cpp:124] Setting up conv5_3/dw/bn
I0630 16:50:47.540300 28406 net.cpp:131] Top shape: 16 512 6 6 (294912)
I0630 16:50:47.540304 28406 net.cpp:139] Memory required for data: 204669120
I0630 16:50:47.540313 28406 layer_factory.hpp:77] Creating layer conv5_3/dw/scale
I0630 16:50:47.540320 28406 net.cpp:86] Creating Layer conv5_3/dw/scale
I0630 16:50:47.540324 28406 net.cpp:408] conv5_3/dw/scale <- conv5_3/dw
I0630 16:50:47.540330 28406 net.cpp:369] conv5_3/dw/scale -> conv5_3/dw (in-place)
I0630 16:50:47.540379 28406 layer_factory.hpp:77] Creating layer conv5_3/dw/scale
I0630 16:50:47.540503 28406 net.cpp:124] Setting up conv5_3/dw/scale
I0630 16:50:47.540513 28406 net.cpp:131] Top shape: 16 512 6 6 (294912)
I0630 16:50:47.540518 28406 net.cpp:139] Memory required for data: 205848768
I0630 16:50:47.540524 28406 layer_factory.hpp:77] Creating layer relu5_3/dw
I0630 16:50:47.540530 28406 net.cpp:86] Creating Layer relu5_3/dw
I0630 16:50:47.540534 28406 net.cpp:408] relu5_3/dw <- conv5_3/dw
I0630 16:50:47.540539 28406 net.cpp:369] relu5_3/dw -> conv5_3/dw (in-place)
I0630 16:50:47.541399 28406 net.cpp:124] Setting up relu5_3/dw
I0630 16:50:47.541412 28406 net.cpp:131] Top shape: 16 512 6 6 (294912)
I0630 16:50:47.541417 28406 net.cpp:139] Memory required for data: 207028416
I0630 16:50:47.541421 28406 layer_factory.hpp:77] Creating layer conv5_3/sep
I0630 16:50:47.541430 28406 net.cpp:86] Creating Layer conv5_3/sep
I0630 16:50:47.541437 28406 net.cpp:408] conv5_3/sep <- conv5_3/dw
I0630 16:50:47.541450 28406 net.cpp:382] conv5_3/sep -> conv5_3/sep
I0630 16:50:47.546942 28406 net.cpp:124] Setting up conv5_3/sep
I0630 16:50:47.546972 28406 net.cpp:131] Top shape: 16 512 6 6 (294912)
I0630 16:50:47.546977 28406 net.cpp:139] Memory required for data: 208208064
I0630 16:50:47.546989 28406 layer_factory.hpp:77] Creating layer conv5_3/sep/bn
I0630 16:50:47.547013 28406 net.cpp:86] Creating Layer conv5_3/sep/bn
I0630 16:50:47.547020 28406 net.cpp:408] conv5_3/sep/bn <- conv5_3/sep
I0630 16:50:47.547045 28406 net.cpp:369] conv5_3/sep/bn -> conv5_3/sep (in-place)
I0630 16:50:47.547271 28406 net.cpp:124] Setting up conv5_3/sep/bn
I0630 16:50:47.547288 28406 net.cpp:131] Top shape: 16 512 6 6 (294912)
I0630 16:50:47.547293 28406 net.cpp:139] Memory required for data: 209387712
I0630 16:50:47.547302 28406 layer_factory.hpp:77] Creating layer conv5_3/sep/scale
I0630 16:50:47.547312 28406 net.cpp:86] Creating Layer conv5_3/sep/scale
I0630 16:50:47.547320 28406 net.cpp:408] conv5_3/sep/scale <- conv5_3/sep
I0630 16:50:47.547338 28406 net.cpp:369] conv5_3/sep/scale -> conv5_3/sep (in-place)
I0630 16:50:47.547400 28406 layer_factory.hpp:77] Creating layer conv5_3/sep/scale
I0630 16:50:47.547564 28406 net.cpp:124] Setting up conv5_3/sep/scale
I0630 16:50:47.547580 28406 net.cpp:131] Top shape: 16 512 6 6 (294912)
I0630 16:50:47.547592 28406 net.cpp:139] Memory required for data: 210567360
I0630 16:50:47.547600 28406 layer_factory.hpp:77] Creating layer relu5_3/sep
I0630 16:50:47.547606 28406 net.cpp:86] Creating Layer relu5_3/sep
I0630 16:50:47.547612 28406 net.cpp:408] relu5_3/sep <- conv5_3/sep
I0630 16:50:47.547631 28406 net.cpp:369] relu5_3/sep -> conv5_3/sep (in-place)
I0630 16:50:47.548122 28406 net.cpp:124] Setting up relu5_3/sep
I0630 16:50:47.548133 28406 net.cpp:131] Top shape: 16 512 6 6 (294912)
I0630 16:50:47.548138 28406 net.cpp:139] Memory required for data: 211747008
I0630 16:50:47.548142 28406 layer_factory.hpp:77] Creating layer conv5_4/dw
I0630 16:50:47.548152 28406 net.cpp:86] Creating Layer conv5_4/dw
I0630 16:50:47.548156 28406 net.cpp:408] conv5_4/dw <- conv5_3/sep
I0630 16:50:47.548164 28406 net.cpp:382] conv5_4/dw -> conv5_4/dw
I0630 16:50:47.548424 28406 net.cpp:124] Setting up conv5_4/dw
I0630 16:50:47.548434 28406 net.cpp:131] Top shape: 16 512 6 6 (294912)
I0630 16:50:47.548439 28406 net.cpp:139] Memory required for data: 212926656
I0630 16:50:47.548444 28406 layer_factory.hpp:77] Creating layer conv5_4/dw/bn
I0630 16:50:47.548451 28406 net.cpp:86] Creating Layer conv5_4/dw/bn
I0630 16:50:47.548455 28406 net.cpp:408] conv5_4/dw/bn <- conv5_4/dw
I0630 16:50:47.548461 28406 net.cpp:369] conv5_4/dw/bn -> conv5_4/dw (in-place)
I0630 16:50:47.548661 28406 net.cpp:124] Setting up conv5_4/dw/bn
I0630 16:50:47.548672 28406 net.cpp:131] Top shape: 16 512 6 6 (294912)
I0630 16:50:47.548676 28406 net.cpp:139] Memory required for data: 214106304
I0630 16:50:47.548684 28406 layer_factory.hpp:77] Creating layer conv5_4/dw/scale
I0630 16:50:47.548691 28406 net.cpp:86] Creating Layer conv5_4/dw/scale
I0630 16:50:47.548696 28406 net.cpp:408] conv5_4/dw/scale <- conv5_4/dw
I0630 16:50:47.548702 28406 net.cpp:369] conv5_4/dw/scale -> conv5_4/dw (in-place)
I0630 16:50:47.548749 28406 layer_factory.hpp:77] Creating layer conv5_4/dw/scale
I0630 16:50:47.548877 28406 net.cpp:124] Setting up conv5_4/dw/scale
I0630 16:50:47.548887 28406 net.cpp:131] Top shape: 16 512 6 6 (294912)
I0630 16:50:47.548892 28406 net.cpp:139] Memory required for data: 215285952
I0630 16:50:47.548897 28406 layer_factory.hpp:77] Creating layer relu5_4/dw
I0630 16:50:47.548903 28406 net.cpp:86] Creating Layer relu5_4/dw
I0630 16:50:47.548909 28406 net.cpp:408] relu5_4/dw <- conv5_4/dw
I0630 16:50:47.548919 28406 net.cpp:369] relu5_4/dw -> conv5_4/dw (in-place)
I0630 16:50:47.549696 28406 net.cpp:124] Setting up relu5_4/dw
I0630 16:50:47.549710 28406 net.cpp:131] Top shape: 16 512 6 6 (294912)
I0630 16:50:47.549713 28406 net.cpp:139] Memory required for data: 216465600
I0630 16:50:47.549718 28406 layer_factory.hpp:77] Creating layer conv5_4/sep
I0630 16:50:47.549726 28406 net.cpp:86] Creating Layer conv5_4/sep
I0630 16:50:47.549732 28406 net.cpp:408] conv5_4/sep <- conv5_4/dw
I0630 16:50:47.549744 28406 net.cpp:382] conv5_4/sep -> conv5_4/sep
I0630 16:50:47.554301 28406 net.cpp:124] Setting up conv5_4/sep
I0630 16:50:47.554323 28406 net.cpp:131] Top shape: 16 512 6 6 (294912)
I0630 16:50:47.554328 28406 net.cpp:139] Memory required for data: 217645248
I0630 16:50:47.554338 28406 layer_factory.hpp:77] Creating layer conv5_4/sep/bn
I0630 16:50:47.554358 28406 net.cpp:86] Creating Layer conv5_4/sep/bn
I0630 16:50:47.554365 28406 net.cpp:408] conv5_4/sep/bn <- conv5_4/sep
I0630 16:50:47.554378 28406 net.cpp:369] conv5_4/sep/bn -> conv5_4/sep (in-place)
I0630 16:50:47.554594 28406 net.cpp:124] Setting up conv5_4/sep/bn
I0630 16:50:47.554611 28406 net.cpp:131] Top shape: 16 512 6 6 (294912)
I0630 16:50:47.554616 28406 net.cpp:139] Memory required for data: 218824896
I0630 16:50:47.554628 28406 layer_factory.hpp:77] Creating layer conv5_4/sep/scale
I0630 16:50:47.554647 28406 net.cpp:86] Creating Layer conv5_4/sep/scale
I0630 16:50:47.554669 28406 net.cpp:408] conv5_4/sep/scale <- conv5_4/sep
I0630 16:50:47.554677 28406 net.cpp:369] conv5_4/sep/scale -> conv5_4/sep (in-place)
I0630 16:50:47.554734 28406 layer_factory.hpp:77] Creating layer conv5_4/sep/scale
I0630 16:50:47.554901 28406 net.cpp:124] Setting up conv5_4/sep/scale
I0630 16:50:47.554919 28406 net.cpp:131] Top shape: 16 512 6 6 (294912)
I0630 16:50:47.554924 28406 net.cpp:139] Memory required for data: 220004544
I0630 16:50:47.554934 28406 layer_factory.hpp:77] Creating layer relu5_4/sep
I0630 16:50:47.554951 28406 net.cpp:86] Creating Layer relu5_4/sep
I0630 16:50:47.554970 28406 net.cpp:408] relu5_4/sep <- conv5_4/sep
I0630 16:50:47.554980 28406 net.cpp:369] relu5_4/sep -> conv5_4/sep (in-place)
I0630 16:50:47.555737 28406 net.cpp:124] Setting up relu5_4/sep
I0630 16:50:47.555749 28406 net.cpp:131] Top shape: 16 512 6 6 (294912)
I0630 16:50:47.555753 28406 net.cpp:139] Memory required for data: 221184192
I0630 16:50:47.555758 28406 layer_factory.hpp:77] Creating layer conv5_5/dw
I0630 16:50:47.555766 28406 net.cpp:86] Creating Layer conv5_5/dw
I0630 16:50:47.555773 28406 net.cpp:408] conv5_5/dw <- conv5_4/sep
I0630 16:50:47.555784 28406 net.cpp:382] conv5_5/dw -> conv5_5/dw
I0630 16:50:47.556044 28406 net.cpp:124] Setting up conv5_5/dw
I0630 16:50:47.556054 28406 net.cpp:131] Top shape: 16 512 6 6 (294912)
I0630 16:50:47.556059 28406 net.cpp:139] Memory required for data: 222363840
I0630 16:50:47.556064 28406 layer_factory.hpp:77] Creating layer conv5_5/dw/bn
I0630 16:50:47.556071 28406 net.cpp:86] Creating Layer conv5_5/dw/bn
I0630 16:50:47.556077 28406 net.cpp:408] conv5_5/dw/bn <- conv5_5/dw
I0630 16:50:47.556085 28406 net.cpp:369] conv5_5/dw/bn -> conv5_5/dw (in-place)
I0630 16:50:47.556290 28406 net.cpp:124] Setting up conv5_5/dw/bn
I0630 16:50:47.556300 28406 net.cpp:131] Top shape: 16 512 6 6 (294912)
I0630 16:50:47.556304 28406 net.cpp:139] Memory required for data: 223543488
I0630 16:50:47.556324 28406 layer_factory.hpp:77] Creating layer conv5_5/dw/scale
I0630 16:50:47.556335 28406 net.cpp:86] Creating Layer conv5_5/dw/scale
I0630 16:50:47.556345 28406 net.cpp:408] conv5_5/dw/scale <- conv5_5/dw
I0630 16:50:47.556354 28406 net.cpp:369] conv5_5/dw/scale -> conv5_5/dw (in-place)
I0630 16:50:47.556406 28406 layer_factory.hpp:77] Creating layer conv5_5/dw/scale
I0630 16:50:47.556535 28406 net.cpp:124] Setting up conv5_5/dw/scale
I0630 16:50:47.556545 28406 net.cpp:131] Top shape: 16 512 6 6 (294912)
I0630 16:50:47.556548 28406 net.cpp:139] Memory required for data: 224723136
I0630 16:50:47.556555 28406 layer_factory.hpp:77] Creating layer relu5_5/dw
I0630 16:50:47.556565 28406 net.cpp:86] Creating Layer relu5_5/dw
I0630 16:50:47.556572 28406 net.cpp:408] relu5_5/dw <- conv5_5/dw
I0630 16:50:47.556581 28406 net.cpp:369] relu5_5/dw -> conv5_5/dw (in-place)
I0630 16:50:47.557365 28406 net.cpp:124] Setting up relu5_5/dw
I0630 16:50:47.557379 28406 net.cpp:131] Top shape: 16 512 6 6 (294912)
I0630 16:50:47.557387 28406 net.cpp:139] Memory required for data: 225902784
I0630 16:50:47.557395 28406 layer_factory.hpp:77] Creating layer conv5_5/sep
I0630 16:50:47.557410 28406 net.cpp:86] Creating Layer conv5_5/sep
I0630 16:50:47.557415 28406 net.cpp:408] conv5_5/sep <- conv5_5/dw
I0630 16:50:47.557423 28406 net.cpp:382] conv5_5/sep -> conv5_5/sep
I0630 16:50:47.562845 28406 net.cpp:124] Setting up conv5_5/sep
I0630 16:50:47.562862 28406 net.cpp:131] Top shape: 16 512 6 6 (294912)
I0630 16:50:47.562868 28406 net.cpp:139] Memory required for data: 227082432
I0630 16:50:47.562880 28406 layer_factory.hpp:77] Creating layer conv5_5/sep/bn
I0630 16:50:47.562901 28406 net.cpp:86] Creating Layer conv5_5/sep/bn
I0630 16:50:47.562909 28406 net.cpp:408] conv5_5/sep/bn <- conv5_5/sep
I0630 16:50:47.562922 28406 net.cpp:369] conv5_5/sep/bn -> conv5_5/sep (in-place)
I0630 16:50:47.563139 28406 net.cpp:124] Setting up conv5_5/sep/bn
I0630 16:50:47.563149 28406 net.cpp:131] Top shape: 16 512 6 6 (294912)
I0630 16:50:47.563158 28406 net.cpp:139] Memory required for data: 228262080
I0630 16:50:47.563177 28406 layer_factory.hpp:77] Creating layer conv5_5/sep/scale
I0630 16:50:47.563189 28406 net.cpp:86] Creating Layer conv5_5/sep/scale
I0630 16:50:47.563197 28406 net.cpp:408] conv5_5/sep/scale <- conv5_5/sep
I0630 16:50:47.563206 28406 net.cpp:369] conv5_5/sep/scale -> conv5_5/sep (in-place)
I0630 16:50:47.563257 28406 layer_factory.hpp:77] Creating layer conv5_5/sep/scale
I0630 16:50:47.563411 28406 net.cpp:124] Setting up conv5_5/sep/scale
I0630 16:50:47.563421 28406 net.cpp:131] Top shape: 16 512 6 6 (294912)
I0630 16:50:47.563436 28406 net.cpp:139] Memory required for data: 229441728
I0630 16:50:47.563463 28406 layer_factory.hpp:77] Creating layer relu5_5/sep
I0630 16:50:47.563474 28406 net.cpp:86] Creating Layer relu5_5/sep
I0630 16:50:47.563482 28406 net.cpp:408] relu5_5/sep <- conv5_5/sep
I0630 16:50:47.563493 28406 net.cpp:369] relu5_5/sep -> conv5_5/sep (in-place)
I0630 16:50:47.563983 28406 net.cpp:124] Setting up relu5_5/sep
I0630 16:50:47.563995 28406 net.cpp:131] Top shape: 16 512 6 6 (294912)
I0630 16:50:47.564010 28406 net.cpp:139] Memory required for data: 230621376
I0630 16:50:47.564019 28406 layer_factory.hpp:77] Creating layer pool6
I0630 16:50:47.564031 28406 net.cpp:86] Creating Layer pool6
I0630 16:50:47.564038 28406 net.cpp:408] pool6 <- conv5_5/sep
I0630 16:50:47.564049 28406 net.cpp:382] pool6 -> pool6
I0630 16:50:47.564936 28406 net.cpp:124] Setting up pool6
I0630 16:50:47.564952 28406 net.cpp:131] Top shape: 16 512 1 1 (8192)
I0630 16:50:47.564961 28406 net.cpp:139] Memory required for data: 230654144
I0630 16:50:47.564970 28406 layer_factory.hpp:77] Creating layer fc7-mouth
I0630 16:50:47.564988 28406 net.cpp:86] Creating Layer fc7-mouth
I0630 16:50:47.564996 28406 net.cpp:408] fc7-mouth <- pool6
I0630 16:50:47.565007 28406 net.cpp:382] fc7-mouth -> fc7-mouth
I0630 16:50:47.567222 28406 net.cpp:124] Setting up fc7-mouth
I0630 16:50:47.567235 28406 net.cpp:131] Top shape: 16 4 1 1 (64)
I0630 16:50:47.567243 28406 net.cpp:139] Memory required for data: 230654400
I0630 16:50:47.567265 28406 layer_factory.hpp:77] Creating layer fc7-mouth_fc7-mouth_0_split
I0630 16:50:47.567277 28406 net.cpp:86] Creating Layer fc7-mouth_fc7-mouth_0_split
I0630 16:50:47.567284 28406 net.cpp:408] fc7-mouth_fc7-mouth_0_split <- fc7-mouth
I0630 16:50:47.567297 28406 net.cpp:382] fc7-mouth_fc7-mouth_0_split -> fc7-mouth_fc7-mouth_0_split_0
I0630 16:50:47.567309 28406 net.cpp:382] fc7-mouth_fc7-mouth_0_split -> fc7-mouth_fc7-mouth_0_split_1
I0630 16:50:47.567360 28406 net.cpp:124] Setting up fc7-mouth_fc7-mouth_0_split
I0630 16:50:47.567380 28406 net.cpp:131] Top shape: 16 4 1 1 (64)
I0630 16:50:47.567389 28406 net.cpp:131] Top shape: 16 4 1 1 (64)
I0630 16:50:47.567404 28406 net.cpp:139] Memory required for data: 230654912
I0630 16:50:47.567409 28406 layer_factory.hpp:77] Creating layer loss
I0630 16:50:47.567420 28406 net.cpp:86] Creating Layer loss
I0630 16:50:47.567427 28406 net.cpp:408] loss <- fc7-mouth_fc7-mouth_0_split_0
I0630 16:50:47.567436 28406 net.cpp:408] loss <- clc-label_data_1_split_0
I0630 16:50:47.567445 28406 net.cpp:382] loss -> loss
…
