…
I0707 23:59:37.387437 27836 net.cpp:296] The NetState phase (0) differed from the phase (1) specified by a rule in layer data
I0707 23:59:37.388043 27836 net.cpp:53] Initializing net from parameters: 
name: "mouth"
state {
  phase: TRAIN
  level: 0
  stage: ""
}
layer {
  name: "data"
  type: "ImageData"
  top: "data"
  top: "clc-label"
  include {
    phase: TRAIN
  }
  transform_param {
    mirror: true
    crop_size: 96
    mean_value: 104.008
    mean_value: 116.669
    mean_value: 122.675
    min_side_min: 96
    min_side_max: 128
  }
  image_data_param {
    source: "all_shuffle_train.txt"
    batch_size: 64
    shuffle: true
  }
}
layer {
  name: "conv1"
  type: "Convolution"
  bottom: "data"
  top: "conv1"
  param {
    lr_mult: 1
    decay_mult: 1
  }
  convolution_param {
    num_output: 32
    bias_term: false
    pad: 1
    kernel_size: 3
    stride: 2
    weight_filler {
      type: "msra"
    }
  }
}
layer {
  name: "conv1/bn"
  type: "BatchNorm"
  bottom: "conv1"
  top: "conv1"
  param {
    lr_mult: 0
    decay_mult: 0
  }
  param {
    lr_mult: 0
    decay_mult: 0
  }
  param {
    lr_mult: 0
    decay_mult: 0
  }
  batch_norm_param {
    use_global_stats: false
    eps: 1e-05
  }
}
layer {
  name: "conv1/scale"
  type: "Scale"
  bottom: "conv1"
  top: "conv1"
  param {
    lr_mult: 1
    decay_mult: 0
  }
  param {
    lr_mult: 1
    decay_mult: 0
  }
  scale_param {
    filler {
      value: 1
    }
    bias_term: true
    bias_filler {
      value: 0
    }
  }
}
layer {
  name: "relu1"
  type: "ReLU"
  bottom: "conv1"
  top: "conv1"
}
layer {
  name: "conv2_1/dw"
  type: "Convolution"
  bottom: "conv1"
  top: "conv2_1/dw"
  param {
    lr_mult: 1
    decay_mult: 1
  }
  convolution_param {
    num_output: 32
    bias_term: false
    pad: 1
    kernel_size: 3
    group: 32
    stride: 1
    weight_filler {
      type: "msra"
    }
    engine: CAFFE
  }
}
layer {
  name: "conv2_1/dw/bn"
  type: "BatchNorm"
  bottom: "conv2_1/dw"
  top: "conv2_1/dw"
  param {
    lr_mult: 0
    decay_mult: 0
  }
  param {
    lr_mult: 0
    decay_mult: 0
  }
  param {
    lr_mult: 0
    decay_mult: 0
  }
  batch_norm_param {
    use_global_stats: false
    eps: 1e-05
  }
}
layer {
  name: "conv2_1/dw/scale"
  type: "Scale"
  bottom: "conv2_1/dw"
  top: "conv2_1/dw"
  param {
    lr_mult: 1
    decay_mult: 0
  }
  param {
    lr_mult: 1
    decay_mult: 0
  }
  scale_param {
    filler {
      value: 1
    }
    bias_term: true
    bias_filler {
      value: 0
    }
  }
}
layer {
  name: "relu2_1/dw"
  type: "ReLU"
  bottom: "conv2_1/dw"
  top: "conv2_1/dw"
}
layer {
  name: "conv2_1/sep"
  type: "Convolution"
  bottom: "conv2_1/dw"
  top: "conv2_1/sep"
  param {
    lr_mult: 1
    decay_mult: 1
  }
  convolution_param {
    num_output: 64
    bias_term: false
    pad: 0
    kernel_size: 1
    stride: 1
    weight_filler {
      type: "msra"
    }
  }
}
layer {
  name: "conv2_1/sep/bn"
  type: "BatchNorm"
  bottom: "conv2_1/sep"
  top: "conv2_1/sep"
  param {
    lr_mult: 0
    decay_mult: 0
  }
  param {
    lr_mult: 0
    decay_mult: 0
  }
  param {
    lr_mult: 0
    decay_mult: 0
  }
  batch_norm_param {
    use_global_stats: false
    eps: 1e-05
  }
}
layer {
  name: "conv2_1/sep/scale"
  type: "Scale"
  bottom: "conv2_1/sep"
  top: "conv2_1/sep"
  param {
    lr_mult: 1
    decay_mult: 0
  }
  param {
    lr_mult: 1
    decay_mult: 0
  }
  scale_param {
    filler {
      value: 1
    }
    bias_term: true
    bias_filler {
      value: 0
    }
  }
}
layer {
  name: "relu2_1/sep"
  type: "ReLU"
  bottom: "conv2_1/sep"
  top: "conv2_1/sep"
}
layer {
  name: "conv2_2/dw"
  type: "Convolution"
  bottom: "conv2_1/sep"
  top: "conv2_2/dw"
  param {
    lr_mult: 1
    decay_mult: 1
  }
  convolution_param {
    num_output: 64
    bias_term: false
    pad: 1
    kernel_size: 3
    group: 64
    stride: 2
    weight_filler {
      type: "msra"
    }
    engine: CAFFE
  }
}
layer {
  name: "conv2_2/dw/bn"
  type: "BatchNorm"
  bottom: "conv2_2/dw"
  top: "conv2_2/dw"
  param {
    lr_mult: 0
    decay_mult: 0
  }
  param {
    lr_mult: 0
    decay_mult: 0
  }
  param {
    lr_mult: 0
    decay_mult: 0
  }
  batch_norm_param {
    use_global_stats: false
    eps: 1e-05
  }
}
layer {
  name: "conv2_2/dw/scale"
  type: "Scale"
  bottom: "conv2_2/dw"
  top: "conv2_2/dw"
  param {
    lr_mult: 1
    decay_mult: 0
  }
  param {
    lr_mult: 1
    decay_mult: 0
  }
  scale_param {
    filler {
      value: 1
    }
    bias_term: true
    bias_filler {
      value: 0
    }
  }
}
layer {
  name: "relu2_2/dw"
  type: "ReLU"
  bottom: "conv2_2/dw"
  top: "conv2_2/dw"
}
layer {
  name: "conv2_2/sep"
  type: "Convolution"
  bottom: "conv2_2/dw"
  top: "conv2_2/sep"
  param {
    lr_mult: 1
    decay_mult: 1
  }
  convolution_param {
    num_output: 128
    bias_term: false
    pad: 0
    kernel_size: 1
    stride: 1
    weight_filler {
      type: "msra"
    }
  }
}
layer {
  name: "conv2_2/sep/bn"
  type: "BatchNorm"
  bottom: "conv2_2/sep"
  top: "conv2_2/sep"
  param {
    lr_mult: 0
    decay_mult: 0
  }
  param {
    lr_mult: 0
    decay_mult: 0
  }
  param {
    lr_mult: 0
    decay_mult: 0
  }
  batch_norm_param {
    use_global_stats: false
    eps: 1e-05
  }
}
layer {
  name: "conv2_2/sep/scale"
  type: "Scale"
  bottom: "conv2_2/sep"
  top: "conv2_2/sep"
  param {
    lr_mult: 1
    decay_mult: 0
  }
  param {
    lr_mult: 1
    decay_mult: 0
  }
  scale_param {
    filler {
      value: 1
    }
    bias_term: true
    bias_filler {
      value: 0
    }
  }
}
layer {
  name: "relu2_2/sep"
  type: "ReLU"
  bottom: "conv2_2/sep"
  top: "conv2_2/sep"
}
layer {
  name: "conv3_1/dw"
  type: "Convolution"
  bottom: "conv2_2/sep"
  top: "conv3_1/dw"
  param {
    lr_mult: 1
    decay_mult: 1
  }
  convolution_param {
    num_output: 128
    bias_term: false
    pad: 1
    kernel_size: 3
    group: 128
    stride: 1
    weight_filler {
      type: "msra"
    }
    engine: CAFFE
  }
}
layer {
  name: "conv3_1/dw/bn"
  type: "BatchNorm"
  bottom: "conv3_1/dw"
  top: "conv3_1/dw"
  param {
    lr_mult: 0
    decay_mult: 0
  }
  param {
    lr_mult: 0
    decay_mult: 0
  }
  param {
    lr_mult: 0
    decay_mult: 0
  }
  batch_norm_param {
    use_global_stats: false
    eps: 1e-05
  }
}
layer {
  name: "conv3_1/dw/scale"
  type: "Scale"
  bottom: "conv3_1/dw"
  top: "conv3_1/dw"
  param {
    lr_mult: 1
    decay_mult: 0
  }
  param {
    lr_mult: 1
    decay_mult: 0
  }
  scale_param {
    filler {
      value: 1
    }
    bias_term: true
    bias_filler {
      value: 0
    }
  }
}
layer {
  name: "relu3_1/dw"
  type: "ReLU"
  bottom: "conv3_1/dw"
  top: "conv3_1/dw"
}
layer {
  name: "conv3_1/sep"
  type: "Convolution"
  bottom: "conv3_1/dw"
  top: "conv3_1/sep"
  param {
    lr_mult: 1
    decay_mult: 1
  }
  convolution_param {
    num_output: 128
    bias_term: false
    pad: 0
    kernel_size: 1
    stride: 1
    weight_filler {
      type: "msra"
    }
  }
}
layer {
  name: "conv3_1/sep/bn"
  type: "BatchNorm"
  bottom: "conv3_1/sep"
  top: "conv3_1/sep"
  param {
    lr_mult: 0
    decay_mult: 0
  }
  param {
    lr_mult: 0
    decay_mult: 0
  }
  param {
    lr_mult: 0
    decay_mult: 0
  }
  batch_norm_param {
    use_global_stats: false
    eps: 1e-05
  }
}
layer {
  name: "conv3_1/sep/scale"
  type: "Scale"
  bottom: "conv3_1/sep"
  top: "conv3_1/sep"
  param {
    lr_mult: 1
    decay_mult: 0
  }
  param {
    lr_mult: 1
    decay_mult: 0
  }
  scale_param {
    filler {
      value: 1
    }
    bias_term: true
    bias_filler {
      value: 0
    }
  }
}
layer {
  name: "relu3_1/sep"
  type: "ReLU"
  bottom: "conv3_1/sep"
  top: "conv3_1/sep"
}
layer {
  name: "conv3_2/dw"
  type: "Convolution"
  bottom: "conv3_1/sep"
  top: "conv3_2/dw"
  param {
    lr_mult: 1
    decay_mult: 1
  }
  convolution_param {
    num_output: 128
    bias_term: false
    pad: 1
    kernel_size: 3
    group: 128
    stride: 2
    weight_filler {
      type: "msra"
    }
    engine: CAFFE
  }
}
layer {
  name: "conv3_2/dw/bn"
  type: "BatchNorm"
  bottom: "conv3_2/dw"
  top: "conv3_2/dw"
  param {
    lr_mult: 0
    decay_mult: 0
  }
  param {
    lr_mult: 0
    decay_mult: 0
  }
  param {
    lr_mult: 0
    decay_mult: 0
  }
  batch_norm_param {
    use_global_stats: false
    eps: 1e-05
  }
}
layer {
  name: "conv3_2/dw/scale"
  type: "Scale"
  bottom: "conv3_2/dw"
  top: "conv3_2/dw"
  param {
    lr_mult: 1
    decay_mult: 0
  }
  param {
    lr_mult: 1
    decay_mult: 0
  }
  scale_param {
    filler {
      value: 1
    }
    bias_term: true
    bias_filler {
      value: 0
    }
  }
}
layer {
  name: "relu3_2/dw"
  type: "ReLU"
  bottom: "conv3_2/dw"
  top: "conv3_2/dw"
}
layer {
  name: "conv3_2/sep"
  type: "Convolution"
  bottom: "conv3_2/dw"
  top: "conv3_2/sep"
  param {
    lr_mult: 1
    decay_mult: 1
  }
  convolution_param {
    num_output: 256
    bias_term: false
    pad: 0
    kernel_size: 1
    stride: 1
    weight_filler {
      type: "msra"
    }
  }
}
layer {
  name: "conv3_2/sep/bn"
  type: "BatchNorm"
  bottom: "conv3_2/sep"
  top: "conv3_2/sep"
  param {
    lr_mult: 0
    decay_mult: 0
  }
  param {
    lr_mult: 0
    decay_mult: 0
  }
  param {
    lr_mult: 0
    decay_mult: 0
  }
  batch_norm_param {
    use_global_stats: false
    eps: 1e-05
  }
}
layer {
  name: "conv3_2/sep/scale"
  type: "Scale"
  bottom: "conv3_2/sep"
  top: "conv3_2/sep"
  param {
    lr_mult: 1
    decay_mult: 0
  }
  param {
    lr_mult: 1
    decay_mult: 0
  }
  scale_param {
    filler {
      value: 1
    }
    bias_term: true
    bias_filler {
      value: 0
    }
  }
}
layer {
  name: "relu3_2/sep"
  type: "ReLU"
  bottom: "conv3_2/sep"
  top: "conv3_2/sep"
}
layer {
  name: "conv4_1/dw"
  type: "Convolution"
  bottom: "conv3_2/sep"
  top: "conv4_1/dw"
  param {
    lr_mult: 1
    decay_mult: 1
  }
  convolution_param {
    num_output: 256
    bias_term: false
    pad: 1
    kernel_size: 3
    group: 256
    stride: 1
    weight_filler {
      type: "msra"
    }
    engine: CAFFE
  }
}
layer {
  name: "conv4_1/dw/bn"
  type: "BatchNorm"
  bottom: "conv4_1/dw"
  top: "conv4_1/dw"
  param {
    lr_mult: 0
    decay_mult: 0
  }
  param {
    lr_mult: 0
    decay_mult: 0
  }
  param {
    lr_mult: 0
    decay_mult: 0
  }
  batch_norm_param {
    use_global_stats: false
    eps: 1e-05
  }
}
layer {
  name: "conv4_1/dw/scale"
  type: "Scale"
  bottom: "conv4_1/dw"
  top: "conv4_1/dw"
  param {
    lr_mult: 1
    decay_mult: 0
  }
  param {
    lr_mult: 1
    decay_mult: 0
  }
  scale_param {
    filler {
      value: 1
    }
    bias_term: true
    bias_filler {
      value: 0
    }
  }
}
layer {
  name: "relu4_1/dw"
  type: "ReLU"
  bottom: "conv4_1/dw"
  top: "conv4_1/dw"
}
layer {
  name: "conv4_1/sep"
  type: "Convolution"
  bottom: "conv4_1/dw"
  top: "conv4_1/sep"
  param {
    lr_mult: 1
    decay_mult: 1
  }
  convolution_param {
    num_output: 256
    bias_term: false
    pad: 0
    kernel_size: 1
    stride: 1
    weight_filler {
      type: "msra"
    }
  }
}
layer {
  name: "conv4_1/sep/bn"
  type: "BatchNorm"
  bottom: "conv4_1/sep"
  top: "conv4_1/sep"
  param {
    lr_mult: 0
    decay_mult: 0
  }
  param {
    lr_mult: 0
    decay_mult: 0
  }
  param {
    lr_mult: 0
    decay_mult: 0
  }
  batch_norm_param {
    use_global_stats: false
    eps: 1e-05
  }
}
layer {
  name: "conv4_1/sep/scale"
  type: "Scale"
  bottom: "conv4_1/sep"
  top: "conv4_1/sep"
  param {
    lr_mult: 1
    decay_mult: 0
  }
  param {
    lr_mult: 1
    decay_mult: 0
  }
  scale_param {
    filler {
      value: 1
    }
    bias_term: true
    bias_filler {
      value: 0
    }
  }
}
layer {
  name: "relu4_1/sep"
  type: "ReLU"
  bottom: "conv4_1/sep"
  top: "conv4_1/sep"
}
layer {
  name: "conv4_2/dw"
  type: "Convolution"
  bottom: "conv4_1/sep"
  top: "conv4_2/dw"
  param {
    lr_mult: 1
    decay_mult: 1
  }
  convolution_param {
    num_output: 256
    bias_term: false
    pad: 1
    kernel_size: 3
    group: 256
    stride: 2
    weight_filler {
      type: "msra"
    }
    engine: CAFFE
  }
}
layer {
  name: "conv4_2/dw/bn"
  type: "BatchNorm"
  bottom: "conv4_2/dw"
  top: "conv4_2/dw"
  param {
    lr_mult: 0
    decay_mult: 0
  }
  param {
    lr_mult: 0
    decay_mult: 0
  }
  param {
    lr_mult: 0
    decay_mult: 0
  }
  batch_norm_param {
    use_global_stats: false
    eps: 1e-05
  }
}
layer {
  name: "conv4_2/dw/scale"
  type: "Scale"
  bottom: "conv4_2/dw"
  top: "conv4_2/dw"
  param {
    lr_mult: 1
    decay_mult: 0
  }
  param {
    lr_mult: 1
    decay_mult: 0
  }
  scale_param {
    filler {
      value: 1
    }
    bias_term: true
    bias_filler {
      value: 0
    }
  }
}
layer {
  name: "relu4_2/dw"
  type: "ReLU"
  bottom: "conv4_2/dw"
  top: "conv4_2/dw"
}
layer {
  name: "conv4_2/sep"
  type: "Convolution"
  bottom: "conv4_2/dw"
  top: "conv4_2/sep"
  param {
    lr_mult: 1
    decay_mult: 1
  }
  convolution_param {
    num_output: 512
    bias_term: false
    pad: 0
    kernel_size: 1
    stride: 1
    weight_filler {
      type: "msra"
    }
  }
}
layer {
  name: "conv4_2/sep/bn"
  type: "BatchNorm"
  bottom: "conv4_2/sep"
  top: "conv4_2/sep"
  param {
    lr_mult: 0
    decay_mult: 0
  }
  param {
    lr_mult: 0
    decay_mult: 0
  }
  param {
    lr_mult: 0
    decay_mult: 0
  }
  batch_norm_param {
    use_global_stats: false
    eps: 1e-05
  }
}
layer {
  name: "conv4_2/sep/scale"
  type: "Scale"
  bottom: "conv4_2/sep"
  top: "conv4_2/sep"
  param {
    lr_mult: 1
    decay_mult: 0
  }
  param {
    lr_mult: 1
    decay_mult: 0
  }
  scale_param {
    filler {
      value: 1
    }
    bias_term: true
    bias_filler {
      value: 0
    }
  }
}
layer {
  name: "relu4_2/sep"
  type: "ReLU"
  bottom: "conv4_2/sep"
  top: "conv4_2/sep"
}
layer {
  name: "conv5_1/dw"
  type: "Convolution"
  bottom: "conv4_2/sep"
  top: "conv5_1/dw"
  param {
    lr_mult: 1
    decay_mult: 1
  }
  convolution_param {
    num_output: 512
    bias_term: false
    pad: 1
    kernel_size: 3
    group: 512
    stride: 1
    weight_filler {
      type: "msra"
    }
    engine: CAFFE
  }
}
layer {
  name: "conv5_1/dw/bn"
  type: "BatchNorm"
  bottom: "conv5_1/dw"
  top: "conv5_1/dw"
  param {
    lr_mult: 0
    decay_mult: 0
  }
  param {
    lr_mult: 0
    decay_mult: 0
  }
  param {
    lr_mult: 0
    decay_mult: 0
  }
  batch_norm_param {
    use_global_stats: false
    eps: 1e-05
  }
}
layer {
  name: "conv5_1/dw/scale"
  type: "Scale"
  bottom: "conv5_1/dw"
  top: "conv5_1/dw"
  param {
    lr_mult: 1
    decay_mult: 0
  }
  param {
    lr_mult: 1
    decay_mult: 0
  }
  scale_param {
    filler {
      value: 1
    }
    bias_term: true
    bias_filler {
      value: 0
    }
  }
}
layer {
  name: "relu5_1/dw"
  type: "ReLU"
  bottom: "conv5_1/dw"
  top: "conv5_1/dw"
}
layer {
  name: "conv5_1/sep"
  type: "Convolution"
  bottom: "conv5_1/dw"
  top: "conv5_1/sep"
  param {
    lr_mult: 1
    decay_mult: 1
  }
  convolution_param {
    num_output: 512
    bias_term: false
    pad: 0
    kernel_size: 1
    stride: 1
    weight_filler {
      type: "msra"
    }
  }
}
layer {
  name: "conv5_1/sep/bn"
  type: "BatchNorm"
  bottom: "conv5_1/sep"
  top: "conv5_1/sep"
  param {
    lr_mult: 0
    decay_mult: 0
  }
  param {
    lr_mult: 0
    decay_mult: 0
  }
  param {
    lr_mult: 0
    decay_mult: 0
  }
  batch_norm_param {
    use_global_stats: false
    eps: 1e-05
  }
}
layer {
  name: "conv5_1/sep/scale"
  type: "Scale"
  bottom: "conv5_1/sep"
  top: "conv5_1/sep"
  param {
    lr_mult: 1
    decay_mult: 0
  }
  param {
    lr_mult: 1
    decay_mult: 0
  }
  scale_param {
    filler {
      value: 1
    }
    bias_term: true
    bias_filler {
      value: 0
    }
  }
}
layer {
  name: "relu5_1/sep"
  type: "ReLU"
  bottom: "conv5_1/sep"
  top: "conv5_1/sep"
}
layer {
  name: "conv5_2/dw"
  type: "Convolution"
  bottom: "conv5_1/sep"
  top: "conv5_2/dw"
  param {
    lr_mult: 1
    decay_mult: 1
  }
  convolution_param {
    num_output: 512
    bias_term: false
    pad: 1
    kernel_size: 3
    group: 512
    stride: 1
    weight_filler {
      type: "msra"
    }
    engine: CAFFE
  }
}
layer {
  name: "conv5_2/dw/bn"
  type: "BatchNorm"
  bottom: "conv5_2/dw"
  top: "conv5_2/dw"
  param {
    lr_mult: 0
    decay_mult: 0
  }
  param {
    lr_mult: 0
    decay_mult: 0
  }
  param {
    lr_mult: 0
    decay_mult: 0
  }
  batch_norm_param {
    use_global_stats: false
    eps: 1e-05
  }
}
layer {
  name: "conv5_2/dw/scale"
  type: "Scale"
  bottom: "conv5_2/dw"
  top: "conv5_2/dw"
  param {
    lr_mult: 1
    decay_mult: 0
  }
  param {
    lr_mult: 1
    decay_mult: 0
  }
  scale_param {
    filler {
      value: 1
    }
    bias_term: true
    bias_filler {
      value: 0
    }
  }
}
layer {
  name: "relu5_2/dw"
  type: "ReLU"
  bottom: "conv5_2/dw"
  top: "conv5_2/dw"
}
layer {
  name: "conv5_2/sep"
  type: "Convolution"
  bottom: "conv5_2/dw"
  top: "conv5_2/sep"
  param {
    lr_mult: 1
    decay_mult: 1
  }
  convolution_param {
    num_output: 512
    bias_term: false
    pad: 0
    kernel_size: 1
    stride: 1
    weight_filler {
      type: "msra"
    }
  }
}
layer {
  name: "conv5_2/sep/bn"
  type: "BatchNorm"
  bottom: "conv5_2/sep"
  top: "conv5_2/sep"
  param {
    lr_mult: 0
    decay_mult: 0
  }
  param {
    lr_mult: 0
    decay_mult: 0
  }
  param {
    lr_mult: 0
    decay_mult: 0
  }
  batch_norm_param {
    use_global_stats: false
    eps: 1e-05
  }
}
layer {
  name: "conv5_2/sep/scale"
  type: "Scale"
  bottom: "conv5_2/sep"
  top: "conv5_2/sep"
  param {
    lr_mult: 1
    decay_mult: 0
  }
  param {
    lr_mult: 1
    decay_mult: 0
  }
  scale_param {
    filler {
      value: 1
    }
    bias_term: true
    bias_filler {
      value: 0
    }
  }
}
layer {
  name: "relu5_2/sep"
  type: "ReLU"
  bottom: "conv5_2/sep"
  top: "conv5_2/sep"
}
layer {
  name: "conv5_3/dw"
  type: "Convolution"
  bottom: "conv5_2/sep"
  top: "conv5_3/dw"
  param {
    lr_mult: 1
    decay_mult: 1
  }
  convolution_param {
    num_output: 512
    bias_term: false
    pad: 1
    kernel_size: 3
    group: 512
    stride: 1
    weight_filler {
      type: "msra"
    }
    engine: CAFFE
  }
}
layer {
  name: "conv5_3/dw/bn"
  type: "BatchNorm"
  bottom: "conv5_3/dw"
  top: "conv5_3/dw"
  param {
    lr_mult: 0
    decay_mult: 0
  }
  param {
    lr_mult: 0
    decay_mult: 0
  }
  param {
    lr_mult: 0
    decay_mult: 0
  }
  batch_norm_param {
    use_global_stats: false
    eps: 1e-05
  }
}
layer {
  name: "conv5_3/dw/scale"
  type: "Scale"
  bottom: "conv5_3/dw"
  top: "conv5_3/dw"
  param {
    lr_mult: 1
    decay_mult: 0
  }
  param {
    lr_mult: 1
    decay_mult: 0
  }
  scale_param {
    filler {
      value: 1
    }
    bias_term: true
    bias_filler {
      value: 0
    }
  }
}
layer {
  name: "relu5_3/dw"
  type: "ReLU"
  bottom: "conv5_3/dw"
  top: "conv5_3/dw"
}
layer {
  name: "conv5_3/sep"
  type: "Convolution"
  bottom: "conv5_3/dw"
  top: "conv5_3/sep"
  param {
    lr_mult: 1
    decay_mult: 1
  }
  convolution_param {
    num_output: 512
    bias_term: false
    pad: 0
    kernel_size: 1
    stride: 1
    weight_filler {
      type: "msra"
    }
  }
}
layer {
  name: "conv5_3/sep/bn"
  type: "BatchNorm"
  bottom: "conv5_3/sep"
  top: "conv5_3/sep"
  param {
    lr_mult: 0
    decay_mult: 0
  }
  param {
    lr_mult: 0
    decay_mult: 0
  }
  param {
    lr_mult: 0
    decay_mult: 0
  }
  batch_norm_param {
    use_global_stats: false
    eps: 1e-05
  }
}
layer {
  name: "conv5_3/sep/scale"
  type: "Scale"
  bottom: "conv5_3/sep"
  top: "conv5_3/sep"
  param {
    lr_mult: 1
    decay_mult: 0
  }
  param {
    lr_mult: 1
    decay_mult: 0
  }
  scale_param {
    filler {
      value: 1
    }
    bias_term: true
    bias_filler {
      value: 0
    }
  }
}
layer {
  name: "relu5_3/sep"
  type: "ReLU"
  bottom: "conv5_3/sep"
  top: "conv5_3/sep"
}
layer {
  name: "conv5_4/dw"
  type: "Convolution"
  bottom: "conv5_3/sep"
  top: "conv5_4/dw"
  param {
    lr_mult: 1
    decay_mult: 1
  }
  convolution_param {
    num_output: 512
    bias_term: false
    pad: 1
    kernel_size: 3
    group: 512
    stride: 1
    weight_filler {
      type: "msra"
    }
    engine: CAFFE
  }
}
layer {
  name: "conv5_4/dw/bn"
  type: "BatchNorm"
  bottom: "conv5_4/dw"
  top: "conv5_4/dw"
  param {
    lr_mult: 0
    decay_mult: 0
  }
  param {
    lr_mult: 0
    decay_mult: 0
  }
  param {
    lr_mult: 0
    decay_mult: 0
  }
  batch_norm_param {
    use_global_stats: false
    eps: 1e-05
  }
}
layer {
  name: "conv5_4/dw/scale"
  type: "Scale"
  bottom: "conv5_4/dw"
  top: "conv5_4/dw"
  param {
    lr_mult: 1
    decay_mult: 0
  }
  param {
    lr_mult: 1
    decay_mult: 0
  }
  scale_param {
    filler {
      value: 1
    }
    bias_term: true
    bias_filler {
      value: 0
    }
  }
}
layer {
  name: "relu5_4/dw"
  type: "ReLU"
  bottom: "conv5_4/dw"
  top: "conv5_4/dw"
}
layer {
  name: "conv5_4/sep"
  type: "Convolution"
  bottom: "conv5_4/dw"
  top: "conv5_4/sep"
  param {
    lr_mult: 1
    decay_mult: 1
  }
  convolution_param {
    num_output: 512
    bias_term: false
    pad: 0
    kernel_size: 1
    stride: 1
    weight_filler {
      type: "msra"
    }
  }
}
layer {
  name: "conv5_4/sep/bn"
  type: "BatchNorm"
  bottom: "conv5_4/sep"
  top: "conv5_4/sep"
  param {
    lr_mult: 0
    decay_mult: 0
  }
  param {
    lr_mult: 0
    decay_mult: 0
  }
  param {
    lr_mult: 0
    decay_mult: 0
  }
  batch_norm_param {
    use_global_stats: false
    eps: 1e-05
  }
}
layer {
  name: "conv5_4/sep/scale"
  type: "Scale"
  bottom: "conv5_4/sep"
  top: "conv5_4/sep"
  param {
    lr_mult: 1
    decay_mult: 0
  }
  param {
    lr_mult: 1
    decay_mult: 0
  }
  scale_param {
    filler {
      value: 1
    }
    bias_term: true
    bias_filler {
      value: 0
    }
  }
}
layer {
  name: "relu5_4/sep"
  type: "ReLU"
  bottom: "conv5_4/sep"
  top: "conv5_4/sep"
}
layer {
  name: "conv5_5/dw"
  type: "Convolution"
  bottom: "conv5_4/sep"
  top: "conv5_5/dw"
  param {
    lr_mult: 1
    decay_mult: 1
  }
  convolution_param {
    num_output: 512
    bias_term: false
    pad: 1
    kernel_size: 3
    group: 512
    stride: 1
    weight_filler {
      type: "msra"
    }
    engine: CAFFE
  }
}
layer {
  name: "conv5_5/dw/bn"
  type: "BatchNorm"
  bottom: "conv5_5/dw"
  top: "conv5_5/dw"
  param {
    lr_mult: 0
    decay_mult: 0
  }
  param {
    lr_mult: 0
    decay_mult: 0
  }
  param {
    lr_mult: 0
    decay_mult: 0
  }
  batch_norm_param {
    use_global_stats: false
    eps: 1e-05
  }
}
layer {
  name: "conv5_5/dw/scale"
  type: "Scale"
  bottom: "conv5_5/dw"
  top: "conv5_5/dw"
  param {
    lr_mult: 1
    decay_mult: 0
  }
  param {
    lr_mult: 1
    decay_mult: 0
  }
  scale_param {
    filler {
      value: 1
    }
    bias_term: true
    bias_filler {
      value: 0
    }
  }
}
layer {
  name: "relu5_5/dw"
  type: "ReLU"
  bottom: "conv5_5/dw"
  top: "conv5_5/dw"
}
layer {
  name: "conv5_5/sep"
  type: "Convolution"
  bottom: "conv5_5/dw"
  top: "conv5_5/sep"
  param {
    lr_mult: 1
    decay_mult: 1
  }
  convolution_param {
    num_output: 512
    bias_term: false
    pad: 0
    kernel_size: 1
    stride: 1
    weight_filler {
      type: "msra"
    }
  }
}
layer {
  name: "conv5_5/sep/bn"
  type: "BatchNorm"
  bottom: "conv5_5/sep"
  top: "conv5_5/sep"
  param {
    lr_mult: 0
    decay_mult: 0
  }
  param {
    lr_mult: 0
    decay_mult: 0
  }
  param {
    lr_mult: 0
    decay_mult: 0
  }
  batch_norm_param {
    use_global_stats: false
    eps: 1e-05
  }
}
layer {
  name: "conv5_5/sep/scale"
  type: "Scale"
  bottom: "conv5_5/sep"
  top: "conv5_5/sep"
  param {
    lr_mult: 1
    decay_mult: 0
  }
  param {
    lr_mult: 1
    decay_mult: 0
  }
  scale_param {
    filler {
      value: 1
    }
    bias_term: true
    bias_filler {
      value: 0
    }
  }
}
layer {
  name: "relu5_5/sep"
  type: "ReLU"
  bottom: "conv5_5/sep"
  top: "conv5_5/sep"
}
layer {
  name: "pool6"
  type: "Pooling"
  bottom: "conv5_5/sep"
  top: "pool6"
  pooling_param {
    pool: AVE
    global_pooling: true
  }
}
layer {
  name: "fc7-mouth"
  type: "Convolution"
  bottom: "pool6"
  top: "fc7-mouth"
  param {
    lr_mult: 1
    decay_mult: 1
  }
  param {
    lr_mult: 2
    decay_mult: 0
  }
  convolution_param {
    num_output: 4
    kernel_size: 1
    weight_filler {
      type: "msra"
    }
    bias_filler {
      type: "constant"
      value: 0
    }
  }
}
layer {
  name: "loss"
  type: "SoftmaxWithLoss"
  bottom: "fc7-mouth"
  bottom: "clc-label"
  top: "loss"
}
layer {
  name: "acc"
  type: "Accuracy"
  bottom: "fc7-mouth"
  bottom: "clc-label"
  top: "acc"
  include {
    phase: TRAIN
  }
  include {
    phase: TEST
  }
}
I0707 23:59:37.388427 27836 layer_factory.hpp:77] Creating layer data
I0707 23:59:37.388480 27836 net.cpp:86] Creating Layer data
I0707 23:59:37.388490 27836 net.cpp:382] data -> data
I0707 23:59:37.388510 27836 net.cpp:382] data -> clc-label
I0707 23:59:37.388566 27836 image_data_layer.cpp:38] Opening file all_shuffle_train.txt
I0707 23:59:37.394107 27836 image_data_layer.cpp:53] Shuffling data
I0707 23:59:37.395825 27836 image_data_layer.cpp:63] A total of 13596 images.
I0707 23:59:37.403380 27836 image_data_layer.cpp:90] output data size: 64,3,96,96
I0707 23:59:37.421267 27836 net.cpp:124] Setting up data
I0707 23:59:37.421296 27836 net.cpp:131] Top shape: 64 3 96 96 (1769472)
I0707 23:59:37.421303 27836 net.cpp:131] Top shape: 64 (64)
I0707 23:59:37.421324 27836 net.cpp:139] Memory required for data: 7078144
I0707 23:59:37.421336 27836 layer_factory.hpp:77] Creating layer clc-label_data_1_split
I0707 23:59:37.421350 27836 net.cpp:86] Creating Layer clc-label_data_1_split
I0707 23:59:37.421357 27836 net.cpp:408] clc-label_data_1_split <- clc-label
I0707 23:59:37.421375 27836 net.cpp:382] clc-label_data_1_split -> clc-label_data_1_split_0
I0707 23:59:37.421402 27836 net.cpp:382] clc-label_data_1_split -> clc-label_data_1_split_1
I0707 23:59:37.421453 27836 net.cpp:124] Setting up clc-label_data_1_split
I0707 23:59:37.421463 27836 net.cpp:131] Top shape: 64 (64)
I0707 23:59:37.421468 27836 net.cpp:131] Top shape: 64 (64)
I0707 23:59:37.421478 27836 net.cpp:139] Memory required for data: 7078656
I0707 23:59:37.421483 27836 layer_factory.hpp:77] Creating layer conv1
I0707 23:59:37.421522 27836 net.cpp:86] Creating Layer conv1
I0707 23:59:37.421530 27836 net.cpp:408] conv1 <- data
I0707 23:59:37.421537 27836 net.cpp:382] conv1 -> conv1
I0707 23:59:41.926774 27836 net.cpp:124] Setting up conv1
I0707 23:59:41.952639 27836 net.cpp:131] Top shape: 64 32 48 48 (4718592)
I0707 23:59:41.952659 27836 net.cpp:139] Memory required for data: 25953024
I0707 23:59:42.043011 27836 layer_factory.hpp:77] Creating layer conv1/bn
I0707 23:59:42.047302 27836 net.cpp:86] Creating Layer conv1/bn
I0707 23:59:42.047317 27836 net.cpp:408] conv1/bn <- conv1
I0707 23:59:42.047327 27836 net.cpp:369] conv1/bn -> conv1 (in-place)
I0707 23:59:42.080528 27836 net.cpp:124] Setting up conv1/bn
I0707 23:59:42.080559 27836 net.cpp:131] Top shape: 64 32 48 48 (4718592)
I0707 23:59:42.080562 27836 net.cpp:139] Memory required for data: 44827392
I0707 23:59:42.080592 27836 layer_factory.hpp:77] Creating layer conv1/scale
I0707 23:59:42.081794 27836 net.cpp:86] Creating Layer conv1/scale
I0707 23:59:42.081813 27836 net.cpp:408] conv1/scale <- conv1
I0707 23:59:42.081830 27836 net.cpp:369] conv1/scale -> conv1 (in-place)
I0707 23:59:42.084704 27836 layer_factory.hpp:77] Creating layer conv1/scale
I0707 23:59:42.087329 27836 net.cpp:124] Setting up conv1/scale
I0707 23:59:42.087345 27836 net.cpp:131] Top shape: 64 32 48 48 (4718592)
I0707 23:59:42.087349 27836 net.cpp:139] Memory required for data: 63701760
I0707 23:59:42.087363 27836 layer_factory.hpp:77] Creating layer relu1
I0707 23:59:42.087373 27836 net.cpp:86] Creating Layer relu1
I0707 23:59:42.087397 27836 net.cpp:408] relu1 <- conv1
I0707 23:59:42.087407 27836 net.cpp:369] relu1 -> conv1 (in-place)
I0707 23:59:42.095515 27836 net.cpp:124] Setting up relu1
I0707 23:59:42.095532 27836 net.cpp:131] Top shape: 64 32 48 48 (4718592)
I0707 23:59:42.095536 27836 net.cpp:139] Memory required for data: 82576128
I0707 23:59:42.095542 27836 layer_factory.hpp:77] Creating layer conv2_1/dw
I0707 23:59:42.095557 27836 net.cpp:86] Creating Layer conv2_1/dw
I0707 23:59:42.095562 27836 net.cpp:408] conv2_1/dw <- conv1
I0707 23:59:42.095572 27836 net.cpp:382] conv2_1/dw -> conv2_1/dw
I0707 23:59:42.095793 27836 net.cpp:124] Setting up conv2_1/dw
I0707 23:59:42.095804 27836 net.cpp:131] Top shape: 64 32 48 48 (4718592)
I0707 23:59:42.095808 27836 net.cpp:139] Memory required for data: 101450496
I0707 23:59:42.095815 27836 layer_factory.hpp:77] Creating layer conv2_1/dw/bn
I0707 23:59:42.095824 27836 net.cpp:86] Creating Layer conv2_1/dw/bn
I0707 23:59:42.095829 27836 net.cpp:408] conv2_1/dw/bn <- conv2_1/dw
I0707 23:59:42.095834 27836 net.cpp:369] conv2_1/dw/bn -> conv2_1/dw (in-place)
I0707 23:59:42.096009 27836 net.cpp:124] Setting up conv2_1/dw/bn
I0707 23:59:42.096017 27836 net.cpp:131] Top shape: 64 32 48 48 (4718592)
I0707 23:59:42.096021 27836 net.cpp:139] Memory required for data: 120324864
I0707 23:59:42.096032 27836 layer_factory.hpp:77] Creating layer conv2_1/dw/scale
I0707 23:59:42.096042 27836 net.cpp:86] Creating Layer conv2_1/dw/scale
I0707 23:59:42.096048 27836 net.cpp:408] conv2_1/dw/scale <- conv2_1/dw
I0707 23:59:42.096056 27836 net.cpp:369] conv2_1/dw/scale -> conv2_1/dw (in-place)
I0707 23:59:42.096096 27836 layer_factory.hpp:77] Creating layer conv2_1/dw/scale
I0707 23:59:42.096200 27836 net.cpp:124] Setting up conv2_1/dw/scale
I0707 23:59:42.096210 27836 net.cpp:131] Top shape: 64 32 48 48 (4718592)
I0707 23:59:42.096215 27836 net.cpp:139] Memory required for data: 139199232
I0707 23:59:42.096220 27836 layer_factory.hpp:77] Creating layer relu2_1/dw
I0707 23:59:42.096227 27836 net.cpp:86] Creating Layer relu2_1/dw
I0707 23:59:42.096231 27836 net.cpp:408] relu2_1/dw <- conv2_1/dw
I0707 23:59:42.096236 27836 net.cpp:369] relu2_1/dw -> conv2_1/dw (in-place)
I0707 23:59:42.097164 27836 net.cpp:124] Setting up relu2_1/dw
I0707 23:59:42.097178 27836 net.cpp:131] Top shape: 64 32 48 48 (4718592)
I0707 23:59:42.097183 27836 net.cpp:139] Memory required for data: 158073600
I0707 23:59:42.097187 27836 layer_factory.hpp:77] Creating layer conv2_1/sep
I0707 23:59:42.097198 27836 net.cpp:86] Creating Layer conv2_1/sep
I0707 23:59:42.097203 27836 net.cpp:408] conv2_1/sep <- conv2_1/dw
I0707 23:59:42.097210 27836 net.cpp:382] conv2_1/sep -> conv2_1/sep
I0707 23:59:42.118233 27836 net.cpp:124] Setting up conv2_1/sep
I0707 23:59:42.118263 27836 net.cpp:131] Top shape: 64 64 48 48 (9437184)
I0707 23:59:42.118269 27836 net.cpp:139] Memory required for data: 195822336
I0707 23:59:42.118290 27836 layer_factory.hpp:77] Creating layer conv2_1/sep/bn
I0707 23:59:42.118304 27836 net.cpp:86] Creating Layer conv2_1/sep/bn
I0707 23:59:42.118309 27836 net.cpp:408] conv2_1/sep/bn <- conv2_1/sep
I0707 23:59:42.118335 27836 net.cpp:369] conv2_1/sep/bn -> conv2_1/sep (in-place)
I0707 23:59:42.118546 27836 net.cpp:124] Setting up conv2_1/sep/bn
I0707 23:59:42.118556 27836 net.cpp:131] Top shape: 64 64 48 48 (9437184)
I0707 23:59:42.118571 27836 net.cpp:139] Memory required for data: 233571072
I0707 23:59:42.118582 27836 layer_factory.hpp:77] Creating layer conv2_1/sep/scale
I0707 23:59:42.118600 27836 net.cpp:86] Creating Layer conv2_1/sep/scale
I0707 23:59:42.118614 27836 net.cpp:408] conv2_1/sep/scale <- conv2_1/sep
I0707 23:59:42.118623 27836 net.cpp:369] conv2_1/sep/scale -> conv2_1/sep (in-place)
I0707 23:59:42.118664 27836 layer_factory.hpp:77] Creating layer conv2_1/sep/scale
I0707 23:59:42.118775 27836 net.cpp:124] Setting up conv2_1/sep/scale
I0707 23:59:42.118785 27836 net.cpp:131] Top shape: 64 64 48 48 (9437184)
I0707 23:59:42.118789 27836 net.cpp:139] Memory required for data: 271319808
I0707 23:59:42.118815 27836 layer_factory.hpp:77] Creating layer relu2_1/sep
I0707 23:59:42.118827 27836 net.cpp:86] Creating Layer relu2_1/sep
I0707 23:59:42.118832 27836 net.cpp:408] relu2_1/sep <- conv2_1/sep
I0707 23:59:42.118839 27836 net.cpp:369] relu2_1/sep -> conv2_1/sep (in-place)
I0707 23:59:42.119812 27836 net.cpp:124] Setting up relu2_1/sep
I0707 23:59:42.119825 27836 net.cpp:131] Top shape: 64 64 48 48 (9437184)
I0707 23:59:42.119830 27836 net.cpp:139] Memory required for data: 309068544
I0707 23:59:42.119834 27836 layer_factory.hpp:77] Creating layer conv2_2/dw
I0707 23:59:42.119848 27836 net.cpp:86] Creating Layer conv2_2/dw
I0707 23:59:42.119853 27836 net.cpp:408] conv2_2/dw <- conv2_1/sep
I0707 23:59:42.119863 27836 net.cpp:382] conv2_2/dw -> conv2_2/dw
I0707 23:59:42.120066 27836 net.cpp:124] Setting up conv2_2/dw
I0707 23:59:42.120076 27836 net.cpp:131] Top shape: 64 64 24 24 (2359296)
I0707 23:59:42.120081 27836 net.cpp:139] Memory required for data: 318505728
I0707 23:59:42.120086 27836 layer_factory.hpp:77] Creating layer conv2_2/dw/bn
I0707 23:59:42.120095 27836 net.cpp:86] Creating Layer conv2_2/dw/bn
I0707 23:59:42.120100 27836 net.cpp:408] conv2_2/dw/bn <- conv2_2/dw
I0707 23:59:42.120107 27836 net.cpp:369] conv2_2/dw/bn -> conv2_2/dw (in-place)
I0707 23:59:42.120298 27836 net.cpp:124] Setting up conv2_2/dw/bn
I0707 23:59:42.120308 27836 net.cpp:131] Top shape: 64 64 24 24 (2359296)
I0707 23:59:42.120314 27836 net.cpp:139] Memory required for data: 327942912
I0707 23:59:42.120323 27836 layer_factory.hpp:77] Creating layer conv2_2/dw/scale
I0707 23:59:42.120333 27836 net.cpp:86] Creating Layer conv2_2/dw/scale
I0707 23:59:42.120339 27836 net.cpp:408] conv2_2/dw/scale <- conv2_2/dw
I0707 23:59:42.120345 27836 net.cpp:369] conv2_2/dw/scale -> conv2_2/dw (in-place)
I0707 23:59:42.120383 27836 layer_factory.hpp:77] Creating layer conv2_2/dw/scale
I0707 23:59:42.120494 27836 net.cpp:124] Setting up conv2_2/dw/scale
I0707 23:59:42.120503 27836 net.cpp:131] Top shape: 64 64 24 24 (2359296)
I0707 23:59:42.120509 27836 net.cpp:139] Memory required for data: 337380096
I0707 23:59:42.120517 27836 layer_factory.hpp:77] Creating layer relu2_2/dw
I0707 23:59:42.120523 27836 net.cpp:86] Creating Layer relu2_2/dw
I0707 23:59:42.120527 27836 net.cpp:408] relu2_2/dw <- conv2_2/dw
I0707 23:59:42.120533 27836 net.cpp:369] relu2_2/dw -> conv2_2/dw (in-place)
I0707 23:59:42.121023 27836 net.cpp:124] Setting up relu2_2/dw
I0707 23:59:42.121034 27836 net.cpp:131] Top shape: 64 64 24 24 (2359296)
I0707 23:59:42.121042 27836 net.cpp:139] Memory required for data: 346817280
I0707 23:59:42.121047 27836 layer_factory.hpp:77] Creating layer conv2_2/sep
I0707 23:59:42.121055 27836 net.cpp:86] Creating Layer conv2_2/sep
I0707 23:59:42.121060 27836 net.cpp:408] conv2_2/sep <- conv2_2/dw
I0707 23:59:42.121070 27836 net.cpp:382] conv2_2/sep -> conv2_2/sep
I0707 23:59:42.125217 27836 net.cpp:124] Setting up conv2_2/sep
I0707 23:59:42.125243 27836 net.cpp:131] Top shape: 64 128 24 24 (4718592)
I0707 23:59:42.125250 27836 net.cpp:139] Memory required for data: 365691648
I0707 23:59:42.125260 27836 layer_factory.hpp:77] Creating layer conv2_2/sep/bn
I0707 23:59:42.125274 27836 net.cpp:86] Creating Layer conv2_2/sep/bn
I0707 23:59:42.125283 27836 net.cpp:408] conv2_2/sep/bn <- conv2_2/sep
I0707 23:59:42.125295 27836 net.cpp:369] conv2_2/sep/bn -> conv2_2/sep (in-place)
I0707 23:59:42.125562 27836 net.cpp:124] Setting up conv2_2/sep/bn
I0707 23:59:42.125577 27836 net.cpp:131] Top shape: 64 128 24 24 (4718592)
I0707 23:59:42.125583 27836 net.cpp:139] Memory required for data: 384566016
I0707 23:59:42.125596 27836 layer_factory.hpp:77] Creating layer conv2_2/sep/scale
I0707 23:59:42.125610 27836 net.cpp:86] Creating Layer conv2_2/sep/scale
I0707 23:59:42.125617 27836 net.cpp:408] conv2_2/sep/scale <- conv2_2/sep
I0707 23:59:42.125627 27836 net.cpp:369] conv2_2/sep/scale -> conv2_2/sep (in-place)
I0707 23:59:42.125684 27836 layer_factory.hpp:77] Creating layer conv2_2/sep/scale
I0707 23:59:42.125836 27836 net.cpp:124] Setting up conv2_2/sep/scale
I0707 23:59:42.125865 27836 net.cpp:131] Top shape: 64 128 24 24 (4718592)
I0707 23:59:42.125874 27836 net.cpp:139] Memory required for data: 403440384
I0707 23:59:42.125883 27836 layer_factory.hpp:77] Creating layer relu2_2/sep
I0707 23:59:42.125895 27836 net.cpp:86] Creating Layer relu2_2/sep
I0707 23:59:42.125902 27836 net.cpp:408] relu2_2/sep <- conv2_2/sep
I0707 23:59:42.125911 27836 net.cpp:369] relu2_2/sep -> conv2_2/sep (in-place)
I0707 23:59:42.127035 27836 net.cpp:124] Setting up relu2_2/sep
I0707 23:59:42.127053 27836 net.cpp:131] Top shape: 64 128 24 24 (4718592)
I0707 23:59:42.127060 27836 net.cpp:139] Memory required for data: 422314752
I0707 23:59:42.127066 27836 layer_factory.hpp:77] Creating layer conv3_1/dw
I0707 23:59:42.127081 27836 net.cpp:86] Creating Layer conv3_1/dw
I0707 23:59:42.127090 27836 net.cpp:408] conv3_1/dw <- conv2_2/sep
I0707 23:59:42.127104 27836 net.cpp:382] conv3_1/dw -> conv3_1/dw
I0707 23:59:42.127374 27836 net.cpp:124] Setting up conv3_1/dw
I0707 23:59:42.127388 27836 net.cpp:131] Top shape: 64 128 24 24 (4718592)
I0707 23:59:42.127396 27836 net.cpp:139] Memory required for data: 441189120
I0707 23:59:42.127404 27836 layer_factory.hpp:77] Creating layer conv3_1/dw/bn
I0707 23:59:42.127414 27836 net.cpp:86] Creating Layer conv3_1/dw/bn
I0707 23:59:42.127421 27836 net.cpp:408] conv3_1/dw/bn <- conv3_1/dw
I0707 23:59:42.127432 27836 net.cpp:369] conv3_1/dw/bn -> conv3_1/dw (in-place)
I0707 23:59:42.127678 27836 net.cpp:124] Setting up conv3_1/dw/bn
I0707 23:59:42.127691 27836 net.cpp:131] Top shape: 64 128 24 24 (4718592)
I0707 23:59:42.127699 27836 net.cpp:139] Memory required for data: 460063488
I0707 23:59:42.127718 27836 layer_factory.hpp:77] Creating layer conv3_1/dw/scale
I0707 23:59:42.127738 27836 net.cpp:86] Creating Layer conv3_1/dw/scale
I0707 23:59:42.127744 27836 net.cpp:408] conv3_1/dw/scale <- conv3_1/dw
I0707 23:59:42.127750 27836 net.cpp:369] conv3_1/dw/scale -> conv3_1/dw (in-place)
I0707 23:59:42.127790 27836 layer_factory.hpp:77] Creating layer conv3_1/dw/scale
I0707 23:59:42.127899 27836 net.cpp:124] Setting up conv3_1/dw/scale
I0707 23:59:42.127908 27836 net.cpp:131] Top shape: 64 128 24 24 (4718592)
I0707 23:59:42.127912 27836 net.cpp:139] Memory required for data: 478937856
I0707 23:59:42.127919 27836 layer_factory.hpp:77] Creating layer relu3_1/dw
I0707 23:59:42.127926 27836 net.cpp:86] Creating Layer relu3_1/dw
I0707 23:59:42.127931 27836 net.cpp:408] relu3_1/dw <- conv3_1/dw
I0707 23:59:42.127939 27836 net.cpp:369] relu3_1/dw -> conv3_1/dw (in-place)
I0707 23:59:42.128420 27836 net.cpp:124] Setting up relu3_1/dw
I0707 23:59:42.128432 27836 net.cpp:131] Top shape: 64 128 24 24 (4718592)
I0707 23:59:42.128437 27836 net.cpp:139] Memory required for data: 497812224
I0707 23:59:42.128441 27836 layer_factory.hpp:77] Creating layer conv3_1/sep
I0707 23:59:42.128451 27836 net.cpp:86] Creating Layer conv3_1/sep
I0707 23:59:42.128458 27836 net.cpp:408] conv3_1/sep <- conv3_1/dw
I0707 23:59:42.128465 27836 net.cpp:382] conv3_1/sep -> conv3_1/sep
I0707 23:59:42.131079 27836 net.cpp:124] Setting up conv3_1/sep
I0707 23:59:42.131112 27836 net.cpp:131] Top shape: 64 128 24 24 (4718592)
I0707 23:59:42.131121 27836 net.cpp:139] Memory required for data: 516686592
I0707 23:59:42.131134 27836 layer_factory.hpp:77] Creating layer conv3_1/sep/bn
I0707 23:59:42.131151 27836 net.cpp:86] Creating Layer conv3_1/sep/bn
I0707 23:59:42.131160 27836 net.cpp:408] conv3_1/sep/bn <- conv3_1/sep
I0707 23:59:42.131175 27836 net.cpp:369] conv3_1/sep/bn -> conv3_1/sep (in-place)
I0707 23:59:42.131464 27836 net.cpp:124] Setting up conv3_1/sep/bn
I0707 23:59:42.131516 27836 net.cpp:131] Top shape: 64 128 24 24 (4718592)
I0707 23:59:42.131531 27836 net.cpp:139] Memory required for data: 535560960
I0707 23:59:42.131548 27836 layer_factory.hpp:77] Creating layer conv3_1/sep/scale
I0707 23:59:42.131567 27836 net.cpp:86] Creating Layer conv3_1/sep/scale
I0707 23:59:42.131574 27836 net.cpp:408] conv3_1/sep/scale <- conv3_1/sep
I0707 23:59:42.131582 27836 net.cpp:369] conv3_1/sep/scale -> conv3_1/sep (in-place)
I0707 23:59:42.131664 27836 layer_factory.hpp:77] Creating layer conv3_1/sep/scale
I0707 23:59:42.131788 27836 net.cpp:124] Setting up conv3_1/sep/scale
I0707 23:59:42.131799 27836 net.cpp:131] Top shape: 64 128 24 24 (4718592)
I0707 23:59:42.131803 27836 net.cpp:139] Memory required for data: 554435328
I0707 23:59:42.131816 27836 layer_factory.hpp:77] Creating layer relu3_1/sep
I0707 23:59:42.131829 27836 net.cpp:86] Creating Layer relu3_1/sep
I0707 23:59:42.131835 27836 net.cpp:408] relu3_1/sep <- conv3_1/sep
I0707 23:59:42.131847 27836 net.cpp:369] relu3_1/sep -> conv3_1/sep (in-place)
I0707 23:59:42.132805 27836 net.cpp:124] Setting up relu3_1/sep
I0707 23:59:42.132822 27836 net.cpp:131] Top shape: 64 128 24 24 (4718592)
I0707 23:59:42.132827 27836 net.cpp:139] Memory required for data: 573309696
I0707 23:59:42.132834 27836 layer_factory.hpp:77] Creating layer conv3_2/dw
I0707 23:59:42.132853 27836 net.cpp:86] Creating Layer conv3_2/dw
I0707 23:59:42.132859 27836 net.cpp:408] conv3_2/dw <- conv3_1/sep
I0707 23:59:42.132871 27836 net.cpp:382] conv3_2/dw -> conv3_2/dw
I0707 23:59:42.133088 27836 net.cpp:124] Setting up conv3_2/dw
I0707 23:59:42.133100 27836 net.cpp:131] Top shape: 64 128 12 12 (1179648)
I0707 23:59:42.133107 27836 net.cpp:139] Memory required for data: 578028288
I0707 23:59:42.133119 27836 layer_factory.hpp:77] Creating layer conv3_2/dw/bn
I0707 23:59:42.133131 27836 net.cpp:86] Creating Layer conv3_2/dw/bn
I0707 23:59:42.133138 27836 net.cpp:408] conv3_2/dw/bn <- conv3_2/dw
I0707 23:59:42.133149 27836 net.cpp:369] conv3_2/dw/bn -> conv3_2/dw (in-place)
I0707 23:59:42.133345 27836 net.cpp:124] Setting up conv3_2/dw/bn
I0707 23:59:42.133357 27836 net.cpp:131] Top shape: 64 128 12 12 (1179648)
I0707 23:59:42.133364 27836 net.cpp:139] Memory required for data: 582746880
I0707 23:59:42.133379 27836 layer_factory.hpp:77] Creating layer conv3_2/dw/scale
I0707 23:59:42.133396 27836 net.cpp:86] Creating Layer conv3_2/dw/scale
I0707 23:59:42.133404 27836 net.cpp:408] conv3_2/dw/scale <- conv3_2/dw
I0707 23:59:42.133414 27836 net.cpp:369] conv3_2/dw/scale -> conv3_2/dw (in-place)
I0707 23:59:42.133460 27836 layer_factory.hpp:77] Creating layer conv3_2/dw/scale
I0707 23:59:42.133574 27836 net.cpp:124] Setting up conv3_2/dw/scale
I0707 23:59:42.133584 27836 net.cpp:131] Top shape: 64 128 12 12 (1179648)
I0707 23:59:42.133592 27836 net.cpp:139] Memory required for data: 587465472
I0707 23:59:42.133605 27836 layer_factory.hpp:77] Creating layer relu3_2/dw
I0707 23:59:42.133615 27836 net.cpp:86] Creating Layer relu3_2/dw
I0707 23:59:42.133622 27836 net.cpp:408] relu3_2/dw <- conv3_2/dw
I0707 23:59:42.133632 27836 net.cpp:369] relu3_2/dw -> conv3_2/dw (in-place)
I0707 23:59:42.134167 27836 net.cpp:124] Setting up relu3_2/dw
I0707 23:59:42.134179 27836 net.cpp:131] Top shape: 64 128 12 12 (1179648)
I0707 23:59:42.134184 27836 net.cpp:139] Memory required for data: 592184064
I0707 23:59:42.134189 27836 layer_factory.hpp:77] Creating layer conv3_2/sep
I0707 23:59:42.134199 27836 net.cpp:86] Creating Layer conv3_2/sep
I0707 23:59:42.134205 27836 net.cpp:408] conv3_2/sep <- conv3_2/dw
I0707 23:59:42.134212 27836 net.cpp:382] conv3_2/sep -> conv3_2/sep
I0707 23:59:42.137830 27836 net.cpp:124] Setting up conv3_2/sep
I0707 23:59:42.137851 27836 net.cpp:131] Top shape: 64 256 12 12 (2359296)
I0707 23:59:42.137856 27836 net.cpp:139] Memory required for data: 601621248
I0707 23:59:42.137864 27836 layer_factory.hpp:77] Creating layer conv3_2/sep/bn
I0707 23:59:42.137874 27836 net.cpp:86] Creating Layer conv3_2/sep/bn
I0707 23:59:42.137881 27836 net.cpp:408] conv3_2/sep/bn <- conv3_2/sep
I0707 23:59:42.137889 27836 net.cpp:369] conv3_2/sep/bn -> conv3_2/sep (in-place)
I0707 23:59:42.138078 27836 net.cpp:124] Setting up conv3_2/sep/bn
I0707 23:59:42.138087 27836 net.cpp:131] Top shape: 64 256 12 12 (2359296)
I0707 23:59:42.138092 27836 net.cpp:139] Memory required for data: 611058432
I0707 23:59:42.138100 27836 layer_factory.hpp:77] Creating layer conv3_2/sep/scale
I0707 23:59:42.138110 27836 net.cpp:86] Creating Layer conv3_2/sep/scale
I0707 23:59:42.138131 27836 net.cpp:408] conv3_2/sep/scale <- conv3_2/sep
I0707 23:59:42.138139 27836 net.cpp:369] conv3_2/sep/scale -> conv3_2/sep (in-place)
I0707 23:59:42.138183 27836 layer_factory.hpp:77] Creating layer conv3_2/sep/scale
I0707 23:59:42.138296 27836 net.cpp:124] Setting up conv3_2/sep/scale
I0707 23:59:42.138305 27836 net.cpp:131] Top shape: 64 256 12 12 (2359296)
I0707 23:59:42.138309 27836 net.cpp:139] Memory required for data: 620495616
I0707 23:59:42.138316 27836 layer_factory.hpp:77] Creating layer relu3_2/sep
I0707 23:59:42.138324 27836 net.cpp:86] Creating Layer relu3_2/sep
I0707 23:59:42.138329 27836 net.cpp:408] relu3_2/sep <- conv3_2/sep
I0707 23:59:42.138335 27836 net.cpp:369] relu3_2/sep -> conv3_2/sep (in-place)
I0707 23:59:42.139226 27836 net.cpp:124] Setting up relu3_2/sep
I0707 23:59:42.139240 27836 net.cpp:131] Top shape: 64 256 12 12 (2359296)
I0707 23:59:42.139245 27836 net.cpp:139] Memory required for data: 629932800
I0707 23:59:42.139250 27836 layer_factory.hpp:77] Creating layer conv4_1/dw
I0707 23:59:42.139263 27836 net.cpp:86] Creating Layer conv4_1/dw
I0707 23:59:42.139269 27836 net.cpp:408] conv4_1/dw <- conv3_2/sep
I0707 23:59:42.139276 27836 net.cpp:382] conv4_1/dw -> conv4_1/dw
I0707 23:59:42.139504 27836 net.cpp:124] Setting up conv4_1/dw
I0707 23:59:42.139514 27836 net.cpp:131] Top shape: 64 256 12 12 (2359296)
I0707 23:59:42.139520 27836 net.cpp:139] Memory required for data: 639369984
I0707 23:59:42.139526 27836 layer_factory.hpp:77] Creating layer conv4_1/dw/bn
I0707 23:59:42.139533 27836 net.cpp:86] Creating Layer conv4_1/dw/bn
I0707 23:59:42.139539 27836 net.cpp:408] conv4_1/dw/bn <- conv4_1/dw
I0707 23:59:42.139545 27836 net.cpp:369] conv4_1/dw/bn -> conv4_1/dw (in-place)
I0707 23:59:42.139724 27836 net.cpp:124] Setting up conv4_1/dw/bn
I0707 23:59:42.139735 27836 net.cpp:131] Top shape: 64 256 12 12 (2359296)
I0707 23:59:42.139739 27836 net.cpp:139] Memory required for data: 648807168
I0707 23:59:42.139747 27836 layer_factory.hpp:77] Creating layer conv4_1/dw/scale
I0707 23:59:42.139755 27836 net.cpp:86] Creating Layer conv4_1/dw/scale
I0707 23:59:42.139760 27836 net.cpp:408] conv4_1/dw/scale <- conv4_1/dw
I0707 23:59:42.139765 27836 net.cpp:369] conv4_1/dw/scale -> conv4_1/dw (in-place)
I0707 23:59:42.139806 27836 layer_factory.hpp:77] Creating layer conv4_1/dw/scale
I0707 23:59:42.139940 27836 net.cpp:124] Setting up conv4_1/dw/scale
I0707 23:59:42.139952 27836 net.cpp:131] Top shape: 64 256 12 12 (2359296)
I0707 23:59:42.139956 27836 net.cpp:139] Memory required for data: 658244352
I0707 23:59:42.139963 27836 layer_factory.hpp:77] Creating layer relu4_1/dw
I0707 23:59:42.139971 27836 net.cpp:86] Creating Layer relu4_1/dw
I0707 23:59:42.139976 27836 net.cpp:408] relu4_1/dw <- conv4_1/dw
I0707 23:59:42.139982 27836 net.cpp:369] relu4_1/dw -> conv4_1/dw (in-place)
I0707 23:59:42.140475 27836 net.cpp:124] Setting up relu4_1/dw
I0707 23:59:42.140486 27836 net.cpp:131] Top shape: 64 256 12 12 (2359296)
I0707 23:59:42.140491 27836 net.cpp:139] Memory required for data: 667681536
I0707 23:59:42.140496 27836 layer_factory.hpp:77] Creating layer conv4_1/sep
I0707 23:59:42.140506 27836 net.cpp:86] Creating Layer conv4_1/sep
I0707 23:59:42.140511 27836 net.cpp:408] conv4_1/sep <- conv4_1/dw
I0707 23:59:42.140519 27836 net.cpp:382] conv4_1/sep -> conv4_1/sep
I0707 23:59:42.143702 27836 net.cpp:124] Setting up conv4_1/sep
I0707 23:59:42.143718 27836 net.cpp:131] Top shape: 64 256 12 12 (2359296)
I0707 23:59:42.143723 27836 net.cpp:139] Memory required for data: 677118720
I0707 23:59:42.143730 27836 layer_factory.hpp:77] Creating layer conv4_1/sep/bn
I0707 23:59:42.143739 27836 net.cpp:86] Creating Layer conv4_1/sep/bn
I0707 23:59:42.143744 27836 net.cpp:408] conv4_1/sep/bn <- conv4_1/sep
I0707 23:59:42.143750 27836 net.cpp:369] conv4_1/sep/bn -> conv4_1/sep (in-place)
I0707 23:59:42.143936 27836 net.cpp:124] Setting up conv4_1/sep/bn
I0707 23:59:42.143945 27836 net.cpp:131] Top shape: 64 256 12 12 (2359296)
I0707 23:59:42.143949 27836 net.cpp:139] Memory required for data: 686555904
I0707 23:59:42.143970 27836 layer_factory.hpp:77] Creating layer conv4_1/sep/scale
I0707 23:59:42.143980 27836 net.cpp:86] Creating Layer conv4_1/sep/scale
I0707 23:59:42.143985 27836 net.cpp:408] conv4_1/sep/scale <- conv4_1/sep
I0707 23:59:42.143991 27836 net.cpp:369] conv4_1/sep/scale -> conv4_1/sep (in-place)
I0707 23:59:42.144054 27836 layer_factory.hpp:77] Creating layer conv4_1/sep/scale
I0707 23:59:42.144207 27836 net.cpp:124] Setting up conv4_1/sep/scale
I0707 23:59:42.144219 27836 net.cpp:131] Top shape: 64 256 12 12 (2359296)
I0707 23:59:42.144224 27836 net.cpp:139] Memory required for data: 695993088
I0707 23:59:42.144242 27836 layer_factory.hpp:77] Creating layer relu4_1/sep
I0707 23:59:42.144250 27836 net.cpp:86] Creating Layer relu4_1/sep
I0707 23:59:42.144254 27836 net.cpp:408] relu4_1/sep <- conv4_1/sep
I0707 23:59:42.144260 27836 net.cpp:369] relu4_1/sep -> conv4_1/sep (in-place)
I0707 23:59:42.144752 27836 net.cpp:124] Setting up relu4_1/sep
I0707 23:59:42.144765 27836 net.cpp:131] Top shape: 64 256 12 12 (2359296)
I0707 23:59:42.144771 27836 net.cpp:139] Memory required for data: 705430272
I0707 23:59:42.144776 27836 layer_factory.hpp:77] Creating layer conv4_2/dw
I0707 23:59:42.144786 27836 net.cpp:86] Creating Layer conv4_2/dw
I0707 23:59:42.144793 27836 net.cpp:408] conv4_2/dw <- conv4_1/sep
I0707 23:59:42.144800 27836 net.cpp:382] conv4_2/dw -> conv4_2/dw
I0707 23:59:42.145016 27836 net.cpp:124] Setting up conv4_2/dw
I0707 23:59:42.145026 27836 net.cpp:131] Top shape: 64 256 6 6 (589824)
I0707 23:59:42.145030 27836 net.cpp:139] Memory required for data: 707789568
I0707 23:59:42.145036 27836 layer_factory.hpp:77] Creating layer conv4_2/dw/bn
I0707 23:59:42.145045 27836 net.cpp:86] Creating Layer conv4_2/dw/bn
I0707 23:59:42.145051 27836 net.cpp:408] conv4_2/dw/bn <- conv4_2/dw
I0707 23:59:42.145057 27836 net.cpp:369] conv4_2/dw/bn -> conv4_2/dw (in-place)
I0707 23:59:42.145246 27836 net.cpp:124] Setting up conv4_2/dw/bn
I0707 23:59:42.145256 27836 net.cpp:131] Top shape: 64 256 6 6 (589824)
I0707 23:59:42.145259 27836 net.cpp:139] Memory required for data: 710148864
I0707 23:59:42.145267 27836 layer_factory.hpp:77] Creating layer conv4_2/dw/scale
I0707 23:59:42.145274 27836 net.cpp:86] Creating Layer conv4_2/dw/scale
I0707 23:59:42.145278 27836 net.cpp:408] conv4_2/dw/scale <- conv4_2/dw
I0707 23:59:42.145287 27836 net.cpp:369] conv4_2/dw/scale -> conv4_2/dw (in-place)
I0707 23:59:42.145344 27836 layer_factory.hpp:77] Creating layer conv4_2/dw/scale
I0707 23:59:42.145490 27836 net.cpp:124] Setting up conv4_2/dw/scale
I0707 23:59:42.145503 27836 net.cpp:131] Top shape: 64 256 6 6 (589824)
I0707 23:59:42.145509 27836 net.cpp:139] Memory required for data: 712508160
I0707 23:59:42.145519 27836 layer_factory.hpp:77] Creating layer relu4_2/dw
I0707 23:59:42.145527 27836 net.cpp:86] Creating Layer relu4_2/dw
I0707 23:59:42.145534 27836 net.cpp:408] relu4_2/dw <- conv4_2/dw
I0707 23:59:42.145545 27836 net.cpp:369] relu4_2/dw -> conv4_2/dw (in-place)
I0707 23:59:42.146070 27836 net.cpp:124] Setting up relu4_2/dw
I0707 23:59:42.146083 27836 net.cpp:131] Top shape: 64 256 6 6 (589824)
I0707 23:59:42.146088 27836 net.cpp:139] Memory required for data: 714867456
I0707 23:59:42.146093 27836 layer_factory.hpp:77] Creating layer conv4_2/sep
I0707 23:59:42.146103 27836 net.cpp:86] Creating Layer conv4_2/sep
I0707 23:59:42.146107 27836 net.cpp:408] conv4_2/sep <- conv4_2/dw
I0707 23:59:42.146114 27836 net.cpp:382] conv4_2/sep -> conv4_2/sep
I0707 23:59:42.151124 27836 net.cpp:124] Setting up conv4_2/sep
I0707 23:59:42.151151 27836 net.cpp:131] Top shape: 64 512 6 6 (1179648)
I0707 23:59:42.151156 27836 net.cpp:139] Memory required for data: 719586048
I0707 23:59:42.151166 27836 layer_factory.hpp:77] Creating layer conv4_2/sep/bn
I0707 23:59:42.151178 27836 net.cpp:86] Creating Layer conv4_2/sep/bn
I0707 23:59:42.151183 27836 net.cpp:408] conv4_2/sep/bn <- conv4_2/sep
I0707 23:59:42.151193 27836 net.cpp:369] conv4_2/sep/bn -> conv4_2/sep (in-place)
I0707 23:59:42.151430 27836 net.cpp:124] Setting up conv4_2/sep/bn
I0707 23:59:42.151443 27836 net.cpp:131] Top shape: 64 512 6 6 (1179648)
I0707 23:59:42.151448 27836 net.cpp:139] Memory required for data: 724304640
I0707 23:59:42.151455 27836 layer_factory.hpp:77] Creating layer conv4_2/sep/scale
I0707 23:59:42.151466 27836 net.cpp:86] Creating Layer conv4_2/sep/scale
I0707 23:59:42.151473 27836 net.cpp:408] conv4_2/sep/scale <- conv4_2/sep
I0707 23:59:42.151481 27836 net.cpp:369] conv4_2/sep/scale -> conv4_2/sep (in-place)
I0707 23:59:42.151521 27836 layer_factory.hpp:77] Creating layer conv4_2/sep/scale
I0707 23:59:42.151638 27836 net.cpp:124] Setting up conv4_2/sep/scale
I0707 23:59:42.151649 27836 net.cpp:131] Top shape: 64 512 6 6 (1179648)
I0707 23:59:42.151654 27836 net.cpp:139] Memory required for data: 729023232
I0707 23:59:42.151660 27836 layer_factory.hpp:77] Creating layer relu4_2/sep
I0707 23:59:42.151667 27836 net.cpp:86] Creating Layer relu4_2/sep
I0707 23:59:42.151671 27836 net.cpp:408] relu4_2/sep <- conv4_2/sep
I0707 23:59:42.151679 27836 net.cpp:369] relu4_2/sep -> conv4_2/sep (in-place)
I0707 23:59:42.152177 27836 net.cpp:124] Setting up relu4_2/sep
I0707 23:59:42.152189 27836 net.cpp:131] Top shape: 64 512 6 6 (1179648)
I0707 23:59:42.152192 27836 net.cpp:139] Memory required for data: 733741824
I0707 23:59:42.152196 27836 layer_factory.hpp:77] Creating layer conv5_1/dw
I0707 23:59:42.152209 27836 net.cpp:86] Creating Layer conv5_1/dw
I0707 23:59:42.152215 27836 net.cpp:408] conv5_1/dw <- conv4_2/sep
I0707 23:59:42.152223 27836 net.cpp:382] conv5_1/dw -> conv5_1/dw
I0707 23:59:42.152469 27836 net.cpp:124] Setting up conv5_1/dw
I0707 23:59:42.152479 27836 net.cpp:131] Top shape: 64 512 6 6 (1179648)
I0707 23:59:42.152485 27836 net.cpp:139] Memory required for data: 738460416
I0707 23:59:42.152492 27836 layer_factory.hpp:77] Creating layer conv5_1/dw/bn
I0707 23:59:42.152498 27836 net.cpp:86] Creating Layer conv5_1/dw/bn
I0707 23:59:42.152503 27836 net.cpp:408] conv5_1/dw/bn <- conv5_1/dw
I0707 23:59:42.152511 27836 net.cpp:369] conv5_1/dw/bn -> conv5_1/dw (in-place)
I0707 23:59:42.152693 27836 net.cpp:124] Setting up conv5_1/dw/bn
I0707 23:59:42.152704 27836 net.cpp:131] Top shape: 64 512 6 6 (1179648)
I0707 23:59:42.152707 27836 net.cpp:139] Memory required for data: 743179008
I0707 23:59:42.152716 27836 layer_factory.hpp:77] Creating layer conv5_1/dw/scale
I0707 23:59:42.152724 27836 net.cpp:86] Creating Layer conv5_1/dw/scale
I0707 23:59:42.152729 27836 net.cpp:408] conv5_1/dw/scale <- conv5_1/dw
I0707 23:59:42.152736 27836 net.cpp:369] conv5_1/dw/scale -> conv5_1/dw (in-place)
I0707 23:59:42.152776 27836 layer_factory.hpp:77] Creating layer conv5_1/dw/scale
I0707 23:59:42.152896 27836 net.cpp:124] Setting up conv5_1/dw/scale
I0707 23:59:42.152906 27836 net.cpp:131] Top shape: 64 512 6 6 (1179648)
I0707 23:59:42.152914 27836 net.cpp:139] Memory required for data: 747897600
I0707 23:59:42.152926 27836 layer_factory.hpp:77] Creating layer relu5_1/dw
I0707 23:59:42.152935 27836 net.cpp:86] Creating Layer relu5_1/dw
I0707 23:59:42.152943 27836 net.cpp:408] relu5_1/dw <- conv5_1/dw
I0707 23:59:42.152953 27836 net.cpp:369] relu5_1/dw -> conv5_1/dw (in-place)
I0707 23:59:42.153460 27836 net.cpp:124] Setting up relu5_1/dw
I0707 23:59:42.153471 27836 net.cpp:131] Top shape: 64 512 6 6 (1179648)
I0707 23:59:42.153479 27836 net.cpp:139] Memory required for data: 752616192
I0707 23:59:42.153487 27836 layer_factory.hpp:77] Creating layer conv5_1/sep
I0707 23:59:42.153503 27836 net.cpp:86] Creating Layer conv5_1/sep
I0707 23:59:42.153509 27836 net.cpp:408] conv5_1/sep <- conv5_1/dw
I0707 23:59:42.153520 27836 net.cpp:382] conv5_1/sep -> conv5_1/sep
I0707 23:59:42.158794 27836 net.cpp:124] Setting up conv5_1/sep
I0707 23:59:42.158812 27836 net.cpp:131] Top shape: 64 512 6 6 (1179648)
I0707 23:59:42.158818 27836 net.cpp:139] Memory required for data: 757334784
I0707 23:59:42.158828 27836 layer_factory.hpp:77] Creating layer conv5_1/sep/bn
I0707 23:59:42.158843 27836 net.cpp:86] Creating Layer conv5_1/sep/bn
I0707 23:59:42.158851 27836 net.cpp:408] conv5_1/sep/bn <- conv5_1/sep
I0707 23:59:42.158876 27836 net.cpp:369] conv5_1/sep/bn -> conv5_1/sep (in-place)
I0707 23:59:42.159073 27836 net.cpp:124] Setting up conv5_1/sep/bn
I0707 23:59:42.159085 27836 net.cpp:131] Top shape: 64 512 6 6 (1179648)
I0707 23:59:42.159088 27836 net.cpp:139] Memory required for data: 762053376
I0707 23:59:42.159096 27836 layer_factory.hpp:77] Creating layer conv5_1/sep/scale
I0707 23:59:42.159107 27836 net.cpp:86] Creating Layer conv5_1/sep/scale
I0707 23:59:42.159112 27836 net.cpp:408] conv5_1/sep/scale <- conv5_1/sep
I0707 23:59:42.159118 27836 net.cpp:369] conv5_1/sep/scale -> conv5_1/sep (in-place)
I0707 23:59:42.159158 27836 layer_factory.hpp:77] Creating layer conv5_1/sep/scale
I0707 23:59:42.159274 27836 net.cpp:124] Setting up conv5_1/sep/scale
I0707 23:59:42.159284 27836 net.cpp:131] Top shape: 64 512 6 6 (1179648)
I0707 23:59:42.159288 27836 net.cpp:139] Memory required for data: 766771968
I0707 23:59:42.159296 27836 layer_factory.hpp:77] Creating layer relu5_1/sep
I0707 23:59:42.159303 27836 net.cpp:86] Creating Layer relu5_1/sep
I0707 23:59:42.159307 27836 net.cpp:408] relu5_1/sep <- conv5_1/sep
I0707 23:59:42.159315 27836 net.cpp:369] relu5_1/sep -> conv5_1/sep (in-place)
I0707 23:59:42.159814 27836 net.cpp:124] Setting up relu5_1/sep
I0707 23:59:42.159827 27836 net.cpp:131] Top shape: 64 512 6 6 (1179648)
I0707 23:59:42.159834 27836 net.cpp:139] Memory required for data: 771490560
I0707 23:59:42.159842 27836 layer_factory.hpp:77] Creating layer conv5_2/dw
I0707 23:59:42.159859 27836 net.cpp:86] Creating Layer conv5_2/dw
I0707 23:59:42.159865 27836 net.cpp:408] conv5_2/dw <- conv5_1/sep
I0707 23:59:42.159876 27836 net.cpp:382] conv5_2/dw -> conv5_2/dw
I0707 23:59:42.160125 27836 net.cpp:124] Setting up conv5_2/dw
I0707 23:59:42.160135 27836 net.cpp:131] Top shape: 64 512 6 6 (1179648)
I0707 23:59:42.160141 27836 net.cpp:139] Memory required for data: 776209152
I0707 23:59:42.160151 27836 layer_factory.hpp:77] Creating layer conv5_2/dw/bn
I0707 23:59:42.160162 27836 net.cpp:86] Creating Layer conv5_2/dw/bn
I0707 23:59:42.160169 27836 net.cpp:408] conv5_2/dw/bn <- conv5_2/dw
I0707 23:59:42.160181 27836 net.cpp:369] conv5_2/dw/bn -> conv5_2/dw (in-place)
I0707 23:59:42.160372 27836 net.cpp:124] Setting up conv5_2/dw/bn
I0707 23:59:42.160382 27836 net.cpp:131] Top shape: 64 512 6 6 (1179648)
I0707 23:59:42.160388 27836 net.cpp:139] Memory required for data: 780927744
I0707 23:59:42.160401 27836 layer_factory.hpp:77] Creating layer conv5_2/dw/scale
I0707 23:59:42.160419 27836 net.cpp:86] Creating Layer conv5_2/dw/scale
I0707 23:59:42.160426 27836 net.cpp:408] conv5_2/dw/scale <- conv5_2/dw
I0707 23:59:42.160436 27836 net.cpp:369] conv5_2/dw/scale -> conv5_2/dw (in-place)
I0707 23:59:42.160481 27836 layer_factory.hpp:77] Creating layer conv5_2/dw/scale
I0707 23:59:42.160601 27836 net.cpp:124] Setting up conv5_2/dw/scale
I0707 23:59:42.160612 27836 net.cpp:131] Top shape: 64 512 6 6 (1179648)
I0707 23:59:42.160620 27836 net.cpp:139] Memory required for data: 785646336
I0707 23:59:42.160632 27836 layer_factory.hpp:77] Creating layer relu5_2/dw
I0707 23:59:42.160641 27836 net.cpp:86] Creating Layer relu5_2/dw
I0707 23:59:42.160650 27836 net.cpp:408] relu5_2/dw <- conv5_2/dw
I0707 23:59:42.160657 27836 net.cpp:369] relu5_2/dw -> conv5_2/dw (in-place)
I0707 23:59:42.161517 27836 net.cpp:124] Setting up relu5_2/dw
I0707 23:59:42.161532 27836 net.cpp:131] Top shape: 64 512 6 6 (1179648)
I0707 23:59:42.161540 27836 net.cpp:139] Memory required for data: 790364928
I0707 23:59:42.161548 27836 layer_factory.hpp:77] Creating layer conv5_2/sep
I0707 23:59:42.161564 27836 net.cpp:86] Creating Layer conv5_2/sep
I0707 23:59:42.161571 27836 net.cpp:408] conv5_2/sep <- conv5_2/dw
I0707 23:59:42.161581 27836 net.cpp:382] conv5_2/sep -> conv5_2/sep
I0707 23:59:42.167848 27836 net.cpp:124] Setting up conv5_2/sep
I0707 23:59:42.167876 27836 net.cpp:131] Top shape: 64 512 6 6 (1179648)
I0707 23:59:42.167881 27836 net.cpp:139] Memory required for data: 795083520
I0707 23:59:42.167896 27836 layer_factory.hpp:77] Creating layer conv5_2/sep/bn
I0707 23:59:42.167932 27836 net.cpp:86] Creating Layer conv5_2/sep/bn
I0707 23:59:42.167942 27836 net.cpp:408] conv5_2/sep/bn <- conv5_2/sep
I0707 23:59:42.167956 27836 net.cpp:369] conv5_2/sep/bn -> conv5_2/sep (in-place)
I0707 23:59:42.168167 27836 net.cpp:124] Setting up conv5_2/sep/bn
I0707 23:59:42.168177 27836 net.cpp:131] Top shape: 64 512 6 6 (1179648)
I0707 23:59:42.168185 27836 net.cpp:139] Memory required for data: 799802112
I0707 23:59:42.168200 27836 layer_factory.hpp:77] Creating layer conv5_2/sep/scale
I0707 23:59:42.168211 27836 net.cpp:86] Creating Layer conv5_2/sep/scale
I0707 23:59:42.168218 27836 net.cpp:408] conv5_2/sep/scale <- conv5_2/sep
I0707 23:59:42.168227 27836 net.cpp:369] conv5_2/sep/scale -> conv5_2/sep (in-place)
I0707 23:59:42.168273 27836 layer_factory.hpp:77] Creating layer conv5_2/sep/scale
I0707 23:59:42.168398 27836 net.cpp:124] Setting up conv5_2/sep/scale
I0707 23:59:42.168411 27836 net.cpp:131] Top shape: 64 512 6 6 (1179648)
I0707 23:59:42.168416 27836 net.cpp:139] Memory required for data: 804520704
I0707 23:59:42.168428 27836 layer_factory.hpp:77] Creating layer relu5_2/sep
I0707 23:59:42.168439 27836 net.cpp:86] Creating Layer relu5_2/sep
I0707 23:59:42.168447 27836 net.cpp:408] relu5_2/sep <- conv5_2/sep
I0707 23:59:42.168455 27836 net.cpp:369] relu5_2/sep -> conv5_2/sep (in-place)
I0707 23:59:42.169016 27836 net.cpp:124] Setting up relu5_2/sep
I0707 23:59:42.169029 27836 net.cpp:131] Top shape: 64 512 6 6 (1179648)
I0707 23:59:42.169037 27836 net.cpp:139] Memory required for data: 809239296
I0707 23:59:42.169045 27836 layer_factory.hpp:77] Creating layer conv5_3/dw
I0707 23:59:42.169060 27836 net.cpp:86] Creating Layer conv5_3/dw
I0707 23:59:42.169067 27836 net.cpp:408] conv5_3/dw <- conv5_2/sep
I0707 23:59:42.169080 27836 net.cpp:382] conv5_3/dw -> conv5_3/dw
I0707 23:59:42.169348 27836 net.cpp:124] Setting up conv5_3/dw
I0707 23:59:42.169360 27836 net.cpp:131] Top shape: 64 512 6 6 (1179648)
I0707 23:59:42.169368 27836 net.cpp:139] Memory required for data: 813957888
I0707 23:59:42.169378 27836 layer_factory.hpp:77] Creating layer conv5_3/dw/bn
I0707 23:59:42.169389 27836 net.cpp:86] Creating Layer conv5_3/dw/bn
I0707 23:59:42.169396 27836 net.cpp:408] conv5_3/dw/bn <- conv5_3/dw
I0707 23:59:42.169407 27836 net.cpp:369] conv5_3/dw/bn -> conv5_3/dw (in-place)
I0707 23:59:42.169595 27836 net.cpp:124] Setting up conv5_3/dw/bn
I0707 23:59:42.169606 27836 net.cpp:131] Top shape: 64 512 6 6 (1179648)
I0707 23:59:42.169615 27836 net.cpp:139] Memory required for data: 818676480
I0707 23:59:42.169628 27836 layer_factory.hpp:77] Creating layer conv5_3/dw/scale
I0707 23:59:42.169641 27836 net.cpp:86] Creating Layer conv5_3/dw/scale
I0707 23:59:42.169647 27836 net.cpp:408] conv5_3/dw/scale <- conv5_3/dw
I0707 23:59:42.169656 27836 net.cpp:369] conv5_3/dw/scale -> conv5_3/dw (in-place)
I0707 23:59:42.169703 27836 layer_factory.hpp:77] Creating layer conv5_3/dw/scale
I0707 23:59:42.169836 27836 net.cpp:124] Setting up conv5_3/dw/scale
I0707 23:59:42.169847 27836 net.cpp:131] Top shape: 64 512 6 6 (1179648)
I0707 23:59:42.169854 27836 net.cpp:139] Memory required for data: 823395072
I0707 23:59:42.169867 27836 layer_factory.hpp:77] Creating layer relu5_3/dw
I0707 23:59:42.169874 27836 net.cpp:86] Creating Layer relu5_3/dw
I0707 23:59:42.169881 27836 net.cpp:408] relu5_3/dw <- conv5_3/dw
I0707 23:59:42.169893 27836 net.cpp:369] relu5_3/dw -> conv5_3/dw (in-place)
I0707 23:59:42.170747 27836 net.cpp:124] Setting up relu5_3/dw
I0707 23:59:42.170760 27836 net.cpp:131] Top shape: 64 512 6 6 (1179648)
I0707 23:59:42.170769 27836 net.cpp:139] Memory required for data: 828113664
I0707 23:59:42.170778 27836 layer_factory.hpp:77] Creating layer conv5_3/sep
I0707 23:59:42.170794 27836 net.cpp:86] Creating Layer conv5_3/sep
I0707 23:59:42.170800 27836 net.cpp:408] conv5_3/sep <- conv5_3/dw
I0707 23:59:42.170814 27836 net.cpp:382] conv5_3/sep -> conv5_3/sep
I0707 23:59:42.176230 27836 net.cpp:124] Setting up conv5_3/sep
I0707 23:59:42.176252 27836 net.cpp:131] Top shape: 64 512 6 6 (1179648)
I0707 23:59:42.176275 27836 net.cpp:139] Memory required for data: 832832256
I0707 23:59:42.176285 27836 layer_factory.hpp:77] Creating layer conv5_3/sep/bn
I0707 23:59:42.176296 27836 net.cpp:86] Creating Layer conv5_3/sep/bn
I0707 23:59:42.176303 27836 net.cpp:408] conv5_3/sep/bn <- conv5_3/sep
I0707 23:59:42.176313 27836 net.cpp:369] conv5_3/sep/bn -> conv5_3/sep (in-place)
I0707 23:59:42.176520 27836 net.cpp:124] Setting up conv5_3/sep/bn
I0707 23:59:42.176530 27836 net.cpp:131] Top shape: 64 512 6 6 (1179648)
I0707 23:59:42.176534 27836 net.cpp:139] Memory required for data: 837550848
I0707 23:59:42.176543 27836 layer_factory.hpp:77] Creating layer conv5_3/sep/scale
I0707 23:59:42.176551 27836 net.cpp:86] Creating Layer conv5_3/sep/scale
I0707 23:59:42.176555 27836 net.cpp:408] conv5_3/sep/scale <- conv5_3/sep
I0707 23:59:42.176563 27836 net.cpp:369] conv5_3/sep/scale -> conv5_3/sep (in-place)
I0707 23:59:42.176602 27836 layer_factory.hpp:77] Creating layer conv5_3/sep/scale
I0707 23:59:42.176721 27836 net.cpp:124] Setting up conv5_3/sep/scale
I0707 23:59:42.176733 27836 net.cpp:131] Top shape: 64 512 6 6 (1179648)
I0707 23:59:42.176738 27836 net.cpp:139] Memory required for data: 842269440
I0707 23:59:42.176743 27836 layer_factory.hpp:77] Creating layer relu5_3/sep
I0707 23:59:42.176750 27836 net.cpp:86] Creating Layer relu5_3/sep
I0707 23:59:42.176755 27836 net.cpp:408] relu5_3/sep <- conv5_3/sep
I0707 23:59:42.176760 27836 net.cpp:369] relu5_3/sep -> conv5_3/sep (in-place)
I0707 23:59:42.177260 27836 net.cpp:124] Setting up relu5_3/sep
I0707 23:59:42.177273 27836 net.cpp:131] Top shape: 64 512 6 6 (1179648)
I0707 23:59:42.177278 27836 net.cpp:139] Memory required for data: 846988032
I0707 23:59:42.177281 27836 layer_factory.hpp:77] Creating layer conv5_4/dw
I0707 23:59:42.177291 27836 net.cpp:86] Creating Layer conv5_4/dw
I0707 23:59:42.177296 27836 net.cpp:408] conv5_4/dw <- conv5_3/sep
I0707 23:59:42.177305 27836 net.cpp:382] conv5_4/dw -> conv5_4/dw
I0707 23:59:42.177572 27836 net.cpp:124] Setting up conv5_4/dw
I0707 23:59:42.177582 27836 net.cpp:131] Top shape: 64 512 6 6 (1179648)
I0707 23:59:42.177587 27836 net.cpp:139] Memory required for data: 851706624
I0707 23:59:42.177592 27836 layer_factory.hpp:77] Creating layer conv5_4/dw/bn
I0707 23:59:42.177598 27836 net.cpp:86] Creating Layer conv5_4/dw/bn
I0707 23:59:42.177603 27836 net.cpp:408] conv5_4/dw/bn <- conv5_4/dw
I0707 23:59:42.177609 27836 net.cpp:369] conv5_4/dw/bn -> conv5_4/dw (in-place)
I0707 23:59:42.177793 27836 net.cpp:124] Setting up conv5_4/dw/bn
I0707 23:59:42.177803 27836 net.cpp:131] Top shape: 64 512 6 6 (1179648)
I0707 23:59:42.177806 27836 net.cpp:139] Memory required for data: 856425216
I0707 23:59:42.177814 27836 layer_factory.hpp:77] Creating layer conv5_4/dw/scale
I0707 23:59:42.177824 27836 net.cpp:86] Creating Layer conv5_4/dw/scale
I0707 23:59:42.177829 27836 net.cpp:408] conv5_4/dw/scale <- conv5_4/dw
I0707 23:59:42.177835 27836 net.cpp:369] conv5_4/dw/scale -> conv5_4/dw (in-place)
I0707 23:59:42.177873 27836 layer_factory.hpp:77] Creating layer conv5_4/dw/scale
I0707 23:59:42.177994 27836 net.cpp:124] Setting up conv5_4/dw/scale
I0707 23:59:42.178004 27836 net.cpp:131] Top shape: 64 512 6 6 (1179648)
I0707 23:59:42.178009 27836 net.cpp:139] Memory required for data: 861143808
I0707 23:59:42.178015 27836 layer_factory.hpp:77] Creating layer relu5_4/dw
I0707 23:59:42.178021 27836 net.cpp:86] Creating Layer relu5_4/dw
I0707 23:59:42.178025 27836 net.cpp:408] relu5_4/dw <- conv5_4/dw
I0707 23:59:42.178032 27836 net.cpp:369] relu5_4/dw -> conv5_4/dw (in-place)
I0707 23:59:42.178885 27836 net.cpp:124] Setting up relu5_4/dw
I0707 23:59:42.178898 27836 net.cpp:131] Top shape: 64 512 6 6 (1179648)
I0707 23:59:42.178902 27836 net.cpp:139] Memory required for data: 865862400
I0707 23:59:42.178906 27836 layer_factory.hpp:77] Creating layer conv5_4/sep
I0707 23:59:42.178917 27836 net.cpp:86] Creating Layer conv5_4/sep
I0707 23:59:42.178922 27836 net.cpp:408] conv5_4/sep <- conv5_4/dw
I0707 23:59:42.178942 27836 net.cpp:382] conv5_4/sep -> conv5_4/sep
I0707 23:59:42.185065 27836 net.cpp:124] Setting up conv5_4/sep
I0707 23:59:42.185089 27836 net.cpp:131] Top shape: 64 512 6 6 (1179648)
I0707 23:59:42.185094 27836 net.cpp:139] Memory required for data: 870580992
I0707 23:59:42.185106 27836 layer_factory.hpp:77] Creating layer conv5_4/sep/bn
I0707 23:59:42.185118 27836 net.cpp:86] Creating Layer conv5_4/sep/bn
I0707 23:59:42.185127 27836 net.cpp:408] conv5_4/sep/bn <- conv5_4/sep
I0707 23:59:42.185135 27836 net.cpp:369] conv5_4/sep/bn -> conv5_4/sep (in-place)
I0707 23:59:42.185355 27836 net.cpp:124] Setting up conv5_4/sep/bn
I0707 23:59:42.185366 27836 net.cpp:131] Top shape: 64 512 6 6 (1179648)
I0707 23:59:42.185370 27836 net.cpp:139] Memory required for data: 875299584
I0707 23:59:42.185379 27836 layer_factory.hpp:77] Creating layer conv5_4/sep/scale
I0707 23:59:42.185389 27836 net.cpp:86] Creating Layer conv5_4/sep/scale
I0707 23:59:42.185392 27836 net.cpp:408] conv5_4/sep/scale <- conv5_4/sep
I0707 23:59:42.185398 27836 net.cpp:369] conv5_4/sep/scale -> conv5_4/sep (in-place)
I0707 23:59:42.185441 27836 layer_factory.hpp:77] Creating layer conv5_4/sep/scale
I0707 23:59:42.185561 27836 net.cpp:124] Setting up conv5_4/sep/scale
I0707 23:59:42.185571 27836 net.cpp:131] Top shape: 64 512 6 6 (1179648)
I0707 23:59:42.185575 27836 net.cpp:139] Memory required for data: 880018176
I0707 23:59:42.185582 27836 layer_factory.hpp:77] Creating layer relu5_4/sep
I0707 23:59:42.185590 27836 net.cpp:86] Creating Layer relu5_4/sep
I0707 23:59:42.185593 27836 net.cpp:408] relu5_4/sep <- conv5_4/sep
I0707 23:59:42.185600 27836 net.cpp:369] relu5_4/sep -> conv5_4/sep (in-place)
I0707 23:59:42.186107 27836 net.cpp:124] Setting up relu5_4/sep
I0707 23:59:42.186118 27836 net.cpp:131] Top shape: 64 512 6 6 (1179648)
I0707 23:59:42.186123 27836 net.cpp:139] Memory required for data: 884736768
I0707 23:59:42.186127 27836 layer_factory.hpp:77] Creating layer conv5_5/dw
I0707 23:59:42.186138 27836 net.cpp:86] Creating Layer conv5_5/dw
I0707 23:59:42.186144 27836 net.cpp:408] conv5_5/dw <- conv5_4/sep
I0707 23:59:42.186153 27836 net.cpp:382] conv5_5/dw -> conv5_5/dw
I0707 23:59:42.186412 27836 net.cpp:124] Setting up conv5_5/dw
I0707 23:59:42.186424 27836 net.cpp:131] Top shape: 64 512 6 6 (1179648)
I0707 23:59:42.186430 27836 net.cpp:139] Memory required for data: 889455360
I0707 23:59:42.186441 27836 layer_factory.hpp:77] Creating layer conv5_5/dw/bn
I0707 23:59:42.186456 27836 net.cpp:86] Creating Layer conv5_5/dw/bn
I0707 23:59:42.186463 27836 net.cpp:408] conv5_5/dw/bn <- conv5_5/dw
I0707 23:59:42.186473 27836 net.cpp:369] conv5_5/dw/bn -> conv5_5/dw (in-place)
I0707 23:59:42.186668 27836 net.cpp:124] Setting up conv5_5/dw/bn
I0707 23:59:42.186678 27836 net.cpp:131] Top shape: 64 512 6 6 (1179648)
I0707 23:59:42.186686 27836 net.cpp:139] Memory required for data: 894173952
I0707 23:59:42.186712 27836 layer_factory.hpp:77] Creating layer conv5_5/dw/scale
I0707 23:59:42.186725 27836 net.cpp:86] Creating Layer conv5_5/dw/scale
I0707 23:59:42.186733 27836 net.cpp:408] conv5_5/dw/scale <- conv5_5/dw
I0707 23:59:42.186743 27836 net.cpp:369] conv5_5/dw/scale -> conv5_5/dw (in-place)
I0707 23:59:42.186789 27836 layer_factory.hpp:77] Creating layer conv5_5/dw/scale
I0707 23:59:42.186913 27836 net.cpp:124] Setting up conv5_5/dw/scale
I0707 23:59:42.186923 27836 net.cpp:131] Top shape: 64 512 6 6 (1179648)
I0707 23:59:42.186930 27836 net.cpp:139] Memory required for data: 898892544
I0707 23:59:42.186942 27836 layer_factory.hpp:77] Creating layer relu5_5/dw
I0707 23:59:42.186951 27836 net.cpp:86] Creating Layer relu5_5/dw
I0707 23:59:42.186959 27836 net.cpp:408] relu5_5/dw <- conv5_5/dw
I0707 23:59:42.186969 27836 net.cpp:369] relu5_5/dw -> conv5_5/dw (in-place)
I0707 23:59:42.187832 27836 net.cpp:124] Setting up relu5_5/dw
I0707 23:59:42.187849 27836 net.cpp:131] Top shape: 64 512 6 6 (1179648)
I0707 23:59:42.187856 27836 net.cpp:139] Memory required for data: 903611136
I0707 23:59:42.187865 27836 layer_factory.hpp:77] Creating layer conv5_5/sep
I0707 23:59:42.187894 27836 net.cpp:86] Creating Layer conv5_5/sep
I0707 23:59:42.187901 27836 net.cpp:408] conv5_5/sep <- conv5_5/dw
I0707 23:59:42.187912 27836 net.cpp:382] conv5_5/sep -> conv5_5/sep
I0707 23:59:42.192932 27836 net.cpp:124] Setting up conv5_5/sep
I0707 23:59:42.192950 27836 net.cpp:131] Top shape: 64 512 6 6 (1179648)
I0707 23:59:42.192955 27836 net.cpp:139] Memory required for data: 908329728
I0707 23:59:42.192966 27836 layer_factory.hpp:77] Creating layer conv5_5/sep/bn
I0707 23:59:42.192981 27836 net.cpp:86] Creating Layer conv5_5/sep/bn
I0707 23:59:42.192988 27836 net.cpp:408] conv5_5/sep/bn <- conv5_5/sep
I0707 23:59:42.192999 27836 net.cpp:369] conv5_5/sep/bn -> conv5_5/sep (in-place)
I0707 23:59:42.193205 27836 net.cpp:124] Setting up conv5_5/sep/bn
I0707 23:59:42.193217 27836 net.cpp:131] Top shape: 64 512 6 6 (1179648)
I0707 23:59:42.193223 27836 net.cpp:139] Memory required for data: 913048320
I0707 23:59:42.193236 27836 layer_factory.hpp:77] Creating layer conv5_5/sep/scale
I0707 23:59:42.193248 27836 net.cpp:86] Creating Layer conv5_5/sep/scale
I0707 23:59:42.193254 27836 net.cpp:408] conv5_5/sep/scale <- conv5_5/sep
I0707 23:59:42.193266 27836 net.cpp:369] conv5_5/sep/scale -> conv5_5/sep (in-place)
I0707 23:59:42.193317 27836 layer_factory.hpp:77] Creating layer conv5_5/sep/scale
I0707 23:59:42.193445 27836 net.cpp:124] Setting up conv5_5/sep/scale
I0707 23:59:42.193456 27836 net.cpp:131] Top shape: 64 512 6 6 (1179648)
I0707 23:59:42.193464 27836 net.cpp:139] Memory required for data: 917766912
I0707 23:59:42.193475 27836 layer_factory.hpp:77] Creating layer relu5_5/sep
I0707 23:59:42.193485 27836 net.cpp:86] Creating Layer relu5_5/sep
I0707 23:59:42.193491 27836 net.cpp:408] relu5_5/sep <- conv5_5/sep
I0707 23:59:42.193503 27836 net.cpp:369] relu5_5/sep -> conv5_5/sep (in-place)
I0707 23:59:42.194705 27836 net.cpp:124] Setting up relu5_5/sep
I0707 23:59:42.194718 27836 net.cpp:131] Top shape: 64 512 6 6 (1179648)
I0707 23:59:42.194727 27836 net.cpp:139] Memory required for data: 922485504
I0707 23:59:42.194736 27836 layer_factory.hpp:77] Creating layer pool6
I0707 23:59:42.194749 27836 net.cpp:86] Creating Layer pool6
I0707 23:59:42.194756 27836 net.cpp:408] pool6 <- conv5_5/sep
I0707 23:59:42.194766 27836 net.cpp:382] pool6 -> pool6
I0707 23:59:42.278640 27836 net.cpp:124] Setting up pool6
I0707 23:59:42.278673 27836 net.cpp:131] Top shape: 64 512 1 1 (32768)
I0707 23:59:42.278679 27836 net.cpp:139] Memory required for data: 922616576
I0707 23:59:42.278690 27836 layer_factory.hpp:77] Creating layer fc7-mouth
I0707 23:59:42.278717 27836 net.cpp:86] Creating Layer fc7-mouth
I0707 23:59:42.278729 27836 net.cpp:408] fc7-mouth <- pool6
I0707 23:59:42.278746 27836 net.cpp:382] fc7-mouth -> fc7-mouth
I0707 23:59:42.281515 27836 net.cpp:124] Setting up fc7-mouth
I0707 23:59:42.281536 27836 net.cpp:131] Top shape: 64 4 1 1 (256)
I0707 23:59:42.281540 27836 net.cpp:139] Memory required for data: 922617600
I0707 23:59:42.281553 27836 layer_factory.hpp:77] Creating layer fc7-mouth_fc7-mouth_0_split
I0707 23:59:42.287854 27836 net.cpp:86] Creating Layer fc7-mouth_fc7-mouth_0_split
I0707 23:59:42.287874 27836 net.cpp:408] fc7-mouth_fc7-mouth_0_split <- fc7-mouth
I0707 23:59:42.287899 27836 net.cpp:382] fc7-mouth_fc7-mouth_0_split -> fc7-mouth_fc7-mouth_0_split_0
I0707 23:59:42.287914 27836 net.cpp:382] fc7-mouth_fc7-mouth_0_split -> fc7-mouth_fc7-mouth_0_split_1
I0707 23:59:42.288012 27836 net.cpp:124] Setting up fc7-mouth_fc7-mouth_0_split
I0707 23:59:42.288024 27836 net.cpp:131] Top shape: 64 4 1 1 (256)
I0707 23:59:42.288029 27836 net.cpp:131] Top shape: 64 4 1 1 (256)
I0707 23:59:42.288041 27836 net.cpp:139] Memory required for data: 922619648
I0707 23:59:42.288046 27836 layer_factory.hpp:77] Creating layer loss
I0707 23:59:42.290838 27836 net.cpp:86] Creating Layer loss
I0707 23:59:42.290863 27836 net.cpp:408] loss <- fc7-mouth_fc7-mouth_0_split_0
I0707 23:59:42.290872 27836 net.cpp:408] loss <- clc-label_data_1_split_0
I0707 23:59:42.290885 27836 net.cpp:382] loss -> loss
…
I0707 23:59:42.337036 27836 net.cpp:296] The NetState phase (1) differed from the phase (0) specified by a rule in layer acc
I0707 23:59:42.341475 27836 net.cpp:53] Initializing net from parameters: 
name: "mouth"
state {
  phase: TEST
}
layer {
  name: "data"
  type: "ImageData"
  top: "data"
  top: "clc-label"
  include {
    phase: TEST
  }
  transform_param {
    mirror: false
    crop_size: 96
    mean_value: 104.008
    mean_value: 116.669
    mean_value: 122.675
    min_side_min: 96
    min_side_max: 128
  }
  image_data_param {
    source: "all_shuffle_val.txt"
    batch_size: 16
    shuffle: false
  }
}
layer {
  name: "conv1"
  type: "Convolution"
  bottom: "data"
  top: "conv1"
  param {
    lr_mult: 1
    decay_mult: 1
  }
  convolution_param {
    num_output: 32
    bias_term: false
    pad: 1
    kernel_size: 3
    stride: 2
    weight_filler {
      type: "msra"
    }
  }
}
layer {
  name: "conv1/bn"
  type: "BatchNorm"
  bottom: "conv1"
  top: "conv1"
  param {
    lr_mult: 0
    decay_mult: 0
  }
  param {
    lr_mult: 0
    decay_mult: 0
  }
  param {
    lr_mult: 0
    decay_mult: 0
  }
  batch_norm_param {
    use_global_stats: false
    eps: 1e-05
  }
}
layer {
  name: "conv1/scale"
  type: "Scale"
  bottom: "conv1"
  top: "conv1"
  param {
    lr_mult: 1
    decay_mult: 0
  }
  param {
    lr_mult: 1
    decay_mult: 0
  }
  scale_param {
    filler {
      value: 1
    }
    bias_term: true
    bias_filler {
      value: 0
    }
  }
}
layer {
  name: "relu1"
  type: "ReLU"
  bottom: "conv1"
  top: "conv1"
}
layer {
  name: "conv2_1/dw"
  type: "Convolution"
  bottom: "conv1"
  top: "conv2_1/dw"
  param {
    lr_mult: 1
    decay_mult: 1
  }
  convolution_param {
    num_output: 32
    bias_term: false
    pad: 1
    kernel_size: 3
    group: 32
    stride: 1
    weight_filler {
      type: "msra"
    }
    engine: CAFFE
  }
}
layer {
  name: "conv2_1/dw/bn"
  type: "BatchNorm"
  bottom: "conv2_1/dw"
  top: "conv2_1/dw"
  param {
    lr_mult: 0
    decay_mult: 0
  }
  param {
    lr_mult: 0
    decay_mult: 0
  }
  param {
    lr_mult: 0
    decay_mult: 0
  }
  batch_norm_param {
    use_global_stats: false
    eps: 1e-05
  }
}
layer {
  name: "conv2_1/dw/scale"
  type: "Scale"
  bottom: "conv2_1/dw"
  top: "conv2_1/dw"
  param {
    lr_mult: 1
    decay_mult: 0
  }
  param {
    lr_mult: 1
    decay_mult: 0
  }
  scale_param {
    filler {
      value: 1
    }
    bias_term: true
    bias_filler {
      value: 0
    }
  }
}
layer {
  name: "relu2_1/dw"
  type: "ReLU"
  bottom: "conv2_1/dw"
  top: "conv2_1/dw"
}
layer {
  name: "conv2_1/sep"
  type: "Convolution"
  bottom: "conv2_1/dw"
  top: "conv2_1/sep"
  param {
    lr_mult: 1
    decay_mult: 1
  }
  convolution_param {
    num_output: 64
    bias_term: false
    pad: 0
    kernel_size: 1
    stride: 1
    weight_filler {
      type: "msra"
    }
  }
}
layer {
  name: "conv2_1/sep/bn"
  type: "BatchNorm"
  bottom: "conv2_1/sep"
  top: "conv2_1/sep"
  param {
    lr_mult: 0
    decay_mult: 0
  }
  param {
    lr_mult: 0
    decay_mult: 0
  }
  param {
    lr_mult: 0
    decay_mult: 0
  }
  batch_norm_param {
    use_global_stats: false
    eps: 1e-05
  }
}
layer {
  name: "conv2_1/sep/scale"
  type: "Scale"
  bottom: "conv2_1/sep"
  top: "conv2_1/sep"
  param {
    lr_mult: 1
    decay_mult: 0
  }
  param {
    lr_mult: 1
    decay_mult: 0
  }
  scale_param {
    filler {
      value: 1
    }
    bias_term: true
    bias_filler {
      value: 0
    }
  }
}
layer {
  name: "relu2_1/sep"
  type: "ReLU"
  bottom: "conv2_1/sep"
  top: "conv2_1/sep"
}
layer {
  name: "conv2_2/dw"
  type: "Convolution"
  bottom: "conv2_1/sep"
  top: "conv2_2/dw"
  param {
    lr_mult: 1
    decay_mult: 1
  }
  convolution_param {
    num_output: 64
    bias_term: false
    pad: 1
    kernel_size: 3
    group: 64
    stride: 2
    weight_filler {
      type: "msra"
    }
    engine: CAFFE
  }
}
layer {
  name: "conv2_2/dw/bn"
  type: "BatchNorm"
  bottom: "conv2_2/dw"
  top: "conv2_2/dw"
  param {
    lr_mult: 0
    decay_mult: 0
  }
  param {
    lr_mult: 0
    decay_mult: 0
  }
  param {
    lr_mult: 0
    decay_mult: 0
  }
  batch_norm_param {
    use_global_stats: false
    eps: 1e-05
  }
}
layer {
  name: "conv2_2/dw/scale"
  type: "Scale"
  bottom: "conv2_2/dw"
  top: "conv2_2/dw"
  param {
    lr_mult: 1
    decay_mult: 0
  }
  param {
    lr_mult: 1
    decay_mult: 0
  }
  scale_param {
    filler {
      value: 1
    }
    bias_term: true
    bias_filler {
      value: 0
    }
  }
}
layer {
  name: "relu2_2/dw"
  type: "ReLU"
  bottom: "conv2_2/dw"
  top: "conv2_2/dw"
}
layer {
  name: "conv2_2/sep"
  type: "Convolution"
  bottom: "conv2_2/dw"
  top: "conv2_2/sep"
  param {
    lr_mult: 1
    decay_mult: 1
  }
  convolution_param {
    num_output: 128
    bias_term: false
    pad: 0
    kernel_size: 1
    stride: 1
    weight_filler {
      type: "msra"
    }
  }
}
layer {
  name: "conv2_2/sep/bn"
  type: "BatchNorm"
  bottom: "conv2_2/sep"
  top: "conv2_2/sep"
  param {
    lr_mult: 0
    decay_mult: 0
  }
  param {
    lr_mult: 0
    decay_mult: 0
  }
  param {
    lr_mult: 0
    decay_mult: 0
  }
  batch_norm_param {
    use_global_stats: false
    eps: 1e-05
  }
}
layer {
  name: "conv2_2/sep/scale"
  type: "Scale"
  bottom: "conv2_2/sep"
  top: "conv2_2/sep"
  param {
    lr_mult: 1
    decay_mult: 0
  }
  param {
    lr_mult: 1
    decay_mult: 0
  }
  scale_param {
    filler {
      value: 1
    }
    bias_term: true
    bias_filler {
      value: 0
    }
  }
}
layer {
  name: "relu2_2/sep"
  type: "ReLU"
  bottom: "conv2_2/sep"
  top: "conv2_2/sep"
}
layer {
  name: "conv3_1/dw"
  type: "Convolution"
  bottom: "conv2_2/sep"
  top: "conv3_1/dw"
  param {
    lr_mult: 1
    decay_mult: 1
  }
  convolution_param {
    num_output: 128
    bias_term: false
    pad: 1
    kernel_size: 3
    group: 128
    stride: 1
    weight_filler {
      type: "msra"
    }
    engine: CAFFE
  }
}
layer {
  name: "conv3_1/dw/bn"
  type: "BatchNorm"
  bottom: "conv3_1/dw"
  top: "conv3_1/dw"
  param {
    lr_mult: 0
    decay_mult: 0
  }
  param {
    lr_mult: 0
    decay_mult: 0
  }
  param {
    lr_mult: 0
    decay_mult: 0
  }
  batch_norm_param {
    use_global_stats: false
    eps: 1e-05
  }
}
layer {
  name: "conv3_1/dw/scale"
  type: "Scale"
  bottom: "conv3_1/dw"
  top: "conv3_1/dw"
  param {
    lr_mult: 1
    decay_mult: 0
  }
  param {
    lr_mult: 1
    decay_mult: 0
  }
  scale_param {
    filler {
      value: 1
    }
    bias_term: true
    bias_filler {
      value: 0
    }
  }
}
layer {
  name: "relu3_1/dw"
  type: "ReLU"
  bottom: "conv3_1/dw"
  top: "conv3_1/dw"
}
layer {
  name: "conv3_1/sep"
  type: "Convolution"
  bottom: "conv3_1/dw"
  top: "conv3_1/sep"
  param {
    lr_mult: 1
    decay_mult: 1
  }
  convolution_param {
    num_output: 128
    bias_term: false
    pad: 0
    kernel_size: 1
    stride: 1
    weight_filler {
      type: "msra"
    }
  }
}
layer {
  name: "conv3_1/sep/bn"
  type: "BatchNorm"
  bottom: "conv3_1/sep"
  top: "conv3_1/sep"
  param {
    lr_mult: 0
    decay_mult: 0
  }
  param {
    lr_mult: 0
    decay_mult: 0
  }
  param {
    lr_mult: 0
    decay_mult: 0
  }
  batch_norm_param {
    use_global_stats: false
    eps: 1e-05
  }
}
layer {
  name: "conv3_1/sep/scale"
  type: "Scale"
  bottom: "conv3_1/sep"
  top: "conv3_1/sep"
  param {
    lr_mult: 1
    decay_mult: 0
  }
  param {
    lr_mult: 1
    decay_mult: 0
  }
  scale_param {
    filler {
      value: 1
    }
    bias_term: true
    bias_filler {
      value: 0
    }
  }
}
layer {
  name: "relu3_1/sep"
  type: "ReLU"
  bottom: "conv3_1/sep"
  top: "conv3_1/sep"
}
layer {
  name: "conv3_2/dw"
  type: "Convolution"
  bottom: "conv3_1/sep"
  top: "conv3_2/dw"
  param {
    lr_mult: 1
    decay_mult: 1
  }
  convolution_param {
    num_output: 128
    bias_term: false
    pad: 1
    kernel_size: 3
    group: 128
    stride: 2
    weight_filler {
      type: "msra"
    }
    engine: CAFFE
  }
}
layer {
  name: "conv3_2/dw/bn"
  type: "BatchNorm"
  bottom: "conv3_2/dw"
  top: "conv3_2/dw"
  param {
    lr_mult: 0
    decay_mult: 0
  }
  param {
    lr_mult: 0
    decay_mult: 0
  }
  param {
    lr_mult: 0
    decay_mult: 0
  }
  batch_norm_param {
    use_global_stats: false
    eps: 1e-05
  }
}
layer {
  name: "conv3_2/dw/scale"
  type: "Scale"
  bottom: "conv3_2/dw"
  top: "conv3_2/dw"
  param {
    lr_mult: 1
    decay_mult: 0
  }
  param {
    lr_mult: 1
    decay_mult: 0
  }
  scale_param {
    filler {
      value: 1
    }
    bias_term: true
    bias_filler {
      value: 0
    }
  }
}
layer {
  name: "relu3_2/dw"
  type: "ReLU"
  bottom: "conv3_2/dw"
  top: "conv3_2/dw"
}
layer {
  name: "conv3_2/sep"
  type: "Convolution"
  bottom: "conv3_2/dw"
  top: "conv3_2/sep"
  param {
    lr_mult: 1
    decay_mult: 1
  }
  convolution_param {
    num_output: 256
    bias_term: false
    pad: 0
    kernel_size: 1
    stride: 1
    weight_filler {
      type: "msra"
    }
  }
}
layer {
  name: "conv3_2/sep/bn"
  type: "BatchNorm"
  bottom: "conv3_2/sep"
  top: "conv3_2/sep"
  param {
    lr_mult: 0
    decay_mult: 0
  }
  param {
    lr_mult: 0
    decay_mult: 0
  }
  param {
    lr_mult: 0
    decay_mult: 0
  }
  batch_norm_param {
    use_global_stats: false
    eps: 1e-05
  }
}
layer {
  name: "conv3_2/sep/scale"
  type: "Scale"
  bottom: "conv3_2/sep"
  top: "conv3_2/sep"
  param {
    lr_mult: 1
    decay_mult: 0
  }
  param {
    lr_mult: 1
    decay_mult: 0
  }
  scale_param {
    filler {
      value: 1
    }
    bias_term: true
    bias_filler {
      value: 0
    }
  }
}
layer {
  name: "relu3_2/sep"
  type: "ReLU"
  bottom: "conv3_2/sep"
  top: "conv3_2/sep"
}
layer {
  name: "conv4_1/dw"
  type: "Convolution"
  bottom: "conv3_2/sep"
  top: "conv4_1/dw"
  param {
    lr_mult: 1
    decay_mult: 1
  }
  convolution_param {
    num_output: 256
    bias_term: false
    pad: 1
    kernel_size: 3
    group: 256
    stride: 1
    weight_filler {
      type: "msra"
    }
    engine: CAFFE
  }
}
layer {
  name: "conv4_1/dw/bn"
  type: "BatchNorm"
  bottom: "conv4_1/dw"
  top: "conv4_1/dw"
  param {
    lr_mult: 0
    decay_mult: 0
  }
  param {
    lr_mult: 0
    decay_mult: 0
  }
  param {
    lr_mult: 0
    decay_mult: 0
  }
  batch_norm_param {
    use_global_stats: false
    eps: 1e-05
  }
}
layer {
  name: "conv4_1/dw/scale"
  type: "Scale"
  bottom: "conv4_1/dw"
  top: "conv4_1/dw"
  param {
    lr_mult: 1
    decay_mult: 0
  }
  param {
    lr_mult: 1
    decay_mult: 0
  }
  scale_param {
    filler {
      value: 1
    }
    bias_term: true
    bias_filler {
      value: 0
    }
  }
}
layer {
  name: "relu4_1/dw"
  type: "ReLU"
  bottom: "conv4_1/dw"
  top: "conv4_1/dw"
}
layer {
  name: "conv4_1/sep"
  type: "Convolution"
  bottom: "conv4_1/dw"
  top: "conv4_1/sep"
  param {
    lr_mult: 1
    decay_mult: 1
  }
  convolution_param {
    num_output: 256
    bias_term: false
    pad: 0
    kernel_size: 1
    stride: 1
    weight_filler {
      type: "msra"
    }
  }
}
layer {
  name: "conv4_1/sep/bn"
  type: "BatchNorm"
  bottom: "conv4_1/sep"
  top: "conv4_1/sep"
  param {
    lr_mult: 0
    decay_mult: 0
  }
  param {
    lr_mult: 0
    decay_mult: 0
  }
  param {
    lr_mult: 0
    decay_mult: 0
  }
  batch_norm_param {
    use_global_stats: false
    eps: 1e-05
  }
}
layer {
  name: "conv4_1/sep/scale"
  type: "Scale"
  bottom: "conv4_1/sep"
  top: "conv4_1/sep"
  param {
    lr_mult: 1
    decay_mult: 0
  }
  param {
    lr_mult: 1
    decay_mult: 0
  }
  scale_param {
    filler {
      value: 1
    }
    bias_term: true
    bias_filler {
      value: 0
    }
  }
}
layer {
  name: "relu4_1/sep"
  type: "ReLU"
  bottom: "conv4_1/sep"
  top: "conv4_1/sep"
}
layer {
  name: "conv4_2/dw"
  type: "Convolution"
  bottom: "conv4_1/sep"
  top: "conv4_2/dw"
  param {
    lr_mult: 1
    decay_mult: 1
  }
  convolution_param {
    num_output: 256
    bias_term: false
    pad: 1
    kernel_size: 3
    group: 256
    stride: 2
    weight_filler {
      type: "msra"
    }
    engine: CAFFE
  }
}
layer {
  name: "conv4_2/dw/bn"
  type: "BatchNorm"
  bottom: "conv4_2/dw"
  top: "conv4_2/dw"
  param {
    lr_mult: 0
    decay_mult: 0
  }
  param {
    lr_mult: 0
    decay_mult: 0
  }
  param {
    lr_mult: 0
    decay_mult: 0
  }
  batch_norm_param {
    use_global_stats: false
    eps: 1e-05
  }
}
layer {
  name: "conv4_2/dw/scale"
  type: "Scale"
  bottom: "conv4_2/dw"
  top: "conv4_2/dw"
  param {
    lr_mult: 1
    decay_mult: 0
  }
  param {
    lr_mult: 1
    decay_mult: 0
  }
  scale_param {
    filler {
      value: 1
    }
    bias_term: true
    bias_filler {
      value: 0
    }
  }
}
layer {
  name: "relu4_2/dw"
  type: "ReLU"
  bottom: "conv4_2/dw"
  top: "conv4_2/dw"
}
layer {
  name: "conv4_2/sep"
  type: "Convolution"
  bottom: "conv4_2/dw"
  top: "conv4_2/sep"
  param {
    lr_mult: 1
    decay_mult: 1
  }
  convolution_param {
    num_output: 512
    bias_term: false
    pad: 0
    kernel_size: 1
    stride: 1
    weight_filler {
      type: "msra"
    }
  }
}
layer {
  name: "conv4_2/sep/bn"
  type: "BatchNorm"
  bottom: "conv4_2/sep"
  top: "conv4_2/sep"
  param {
    lr_mult: 0
    decay_mult: 0
  }
  param {
    lr_mult: 0
    decay_mult: 0
  }
  param {
    lr_mult: 0
    decay_mult: 0
  }
  batch_norm_param {
    use_global_stats: false
    eps: 1e-05
  }
}
layer {
  name: "conv4_2/sep/scale"
  type: "Scale"
  bottom: "conv4_2/sep"
  top: "conv4_2/sep"
  param {
    lr_mult: 1
    decay_mult: 0
  }
  param {
    lr_mult: 1
    decay_mult: 0
  }
  scale_param {
    filler {
      value: 1
    }
    bias_term: true
    bias_filler {
      value: 0
    }
  }
}
layer {
  name: "relu4_2/sep"
  type: "ReLU"
  bottom: "conv4_2/sep"
  top: "conv4_2/sep"
}
layer {
  name: "conv5_1/dw"
  type: "Convolution"
  bottom: "conv4_2/sep"
  top: "conv5_1/dw"
  param {
    lr_mult: 1
    decay_mult: 1
  }
  convolution_param {
    num_output: 512
    bias_term: false
    pad: 1
    kernel_size: 3
    group: 512
    stride: 1
    weight_filler {
      type: "msra"
    }
    engine: CAFFE
  }
}
layer {
  name: "conv5_1/dw/bn"
  type: "BatchNorm"
  bottom: "conv5_1/dw"
  top: "conv5_1/dw"
  param {
    lr_mult: 0
    decay_mult: 0
  }
  param {
    lr_mult: 0
    decay_mult: 0
  }
  param {
    lr_mult: 0
    decay_mult: 0
  }
  batch_norm_param {
    use_global_stats: false
    eps: 1e-05
  }
}
layer {
  name: "conv5_1/dw/scale"
  type: "Scale"
  bottom: "conv5_1/dw"
  top: "conv5_1/dw"
  param {
    lr_mult: 1
    decay_mult: 0
  }
  param {
    lr_mult: 1
    decay_mult: 0
  }
  scale_param {
    filler {
      value: 1
    }
    bias_term: true
    bias_filler {
      value: 0
    }
  }
}
layer {
  name: "relu5_1/dw"
  type: "ReLU"
  bottom: "conv5_1/dw"
  top: "conv5_1/dw"
}
layer {
  name: "conv5_1/sep"
  type: "Convolution"
  bottom: "conv5_1/dw"
  top: "conv5_1/sep"
  param {
    lr_mult: 1
    decay_mult: 1
  }
  convolution_param {
    num_output: 512
    bias_term: false
    pad: 0
    kernel_size: 1
    stride: 1
    weight_filler {
      type: "msra"
    }
  }
}
layer {
  name: "conv5_1/sep/bn"
  type: "BatchNorm"
  bottom: "conv5_1/sep"
  top: "conv5_1/sep"
  param {
    lr_mult: 0
    decay_mult: 0
  }
  param {
    lr_mult: 0
    decay_mult: 0
  }
  param {
    lr_mult: 0
    decay_mult: 0
  }
  batch_norm_param {
    use_global_stats: false
    eps: 1e-05
  }
}
layer {
  name: "conv5_1/sep/scale"
  type: "Scale"
  bottom: "conv5_1/sep"
  top: "conv5_1/sep"
  param {
    lr_mult: 1
    decay_mult: 0
  }
  param {
    lr_mult: 1
    decay_mult: 0
  }
  scale_param {
    filler {
      value: 1
    }
    bias_term: true
    bias_filler {
      value: 0
    }
  }
}
layer {
  name: "relu5_1/sep"
  type: "ReLU"
  bottom: "conv5_1/sep"
  top: "conv5_1/sep"
}
layer {
  name: "conv5_2/dw"
  type: "Convolution"
  bottom: "conv5_1/sep"
  top: "conv5_2/dw"
  param {
    lr_mult: 1
    decay_mult: 1
  }
  convolution_param {
    num_output: 512
    bias_term: false
    pad: 1
    kernel_size: 3
    group: 512
    stride: 1
    weight_filler {
      type: "msra"
    }
    engine: CAFFE
  }
}
layer {
  name: "conv5_2/dw/bn"
  type: "BatchNorm"
  bottom: "conv5_2/dw"
  top: "conv5_2/dw"
  param {
    lr_mult: 0
    decay_mult: 0
  }
  param {
    lr_mult: 0
    decay_mult: 0
  }
  param {
    lr_mult: 0
    decay_mult: 0
  }
  batch_norm_param {
    use_global_stats: false
    eps: 1e-05
  }
}
layer {
  name: "conv5_2/dw/scale"
  type: "Scale"
  bottom: "conv5_2/dw"
  top: "conv5_2/dw"
  param {
    lr_mult: 1
    decay_mult: 0
  }
  param {
    lr_mult: 1
    decay_mult: 0
  }
  scale_param {
    filler {
      value: 1
    }
    bias_term: true
    bias_filler {
      value: 0
    }
  }
}
layer {
  name: "relu5_2/dw"
  type: "ReLU"
  bottom: "conv5_2/dw"
  top: "conv5_2/dw"
}
layer {
  name: "conv5_2/sep"
  type: "Convolution"
  bottom: "conv5_2/dw"
  top: "conv5_2/sep"
  param {
    lr_mult: 1
    decay_mult: 1
  }
  convolution_param {
    num_output: 512
    bias_term: false
    pad: 0
    kernel_size: 1
    stride: 1
    weight_filler {
      type: "msra"
    }
  }
}
layer {
  name: "conv5_2/sep/bn"
  type: "BatchNorm"
  bottom: "conv5_2/sep"
  top: "conv5_2/sep"
  param {
    lr_mult: 0
    decay_mult: 0
  }
  param {
    lr_mult: 0
    decay_mult: 0
  }
  param {
    lr_mult: 0
    decay_mult: 0
  }
  batch_norm_param {
    use_global_stats: false
    eps: 1e-05
  }
}
layer {
  name: "conv5_2/sep/scale"
  type: "Scale"
  bottom: "conv5_2/sep"
  top: "conv5_2/sep"
  param {
    lr_mult: 1
    decay_mult: 0
  }
  param {
    lr_mult: 1
    decay_mult: 0
  }
  scale_param {
    filler {
      value: 1
    }
    bias_term: true
    bias_filler {
      value: 0
    }
  }
}
layer {
  name: "relu5_2/sep"
  type: "ReLU"
  bottom: "conv5_2/sep"
  top: "conv5_2/sep"
}
layer {
  name: "conv5_3/dw"
  type: "Convolution"
  bottom: "conv5_2/sep"
  top: "conv5_3/dw"
  param {
    lr_mult: 1
    decay_mult: 1
  }
  convolution_param {
    num_output: 512
    bias_term: false
    pad: 1
    kernel_size: 3
    group: 512
    stride: 1
    weight_filler {
      type: "msra"
    }
    engine: CAFFE
  }
}
layer {
  name: "conv5_3/dw/bn"
  type: "BatchNorm"
  bottom: "conv5_3/dw"
  top: "conv5_3/dw"
  param {
    lr_mult: 0
    decay_mult: 0
  }
  param {
    lr_mult: 0
    decay_mult: 0
  }
  param {
    lr_mult: 0
    decay_mult: 0
  }
  batch_norm_param {
    use_global_stats: false
    eps: 1e-05
  }
}
layer {
  name: "conv5_3/dw/scale"
  type: "Scale"
  bottom: "conv5_3/dw"
  top: "conv5_3/dw"
  param {
    lr_mult: 1
    decay_mult: 0
  }
  param {
    lr_mult: 1
    decay_mult: 0
  }
  scale_param {
    filler {
      value: 1
    }
    bias_term: true
    bias_filler {
      value: 0
    }
  }
}
layer {
  name: "relu5_3/dw"
  type: "ReLU"
  bottom: "conv5_3/dw"
  top: "conv5_3/dw"
}
layer {
  name: "conv5_3/sep"
  type: "Convolution"
  bottom: "conv5_3/dw"
  top: "conv5_3/sep"
  param {
    lr_mult: 1
    decay_mult: 1
  }
  convolution_param {
    num_output: 512
    bias_term: false
    pad: 0
    kernel_size: 1
    stride: 1
    weight_filler {
      type: "msra"
    }
  }
}
layer {
  name: "conv5_3/sep/bn"
  type: "BatchNorm"
  bottom: "conv5_3/sep"
  top: "conv5_3/sep"
  param {
    lr_mult: 0
    decay_mult: 0
  }
  param {
    lr_mult: 0
    decay_mult: 0
  }
  param {
    lr_mult: 0
    decay_mult: 0
  }
  batch_norm_param {
    use_global_stats: false
    eps: 1e-05
  }
}
layer {
  name: "conv5_3/sep/scale"
  type: "Scale"
  bottom: "conv5_3/sep"
  top: "conv5_3/sep"
  param {
    lr_mult: 1
    decay_mult: 0
  }
  param {
    lr_mult: 1
    decay_mult: 0
  }
  scale_param {
    filler {
      value: 1
    }
    bias_term: true
    bias_filler {
      value: 0
    }
  }
}
layer {
  name: "relu5_3/sep"
  type: "ReLU"
  bottom: "conv5_3/sep"
  top: "conv5_3/sep"
}
layer {
  name: "conv5_4/dw"
  type: "Convolution"
  bottom: "conv5_3/sep"
  top: "conv5_4/dw"
  param {
    lr_mult: 1
    decay_mult: 1
  }
  convolution_param {
    num_output: 512
    bias_term: false
    pad: 1
    kernel_size: 3
    group: 512
    stride: 1
    weight_filler {
      type: "msra"
    }
    engine: CAFFE
  }
}
layer {
  name: "conv5_4/dw/bn"
  type: "BatchNorm"
  bottom: "conv5_4/dw"
  top: "conv5_4/dw"
  param {
    lr_mult: 0
    decay_mult: 0
  }
  param {
    lr_mult: 0
    decay_mult: 0
  }
  param {
    lr_mult: 0
    decay_mult: 0
  }
  batch_norm_param {
    use_global_stats: false
    eps: 1e-05
  }
}
layer {
  name: "conv5_4/dw/scale"
  type: "Scale"
  bottom: "conv5_4/dw"
  top: "conv5_4/dw"
  param {
    lr_mult: 1
    decay_mult: 0
  }
  param {
    lr_mult: 1
    decay_mult: 0
  }
  scale_param {
    filler {
      value: 1
    }
    bias_term: true
    bias_filler {
      value: 0
    }
  }
}
layer {
  name: "relu5_4/dw"
  type: "ReLU"
  bottom: "conv5_4/dw"
  top: "conv5_4/dw"
}
layer {
  name: "conv5_4/sep"
  type: "Convolution"
  bottom: "conv5_4/dw"
  top: "conv5_4/sep"
  param {
    lr_mult: 1
    decay_mult: 1
  }
  convolution_param {
    num_output: 512
    bias_term: false
    pad: 0
    kernel_size: 1
    stride: 1
    weight_filler {
      type: "msra"
    }
  }
}
layer {
  name: "conv5_4/sep/bn"
  type: "BatchNorm"
  bottom: "conv5_4/sep"
  top: "conv5_4/sep"
  param {
    lr_mult: 0
    decay_mult: 0
  }
  param {
    lr_mult: 0
    decay_mult: 0
  }
  param {
    lr_mult: 0
    decay_mult: 0
  }
  batch_norm_param {
    use_global_stats: false
    eps: 1e-05
  }
}
layer {
  name: "conv5_4/sep/scale"
  type: "Scale"
  bottom: "conv5_4/sep"
  top: "conv5_4/sep"
  param {
    lr_mult: 1
    decay_mult: 0
  }
  param {
    lr_mult: 1
    decay_mult: 0
  }
  scale_param {
    filler {
      value: 1
    }
    bias_term: true
    bias_filler {
      value: 0
    }
  }
}
layer {
  name: "relu5_4/sep"
  type: "ReLU"
  bottom: "conv5_4/sep"
  top: "conv5_4/sep"
}
layer {
  name: "conv5_5/dw"
  type: "Convolution"
  bottom: "conv5_4/sep"
  top: "conv5_5/dw"
  param {
    lr_mult: 1
    decay_mult: 1
  }
  convolution_param {
    num_output: 512
    bias_term: false
    pad: 1
    kernel_size: 3
    group: 512
    stride: 1
    weight_filler {
      type: "msra"
    }
    engine: CAFFE
  }
}
layer {
  name: "conv5_5/dw/bn"
  type: "BatchNorm"
  bottom: "conv5_5/dw"
  top: "conv5_5/dw"
  param {
    lr_mult: 0
    decay_mult: 0
  }
  param {
    lr_mult: 0
    decay_mult: 0
  }
  param {
    lr_mult: 0
    decay_mult: 0
  }
  batch_norm_param {
    use_global_stats: false
    eps: 1e-05
  }
}
layer {
  name: "conv5_5/dw/scale"
  type: "Scale"
  bottom: "conv5_5/dw"
  top: "conv5_5/dw"
  param {
    lr_mult: 1
    decay_mult: 0
  }
  param {
    lr_mult: 1
    decay_mult: 0
  }
  scale_param {
    filler {
      value: 1
    }
    bias_term: true
    bias_filler {
      value: 0
    }
  }
}
layer {
  name: "relu5_5/dw"
  type: "ReLU"
  bottom: "conv5_5/dw"
  top: "conv5_5/dw"
}
layer {
  name: "conv5_5/sep"
  type: "Convolution"
  bottom: "conv5_5/dw"
  top: "conv5_5/sep"
  param {
    lr_mult: 1
    decay_mult: 1
  }
  convolution_param {
    num_output: 512
    bias_term: false
    pad: 0
    kernel_size: 1
    stride: 1
    weight_filler {
      type: "msra"
    }
  }
}
layer {
  name: "conv5_5/sep/bn"
  type: "BatchNorm"
  bottom: "conv5_5/sep"
  top: "conv5_5/sep"
  param {
    lr_mult: 0
    decay_mult: 0
  }
  param {
    lr_mult: 0
    decay_mult: 0
  }
  param {
    lr_mult: 0
    decay_mult: 0
  }
  batch_norm_param {
    use_global_stats: false
    eps: 1e-05
  }
}
layer {
  name: "conv5_5/sep/scale"
  type: "Scale"
  bottom: "conv5_5/sep"
  top: "conv5_5/sep"
  param {
    lr_mult: 1
    decay_mult: 0
  }
  param {
    lr_mult: 1
    decay_mult: 0
  }
  scale_param {
    filler {
      value: 1
    }
    bias_term: true
    bias_filler {
      value: 0
    }
  }
}
layer {
  name: "relu5_5/sep"
  type: "ReLU"
  bottom: "conv5_5/sep"
  top: "conv5_5/sep"
}
layer {
  name: "pool6"
  type: "Pooling"
  bottom: "conv5_5/sep"
  top: "pool6"
  pooling_param {
    pool: AVE
    global_pooling: true
  }
}
layer {
  name: "fc7-mouth"
  type: "Convolution"
  bottom: "pool6"
  top: "fc7-mouth"
  param {
    lr_mult: 1
    decay_mult: 1
  }
  param {
    lr_mult: 2
    decay_mult: 0
  }
  convolution_param {
    num_output: 4
    kernel_size: 1
    weight_filler {
      type: "msra"
    }
    bias_filler {
      type: "constant"
      value: 0
    }
  }
}
layer {
  name: "loss"
  type: "SoftmaxWithLoss"
  bottom: "fc7-mouth"
  bottom: "clc-label"
  top: "loss"
}
layer {
  name: "acc"
  type: "Accuracy"
  bottom: "fc7-mouth"
  bottom: "clc-label"
  top: "acc"
  include {
    phase: TRAIN
  }
  include {
    phase: TEST
  }
}
I0707 23:59:42.342089 27836 layer_factory.hpp:77] Creating layer data
I0707 23:59:42.343549 27836 net.cpp:86] Creating Layer data
I0707 23:59:42.343570 27836 net.cpp:382] data -> data
I0707 23:59:42.343595 27836 net.cpp:382] data -> clc-label
I0707 23:59:42.343611 27836 image_data_layer.cpp:38] Opening file all_shuffle_val.txt
I0707 23:59:42.359568 27836 image_data_layer.cpp:63] A total of 1510 images.
I0707 23:59:42.419469 27836 image_data_layer.cpp:90] output data size: 16,3,96,96
I0707 23:59:42.452217 27836 net.cpp:124] Setting up data
I0707 23:59:42.452266 27836 net.cpp:131] Top shape: 16 3 96 96 (442368)
I0707 23:59:42.452276 27836 net.cpp:131] Top shape: 16 (16)
I0707 23:59:42.452283 27836 net.cpp:139] Memory required for data: 1769536
I0707 23:59:42.452298 27836 layer_factory.hpp:77] Creating layer clc-label_data_1_split
I0707 23:59:42.452328 27836 net.cpp:86] Creating Layer clc-label_data_1_split
I0707 23:59:42.452344 27836 net.cpp:408] clc-label_data_1_split <- clc-label
I0707 23:59:42.452358 27836 net.cpp:382] clc-label_data_1_split -> clc-label_data_1_split_0
I0707 23:59:42.452376 27836 net.cpp:382] clc-label_data_1_split -> clc-label_data_1_split_1
I0707 23:59:42.452508 27836 net.cpp:124] Setting up clc-label_data_1_split
I0707 23:59:42.452533 27836 net.cpp:131] Top shape: 16 (16)
I0707 23:59:42.452548 27836 net.cpp:131] Top shape: 16 (16)
I0707 23:59:42.452554 27836 net.cpp:139] Memory required for data: 1769664
I0707 23:59:42.452561 27836 layer_factory.hpp:77] Creating layer conv1
I0707 23:59:42.452595 27836 net.cpp:86] Creating Layer conv1
I0707 23:59:42.452612 27836 net.cpp:408] conv1 <- data
I0707 23:59:42.452632 27836 net.cpp:382] conv1 -> conv1
I0707 23:59:42.455286 27836 net.cpp:124] Setting up conv1
I0707 23:59:42.455305 27836 net.cpp:131] Top shape: 16 32 48 48 (1179648)
I0707 23:59:42.455310 27836 net.cpp:139] Memory required for data: 6488256
I0707 23:59:42.455322 27836 layer_factory.hpp:77] Creating layer conv1/bn
I0707 23:59:42.455333 27836 net.cpp:86] Creating Layer conv1/bn
I0707 23:59:42.455338 27836 net.cpp:408] conv1/bn <- conv1
I0707 23:59:42.455346 27836 net.cpp:369] conv1/bn -> conv1 (in-place)
I0707 23:59:42.455600 27836 net.cpp:124] Setting up conv1/bn
I0707 23:59:42.455613 27836 net.cpp:131] Top shape: 16 32 48 48 (1179648)
I0707 23:59:42.455617 27836 net.cpp:139] Memory required for data: 11206848
I0707 23:59:42.455649 27836 layer_factory.hpp:77] Creating layer conv1/scale
I0707 23:59:42.455660 27836 net.cpp:86] Creating Layer conv1/scale
I0707 23:59:42.455665 27836 net.cpp:408] conv1/scale <- conv1
I0707 23:59:42.455672 27836 net.cpp:369] conv1/scale -> conv1 (in-place)
I0707 23:59:42.455745 27836 layer_factory.hpp:77] Creating layer conv1/scale
I0707 23:59:42.455904 27836 net.cpp:124] Setting up conv1/scale
I0707 23:59:42.455914 27836 net.cpp:131] Top shape: 16 32 48 48 (1179648)
I0707 23:59:42.455919 27836 net.cpp:139] Memory required for data: 15925440
I0707 23:59:42.455927 27836 layer_factory.hpp:77] Creating layer relu1
I0707 23:59:42.455937 27836 net.cpp:86] Creating Layer relu1
I0707 23:59:42.455945 27836 net.cpp:408] relu1 <- conv1
I0707 23:59:42.455955 27836 net.cpp:369] relu1 -> conv1 (in-place)
I0707 23:59:42.456519 27836 net.cpp:124] Setting up relu1
I0707 23:59:42.456532 27836 net.cpp:131] Top shape: 16 32 48 48 (1179648)
I0707 23:59:42.456537 27836 net.cpp:139] Memory required for data: 20644032
I0707 23:59:42.456542 27836 layer_factory.hpp:77] Creating layer conv2_1/dw
I0707 23:59:42.456557 27836 net.cpp:86] Creating Layer conv2_1/dw
I0707 23:59:42.456568 27836 net.cpp:408] conv2_1/dw <- conv1
I0707 23:59:42.456585 27836 net.cpp:382] conv2_1/dw -> conv2_1/dw
I0707 23:59:42.456835 27836 net.cpp:124] Setting up conv2_1/dw
I0707 23:59:42.456845 27836 net.cpp:131] Top shape: 16 32 48 48 (1179648)
I0707 23:59:42.456851 27836 net.cpp:139] Memory required for data: 25362624
I0707 23:59:42.456862 27836 layer_factory.hpp:77] Creating layer conv2_1/dw/bn
I0707 23:59:42.456876 27836 net.cpp:86] Creating Layer conv2_1/dw/bn
I0707 23:59:42.456887 27836 net.cpp:408] conv2_1/dw/bn <- conv2_1/dw
I0707 23:59:42.456898 27836 net.cpp:369] conv2_1/dw/bn -> conv2_1/dw (in-place)
I0707 23:59:42.457126 27836 net.cpp:124] Setting up conv2_1/dw/bn
I0707 23:59:42.457136 27836 net.cpp:131] Top shape: 16 32 48 48 (1179648)
I0707 23:59:42.457142 27836 net.cpp:139] Memory required for data: 30081216
I0707 23:59:42.457152 27836 layer_factory.hpp:77] Creating layer conv2_1/dw/scale
I0707 23:59:42.457162 27836 net.cpp:86] Creating Layer conv2_1/dw/scale
I0707 23:59:42.457167 27836 net.cpp:408] conv2_1/dw/scale <- conv2_1/dw
I0707 23:59:42.457181 27836 net.cpp:369] conv2_1/dw/scale -> conv2_1/dw (in-place)
I0707 23:59:42.457283 27836 layer_factory.hpp:77] Creating layer conv2_1/dw/scale
I0707 23:59:42.457446 27836 net.cpp:124] Setting up conv2_1/dw/scale
I0707 23:59:42.457458 27836 net.cpp:131] Top shape: 16 32 48 48 (1179648)
I0707 23:59:42.457463 27836 net.cpp:139] Memory required for data: 34799808
I0707 23:59:42.457476 27836 layer_factory.hpp:77] Creating layer relu2_1/dw
I0707 23:59:42.457489 27836 net.cpp:86] Creating Layer relu2_1/dw
I0707 23:59:42.457499 27836 net.cpp:408] relu2_1/dw <- conv2_1/dw
I0707 23:59:42.457511 27836 net.cpp:369] relu2_1/dw -> conv2_1/dw (in-place)
I0707 23:59:42.458417 27836 net.cpp:124] Setting up relu2_1/dw
I0707 23:59:42.458431 27836 net.cpp:131] Top shape: 16 32 48 48 (1179648)
I0707 23:59:42.458438 27836 net.cpp:139] Memory required for data: 39518400
I0707 23:59:42.458447 27836 layer_factory.hpp:77] Creating layer conv2_1/sep
I0707 23:59:42.458467 27836 net.cpp:86] Creating Layer conv2_1/sep
I0707 23:59:42.458477 27836 net.cpp:408] conv2_1/sep <- conv2_1/dw
I0707 23:59:42.458492 27836 net.cpp:382] conv2_1/sep -> conv2_1/sep
I0707 23:59:42.461020 27836 net.cpp:124] Setting up conv2_1/sep
I0707 23:59:42.461040 27836 net.cpp:131] Top shape: 16 64 48 48 (2359296)
I0707 23:59:42.461048 27836 net.cpp:139] Memory required for data: 48955584
I0707 23:59:42.461064 27836 layer_factory.hpp:77] Creating layer conv2_1/sep/bn
I0707 23:59:42.461083 27836 net.cpp:86] Creating Layer conv2_1/sep/bn
I0707 23:59:42.461098 27836 net.cpp:408] conv2_1/sep/bn <- conv2_1/sep
I0707 23:59:42.461115 27836 net.cpp:369] conv2_1/sep/bn -> conv2_1/sep (in-place)
I0707 23:59:42.461472 27836 net.cpp:124] Setting up conv2_1/sep/bn
I0707 23:59:42.461488 27836 net.cpp:131] Top shape: 16 64 48 48 (2359296)
I0707 23:59:42.461494 27836 net.cpp:139] Memory required for data: 58392768
I0707 23:59:42.461541 27836 layer_factory.hpp:77] Creating layer conv2_1/sep/scale
I0707 23:59:42.461560 27836 net.cpp:86] Creating Layer conv2_1/sep/scale
I0707 23:59:42.461570 27836 net.cpp:408] conv2_1/sep/scale <- conv2_1/sep
I0707 23:59:42.461599 27836 net.cpp:369] conv2_1/sep/scale -> conv2_1/sep (in-place)
I0707 23:59:42.461694 27836 layer_factory.hpp:77] Creating layer conv2_1/sep/scale
I0707 23:59:42.461859 27836 net.cpp:124] Setting up conv2_1/sep/scale
I0707 23:59:42.461870 27836 net.cpp:131] Top shape: 16 64 48 48 (2359296)
I0707 23:59:42.461875 27836 net.cpp:139] Memory required for data: 67829952
I0707 23:59:42.461897 27836 layer_factory.hpp:77] Creating layer relu2_1/sep
I0707 23:59:42.461910 27836 net.cpp:86] Creating Layer relu2_1/sep
I0707 23:59:42.461920 27836 net.cpp:408] relu2_1/sep <- conv2_1/sep
I0707 23:59:42.461931 27836 net.cpp:369] relu2_1/sep -> conv2_1/sep (in-place)
I0707 23:59:42.462465 27836 net.cpp:124] Setting up relu2_1/sep
I0707 23:59:42.462478 27836 net.cpp:131] Top shape: 16 64 48 48 (2359296)
I0707 23:59:42.462486 27836 net.cpp:139] Memory required for data: 77267136
I0707 23:59:42.462496 27836 layer_factory.hpp:77] Creating layer conv2_2/dw
I0707 23:59:42.462510 27836 net.cpp:86] Creating Layer conv2_2/dw
I0707 23:59:42.462522 27836 net.cpp:408] conv2_2/dw <- conv2_1/sep
I0707 23:59:42.462538 27836 net.cpp:382] conv2_2/dw -> conv2_2/dw
I0707 23:59:42.462790 27836 net.cpp:124] Setting up conv2_2/dw
I0707 23:59:42.462800 27836 net.cpp:131] Top shape: 16 64 24 24 (589824)
I0707 23:59:42.462806 27836 net.cpp:139] Memory required for data: 79626432
I0707 23:59:42.462818 27836 layer_factory.hpp:77] Creating layer conv2_2/dw/bn
I0707 23:59:42.462831 27836 net.cpp:86] Creating Layer conv2_2/dw/bn
I0707 23:59:42.462841 27836 net.cpp:408] conv2_2/dw/bn <- conv2_2/dw
I0707 23:59:42.462854 27836 net.cpp:369] conv2_2/dw/bn -> conv2_2/dw (in-place)
I0707 23:59:42.463083 27836 net.cpp:124] Setting up conv2_2/dw/bn
I0707 23:59:42.463093 27836 net.cpp:131] Top shape: 16 64 24 24 (589824)
I0707 23:59:42.463099 27836 net.cpp:139] Memory required for data: 81985728
I0707 23:59:42.463114 27836 layer_factory.hpp:77] Creating layer conv2_2/dw/scale
I0707 23:59:42.463133 27836 net.cpp:86] Creating Layer conv2_2/dw/scale
I0707 23:59:42.463145 27836 net.cpp:408] conv2_2/dw/scale <- conv2_2/dw
I0707 23:59:42.463157 27836 net.cpp:369] conv2_2/dw/scale -> conv2_2/dw (in-place)
I0707 23:59:42.463225 27836 layer_factory.hpp:77] Creating layer conv2_2/dw/scale
I0707 23:59:42.463382 27836 net.cpp:124] Setting up conv2_2/dw/scale
I0707 23:59:42.463393 27836 net.cpp:131] Top shape: 16 64 24 24 (589824)
I0707 23:59:42.463397 27836 net.cpp:139] Memory required for data: 84345024
I0707 23:59:42.463404 27836 layer_factory.hpp:77] Creating layer relu2_2/dw
I0707 23:59:42.463410 27836 net.cpp:86] Creating Layer relu2_2/dw
I0707 23:59:42.463414 27836 net.cpp:408] relu2_2/dw <- conv2_2/dw
I0707 23:59:42.463420 27836 net.cpp:369] relu2_2/dw -> conv2_2/dw (in-place)
I0707 23:59:42.464329 27836 net.cpp:124] Setting up relu2_2/dw
I0707 23:59:42.464342 27836 net.cpp:131] Top shape: 16 64 24 24 (589824)
I0707 23:59:42.464347 27836 net.cpp:139] Memory required for data: 86704320
I0707 23:59:42.464351 27836 layer_factory.hpp:77] Creating layer conv2_2/sep
I0707 23:59:42.464363 27836 net.cpp:86] Creating Layer conv2_2/sep
I0707 23:59:42.464368 27836 net.cpp:408] conv2_2/sep <- conv2_2/dw
I0707 23:59:42.464375 27836 net.cpp:382] conv2_2/sep -> conv2_2/sep
I0707 23:59:42.466820 27836 net.cpp:124] Setting up conv2_2/sep
I0707 23:59:42.466845 27836 net.cpp:131] Top shape: 16 128 24 24 (1179648)
I0707 23:59:42.466856 27836 net.cpp:139] Memory required for data: 91422912
I0707 23:59:42.466866 27836 layer_factory.hpp:77] Creating layer conv2_2/sep/bn
I0707 23:59:42.466876 27836 net.cpp:86] Creating Layer conv2_2/sep/bn
I0707 23:59:42.466881 27836 net.cpp:408] conv2_2/sep/bn <- conv2_2/sep
I0707 23:59:42.466892 27836 net.cpp:369] conv2_2/sep/bn -> conv2_2/sep (in-place)
I0707 23:59:42.467130 27836 net.cpp:124] Setting up conv2_2/sep/bn
I0707 23:59:42.467161 27836 net.cpp:131] Top shape: 16 128 24 24 (1179648)
I0707 23:59:42.467166 27836 net.cpp:139] Memory required for data: 96141504
I0707 23:59:42.467178 27836 layer_factory.hpp:77] Creating layer conv2_2/sep/scale
I0707 23:59:42.467193 27836 net.cpp:86] Creating Layer conv2_2/sep/scale
I0707 23:59:42.467203 27836 net.cpp:408] conv2_2/sep/scale <- conv2_2/sep
I0707 23:59:42.467218 27836 net.cpp:369] conv2_2/sep/scale -> conv2_2/sep (in-place)
I0707 23:59:42.467288 27836 layer_factory.hpp:77] Creating layer conv2_2/sep/scale
I0707 23:59:42.467437 27836 net.cpp:124] Setting up conv2_2/sep/scale
I0707 23:59:42.467448 27836 net.cpp:131] Top shape: 16 128 24 24 (1179648)
I0707 23:59:42.467454 27836 net.cpp:139] Memory required for data: 100860096
I0707 23:59:42.467468 27836 layer_factory.hpp:77] Creating layer relu2_2/sep
I0707 23:59:42.467481 27836 net.cpp:86] Creating Layer relu2_2/sep
I0707 23:59:42.467491 27836 net.cpp:408] relu2_2/sep <- conv2_2/sep
I0707 23:59:42.467504 27836 net.cpp:369] relu2_2/sep -> conv2_2/sep (in-place)
I0707 23:59:42.468389 27836 net.cpp:124] Setting up relu2_2/sep
I0707 23:59:42.468401 27836 net.cpp:131] Top shape: 16 128 24 24 (1179648)
I0707 23:59:42.468410 27836 net.cpp:139] Memory required for data: 105578688
I0707 23:59:42.468417 27836 layer_factory.hpp:77] Creating layer conv3_1/dw
I0707 23:59:42.468438 27836 net.cpp:86] Creating Layer conv3_1/dw
I0707 23:59:42.468449 27836 net.cpp:408] conv3_1/dw <- conv2_2/sep
I0707 23:59:42.468462 27836 net.cpp:382] conv3_1/dw -> conv3_1/dw
I0707 23:59:42.468701 27836 net.cpp:124] Setting up conv3_1/dw
I0707 23:59:42.468713 27836 net.cpp:131] Top shape: 16 128 24 24 (1179648)
I0707 23:59:42.468719 27836 net.cpp:139] Memory required for data: 110297280
I0707 23:59:42.468730 27836 layer_factory.hpp:77] Creating layer conv3_1/dw/bn
I0707 23:59:42.468746 27836 net.cpp:86] Creating Layer conv3_1/dw/bn
I0707 23:59:42.468756 27836 net.cpp:408] conv3_1/dw/bn <- conv3_1/dw
I0707 23:59:42.468770 27836 net.cpp:369] conv3_1/dw/bn -> conv3_1/dw (in-place)
I0707 23:59:42.468988 27836 net.cpp:124] Setting up conv3_1/dw/bn
I0707 23:59:42.468998 27836 net.cpp:131] Top shape: 16 128 24 24 (1179648)
I0707 23:59:42.469003 27836 net.cpp:139] Memory required for data: 115015872
I0707 23:59:42.469031 27836 layer_factory.hpp:77] Creating layer conv3_1/dw/scale
I0707 23:59:42.469046 27836 net.cpp:86] Creating Layer conv3_1/dw/scale
I0707 23:59:42.469056 27836 net.cpp:408] conv3_1/dw/scale <- conv3_1/dw
I0707 23:59:42.469072 27836 net.cpp:369] conv3_1/dw/scale -> conv3_1/dw (in-place)
I0707 23:59:42.469138 27836 layer_factory.hpp:77] Creating layer conv3_1/dw/scale
I0707 23:59:42.469287 27836 net.cpp:124] Setting up conv3_1/dw/scale
I0707 23:59:42.469297 27836 net.cpp:131] Top shape: 16 128 24 24 (1179648)
I0707 23:59:42.469303 27836 net.cpp:139] Memory required for data: 119734464
I0707 23:59:42.469324 27836 layer_factory.hpp:77] Creating layer relu3_1/dw
I0707 23:59:42.469337 27836 net.cpp:86] Creating Layer relu3_1/dw
I0707 23:59:42.469348 27836 net.cpp:408] relu3_1/dw <- conv3_1/dw
I0707 23:59:42.469359 27836 net.cpp:369] relu3_1/dw -> conv3_1/dw (in-place)
I0707 23:59:42.469918 27836 net.cpp:124] Setting up relu3_1/dw
I0707 23:59:42.469935 27836 net.cpp:131] Top shape: 16 128 24 24 (1179648)
I0707 23:59:42.469940 27836 net.cpp:139] Memory required for data: 124453056
I0707 23:59:42.469946 27836 layer_factory.hpp:77] Creating layer conv3_1/sep
I0707 23:59:42.469965 27836 net.cpp:86] Creating Layer conv3_1/sep
I0707 23:59:42.469975 27836 net.cpp:408] conv3_1/sep <- conv3_1/dw
I0707 23:59:42.470003 27836 net.cpp:382] conv3_1/sep -> conv3_1/sep
I0707 23:59:42.472520 27836 net.cpp:124] Setting up conv3_1/sep
I0707 23:59:42.472545 27836 net.cpp:131] Top shape: 16 128 24 24 (1179648)
I0707 23:59:42.472550 27836 net.cpp:139] Memory required for data: 129171648
I0707 23:59:42.472563 27836 layer_factory.hpp:77] Creating layer conv3_1/sep/bn
I0707 23:59:42.472577 27836 net.cpp:86] Creating Layer conv3_1/sep/bn
I0707 23:59:42.472589 27836 net.cpp:408] conv3_1/sep/bn <- conv3_1/sep
I0707 23:59:42.472622 27836 net.cpp:369] conv3_1/sep/bn -> conv3_1/sep (in-place)
I0707 23:59:42.472862 27836 net.cpp:124] Setting up conv3_1/sep/bn
I0707 23:59:42.472873 27836 net.cpp:131] Top shape: 16 128 24 24 (1179648)
I0707 23:59:42.472877 27836 net.cpp:139] Memory required for data: 133890240
I0707 23:59:42.472893 27836 layer_factory.hpp:77] Creating layer conv3_1/sep/scale
I0707 23:59:42.472909 27836 net.cpp:86] Creating Layer conv3_1/sep/scale
I0707 23:59:42.472920 27836 net.cpp:408] conv3_1/sep/scale <- conv3_1/sep
I0707 23:59:42.472932 27836 net.cpp:369] conv3_1/sep/scale -> conv3_1/sep (in-place)
I0707 23:59:42.473007 27836 layer_factory.hpp:77] Creating layer conv3_1/sep/scale
I0707 23:59:42.473165 27836 net.cpp:124] Setting up conv3_1/sep/scale
I0707 23:59:42.473176 27836 net.cpp:131] Top shape: 16 128 24 24 (1179648)
I0707 23:59:42.473179 27836 net.cpp:139] Memory required for data: 138608832
I0707 23:59:42.473189 27836 layer_factory.hpp:77] Creating layer relu3_1/sep
I0707 23:59:42.473203 27836 net.cpp:86] Creating Layer relu3_1/sep
I0707 23:59:42.473213 27836 net.cpp:408] relu3_1/sep <- conv3_1/sep
I0707 23:59:42.473227 27836 net.cpp:369] relu3_1/sep -> conv3_1/sep (in-place)
I0707 23:59:42.474231 27836 net.cpp:124] Setting up relu3_1/sep
I0707 23:59:42.474244 27836 net.cpp:131] Top shape: 16 128 24 24 (1179648)
I0707 23:59:42.474248 27836 net.cpp:139] Memory required for data: 143327424
I0707 23:59:42.474256 27836 layer_factory.hpp:77] Creating layer conv3_2/dw
I0707 23:59:42.474274 27836 net.cpp:86] Creating Layer conv3_2/dw
I0707 23:59:42.474284 27836 net.cpp:408] conv3_2/dw <- conv3_1/sep
I0707 23:59:42.474300 27836 net.cpp:382] conv3_2/dw -> conv3_2/dw
I0707 23:59:42.474567 27836 net.cpp:124] Setting up conv3_2/dw
I0707 23:59:42.474579 27836 net.cpp:131] Top shape: 16 128 12 12 (294912)
I0707 23:59:42.474583 27836 net.cpp:139] Memory required for data: 144507072
I0707 23:59:42.474592 27836 layer_factory.hpp:77] Creating layer conv3_2/dw/bn
I0707 23:59:42.474606 27836 net.cpp:86] Creating Layer conv3_2/dw/bn
I0707 23:59:42.474617 27836 net.cpp:408] conv3_2/dw/bn <- conv3_2/dw
I0707 23:59:42.474632 27836 net.cpp:369] conv3_2/dw/bn -> conv3_2/dw (in-place)
I0707 23:59:42.474860 27836 net.cpp:124] Setting up conv3_2/dw/bn
I0707 23:59:42.474871 27836 net.cpp:131] Top shape: 16 128 12 12 (294912)
I0707 23:59:42.474875 27836 net.cpp:139] Memory required for data: 145686720
I0707 23:59:42.474889 27836 layer_factory.hpp:77] Creating layer conv3_2/dw/scale
I0707 23:59:42.474913 27836 net.cpp:86] Creating Layer conv3_2/dw/scale
I0707 23:59:42.474925 27836 net.cpp:408] conv3_2/dw/scale <- conv3_2/dw
I0707 23:59:42.474937 27836 net.cpp:369] conv3_2/dw/scale -> conv3_2/dw (in-place)
I0707 23:59:42.475003 27836 layer_factory.hpp:77] Creating layer conv3_2/dw/scale
I0707 23:59:42.475153 27836 net.cpp:124] Setting up conv3_2/dw/scale
I0707 23:59:42.475164 27836 net.cpp:131] Top shape: 16 128 12 12 (294912)
I0707 23:59:42.475168 27836 net.cpp:139] Memory required for data: 146866368
I0707 23:59:42.475179 27836 layer_factory.hpp:77] Creating layer relu3_2/dw
I0707 23:59:42.475195 27836 net.cpp:86] Creating Layer relu3_2/dw
I0707 23:59:42.475206 27836 net.cpp:408] relu3_2/dw <- conv3_2/dw
I0707 23:59:42.475217 27836 net.cpp:369] relu3_2/dw -> conv3_2/dw (in-place)
I0707 23:59:42.475745 27836 net.cpp:124] Setting up relu3_2/dw
I0707 23:59:42.475759 27836 net.cpp:131] Top shape: 16 128 12 12 (294912)
I0707 23:59:42.475764 27836 net.cpp:139] Memory required for data: 148046016
I0707 23:59:42.475771 27836 layer_factory.hpp:77] Creating layer conv3_2/sep
I0707 23:59:42.475788 27836 net.cpp:86] Creating Layer conv3_2/sep
I0707 23:59:42.475800 27836 net.cpp:408] conv3_2/sep <- conv3_2/dw
I0707 23:59:42.475812 27836 net.cpp:382] conv3_2/sep -> conv3_2/sep
I0707 23:59:42.479190 27836 net.cpp:124] Setting up conv3_2/sep
I0707 23:59:42.479219 27836 net.cpp:131] Top shape: 16 256 12 12 (589824)
I0707 23:59:42.479226 27836 net.cpp:139] Memory required for data: 150405312
I0707 23:59:42.479279 27836 layer_factory.hpp:77] Creating layer conv3_2/sep/bn
I0707 23:59:42.479298 27836 net.cpp:86] Creating Layer conv3_2/sep/bn
I0707 23:59:42.479308 27836 net.cpp:408] conv3_2/sep/bn <- conv3_2/sep
I0707 23:59:42.479323 27836 net.cpp:369] conv3_2/sep/bn -> conv3_2/sep (in-place)
I0707 23:59:42.479650 27836 net.cpp:124] Setting up conv3_2/sep/bn
I0707 23:59:42.479665 27836 net.cpp:131] Top shape: 16 256 12 12 (589824)
I0707 23:59:42.479671 27836 net.cpp:139] Memory required for data: 152764608
I0707 23:59:42.479683 27836 layer_factory.hpp:77] Creating layer conv3_2/sep/scale
I0707 23:59:42.479699 27836 net.cpp:86] Creating Layer conv3_2/sep/scale
I0707 23:59:42.479707 27836 net.cpp:408] conv3_2/sep/scale <- conv3_2/sep
I0707 23:59:42.479715 27836 net.cpp:369] conv3_2/sep/scale -> conv3_2/sep (in-place)
I0707 23:59:42.479785 27836 layer_factory.hpp:77] Creating layer conv3_2/sep/scale
I0707 23:59:42.479954 27836 net.cpp:124] Setting up conv3_2/sep/scale
I0707 23:59:42.479969 27836 net.cpp:131] Top shape: 16 256 12 12 (589824)
I0707 23:59:42.479975 27836 net.cpp:139] Memory required for data: 155123904
I0707 23:59:42.479987 27836 layer_factory.hpp:77] Creating layer relu3_2/sep
I0707 23:59:42.480001 27836 net.cpp:86] Creating Layer relu3_2/sep
I0707 23:59:42.480010 27836 net.cpp:408] relu3_2/sep <- conv3_2/sep
I0707 23:59:42.480020 27836 net.cpp:369] relu3_2/sep -> conv3_2/sep (in-place)
I0707 23:59:42.481375 27836 net.cpp:124] Setting up relu3_2/sep
I0707 23:59:42.481398 27836 net.cpp:131] Top shape: 16 256 12 12 (589824)
I0707 23:59:42.481403 27836 net.cpp:139] Memory required for data: 157483200
I0707 23:59:42.481410 27836 layer_factory.hpp:77] Creating layer conv4_1/dw
I0707 23:59:42.481431 27836 net.cpp:86] Creating Layer conv4_1/dw
I0707 23:59:42.481437 27836 net.cpp:408] conv4_1/dw <- conv3_2/sep
I0707 23:59:42.481447 27836 net.cpp:382] conv4_1/dw -> conv4_1/dw
I0707 23:59:42.481747 27836 net.cpp:124] Setting up conv4_1/dw
I0707 23:59:42.481758 27836 net.cpp:131] Top shape: 16 256 12 12 (589824)
I0707 23:59:42.481762 27836 net.cpp:139] Memory required for data: 159842496
I0707 23:59:42.481770 27836 layer_factory.hpp:77] Creating layer conv4_1/dw/bn
I0707 23:59:42.481777 27836 net.cpp:86] Creating Layer conv4_1/dw/bn
I0707 23:59:42.481784 27836 net.cpp:408] conv4_1/dw/bn <- conv4_1/dw
I0707 23:59:42.481791 27836 net.cpp:369] conv4_1/dw/bn -> conv4_1/dw (in-place)
I0707 23:59:42.481997 27836 net.cpp:124] Setting up conv4_1/dw/bn
I0707 23:59:42.482007 27836 net.cpp:131] Top shape: 16 256 12 12 (589824)
I0707 23:59:42.482010 27836 net.cpp:139] Memory required for data: 162201792
I0707 23:59:42.482018 27836 layer_factory.hpp:77] Creating layer conv4_1/dw/scale
I0707 23:59:42.482028 27836 net.cpp:86] Creating Layer conv4_1/dw/scale
I0707 23:59:42.482033 27836 net.cpp:408] conv4_1/dw/scale <- conv4_1/dw
I0707 23:59:42.482039 27836 net.cpp:369] conv4_1/dw/scale -> conv4_1/dw (in-place)
I0707 23:59:42.482085 27836 layer_factory.hpp:77] Creating layer conv4_1/dw/scale
I0707 23:59:42.482205 27836 net.cpp:124] Setting up conv4_1/dw/scale
I0707 23:59:42.482215 27836 net.cpp:131] Top shape: 16 256 12 12 (589824)
I0707 23:59:42.482218 27836 net.cpp:139] Memory required for data: 164561088
I0707 23:59:42.482225 27836 layer_factory.hpp:77] Creating layer relu4_1/dw
I0707 23:59:42.482239 27836 net.cpp:86] Creating Layer relu4_1/dw
I0707 23:59:42.482244 27836 net.cpp:408] relu4_1/dw <- conv4_1/dw
I0707 23:59:42.482251 27836 net.cpp:369] relu4_1/dw -> conv4_1/dw (in-place)
I0707 23:59:42.482771 27836 net.cpp:124] Setting up relu4_1/dw
I0707 23:59:42.482782 27836 net.cpp:131] Top shape: 16 256 12 12 (589824)
I0707 23:59:42.482786 27836 net.cpp:139] Memory required for data: 166920384
I0707 23:59:42.482800 27836 layer_factory.hpp:77] Creating layer conv4_1/sep
I0707 23:59:42.482810 27836 net.cpp:86] Creating Layer conv4_1/sep
I0707 23:59:42.482815 27836 net.cpp:408] conv4_1/sep <- conv4_1/dw
I0707 23:59:42.482831 27836 net.cpp:382] conv4_1/sep -> conv4_1/sep
I0707 23:59:42.494953 27836 net.cpp:124] Setting up conv4_1/sep
I0707 23:59:42.495013 27836 net.cpp:131] Top shape: 16 256 12 12 (589824)
I0707 23:59:42.495019 27836 net.cpp:139] Memory required for data: 169279680
I0707 23:59:42.495038 27836 layer_factory.hpp:77] Creating layer conv4_1/sep/bn
I0707 23:59:42.495054 27836 net.cpp:86] Creating Layer conv4_1/sep/bn
I0707 23:59:42.495074 27836 net.cpp:408] conv4_1/sep/bn <- conv4_1/sep
I0707 23:59:42.495092 27836 net.cpp:369] conv4_1/sep/bn -> conv4_1/sep (in-place)
I0707 23:59:42.495344 27836 net.cpp:124] Setting up conv4_1/sep/bn
I0707 23:59:42.495354 27836 net.cpp:131] Top shape: 16 256 12 12 (589824)
I0707 23:59:42.495362 27836 net.cpp:139] Memory required for data: 171638976
I0707 23:59:42.495378 27836 layer_factory.hpp:77] Creating layer conv4_1/sep/scale
I0707 23:59:42.495395 27836 net.cpp:86] Creating Layer conv4_1/sep/scale
I0707 23:59:42.495414 27836 net.cpp:408] conv4_1/sep/scale <- conv4_1/sep
I0707 23:59:42.495427 27836 net.cpp:369] conv4_1/sep/scale -> conv4_1/sep (in-place)
I0707 23:59:42.495518 27836 layer_factory.hpp:77] Creating layer conv4_1/sep/scale
I0707 23:59:42.495676 27836 net.cpp:124] Setting up conv4_1/sep/scale
I0707 23:59:42.495687 27836 net.cpp:131] Top shape: 16 256 12 12 (589824)
I0707 23:59:42.495693 27836 net.cpp:139] Memory required for data: 173998272
I0707 23:59:42.495723 27836 layer_factory.hpp:77] Creating layer relu4_1/sep
I0707 23:59:42.495738 27836 net.cpp:86] Creating Layer relu4_1/sep
I0707 23:59:42.495748 27836 net.cpp:408] relu4_1/sep <- conv4_1/sep
I0707 23:59:42.495761 27836 net.cpp:369] relu4_1/sep -> conv4_1/sep (in-place)
I0707 23:59:42.496786 27836 net.cpp:124] Setting up relu4_1/sep
I0707 23:59:42.496799 27836 net.cpp:131] Top shape: 16 256 12 12 (589824)
I0707 23:59:42.496803 27836 net.cpp:139] Memory required for data: 176357568
I0707 23:59:42.496809 27836 layer_factory.hpp:77] Creating layer conv4_2/dw
I0707 23:59:42.496829 27836 net.cpp:86] Creating Layer conv4_2/dw
I0707 23:59:42.496840 27836 net.cpp:408] conv4_2/dw <- conv4_1/sep
I0707 23:59:42.496855 27836 net.cpp:382] conv4_2/dw -> conv4_2/dw
I0707 23:59:42.497143 27836 net.cpp:124] Setting up conv4_2/dw
I0707 23:59:42.497155 27836 net.cpp:131] Top shape: 16 256 6 6 (147456)
I0707 23:59:42.497159 27836 net.cpp:139] Memory required for data: 176947392
I0707 23:59:42.497166 27836 layer_factory.hpp:77] Creating layer conv4_2/dw/bn
I0707 23:59:42.497174 27836 net.cpp:86] Creating Layer conv4_2/dw/bn
I0707 23:59:42.497179 27836 net.cpp:408] conv4_2/dw/bn <- conv4_2/dw
I0707 23:59:42.497186 27836 net.cpp:369] conv4_2/dw/bn -> conv4_2/dw (in-place)
I0707 23:59:42.497444 27836 net.cpp:124] Setting up conv4_2/dw/bn
I0707 23:59:42.497457 27836 net.cpp:131] Top shape: 16 256 6 6 (147456)
I0707 23:59:42.497462 27836 net.cpp:139] Memory required for data: 177537216
I0707 23:59:42.497478 27836 layer_factory.hpp:77] Creating layer conv4_2/dw/scale
I0707 23:59:42.497493 27836 net.cpp:86] Creating Layer conv4_2/dw/scale
I0707 23:59:42.497503 27836 net.cpp:408] conv4_2/dw/scale <- conv4_2/dw
I0707 23:59:42.497517 27836 net.cpp:369] conv4_2/dw/scale -> conv4_2/dw (in-place)
I0707 23:59:42.497581 27836 layer_factory.hpp:77] Creating layer conv4_2/dw/scale
I0707 23:59:42.497740 27836 net.cpp:124] Setting up conv4_2/dw/scale
I0707 23:59:42.497754 27836 net.cpp:131] Top shape: 16 256 6 6 (147456)
I0707 23:59:42.497761 27836 net.cpp:139] Memory required for data: 178127040
I0707 23:59:42.497788 27836 layer_factory.hpp:77] Creating layer relu4_2/dw
I0707 23:59:42.497804 27836 net.cpp:86] Creating Layer relu4_2/dw
I0707 23:59:42.497814 27836 net.cpp:408] relu4_2/dw <- conv4_2/dw
I0707 23:59:42.497825 27836 net.cpp:369] relu4_2/dw -> conv4_2/dw (in-place)
I0707 23:59:42.498417 27836 net.cpp:124] Setting up relu4_2/dw
I0707 23:59:42.498443 27836 net.cpp:131] Top shape: 16 256 6 6 (147456)
I0707 23:59:42.498451 27836 net.cpp:139] Memory required for data: 178716864
I0707 23:59:42.498456 27836 layer_factory.hpp:77] Creating layer conv4_2/sep
I0707 23:59:42.498468 27836 net.cpp:86] Creating Layer conv4_2/sep
I0707 23:59:42.498474 27836 net.cpp:408] conv4_2/sep <- conv4_2/dw
I0707 23:59:42.498494 27836 net.cpp:382] conv4_2/sep -> conv4_2/sep
I0707 23:59:42.502580 27836 net.cpp:124] Setting up conv4_2/sep
I0707 23:59:42.502614 27836 net.cpp:131] Top shape: 16 512 6 6 (294912)
I0707 23:59:42.502619 27836 net.cpp:139] Memory required for data: 179896512
I0707 23:59:42.502627 27836 layer_factory.hpp:77] Creating layer conv4_2/sep/bn
I0707 23:59:42.502640 27836 net.cpp:86] Creating Layer conv4_2/sep/bn
I0707 23:59:42.502646 27836 net.cpp:408] conv4_2/sep/bn <- conv4_2/sep
I0707 23:59:42.502655 27836 net.cpp:369] conv4_2/sep/bn -> conv4_2/sep (in-place)
I0707 23:59:42.502887 27836 net.cpp:124] Setting up conv4_2/sep/bn
I0707 23:59:42.502897 27836 net.cpp:131] Top shape: 16 512 6 6 (294912)
I0707 23:59:42.502910 27836 net.cpp:139] Memory required for data: 181076160
I0707 23:59:42.502918 27836 layer_factory.hpp:77] Creating layer conv4_2/sep/scale
I0707 23:59:42.502929 27836 net.cpp:86] Creating Layer conv4_2/sep/scale
I0707 23:59:42.502933 27836 net.cpp:408] conv4_2/sep/scale <- conv4_2/sep
I0707 23:59:42.502939 27836 net.cpp:369] conv4_2/sep/scale -> conv4_2/sep (in-place)
I0707 23:59:42.502997 27836 layer_factory.hpp:77] Creating layer conv4_2/sep/scale
I0707 23:59:42.503146 27836 net.cpp:124] Setting up conv4_2/sep/scale
I0707 23:59:42.503163 27836 net.cpp:131] Top shape: 16 512 6 6 (294912)
I0707 23:59:42.503168 27836 net.cpp:139] Memory required for data: 182255808
I0707 23:59:42.503175 27836 layer_factory.hpp:77] Creating layer relu4_2/sep
I0707 23:59:42.503181 27836 net.cpp:86] Creating Layer relu4_2/sep
I0707 23:59:42.503185 27836 net.cpp:408] relu4_2/sep <- conv4_2/sep
I0707 23:59:42.503193 27836 net.cpp:369] relu4_2/sep -> conv4_2/sep (in-place)
I0707 23:59:42.503697 27836 net.cpp:124] Setting up relu4_2/sep
I0707 23:59:42.503715 27836 net.cpp:131] Top shape: 16 512 6 6 (294912)
I0707 23:59:42.503720 27836 net.cpp:139] Memory required for data: 183435456
I0707 23:59:42.503724 27836 layer_factory.hpp:77] Creating layer conv5_1/dw
I0707 23:59:42.503738 27836 net.cpp:86] Creating Layer conv5_1/dw
I0707 23:59:42.503743 27836 net.cpp:408] conv5_1/dw <- conv4_2/sep
I0707 23:59:42.503751 27836 net.cpp:382] conv5_1/dw -> conv5_1/dw
I0707 23:59:42.504029 27836 net.cpp:124] Setting up conv5_1/dw
I0707 23:59:42.504046 27836 net.cpp:131] Top shape: 16 512 6 6 (294912)
I0707 23:59:42.504051 27836 net.cpp:139] Memory required for data: 184615104
I0707 23:59:42.504057 27836 layer_factory.hpp:77] Creating layer conv5_1/dw/bn
I0707 23:59:42.504065 27836 net.cpp:86] Creating Layer conv5_1/dw/bn
I0707 23:59:42.504070 27836 net.cpp:408] conv5_1/dw/bn <- conv5_1/dw
I0707 23:59:42.504076 27836 net.cpp:369] conv5_1/dw/bn -> conv5_1/dw (in-place)
I0707 23:59:42.504287 27836 net.cpp:124] Setting up conv5_1/dw/bn
I0707 23:59:42.504303 27836 net.cpp:131] Top shape: 16 512 6 6 (294912)
I0707 23:59:42.504308 27836 net.cpp:139] Memory required for data: 185794752
I0707 23:59:42.504317 27836 layer_factory.hpp:77] Creating layer conv5_1/dw/scale
I0707 23:59:42.504325 27836 net.cpp:86] Creating Layer conv5_1/dw/scale
I0707 23:59:42.504330 27836 net.cpp:408] conv5_1/dw/scale <- conv5_1/dw
I0707 23:59:42.504336 27836 net.cpp:369] conv5_1/dw/scale -> conv5_1/dw (in-place)
I0707 23:59:42.504390 27836 layer_factory.hpp:77] Creating layer conv5_1/dw/scale
I0707 23:59:42.504532 27836 net.cpp:124] Setting up conv5_1/dw/scale
I0707 23:59:42.504549 27836 net.cpp:131] Top shape: 16 512 6 6 (294912)
I0707 23:59:42.504554 27836 net.cpp:139] Memory required for data: 186974400
I0707 23:59:42.504560 27836 layer_factory.hpp:77] Creating layer relu5_1/dw
I0707 23:59:42.504568 27836 net.cpp:86] Creating Layer relu5_1/dw
I0707 23:59:42.504573 27836 net.cpp:408] relu5_1/dw <- conv5_1/dw
I0707 23:59:42.504578 27836 net.cpp:369] relu5_1/dw -> conv5_1/dw (in-place)
I0707 23:59:42.505242 27836 net.cpp:124] Setting up relu5_1/dw
I0707 23:59:42.505254 27836 net.cpp:131] Top shape: 16 512 6 6 (294912)
I0707 23:59:42.505259 27836 net.cpp:139] Memory required for data: 188154048
I0707 23:59:42.505262 27836 layer_factory.hpp:77] Creating layer conv5_1/sep
I0707 23:59:42.505288 27836 net.cpp:86] Creating Layer conv5_1/sep
I0707 23:59:42.505295 27836 net.cpp:408] conv5_1/sep <- conv5_1/dw
I0707 23:59:42.505303 27836 net.cpp:382] conv5_1/sep -> conv5_1/sep
I0707 23:59:42.511646 27836 net.cpp:124] Setting up conv5_1/sep
I0707 23:59:42.511682 27836 net.cpp:131] Top shape: 16 512 6 6 (294912)
I0707 23:59:42.511687 27836 net.cpp:139] Memory required for data: 189333696
I0707 23:59:42.511696 27836 layer_factory.hpp:77] Creating layer conv5_1/sep/bn
I0707 23:59:42.511719 27836 net.cpp:86] Creating Layer conv5_1/sep/bn
I0707 23:59:42.511725 27836 net.cpp:408] conv5_1/sep/bn <- conv5_1/sep
I0707 23:59:42.511737 27836 net.cpp:369] conv5_1/sep/bn -> conv5_1/sep (in-place)
I0707 23:59:42.511979 27836 net.cpp:124] Setting up conv5_1/sep/bn
I0707 23:59:42.511997 27836 net.cpp:131] Top shape: 16 512 6 6 (294912)
I0707 23:59:42.512001 27836 net.cpp:139] Memory required for data: 190513344
I0707 23:59:42.512010 27836 layer_factory.hpp:77] Creating layer conv5_1/sep/scale
I0707 23:59:42.512022 27836 net.cpp:86] Creating Layer conv5_1/sep/scale
I0707 23:59:42.512025 27836 net.cpp:408] conv5_1/sep/scale <- conv5_1/sep
I0707 23:59:42.512032 27836 net.cpp:369] conv5_1/sep/scale -> conv5_1/sep (in-place)
I0707 23:59:42.512081 27836 layer_factory.hpp:77] Creating layer conv5_1/sep/scale
I0707 23:59:42.512217 27836 net.cpp:124] Setting up conv5_1/sep/scale
I0707 23:59:42.512226 27836 net.cpp:131] Top shape: 16 512 6 6 (294912)
I0707 23:59:42.512230 27836 net.cpp:139] Memory required for data: 191692992
I0707 23:59:42.512238 27836 layer_factory.hpp:77] Creating layer relu5_1/sep
I0707 23:59:42.512244 27836 net.cpp:86] Creating Layer relu5_1/sep
I0707 23:59:42.512248 27836 net.cpp:408] relu5_1/sep <- conv5_1/sep
I0707 23:59:42.512255 27836 net.cpp:369] relu5_1/sep -> conv5_1/sep (in-place)
I0707 23:59:42.512769 27836 net.cpp:124] Setting up relu5_1/sep
I0707 23:59:42.512781 27836 net.cpp:131] Top shape: 16 512 6 6 (294912)
I0707 23:59:42.512786 27836 net.cpp:139] Memory required for data: 192872640
I0707 23:59:42.512790 27836 layer_factory.hpp:77] Creating layer conv5_2/dw
I0707 23:59:42.512804 27836 net.cpp:86] Creating Layer conv5_2/dw
I0707 23:59:42.512809 27836 net.cpp:408] conv5_2/dw <- conv5_1/sep
I0707 23:59:42.512818 27836 net.cpp:382] conv5_2/dw -> conv5_2/dw
I0707 23:59:42.513103 27836 net.cpp:124] Setting up conv5_2/dw
I0707 23:59:42.513113 27836 net.cpp:131] Top shape: 16 512 6 6 (294912)
I0707 23:59:42.513116 27836 net.cpp:139] Memory required for data: 194052288
I0707 23:59:42.513123 27836 layer_factory.hpp:77] Creating layer conv5_2/dw/bn
I0707 23:59:42.513130 27836 net.cpp:86] Creating Layer conv5_2/dw/bn
I0707 23:59:42.513135 27836 net.cpp:408] conv5_2/dw/bn <- conv5_2/dw
I0707 23:59:42.513141 27836 net.cpp:369] conv5_2/dw/bn -> conv5_2/dw (in-place)
I0707 23:59:42.513373 27836 net.cpp:124] Setting up conv5_2/dw/bn
I0707 23:59:42.513386 27836 net.cpp:131] Top shape: 16 512 6 6 (294912)
I0707 23:59:42.513389 27836 net.cpp:139] Memory required for data: 195231936
I0707 23:59:42.513397 27836 layer_factory.hpp:77] Creating layer conv5_2/dw/scale
I0707 23:59:42.513415 27836 net.cpp:86] Creating Layer conv5_2/dw/scale
I0707 23:59:42.513422 27836 net.cpp:408] conv5_2/dw/scale <- conv5_2/dw
I0707 23:59:42.513427 27836 net.cpp:369] conv5_2/dw/scale -> conv5_2/dw (in-place)
I0707 23:59:42.513470 27836 layer_factory.hpp:77] Creating layer conv5_2/dw/scale
I0707 23:59:42.513607 27836 net.cpp:124] Setting up conv5_2/dw/scale
I0707 23:59:42.513618 27836 net.cpp:131] Top shape: 16 512 6 6 (294912)
I0707 23:59:42.513622 27836 net.cpp:139] Memory required for data: 196411584
I0707 23:59:42.513629 27836 layer_factory.hpp:77] Creating layer relu5_2/dw
I0707 23:59:42.513636 27836 net.cpp:86] Creating Layer relu5_2/dw
I0707 23:59:42.513641 27836 net.cpp:408] relu5_2/dw <- conv5_2/dw
I0707 23:59:42.513648 27836 net.cpp:369] relu5_2/dw -> conv5_2/dw (in-place)
I0707 23:59:42.514195 27836 net.cpp:124] Setting up relu5_2/dw
I0707 23:59:42.514207 27836 net.cpp:131] Top shape: 16 512 6 6 (294912)
I0707 23:59:42.514225 27836 net.cpp:139] Memory required for data: 197591232
I0707 23:59:42.514230 27836 layer_factory.hpp:77] Creating layer conv5_2/sep
I0707 23:59:42.514240 27836 net.cpp:86] Creating Layer conv5_2/sep
I0707 23:59:42.514246 27836 net.cpp:408] conv5_2/sep <- conv5_2/dw
I0707 23:59:42.514256 27836 net.cpp:382] conv5_2/sep -> conv5_2/sep
I0707 23:59:42.519728 27836 net.cpp:124] Setting up conv5_2/sep
I0707 23:59:42.519753 27836 net.cpp:131] Top shape: 16 512 6 6 (294912)
I0707 23:59:42.519757 27836 net.cpp:139] Memory required for data: 198770880
I0707 23:59:42.519775 27836 layer_factory.hpp:77] Creating layer conv5_2/sep/bn
I0707 23:59:42.519786 27836 net.cpp:86] Creating Layer conv5_2/sep/bn
I0707 23:59:42.519794 27836 net.cpp:408] conv5_2/sep/bn <- conv5_2/sep
I0707 23:59:42.519807 27836 net.cpp:369] conv5_2/sep/bn -> conv5_2/sep (in-place)
I0707 23:59:42.520049 27836 net.cpp:124] Setting up conv5_2/sep/bn
I0707 23:59:42.520058 27836 net.cpp:131] Top shape: 16 512 6 6 (294912)
I0707 23:59:42.520063 27836 net.cpp:139] Memory required for data: 199950528
I0707 23:59:42.520081 27836 layer_factory.hpp:77] Creating layer conv5_2/sep/scale
I0707 23:59:42.520092 27836 net.cpp:86] Creating Layer conv5_2/sep/scale
I0707 23:59:42.520097 27836 net.cpp:408] conv5_2/sep/scale <- conv5_2/sep
I0707 23:59:42.520105 27836 net.cpp:369] conv5_2/sep/scale -> conv5_2/sep (in-place)
I0707 23:59:42.520175 27836 layer_factory.hpp:77] Creating layer conv5_2/sep/scale
I0707 23:59:42.520335 27836 net.cpp:124] Setting up conv5_2/sep/scale
I0707 23:59:42.520349 27836 net.cpp:131] Top shape: 16 512 6 6 (294912)
I0707 23:59:42.520356 27836 net.cpp:139] Memory required for data: 201130176
I0707 23:59:42.520373 27836 layer_factory.hpp:77] Creating layer relu5_2/sep
I0707 23:59:42.520390 27836 net.cpp:86] Creating Layer relu5_2/sep
I0707 23:59:42.520400 27836 net.cpp:408] relu5_2/sep <- conv5_2/sep
I0707 23:59:42.520411 27836 net.cpp:369] relu5_2/sep -> conv5_2/sep (in-place)
I0707 23:59:42.520961 27836 net.cpp:124] Setting up relu5_2/sep
I0707 23:59:42.520977 27836 net.cpp:131] Top shape: 16 512 6 6 (294912)
I0707 23:59:42.520987 27836 net.cpp:139] Memory required for data: 202309824
I0707 23:59:42.520994 27836 layer_factory.hpp:77] Creating layer conv5_3/dw
I0707 23:59:42.521018 27836 net.cpp:86] Creating Layer conv5_3/dw
I0707 23:59:42.521028 27836 net.cpp:408] conv5_3/dw <- conv5_2/sep
I0707 23:59:42.521040 27836 net.cpp:382] conv5_3/dw -> conv5_3/dw
I0707 23:59:42.521368 27836 net.cpp:124] Setting up conv5_3/dw
I0707 23:59:42.521381 27836 net.cpp:131] Top shape: 16 512 6 6 (294912)
I0707 23:59:42.521389 27836 net.cpp:139] Memory required for data: 203489472
I0707 23:59:42.521401 27836 layer_factory.hpp:77] Creating layer conv5_3/dw/bn
I0707 23:59:42.521415 27836 net.cpp:86] Creating Layer conv5_3/dw/bn
I0707 23:59:42.521427 27836 net.cpp:408] conv5_3/dw/bn <- conv5_3/dw
I0707 23:59:42.521443 27836 net.cpp:369] conv5_3/dw/bn -> conv5_3/dw (in-place)
I0707 23:59:42.521682 27836 net.cpp:124] Setting up conv5_3/dw/bn
I0707 23:59:42.521695 27836 net.cpp:131] Top shape: 16 512 6 6 (294912)
I0707 23:59:42.521703 27836 net.cpp:139] Memory required for data: 204669120
I0707 23:59:42.521719 27836 layer_factory.hpp:77] Creating layer conv5_3/dw/scale
I0707 23:59:42.521733 27836 net.cpp:86] Creating Layer conv5_3/dw/scale
I0707 23:59:42.521747 27836 net.cpp:408] conv5_3/dw/scale <- conv5_3/dw
I0707 23:59:42.521762 27836 net.cpp:369] conv5_3/dw/scale -> conv5_3/dw (in-place)
I0707 23:59:42.521817 27836 layer_factory.hpp:77] Creating layer conv5_3/dw/scale
I0707 23:59:42.521961 27836 net.cpp:124] Setting up conv5_3/dw/scale
I0707 23:59:42.521973 27836 net.cpp:131] Top shape: 16 512 6 6 (294912)
I0707 23:59:42.521983 27836 net.cpp:139] Memory required for data: 205848768
I0707 23:59:42.522001 27836 layer_factory.hpp:77] Creating layer relu5_3/dw
I0707 23:59:42.522013 27836 net.cpp:86] Creating Layer relu5_3/dw
I0707 23:59:42.522022 27836 net.cpp:408] relu5_3/dw <- conv5_3/dw
I0707 23:59:42.522037 27836 net.cpp:369] relu5_3/dw -> conv5_3/dw (in-place)
I0707 23:59:42.523000 27836 net.cpp:124] Setting up relu5_3/dw
I0707 23:59:42.523015 27836 net.cpp:131] Top shape: 16 512 6 6 (294912)
I0707 23:59:42.523023 27836 net.cpp:139] Memory required for data: 207028416
I0707 23:59:42.523031 27836 layer_factory.hpp:77] Creating layer conv5_3/sep
I0707 23:59:42.523051 27836 net.cpp:86] Creating Layer conv5_3/sep
I0707 23:59:42.523061 27836 net.cpp:408] conv5_3/sep <- conv5_3/dw
I0707 23:59:42.523077 27836 net.cpp:382] conv5_3/sep -> conv5_3/sep
I0707 23:59:42.529073 27836 net.cpp:124] Setting up conv5_3/sep
I0707 23:59:42.529105 27836 net.cpp:131] Top shape: 16 512 6 6 (294912)
I0707 23:59:42.529114 27836 net.cpp:139] Memory required for data: 208208064
I0707 23:59:42.529135 27836 layer_factory.hpp:77] Creating layer conv5_3/sep/bn
I0707 23:59:42.529151 27836 net.cpp:86] Creating Layer conv5_3/sep/bn
I0707 23:59:42.529163 27836 net.cpp:408] conv5_3/sep/bn <- conv5_3/sep
I0707 23:59:42.529181 27836 net.cpp:369] conv5_3/sep/bn -> conv5_3/sep (in-place)
I0707 23:59:42.529579 27836 net.cpp:124] Setting up conv5_3/sep/bn
I0707 23:59:42.529597 27836 net.cpp:131] Top shape: 16 512 6 6 (294912)
I0707 23:59:42.529605 27836 net.cpp:139] Memory required for data: 209387712
I0707 23:59:42.529621 27836 layer_factory.hpp:77] Creating layer conv5_3/sep/scale
I0707 23:59:42.529640 27836 net.cpp:86] Creating Layer conv5_3/sep/scale
I0707 23:59:42.529650 27836 net.cpp:408] conv5_3/sep/scale <- conv5_3/sep
I0707 23:59:42.529664 27836 net.cpp:369] conv5_3/sep/scale -> conv5_3/sep (in-place)
I0707 23:59:42.529742 27836 layer_factory.hpp:77] Creating layer conv5_3/sep/scale
I0707 23:59:42.529985 27836 net.cpp:124] Setting up conv5_3/sep/scale
I0707 23:59:42.530004 27836 net.cpp:131] Top shape: 16 512 6 6 (294912)
I0707 23:59:42.530011 27836 net.cpp:139] Memory required for data: 210567360
I0707 23:59:42.530023 27836 layer_factory.hpp:77] Creating layer relu5_3/sep
I0707 23:59:42.530035 27836 net.cpp:86] Creating Layer relu5_3/sep
I0707 23:59:42.530043 27836 net.cpp:408] relu5_3/sep <- conv5_3/sep
I0707 23:59:42.530057 27836 net.cpp:369] relu5_3/sep -> conv5_3/sep (in-place)
I0707 23:59:42.530854 27836 net.cpp:124] Setting up relu5_3/sep
I0707 23:59:42.530879 27836 net.cpp:131] Top shape: 16 512 6 6 (294912)
I0707 23:59:42.530884 27836 net.cpp:139] Memory required for data: 211747008
I0707 23:59:42.530889 27836 layer_factory.hpp:77] Creating layer conv5_4/dw
I0707 23:59:42.530903 27836 net.cpp:86] Creating Layer conv5_4/dw
I0707 23:59:42.530910 27836 net.cpp:408] conv5_4/dw <- conv5_3/sep
I0707 23:59:42.530918 27836 net.cpp:382] conv5_4/dw -> conv5_4/dw
I0707 23:59:42.531294 27836 net.cpp:124] Setting up conv5_4/dw
I0707 23:59:42.531314 27836 net.cpp:131] Top shape: 16 512 6 6 (294912)
I0707 23:59:42.531322 27836 net.cpp:139] Memory required for data: 212926656
I0707 23:59:42.531333 27836 layer_factory.hpp:77] Creating layer conv5_4/dw/bn
I0707 23:59:42.531342 27836 net.cpp:86] Creating Layer conv5_4/dw/bn
I0707 23:59:42.531347 27836 net.cpp:408] conv5_4/dw/bn <- conv5_4/dw
I0707 23:59:42.531353 27836 net.cpp:369] conv5_4/dw/bn -> conv5_4/dw (in-place)
I0707 23:59:42.531621 27836 net.cpp:124] Setting up conv5_4/dw/bn
I0707 23:59:42.531633 27836 net.cpp:131] Top shape: 16 512 6 6 (294912)
I0707 23:59:42.531637 27836 net.cpp:139] Memory required for data: 214106304
I0707 23:59:42.531646 27836 layer_factory.hpp:77] Creating layer conv5_4/dw/scale
I0707 23:59:42.531656 27836 net.cpp:86] Creating Layer conv5_4/dw/scale
I0707 23:59:42.531661 27836 net.cpp:408] conv5_4/dw/scale <- conv5_4/dw
I0707 23:59:42.531666 27836 net.cpp:369] conv5_4/dw/scale -> conv5_4/dw (in-place)
I0707 23:59:42.531718 27836 layer_factory.hpp:77] Creating layer conv5_4/dw/scale
I0707 23:59:42.531854 27836 net.cpp:124] Setting up conv5_4/dw/scale
I0707 23:59:42.531867 27836 net.cpp:131] Top shape: 16 512 6 6 (294912)
I0707 23:59:42.531872 27836 net.cpp:139] Memory required for data: 215285952
I0707 23:59:42.531879 27836 layer_factory.hpp:77] Creating layer relu5_4/dw
I0707 23:59:42.531886 27836 net.cpp:86] Creating Layer relu5_4/dw
I0707 23:59:42.531915 27836 net.cpp:408] relu5_4/dw <- conv5_4/dw
I0707 23:59:42.531924 27836 net.cpp:369] relu5_4/dw -> conv5_4/dw (in-place)
I0707 23:59:42.532949 27836 net.cpp:124] Setting up relu5_4/dw
I0707 23:59:42.532963 27836 net.cpp:131] Top shape: 16 512 6 6 (294912)
I0707 23:59:42.532968 27836 net.cpp:139] Memory required for data: 216465600
I0707 23:59:42.532972 27836 layer_factory.hpp:77] Creating layer conv5_4/sep
I0707 23:59:42.532986 27836 net.cpp:86] Creating Layer conv5_4/sep
I0707 23:59:42.532992 27836 net.cpp:408] conv5_4/sep <- conv5_4/dw
I0707 23:59:42.533000 27836 net.cpp:382] conv5_4/sep -> conv5_4/sep
I0707 23:59:42.538153 27836 net.cpp:124] Setting up conv5_4/sep
I0707 23:59:42.538177 27836 net.cpp:131] Top shape: 16 512 6 6 (294912)
I0707 23:59:42.538182 27836 net.cpp:139] Memory required for data: 217645248
I0707 23:59:42.538192 27836 layer_factory.hpp:77] Creating layer conv5_4/sep/bn
I0707 23:59:42.538204 27836 net.cpp:86] Creating Layer conv5_4/sep/bn
I0707 23:59:42.538211 27836 net.cpp:408] conv5_4/sep/bn <- conv5_4/sep
I0707 23:59:42.538218 27836 net.cpp:369] conv5_4/sep/bn -> conv5_4/sep (in-place)
I0707 23:59:42.538460 27836 net.cpp:124] Setting up conv5_4/sep/bn
I0707 23:59:42.538468 27836 net.cpp:131] Top shape: 16 512 6 6 (294912)
I0707 23:59:42.538473 27836 net.cpp:139] Memory required for data: 218824896
I0707 23:59:42.538481 27836 layer_factory.hpp:77] Creating layer conv5_4/sep/scale
I0707 23:59:42.538492 27836 net.cpp:86] Creating Layer conv5_4/sep/scale
I0707 23:59:42.538497 27836 net.cpp:408] conv5_4/sep/scale <- conv5_4/sep
I0707 23:59:42.538506 27836 net.cpp:369] conv5_4/sep/scale -> conv5_4/sep (in-place)
I0707 23:59:42.538554 27836 layer_factory.hpp:77] Creating layer conv5_4/sep/scale
I0707 23:59:42.538692 27836 net.cpp:124] Setting up conv5_4/sep/scale
I0707 23:59:42.538702 27836 net.cpp:131] Top shape: 16 512 6 6 (294912)
I0707 23:59:42.538707 27836 net.cpp:139] Memory required for data: 220004544
I0707 23:59:42.538712 27836 layer_factory.hpp:77] Creating layer relu5_4/sep
I0707 23:59:42.538719 27836 net.cpp:86] Creating Layer relu5_4/sep
I0707 23:59:42.538724 27836 net.cpp:408] relu5_4/sep <- conv5_4/sep
I0707 23:59:42.538731 27836 net.cpp:369] relu5_4/sep -> conv5_4/sep (in-place)
I0707 23:59:42.539614 27836 net.cpp:124] Setting up relu5_4/sep
I0707 23:59:42.539628 27836 net.cpp:131] Top shape: 16 512 6 6 (294912)
I0707 23:59:42.539634 27836 net.cpp:139] Memory required for data: 221184192
I0707 23:59:42.539638 27836 layer_factory.hpp:77] Creating layer conv5_5/dw
I0707 23:59:42.539649 27836 net.cpp:86] Creating Layer conv5_5/dw
I0707 23:59:42.539654 27836 net.cpp:408] conv5_5/dw <- conv5_4/sep
I0707 23:59:42.539662 27836 net.cpp:382] conv5_5/dw -> conv5_5/dw
I0707 23:59:42.540022 27836 net.cpp:124] Setting up conv5_5/dw
I0707 23:59:42.540035 27836 net.cpp:131] Top shape: 16 512 6 6 (294912)
I0707 23:59:42.540038 27836 net.cpp:139] Memory required for data: 222363840
I0707 23:59:42.540045 27836 layer_factory.hpp:77] Creating layer conv5_5/dw/bn
I0707 23:59:42.540052 27836 net.cpp:86] Creating Layer conv5_5/dw/bn
I0707 23:59:42.540056 27836 net.cpp:408] conv5_5/dw/bn <- conv5_5/dw
I0707 23:59:42.540062 27836 net.cpp:369] conv5_5/dw/bn -> conv5_5/dw (in-place)
I0707 23:59:42.540282 27836 net.cpp:124] Setting up conv5_5/dw/bn
I0707 23:59:42.540290 27836 net.cpp:131] Top shape: 16 512 6 6 (294912)
I0707 23:59:42.540294 27836 net.cpp:139] Memory required for data: 223543488
I0707 23:59:42.540319 27836 layer_factory.hpp:77] Creating layer conv5_5/dw/scale
I0707 23:59:42.540328 27836 net.cpp:86] Creating Layer conv5_5/dw/scale
I0707 23:59:42.540333 27836 net.cpp:408] conv5_5/dw/scale <- conv5_5/dw
I0707 23:59:42.540340 27836 net.cpp:369] conv5_5/dw/scale -> conv5_5/dw (in-place)
I0707 23:59:42.540385 27836 layer_factory.hpp:77] Creating layer conv5_5/dw/scale
I0707 23:59:42.540518 27836 net.cpp:124] Setting up conv5_5/dw/scale
I0707 23:59:42.540527 27836 net.cpp:131] Top shape: 16 512 6 6 (294912)
I0707 23:59:42.540531 27836 net.cpp:139] Memory required for data: 224723136
I0707 23:59:42.540554 27836 layer_factory.hpp:77] Creating layer relu5_5/dw
I0707 23:59:42.540561 27836 net.cpp:86] Creating Layer relu5_5/dw
I0707 23:59:42.540565 27836 net.cpp:408] relu5_5/dw <- conv5_5/dw
I0707 23:59:42.540573 27836 net.cpp:369] relu5_5/dw -> conv5_5/dw (in-place)
I0707 23:59:42.541494 27836 net.cpp:124] Setting up relu5_5/dw
I0707 23:59:42.541508 27836 net.cpp:131] Top shape: 16 512 6 6 (294912)
I0707 23:59:42.541512 27836 net.cpp:139] Memory required for data: 225902784
I0707 23:59:42.541517 27836 layer_factory.hpp:77] Creating layer conv5_5/sep
I0707 23:59:42.541528 27836 net.cpp:86] Creating Layer conv5_5/sep
I0707 23:59:42.541534 27836 net.cpp:408] conv5_5/sep <- conv5_5/dw
I0707 23:59:42.541541 27836 net.cpp:382] conv5_5/sep -> conv5_5/sep
I0707 23:59:42.547847 27836 net.cpp:124] Setting up conv5_5/sep
I0707 23:59:42.547878 27836 net.cpp:131] Top shape: 16 512 6 6 (294912)
I0707 23:59:42.547883 27836 net.cpp:139] Memory required for data: 227082432
I0707 23:59:42.547894 27836 layer_factory.hpp:77] Creating layer conv5_5/sep/bn
I0707 23:59:42.547907 27836 net.cpp:86] Creating Layer conv5_5/sep/bn
I0707 23:59:42.547924 27836 net.cpp:408] conv5_5/sep/bn <- conv5_5/sep
I0707 23:59:42.547937 27836 net.cpp:369] conv5_5/sep/bn -> conv5_5/sep (in-place)
I0707 23:59:42.548190 27836 net.cpp:124] Setting up conv5_5/sep/bn
I0707 23:59:42.548210 27836 net.cpp:131] Top shape: 16 512 6 6 (294912)
I0707 23:59:42.548215 27836 net.cpp:139] Memory required for data: 228262080
I0707 23:59:42.548224 27836 layer_factory.hpp:77] Creating layer conv5_5/sep/scale
I0707 23:59:42.548236 27836 net.cpp:86] Creating Layer conv5_5/sep/scale
I0707 23:59:42.548243 27836 net.cpp:408] conv5_5/sep/scale <- conv5_5/sep
I0707 23:59:42.548256 27836 net.cpp:369] conv5_5/sep/scale -> conv5_5/sep (in-place)
I0707 23:59:42.548323 27836 layer_factory.hpp:77] Creating layer conv5_5/sep/scale
I0707 23:59:42.548521 27836 net.cpp:124] Setting up conv5_5/sep/scale
I0707 23:59:42.548540 27836 net.cpp:131] Top shape: 16 512 6 6 (294912)
I0707 23:59:42.548545 27836 net.cpp:139] Memory required for data: 229441728
I0707 23:59:42.548552 27836 layer_factory.hpp:77] Creating layer relu5_5/sep
I0707 23:59:42.548561 27836 net.cpp:86] Creating Layer relu5_5/sep
I0707 23:59:42.548568 27836 net.cpp:408] relu5_5/sep <- conv5_5/sep
I0707 23:59:42.548578 27836 net.cpp:369] relu5_5/sep -> conv5_5/sep (in-place)
I0707 23:59:42.549113 27836 net.cpp:124] Setting up relu5_5/sep
I0707 23:59:42.549132 27836 net.cpp:131] Top shape: 16 512 6 6 (294912)
I0707 23:59:42.549137 27836 net.cpp:139] Memory required for data: 230621376
I0707 23:59:42.549142 27836 layer_factory.hpp:77] Creating layer pool6
I0707 23:59:42.549150 27836 net.cpp:86] Creating Layer pool6
I0707 23:59:42.549156 27836 net.cpp:408] pool6 <- conv5_5/sep
I0707 23:59:42.549168 27836 net.cpp:382] pool6 -> pool6
I0707 23:59:42.550133 27836 net.cpp:124] Setting up pool6
I0707 23:59:42.550156 27836 net.cpp:131] Top shape: 16 512 1 1 (8192)
I0707 23:59:42.550161 27836 net.cpp:139] Memory required for data: 230654144
I0707 23:59:42.550165 27836 layer_factory.hpp:77] Creating layer fc7-mouth
I0707 23:59:42.550180 27836 net.cpp:86] Creating Layer fc7-mouth
I0707 23:59:42.550192 27836 net.cpp:408] fc7-mouth <- pool6
I0707 23:59:42.550204 27836 net.cpp:382] fc7-mouth -> fc7-mouth
I0707 23:59:42.552495 27836 net.cpp:124] Setting up fc7-mouth
I0707 23:59:42.552518 27836 net.cpp:131] Top shape: 16 4 1 1 (64)
I0707 23:59:42.552523 27836 net.cpp:139] Memory required for data: 230654400
I0707 23:59:42.552531 27836 layer_factory.hpp:77] Creating layer fc7-mouth_fc7-mouth_0_split
I0707 23:59:42.552541 27836 net.cpp:86] Creating Layer fc7-mouth_fc7-mouth_0_split
I0707 23:59:42.552548 27836 net.cpp:408] fc7-mouth_fc7-mouth_0_split <- fc7-mouth
I0707 23:59:42.552559 27836 net.cpp:382] fc7-mouth_fc7-mouth_0_split -> fc7-mouth_fc7-mouth_0_split_0
I0707 23:59:42.552574 27836 net.cpp:382] fc7-mouth_fc7-mouth_0_split -> fc7-mouth_fc7-mouth_0_split_1
I0707 23:59:42.552654 27836 net.cpp:124] Setting up fc7-mouth_fc7-mouth_0_split
I0707 23:59:42.552687 27836 net.cpp:131] Top shape: 16 4 1 1 (64)
I0707 23:59:42.552693 27836 net.cpp:131] Top shape: 16 4 1 1 (64)
I0707 23:59:42.552697 27836 net.cpp:139] Memory required for data: 230654912
I0707 23:59:42.552701 27836 layer_factory.hpp:77] Creating layer loss
I0707 23:59:42.552712 27836 net.cpp:86] Creating Layer loss
I0707 23:59:42.552718 27836 net.cpp:408] loss <- fc7-mouth_fc7-mouth_0_split_0
I0707 23:59:42.552724 27836 net.cpp:408] loss <- clc-label_data_1_split_0
I0707 23:59:42.552732 27836 net.cpp:382] loss -> loss
…
