…
I0707 01:19:38.853711 13879 net.cpp:296] The NetState phase (0) differed from the phase (1) specified by a rule in layer data
I0707 01:19:38.854302 13879 net.cpp:53] Initializing net from parameters: 
name: "mouth"
state {
  phase: TRAIN
  level: 0
  stage: ""
}
layer {
  name: "data"
  type: "ImageData"
  top: "data"
  top: "clc-label"
  include {
    phase: TRAIN
  }
  transform_param {
    mirror: true
    crop_size: 96
    mean_value: 104.008
    mean_value: 116.669
    mean_value: 122.675
    min_side_min: 96
    min_side_max: 128
  }
  image_data_param {
    source: "all_shuffle_train.txt"
    batch_size: 64
    shuffle: true
  }
}
layer {
  name: "conv1"
  type: "Convolution"
  bottom: "data"
  top: "conv1"
  param {
    lr_mult: 1
    decay_mult: 1
  }
  convolution_param {
    num_output: 32
    bias_term: false
    pad: 1
    kernel_size: 3
    stride: 2
    weight_filler {
      type: "msra"
    }
  }
}
layer {
  name: "conv1/bn"
  type: "BatchNorm"
  bottom: "conv1"
  top: "conv1"
  param {
    lr_mult: 0
    decay_mult: 0
  }
  param {
    lr_mult: 0
    decay_mult: 0
  }
  param {
    lr_mult: 0
    decay_mult: 0
  }
  batch_norm_param {
    use_global_stats: false
    eps: 1e-05
  }
}
layer {
  name: "conv1/scale"
  type: "Scale"
  bottom: "conv1"
  top: "conv1"
  param {
    lr_mult: 1
    decay_mult: 0
  }
  param {
    lr_mult: 1
    decay_mult: 0
  }
  scale_param {
    filler {
      value: 1
    }
    bias_term: true
    bias_filler {
      value: 0
    }
  }
}
layer {
  name: "relu1"
  type: "ReLU"
  bottom: "conv1"
  top: "conv1"
}
layer {
  name: "conv2_1/dw"
  type: "Convolution"
  bottom: "conv1"
  top: "conv2_1/dw"
  param {
    lr_mult: 1
    decay_mult: 1
  }
  convolution_param {
    num_output: 32
    bias_term: false
    pad: 1
    kernel_size: 3
    group: 32
    stride: 1
    weight_filler {
      type: "msra"
    }
    engine: CAFFE
  }
}
layer {
  name: "conv2_1/dw/bn"
  type: "BatchNorm"
  bottom: "conv2_1/dw"
  top: "conv2_1/dw"
  param {
    lr_mult: 0
    decay_mult: 0
  }
  param {
    lr_mult: 0
    decay_mult: 0
  }
  param {
    lr_mult: 0
    decay_mult: 0
  }
  batch_norm_param {
    use_global_stats: false
    eps: 1e-05
  }
}
layer {
  name: "conv2_1/dw/scale"
  type: "Scale"
  bottom: "conv2_1/dw"
  top: "conv2_1/dw"
  param {
    lr_mult: 1
    decay_mult: 0
  }
  param {
    lr_mult: 1
    decay_mult: 0
  }
  scale_param {
    filler {
      value: 1
    }
    bias_term: true
    bias_filler {
      value: 0
    }
  }
}
layer {
  name: "relu2_1/dw"
  type: "ReLU"
  bottom: "conv2_1/dw"
  top: "conv2_1/dw"
}
layer {
  name: "conv2_1/sep"
  type: "Convolution"
  bottom: "conv2_1/dw"
  top: "conv2_1/sep"
  param {
    lr_mult: 1
    decay_mult: 1
  }
  convolution_param {
    num_output: 64
    bias_term: false
    pad: 0
    kernel_size: 1
    stride: 1
    weight_filler {
      type: "msra"
    }
  }
}
layer {
  name: "conv2_1/sep/bn"
  type: "BatchNorm"
  bottom: "conv2_1/sep"
  top: "conv2_1/sep"
  param {
    lr_mult: 0
    decay_mult: 0
  }
  param {
    lr_mult: 0
    decay_mult: 0
  }
  param {
    lr_mult: 0
    decay_mult: 0
  }
  batch_norm_param {
    use_global_stats: false
    eps: 1e-05
  }
}
layer {
  name: "conv2_1/sep/scale"
  type: "Scale"
  bottom: "conv2_1/sep"
  top: "conv2_1/sep"
  param {
    lr_mult: 1
    decay_mult: 0
  }
  param {
    lr_mult: 1
    decay_mult: 0
  }
  scale_param {
    filler {
      value: 1
    }
    bias_term: true
    bias_filler {
      value: 0
    }
  }
}
layer {
  name: "relu2_1/sep"
  type: "ReLU"
  bottom: "conv2_1/sep"
  top: "conv2_1/sep"
}
layer {
  name: "conv2_2/dw"
  type: "Convolution"
  bottom: "conv2_1/sep"
  top: "conv2_2/dw"
  param {
    lr_mult: 1
    decay_mult: 1
  }
  convolution_param {
    num_output: 64
    bias_term: false
    pad: 1
    kernel_size: 3
    group: 64
    stride: 2
    weight_filler {
      type: "msra"
    }
    engine: CAFFE
  }
}
layer {
  name: "conv2_2/dw/bn"
  type: "BatchNorm"
  bottom: "conv2_2/dw"
  top: "conv2_2/dw"
  param {
    lr_mult: 0
    decay_mult: 0
  }
  param {
    lr_mult: 0
    decay_mult: 0
  }
  param {
    lr_mult: 0
    decay_mult: 0
  }
  batch_norm_param {
    use_global_stats: false
    eps: 1e-05
  }
}
layer {
  name: "conv2_2/dw/scale"
  type: "Scale"
  bottom: "conv2_2/dw"
  top: "conv2_2/dw"
  param {
    lr_mult: 1
    decay_mult: 0
  }
  param {
    lr_mult: 1
    decay_mult: 0
  }
  scale_param {
    filler {
      value: 1
    }
    bias_term: true
    bias_filler {
      value: 0
    }
  }
}
layer {
  name: "relu2_2/dw"
  type: "ReLU"
  bottom: "conv2_2/dw"
  top: "conv2_2/dw"
}
layer {
  name: "conv2_2/sep"
  type: "Convolution"
  bottom: "conv2_2/dw"
  top: "conv2_2/sep"
  param {
    lr_mult: 1
    decay_mult: 1
  }
  convolution_param {
    num_output: 128
    bias_term: false
    pad: 0
    kernel_size: 1
    stride: 1
    weight_filler {
      type: "msra"
    }
  }
}
layer {
  name: "conv2_2/sep/bn"
  type: "BatchNorm"
  bottom: "conv2_2/sep"
  top: "conv2_2/sep"
  param {
    lr_mult: 0
    decay_mult: 0
  }
  param {
    lr_mult: 0
    decay_mult: 0
  }
  param {
    lr_mult: 0
    decay_mult: 0
  }
  batch_norm_param {
    use_global_stats: false
    eps: 1e-05
  }
}
layer {
  name: "conv2_2/sep/scale"
  type: "Scale"
  bottom: "conv2_2/sep"
  top: "conv2_2/sep"
  param {
    lr_mult: 1
    decay_mult: 0
  }
  param {
    lr_mult: 1
    decay_mult: 0
  }
  scale_param {
    filler {
      value: 1
    }
    bias_term: true
    bias_filler {
      value: 0
    }
  }
}
layer {
  name: "relu2_2/sep"
  type: "ReLU"
  bottom: "conv2_2/sep"
  top: "conv2_2/sep"
}
layer {
  name: "conv3_1/dw"
  type: "Convolution"
  bottom: "conv2_2/sep"
  top: "conv3_1/dw"
  param {
    lr_mult: 1
    decay_mult: 1
  }
  convolution_param {
    num_output: 128
    bias_term: false
    pad: 1
    kernel_size: 3
    group: 128
    stride: 1
    weight_filler {
      type: "msra"
    }
    engine: CAFFE
  }
}
layer {
  name: "conv3_1/dw/bn"
  type: "BatchNorm"
  bottom: "conv3_1/dw"
  top: "conv3_1/dw"
  param {
    lr_mult: 0
    decay_mult: 0
  }
  param {
    lr_mult: 0
    decay_mult: 0
  }
  param {
    lr_mult: 0
    decay_mult: 0
  }
  batch_norm_param {
    use_global_stats: false
    eps: 1e-05
  }
}
layer {
  name: "conv3_1/dw/scale"
  type: "Scale"
  bottom: "conv3_1/dw"
  top: "conv3_1/dw"
  param {
    lr_mult: 1
    decay_mult: 0
  }
  param {
    lr_mult: 1
    decay_mult: 0
  }
  scale_param {
    filler {
      value: 1
    }
    bias_term: true
    bias_filler {
      value: 0
    }
  }
}
layer {
  name: "relu3_1/dw"
  type: "ReLU"
  bottom: "conv3_1/dw"
  top: "conv3_1/dw"
}
layer {
  name: "conv3_1/sep"
  type: "Convolution"
  bottom: "conv3_1/dw"
  top: "conv3_1/sep"
  param {
    lr_mult: 1
    decay_mult: 1
  }
  convolution_param {
    num_output: 128
    bias_term: false
    pad: 0
    kernel_size: 1
    stride: 1
    weight_filler {
      type: "msra"
    }
  }
}
layer {
  name: "conv3_1/sep/bn"
  type: "BatchNorm"
  bottom: "conv3_1/sep"
  top: "conv3_1/sep"
  param {
    lr_mult: 0
    decay_mult: 0
  }
  param {
    lr_mult: 0
    decay_mult: 0
  }
  param {
    lr_mult: 0
    decay_mult: 0
  }
  batch_norm_param {
    use_global_stats: false
    eps: 1e-05
  }
}
layer {
  name: "conv3_1/sep/scale"
  type: "Scale"
  bottom: "conv3_1/sep"
  top: "conv3_1/sep"
  param {
    lr_mult: 1
    decay_mult: 0
  }
  param {
    lr_mult: 1
    decay_mult: 0
  }
  scale_param {
    filler {
      value: 1
    }
    bias_term: true
    bias_filler {
      value: 0
    }
  }
}
layer {
  name: "relu3_1/sep"
  type: "ReLU"
  bottom: "conv3_1/sep"
  top: "conv3_1/sep"
}
layer {
  name: "conv3_2/dw"
  type: "Convolution"
  bottom: "conv3_1/sep"
  top: "conv3_2/dw"
  param {
    lr_mult: 1
    decay_mult: 1
  }
  convolution_param {
    num_output: 128
    bias_term: false
    pad: 1
    kernel_size: 3
    group: 128
    stride: 2
    weight_filler {
      type: "msra"
    }
    engine: CAFFE
  }
}
layer {
  name: "conv3_2/dw/bn"
  type: "BatchNorm"
  bottom: "conv3_2/dw"
  top: "conv3_2/dw"
  param {
    lr_mult: 0
    decay_mult: 0
  }
  param {
    lr_mult: 0
    decay_mult: 0
  }
  param {
    lr_mult: 0
    decay_mult: 0
  }
  batch_norm_param {
    use_global_stats: false
    eps: 1e-05
  }
}
layer {
  name: "conv3_2/dw/scale"
  type: "Scale"
  bottom: "conv3_2/dw"
  top: "conv3_2/dw"
  param {
    lr_mult: 1
    decay_mult: 0
  }
  param {
    lr_mult: 1
    decay_mult: 0
  }
  scale_param {
    filler {
      value: 1
    }
    bias_term: true
    bias_filler {
      value: 0
    }
  }
}
layer {
  name: "relu3_2/dw"
  type: "ReLU"
  bottom: "conv3_2/dw"
  top: "conv3_2/dw"
}
layer {
  name: "conv3_2/sep"
  type: "Convolution"
  bottom: "conv3_2/dw"
  top: "conv3_2/sep"
  param {
    lr_mult: 1
    decay_mult: 1
  }
  convolution_param {
    num_output: 256
    bias_term: false
    pad: 0
    kernel_size: 1
    stride: 1
    weight_filler {
      type: "msra"
    }
  }
}
layer {
  name: "conv3_2/sep/bn"
  type: "BatchNorm"
  bottom: "conv3_2/sep"
  top: "conv3_2/sep"
  param {
    lr_mult: 0
    decay_mult: 0
  }
  param {
    lr_mult: 0
    decay_mult: 0
  }
  param {
    lr_mult: 0
    decay_mult: 0
  }
  batch_norm_param {
    use_global_stats: false
    eps: 1e-05
  }
}
layer {
  name: "conv3_2/sep/scale"
  type: "Scale"
  bottom: "conv3_2/sep"
  top: "conv3_2/sep"
  param {
    lr_mult: 1
    decay_mult: 0
  }
  param {
    lr_mult: 1
    decay_mult: 0
  }
  scale_param {
    filler {
      value: 1
    }
    bias_term: true
    bias_filler {
      value: 0
    }
  }
}
layer {
  name: "relu3_2/sep"
  type: "ReLU"
  bottom: "conv3_2/sep"
  top: "conv3_2/sep"
}
layer {
  name: "conv4_1/dw"
  type: "Convolution"
  bottom: "conv3_2/sep"
  top: "conv4_1/dw"
  param {
    lr_mult: 1
    decay_mult: 1
  }
  convolution_param {
    num_output: 256
    bias_term: false
    pad: 1
    kernel_size: 3
    group: 256
    stride: 1
    weight_filler {
      type: "msra"
    }
    engine: CAFFE
  }
}
layer {
  name: "conv4_1/dw/bn"
  type: "BatchNorm"
  bottom: "conv4_1/dw"
  top: "conv4_1/dw"
  param {
    lr_mult: 0
    decay_mult: 0
  }
  param {
    lr_mult: 0
    decay_mult: 0
  }
  param {
    lr_mult: 0
    decay_mult: 0
  }
  batch_norm_param {
    use_global_stats: false
    eps: 1e-05
  }
}
layer {
  name: "conv4_1/dw/scale"
  type: "Scale"
  bottom: "conv4_1/dw"
  top: "conv4_1/dw"
  param {
    lr_mult: 1
    decay_mult: 0
  }
  param {
    lr_mult: 1
    decay_mult: 0
  }
  scale_param {
    filler {
      value: 1
    }
    bias_term: true
    bias_filler {
      value: 0
    }
  }
}
layer {
  name: "relu4_1/dw"
  type: "ReLU"
  bottom: "conv4_1/dw"
  top: "conv4_1/dw"
}
layer {
  name: "conv4_1/sep"
  type: "Convolution"
  bottom: "conv4_1/dw"
  top: "conv4_1/sep"
  param {
    lr_mult: 1
    decay_mult: 1
  }
  convolution_param {
    num_output: 256
    bias_term: false
    pad: 0
    kernel_size: 1
    stride: 1
    weight_filler {
      type: "msra"
    }
  }
}
layer {
  name: "conv4_1/sep/bn"
  type: "BatchNorm"
  bottom: "conv4_1/sep"
  top: "conv4_1/sep"
  param {
    lr_mult: 0
    decay_mult: 0
  }
  param {
    lr_mult: 0
    decay_mult: 0
  }
  param {
    lr_mult: 0
    decay_mult: 0
  }
  batch_norm_param {
    use_global_stats: false
    eps: 1e-05
  }
}
layer {
  name: "conv4_1/sep/scale"
  type: "Scale"
  bottom: "conv4_1/sep"
  top: "conv4_1/sep"
  param {
    lr_mult: 1
    decay_mult: 0
  }
  param {
    lr_mult: 1
    decay_mult: 0
  }
  scale_param {
    filler {
      value: 1
    }
    bias_term: true
    bias_filler {
      value: 0
    }
  }
}
layer {
  name: "relu4_1/sep"
  type: "ReLU"
  bottom: "conv4_1/sep"
  top: "conv4_1/sep"
}
layer {
  name: "conv4_2/dw"
  type: "Convolution"
  bottom: "conv4_1/sep"
  top: "conv4_2/dw"
  param {
    lr_mult: 1
    decay_mult: 1
  }
  convolution_param {
    num_output: 256
    bias_term: false
    pad: 1
    kernel_size: 3
    group: 256
    stride: 2
    weight_filler {
      type: "msra"
    }
    engine: CAFFE
  }
}
layer {
  name: "conv4_2/dw/bn"
  type: "BatchNorm"
  bottom: "conv4_2/dw"
  top: "conv4_2/dw"
  param {
    lr_mult: 0
    decay_mult: 0
  }
  param {
    lr_mult: 0
    decay_mult: 0
  }
  param {
    lr_mult: 0
    decay_mult: 0
  }
  batch_norm_param {
    use_global_stats: false
    eps: 1e-05
  }
}
layer {
  name: "conv4_2/dw/scale"
  type: "Scale"
  bottom: "conv4_2/dw"
  top: "conv4_2/dw"
  param {
    lr_mult: 1
    decay_mult: 0
  }
  param {
    lr_mult: 1
    decay_mult: 0
  }
  scale_param {
    filler {
      value: 1
    }
    bias_term: true
    bias_filler {
      value: 0
    }
  }
}
layer {
  name: "relu4_2/dw"
  type: "ReLU"
  bottom: "conv4_2/dw"
  top: "conv4_2/dw"
}
layer {
  name: "conv4_2/sep"
  type: "Convolution"
  bottom: "conv4_2/dw"
  top: "conv4_2/sep"
  param {
    lr_mult: 1
    decay_mult: 1
  }
  convolution_param {
    num_output: 512
    bias_term: false
    pad: 0
    kernel_size: 1
    stride: 1
    weight_filler {
      type: "msra"
    }
  }
}
layer {
  name: "conv4_2/sep/bn"
  type: "BatchNorm"
  bottom: "conv4_2/sep"
  top: "conv4_2/sep"
  param {
    lr_mult: 0
    decay_mult: 0
  }
  param {
    lr_mult: 0
    decay_mult: 0
  }
  param {
    lr_mult: 0
    decay_mult: 0
  }
  batch_norm_param {
    use_global_stats: false
    eps: 1e-05
  }
}
layer {
  name: "conv4_2/sep/scale"
  type: "Scale"
  bottom: "conv4_2/sep"
  top: "conv4_2/sep"
  param {
    lr_mult: 1
    decay_mult: 0
  }
  param {
    lr_mult: 1
    decay_mult: 0
  }
  scale_param {
    filler {
      value: 1
    }
    bias_term: true
    bias_filler {
      value: 0
    }
  }
}
layer {
  name: "relu4_2/sep"
  type: "ReLU"
  bottom: "conv4_2/sep"
  top: "conv4_2/sep"
}
layer {
  name: "conv5_1/dw"
  type: "Convolution"
  bottom: "conv4_2/sep"
  top: "conv5_1/dw"
  param {
    lr_mult: 1
    decay_mult: 1
  }
  convolution_param {
    num_output: 512
    bias_term: false
    pad: 1
    kernel_size: 3
    group: 512
    stride: 1
    weight_filler {
      type: "msra"
    }
    engine: CAFFE
  }
}
layer {
  name: "conv5_1/dw/bn"
  type: "BatchNorm"
  bottom: "conv5_1/dw"
  top: "conv5_1/dw"
  param {
    lr_mult: 0
    decay_mult: 0
  }
  param {
    lr_mult: 0
    decay_mult: 0
  }
  param {
    lr_mult: 0
    decay_mult: 0
  }
  batch_norm_param {
    use_global_stats: false
    eps: 1e-05
  }
}
layer {
  name: "conv5_1/dw/scale"
  type: "Scale"
  bottom: "conv5_1/dw"
  top: "conv5_1/dw"
  param {
    lr_mult: 1
    decay_mult: 0
  }
  param {
    lr_mult: 1
    decay_mult: 0
  }
  scale_param {
    filler {
      value: 1
    }
    bias_term: true
    bias_filler {
      value: 0
    }
  }
}
layer {
  name: "relu5_1/dw"
  type: "ReLU"
  bottom: "conv5_1/dw"
  top: "conv5_1/dw"
}
layer {
  name: "conv5_1/sep"
  type: "Convolution"
  bottom: "conv5_1/dw"
  top: "conv5_1/sep"
  param {
    lr_mult: 1
    decay_mult: 1
  }
  convolution_param {
    num_output: 512
    bias_term: false
    pad: 0
    kernel_size: 1
    stride: 1
    weight_filler {
      type: "msra"
    }
  }
}
layer {
  name: "conv5_1/sep/bn"
  type: "BatchNorm"
  bottom: "conv5_1/sep"
  top: "conv5_1/sep"
  param {
    lr_mult: 0
    decay_mult: 0
  }
  param {
    lr_mult: 0
    decay_mult: 0
  }
  param {
    lr_mult: 0
    decay_mult: 0
  }
  batch_norm_param {
    use_global_stats: false
    eps: 1e-05
  }
}
layer {
  name: "conv5_1/sep/scale"
  type: "Scale"
  bottom: "conv5_1/sep"
  top: "conv5_1/sep"
  param {
    lr_mult: 1
    decay_mult: 0
  }
  param {
    lr_mult: 1
    decay_mult: 0
  }
  scale_param {
    filler {
      value: 1
    }
    bias_term: true
    bias_filler {
      value: 0
    }
  }
}
layer {
  name: "relu5_1/sep"
  type: "ReLU"
  bottom: "conv5_1/sep"
  top: "conv5_1/sep"
}
layer {
  name: "conv5_2/dw"
  type: "Convolution"
  bottom: "conv5_1/sep"
  top: "conv5_2/dw"
  param {
    lr_mult: 1
    decay_mult: 1
  }
  convolution_param {
    num_output: 512
    bias_term: false
    pad: 1
    kernel_size: 3
    group: 512
    stride: 1
    weight_filler {
      type: "msra"
    }
    engine: CAFFE
  }
}
layer {
  name: "conv5_2/dw/bn"
  type: "BatchNorm"
  bottom: "conv5_2/dw"
  top: "conv5_2/dw"
  param {
    lr_mult: 0
    decay_mult: 0
  }
  param {
    lr_mult: 0
    decay_mult: 0
  }
  param {
    lr_mult: 0
    decay_mult: 0
  }
  batch_norm_param {
    use_global_stats: false
    eps: 1e-05
  }
}
layer {
  name: "conv5_2/dw/scale"
  type: "Scale"
  bottom: "conv5_2/dw"
  top: "conv5_2/dw"
  param {
    lr_mult: 1
    decay_mult: 0
  }
  param {
    lr_mult: 1
    decay_mult: 0
  }
  scale_param {
    filler {
      value: 1
    }
    bias_term: true
    bias_filler {
      value: 0
    }
  }
}
layer {
  name: "relu5_2/dw"
  type: "ReLU"
  bottom: "conv5_2/dw"
  top: "conv5_2/dw"
}
layer {
  name: "conv5_2/sep"
  type: "Convolution"
  bottom: "conv5_2/dw"
  top: "conv5_2/sep"
  param {
    lr_mult: 1
    decay_mult: 1
  }
  convolution_param {
    num_output: 512
    bias_term: false
    pad: 0
    kernel_size: 1
    stride: 1
    weight_filler {
      type: "msra"
    }
  }
}
layer {
  name: "conv5_2/sep/bn"
  type: "BatchNorm"
  bottom: "conv5_2/sep"
  top: "conv5_2/sep"
  param {
    lr_mult: 0
    decay_mult: 0
  }
  param {
    lr_mult: 0
    decay_mult: 0
  }
  param {
    lr_mult: 0
    decay_mult: 0
  }
  batch_norm_param {
    use_global_stats: false
    eps: 1e-05
  }
}
layer {
  name: "conv5_2/sep/scale"
  type: "Scale"
  bottom: "conv5_2/sep"
  top: "conv5_2/sep"
  param {
    lr_mult: 1
    decay_mult: 0
  }
  param {
    lr_mult: 1
    decay_mult: 0
  }
  scale_param {
    filler {
      value: 1
    }
    bias_term: true
    bias_filler {
      value: 0
    }
  }
}
layer {
  name: "relu5_2/sep"
  type: "ReLU"
  bottom: "conv5_2/sep"
  top: "conv5_2/sep"
}
layer {
  name: "conv5_3/dw"
  type: "Convolution"
  bottom: "conv5_2/sep"
  top: "conv5_3/dw"
  param {
    lr_mult: 1
    decay_mult: 1
  }
  convolution_param {
    num_output: 512
    bias_term: false
    pad: 1
    kernel_size: 3
    group: 512
    stride: 1
    weight_filler {
      type: "msra"
    }
    engine: CAFFE
  }
}
layer {
  name: "conv5_3/dw/bn"
  type: "BatchNorm"
  bottom: "conv5_3/dw"
  top: "conv5_3/dw"
  param {
    lr_mult: 0
    decay_mult: 0
  }
  param {
    lr_mult: 0
    decay_mult: 0
  }
  param {
    lr_mult: 0
    decay_mult: 0
  }
  batch_norm_param {
    use_global_stats: false
    eps: 1e-05
  }
}
layer {
  name: "conv5_3/dw/scale"
  type: "Scale"
  bottom: "conv5_3/dw"
  top: "conv5_3/dw"
  param {
    lr_mult: 1
    decay_mult: 0
  }
  param {
    lr_mult: 1
    decay_mult: 0
  }
  scale_param {
    filler {
      value: 1
    }
    bias_term: true
    bias_filler {
      value: 0
    }
  }
}
layer {
  name: "relu5_3/dw"
  type: "ReLU"
  bottom: "conv5_3/dw"
  top: "conv5_3/dw"
}
layer {
  name: "conv5_3/sep"
  type: "Convolution"
  bottom: "conv5_3/dw"
  top: "conv5_3/sep"
  param {
    lr_mult: 1
    decay_mult: 1
  }
  convolution_param {
    num_output: 512
    bias_term: false
    pad: 0
    kernel_size: 1
    stride: 1
    weight_filler {
      type: "msra"
    }
  }
}
layer {
  name: "conv5_3/sep/bn"
  type: "BatchNorm"
  bottom: "conv5_3/sep"
  top: "conv5_3/sep"
  param {
    lr_mult: 0
    decay_mult: 0
  }
  param {
    lr_mult: 0
    decay_mult: 0
  }
  param {
    lr_mult: 0
    decay_mult: 0
  }
  batch_norm_param {
    use_global_stats: false
    eps: 1e-05
  }
}
layer {
  name: "conv5_3/sep/scale"
  type: "Scale"
  bottom: "conv5_3/sep"
  top: "conv5_3/sep"
  param {
    lr_mult: 1
    decay_mult: 0
  }
  param {
    lr_mult: 1
    decay_mult: 0
  }
  scale_param {
    filler {
      value: 1
    }
    bias_term: true
    bias_filler {
      value: 0
    }
  }
}
layer {
  name: "relu5_3/sep"
  type: "ReLU"
  bottom: "conv5_3/sep"
  top: "conv5_3/sep"
}
layer {
  name: "conv5_4/dw"
  type: "Convolution"
  bottom: "conv5_3/sep"
  top: "conv5_4/dw"
  param {
    lr_mult: 1
    decay_mult: 1
  }
  convolution_param {
    num_output: 512
    bias_term: false
    pad: 1
    kernel_size: 3
    group: 512
    stride: 1
    weight_filler {
      type: "msra"
    }
    engine: CAFFE
  }
}
layer {
  name: "conv5_4/dw/bn"
  type: "BatchNorm"
  bottom: "conv5_4/dw"
  top: "conv5_4/dw"
  param {
    lr_mult: 0
    decay_mult: 0
  }
  param {
    lr_mult: 0
    decay_mult: 0
  }
  param {
    lr_mult: 0
    decay_mult: 0
  }
  batch_norm_param {
    use_global_stats: false
    eps: 1e-05
  }
}
layer {
  name: "conv5_4/dw/scale"
  type: "Scale"
  bottom: "conv5_4/dw"
  top: "conv5_4/dw"
  param {
    lr_mult: 1
    decay_mult: 0
  }
  param {
    lr_mult: 1
    decay_mult: 0
  }
  scale_param {
    filler {
      value: 1
    }
    bias_term: true
    bias_filler {
      value: 0
    }
  }
}
layer {
  name: "relu5_4/dw"
  type: "ReLU"
  bottom: "conv5_4/dw"
  top: "conv5_4/dw"
}
layer {
  name: "conv5_4/sep"
  type: "Convolution"
  bottom: "conv5_4/dw"
  top: "conv5_4/sep"
  param {
    lr_mult: 1
    decay_mult: 1
  }
  convolution_param {
    num_output: 512
    bias_term: false
    pad: 0
    kernel_size: 1
    stride: 1
    weight_filler {
      type: "msra"
    }
  }
}
layer {
  name: "conv5_4/sep/bn"
  type: "BatchNorm"
  bottom: "conv5_4/sep"
  top: "conv5_4/sep"
  param {
    lr_mult: 0
    decay_mult: 0
  }
  param {
    lr_mult: 0
    decay_mult: 0
  }
  param {
    lr_mult: 0
    decay_mult: 0
  }
  batch_norm_param {
    use_global_stats: false
    eps: 1e-05
  }
}
layer {
  name: "conv5_4/sep/scale"
  type: "Scale"
  bottom: "conv5_4/sep"
  top: "conv5_4/sep"
  param {
    lr_mult: 1
    decay_mult: 0
  }
  param {
    lr_mult: 1
    decay_mult: 0
  }
  scale_param {
    filler {
      value: 1
    }
    bias_term: true
    bias_filler {
      value: 0
    }
  }
}
layer {
  name: "relu5_4/sep"
  type: "ReLU"
  bottom: "conv5_4/sep"
  top: "conv5_4/sep"
}
layer {
  name: "conv5_5/dw"
  type: "Convolution"
  bottom: "conv5_4/sep"
  top: "conv5_5/dw"
  param {
    lr_mult: 1
    decay_mult: 1
  }
  convolution_param {
    num_output: 512
    bias_term: false
    pad: 1
    kernel_size: 3
    group: 512
    stride: 1
    weight_filler {
      type: "msra"
    }
    engine: CAFFE
  }
}
layer {
  name: "conv5_5/dw/bn"
  type: "BatchNorm"
  bottom: "conv5_5/dw"
  top: "conv5_5/dw"
  param {
    lr_mult: 0
    decay_mult: 0
  }
  param {
    lr_mult: 0
    decay_mult: 0
  }
  param {
    lr_mult: 0
    decay_mult: 0
  }
  batch_norm_param {
    use_global_stats: false
    eps: 1e-05
  }
}
layer {
  name: "conv5_5/dw/scale"
  type: "Scale"
  bottom: "conv5_5/dw"
  top: "conv5_5/dw"
  param {
    lr_mult: 1
    decay_mult: 0
  }
  param {
    lr_mult: 1
    decay_mult: 0
  }
  scale_param {
    filler {
      value: 1
    }
    bias_term: true
    bias_filler {
      value: 0
    }
  }
}
layer {
  name: "relu5_5/dw"
  type: "ReLU"
  bottom: "conv5_5/dw"
  top: "conv5_5/dw"
}
layer {
  name: "conv5_5/sep"
  type: "Convolution"
  bottom: "conv5_5/dw"
  top: "conv5_5/sep"
  param {
    lr_mult: 1
    decay_mult: 1
  }
  convolution_param {
    num_output: 512
    bias_term: false
    pad: 0
    kernel_size: 1
    stride: 1
    weight_filler {
      type: "msra"
    }
  }
}
layer {
  name: "conv5_5/sep/bn"
  type: "BatchNorm"
  bottom: "conv5_5/sep"
  top: "conv5_5/sep"
  param {
    lr_mult: 0
    decay_mult: 0
  }
  param {
    lr_mult: 0
    decay_mult: 0
  }
  param {
    lr_mult: 0
    decay_mult: 0
  }
  batch_norm_param {
    use_global_stats: false
    eps: 1e-05
  }
}
layer {
  name: "conv5_5/sep/scale"
  type: "Scale"
  bottom: "conv5_5/sep"
  top: "conv5_5/sep"
  param {
    lr_mult: 1
    decay_mult: 0
  }
  param {
    lr_mult: 1
    decay_mult: 0
  }
  scale_param {
    filler {
      value: 1
    }
    bias_term: true
    bias_filler {
      value: 0
    }
  }
}
layer {
  name: "relu5_5/sep"
  type: "ReLU"
  bottom: "conv5_5/sep"
  top: "conv5_5/sep"
}
layer {
  name: "pool6"
  type: "Pooling"
  bottom: "conv5_5/sep"
  top: "pool6"
  pooling_param {
    pool: AVE
    global_pooling: true
  }
}
layer {
  name: "fc7-mouth"
  type: "Convolution"
  bottom: "pool6"
  top: "fc7-mouth"
  param {
    lr_mult: 1
    decay_mult: 1
  }
  param {
    lr_mult: 2
    decay_mult: 0
  }
  convolution_param {
    num_output: 4
    kernel_size: 1
    weight_filler {
      type: "msra"
    }
    bias_filler {
      type: "constant"
      value: 0
    }
  }
}
layer {
  name: "loss"
  type: "SoftmaxWithLoss"
  bottom: "fc7-mouth"
  bottom: "clc-label"
  top: "loss"
}
layer {
  name: "acc"
  type: "Accuracy"
  bottom: "fc7-mouth"
  bottom: "clc-label"
  top: "acc"
  include {
    phase: TRAIN
  }
  include {
    phase: TEST
  }
}
I0707 01:19:38.854712 13879 layer_factory.hpp:77] Creating layer data
I0707 01:19:38.854748 13879 net.cpp:86] Creating Layer data
I0707 01:19:38.854761 13879 net.cpp:382] data -> data
I0707 01:19:38.854789 13879 net.cpp:382] data -> clc-label
I0707 01:19:38.854876 13879 image_data_layer.cpp:38] Opening file all_shuffle_train.txt
I0707 01:19:38.859483 13879 image_data_layer.cpp:53] Shuffling data
I0707 01:19:38.861146 13879 image_data_layer.cpp:63] A total of 13596 images.
I0707 01:19:38.862859 13879 image_data_layer.cpp:90] output data size: 64,3,96,96
I0707 01:19:38.880538 13879 net.cpp:124] Setting up data
I0707 01:19:38.880568 13879 net.cpp:131] Top shape: 64 3 96 96 (1769472)
I0707 01:19:38.880573 13879 net.cpp:131] Top shape: 64 (64)
I0707 01:19:38.880578 13879 net.cpp:139] Memory required for data: 7078144
I0707 01:19:38.880590 13879 layer_factory.hpp:77] Creating layer clc-label_data_1_split
I0707 01:19:38.880606 13879 net.cpp:86] Creating Layer clc-label_data_1_split
I0707 01:19:38.880616 13879 net.cpp:408] clc-label_data_1_split <- clc-label
I0707 01:19:38.880636 13879 net.cpp:382] clc-label_data_1_split -> clc-label_data_1_split_0
I0707 01:19:38.880651 13879 net.cpp:382] clc-label_data_1_split -> clc-label_data_1_split_1
I0707 01:19:38.880712 13879 net.cpp:124] Setting up clc-label_data_1_split
I0707 01:19:38.880720 13879 net.cpp:131] Top shape: 64 (64)
I0707 01:19:38.880725 13879 net.cpp:131] Top shape: 64 (64)
I0707 01:19:38.880729 13879 net.cpp:139] Memory required for data: 7078656
I0707 01:19:38.880735 13879 layer_factory.hpp:77] Creating layer conv1
I0707 01:19:38.880755 13879 net.cpp:86] Creating Layer conv1
I0707 01:19:38.880770 13879 net.cpp:408] conv1 <- data
I0707 01:19:38.880777 13879 net.cpp:382] conv1 -> conv1
I0707 01:19:39.472839 13879 net.cpp:124] Setting up conv1
I0707 01:19:39.472882 13879 net.cpp:131] Top shape: 64 32 48 48 (4718592)
I0707 01:19:39.472888 13879 net.cpp:139] Memory required for data: 25953024
I0707 01:19:39.472906 13879 layer_factory.hpp:77] Creating layer conv1/bn
I0707 01:19:39.472920 13879 net.cpp:86] Creating Layer conv1/bn
I0707 01:19:39.472929 13879 net.cpp:408] conv1/bn <- conv1
I0707 01:19:39.472949 13879 net.cpp:369] conv1/bn -> conv1 (in-place)
I0707 01:19:39.474031 13879 net.cpp:124] Setting up conv1/bn
I0707 01:19:39.474045 13879 net.cpp:131] Top shape: 64 32 48 48 (4718592)
I0707 01:19:39.474048 13879 net.cpp:139] Memory required for data: 44827392
I0707 01:19:39.474061 13879 layer_factory.hpp:77] Creating layer conv1/scale
I0707 01:19:39.474071 13879 net.cpp:86] Creating Layer conv1/scale
I0707 01:19:39.474076 13879 net.cpp:408] conv1/scale <- conv1
I0707 01:19:39.474086 13879 net.cpp:369] conv1/scale -> conv1 (in-place)
I0707 01:19:39.474156 13879 layer_factory.hpp:77] Creating layer conv1/scale
I0707 01:19:39.474287 13879 net.cpp:124] Setting up conv1/scale
I0707 01:19:39.474298 13879 net.cpp:131] Top shape: 64 32 48 48 (4718592)
I0707 01:19:39.474303 13879 net.cpp:139] Memory required for data: 63701760
I0707 01:19:39.474310 13879 layer_factory.hpp:77] Creating layer relu1
I0707 01:19:39.474318 13879 net.cpp:86] Creating Layer relu1
I0707 01:19:39.474349 13879 net.cpp:408] relu1 <- conv1
I0707 01:19:39.474356 13879 net.cpp:369] relu1 -> conv1 (in-place)
I0707 01:19:39.474860 13879 net.cpp:124] Setting up relu1
I0707 01:19:39.474871 13879 net.cpp:131] Top shape: 64 32 48 48 (4718592)
I0707 01:19:39.474875 13879 net.cpp:139] Memory required for data: 82576128
I0707 01:19:39.474879 13879 layer_factory.hpp:77] Creating layer conv2_1/dw
I0707 01:19:39.474891 13879 net.cpp:86] Creating Layer conv2_1/dw
I0707 01:19:39.474895 13879 net.cpp:408] conv2_1/dw <- conv1
I0707 01:19:39.474903 13879 net.cpp:382] conv2_1/dw -> conv2_1/dw
I0707 01:19:39.475113 13879 net.cpp:124] Setting up conv2_1/dw
I0707 01:19:39.475123 13879 net.cpp:131] Top shape: 64 32 48 48 (4718592)
I0707 01:19:39.475126 13879 net.cpp:139] Memory required for data: 101450496
I0707 01:19:39.475132 13879 layer_factory.hpp:77] Creating layer conv2_1/dw/bn
I0707 01:19:39.475138 13879 net.cpp:86] Creating Layer conv2_1/dw/bn
I0707 01:19:39.475143 13879 net.cpp:408] conv2_1/dw/bn <- conv2_1/dw
I0707 01:19:39.475150 13879 net.cpp:369] conv2_1/dw/bn -> conv2_1/dw (in-place)
I0707 01:19:39.475353 13879 net.cpp:124] Setting up conv2_1/dw/bn
I0707 01:19:39.475363 13879 net.cpp:131] Top shape: 64 32 48 48 (4718592)
I0707 01:19:39.475366 13879 net.cpp:139] Memory required for data: 120324864
I0707 01:19:39.475375 13879 layer_factory.hpp:77] Creating layer conv2_1/dw/scale
I0707 01:19:39.475385 13879 net.cpp:86] Creating Layer conv2_1/dw/scale
I0707 01:19:39.475389 13879 net.cpp:408] conv2_1/dw/scale <- conv2_1/dw
I0707 01:19:39.475395 13879 net.cpp:369] conv2_1/dw/scale -> conv2_1/dw (in-place)
I0707 01:19:39.475448 13879 layer_factory.hpp:77] Creating layer conv2_1/dw/scale
I0707 01:19:39.475601 13879 net.cpp:124] Setting up conv2_1/dw/scale
I0707 01:19:39.475610 13879 net.cpp:131] Top shape: 64 32 48 48 (4718592)
I0707 01:19:39.475615 13879 net.cpp:139] Memory required for data: 139199232
I0707 01:19:39.475620 13879 layer_factory.hpp:77] Creating layer relu2_1/dw
I0707 01:19:39.475627 13879 net.cpp:86] Creating Layer relu2_1/dw
I0707 01:19:39.475631 13879 net.cpp:408] relu2_1/dw <- conv2_1/dw
I0707 01:19:39.475637 13879 net.cpp:369] relu2_1/dw -> conv2_1/dw (in-place)
I0707 01:19:39.476449 13879 net.cpp:124] Setting up relu2_1/dw
I0707 01:19:39.476462 13879 net.cpp:131] Top shape: 64 32 48 48 (4718592)
I0707 01:19:39.476466 13879 net.cpp:139] Memory required for data: 158073600
I0707 01:19:39.476470 13879 layer_factory.hpp:77] Creating layer conv2_1/sep
I0707 01:19:39.476481 13879 net.cpp:86] Creating Layer conv2_1/sep
I0707 01:19:39.476485 13879 net.cpp:408] conv2_1/sep <- conv2_1/dw
I0707 01:19:39.476492 13879 net.cpp:382] conv2_1/sep -> conv2_1/sep
I0707 01:19:39.478471 13879 net.cpp:124] Setting up conv2_1/sep
I0707 01:19:39.478485 13879 net.cpp:131] Top shape: 64 64 48 48 (9437184)
I0707 01:19:39.478489 13879 net.cpp:139] Memory required for data: 195822336
I0707 01:19:39.478495 13879 layer_factory.hpp:77] Creating layer conv2_1/sep/bn
I0707 01:19:39.478504 13879 net.cpp:86] Creating Layer conv2_1/sep/bn
I0707 01:19:39.478508 13879 net.cpp:408] conv2_1/sep/bn <- conv2_1/sep
I0707 01:19:39.478516 13879 net.cpp:369] conv2_1/sep/bn -> conv2_1/sep (in-place)
I0707 01:19:39.478684 13879 net.cpp:124] Setting up conv2_1/sep/bn
I0707 01:19:39.478694 13879 net.cpp:131] Top shape: 64 64 48 48 (9437184)
I0707 01:19:39.478698 13879 net.cpp:139] Memory required for data: 233571072
I0707 01:19:39.478705 13879 layer_factory.hpp:77] Creating layer conv2_1/sep/scale
I0707 01:19:39.478714 13879 net.cpp:86] Creating Layer conv2_1/sep/scale
I0707 01:19:39.478718 13879 net.cpp:408] conv2_1/sep/scale <- conv2_1/sep
I0707 01:19:39.478724 13879 net.cpp:369] conv2_1/sep/scale -> conv2_1/sep (in-place)
I0707 01:19:39.478768 13879 layer_factory.hpp:77] Creating layer conv2_1/sep/scale
I0707 01:19:39.478888 13879 net.cpp:124] Setting up conv2_1/sep/scale
I0707 01:19:39.478899 13879 net.cpp:131] Top shape: 64 64 48 48 (9437184)
I0707 01:19:39.478902 13879 net.cpp:139] Memory required for data: 271319808
I0707 01:19:39.478924 13879 layer_factory.hpp:77] Creating layer relu2_1/sep
I0707 01:19:39.478930 13879 net.cpp:86] Creating Layer relu2_1/sep
I0707 01:19:39.478935 13879 net.cpp:408] relu2_1/sep <- conv2_1/sep
I0707 01:19:39.478940 13879 net.cpp:369] relu2_1/sep -> conv2_1/sep (in-place)
I0707 01:19:39.479739 13879 net.cpp:124] Setting up relu2_1/sep
I0707 01:19:39.479751 13879 net.cpp:131] Top shape: 64 64 48 48 (9437184)
I0707 01:19:39.479755 13879 net.cpp:139] Memory required for data: 309068544
I0707 01:19:39.479768 13879 layer_factory.hpp:77] Creating layer conv2_2/dw
I0707 01:19:39.479789 13879 net.cpp:86] Creating Layer conv2_2/dw
I0707 01:19:39.479799 13879 net.cpp:408] conv2_2/dw <- conv2_1/sep
I0707 01:19:39.479807 13879 net.cpp:382] conv2_2/dw -> conv2_2/dw
I0707 01:19:39.480020 13879 net.cpp:124] Setting up conv2_2/dw
I0707 01:19:39.480029 13879 net.cpp:131] Top shape: 64 64 24 24 (2359296)
I0707 01:19:39.480033 13879 net.cpp:139] Memory required for data: 318505728
I0707 01:19:39.480039 13879 layer_factory.hpp:77] Creating layer conv2_2/dw/bn
I0707 01:19:39.480047 13879 net.cpp:86] Creating Layer conv2_2/dw/bn
I0707 01:19:39.480053 13879 net.cpp:408] conv2_2/dw/bn <- conv2_2/dw
I0707 01:19:39.480065 13879 net.cpp:369] conv2_2/dw/bn -> conv2_2/dw (in-place)
I0707 01:19:39.480248 13879 net.cpp:124] Setting up conv2_2/dw/bn
I0707 01:19:39.480258 13879 net.cpp:131] Top shape: 64 64 24 24 (2359296)
I0707 01:19:39.480267 13879 net.cpp:139] Memory required for data: 327942912
I0707 01:19:39.480280 13879 layer_factory.hpp:77] Creating layer conv2_2/dw/scale
I0707 01:19:39.480293 13879 net.cpp:86] Creating Layer conv2_2/dw/scale
I0707 01:19:39.480299 13879 net.cpp:408] conv2_2/dw/scale <- conv2_2/dw
I0707 01:19:39.480311 13879 net.cpp:369] conv2_2/dw/scale -> conv2_2/dw (in-place)
I0707 01:19:39.480356 13879 layer_factory.hpp:77] Creating layer conv2_2/dw/scale
I0707 01:19:39.480471 13879 net.cpp:124] Setting up conv2_2/dw/scale
I0707 01:19:39.480481 13879 net.cpp:131] Top shape: 64 64 24 24 (2359296)
I0707 01:19:39.480489 13879 net.cpp:139] Memory required for data: 337380096
I0707 01:19:39.480500 13879 layer_factory.hpp:77] Creating layer relu2_2/dw
I0707 01:19:39.480517 13879 net.cpp:86] Creating Layer relu2_2/dw
I0707 01:19:39.480525 13879 net.cpp:408] relu2_2/dw <- conv2_2/dw
I0707 01:19:39.480537 13879 net.cpp:369] relu2_2/dw -> conv2_2/dw (in-place)
I0707 01:19:39.481021 13879 net.cpp:124] Setting up relu2_2/dw
I0707 01:19:39.481034 13879 net.cpp:131] Top shape: 64 64 24 24 (2359296)
I0707 01:19:39.481041 13879 net.cpp:139] Memory required for data: 346817280
I0707 01:19:39.481050 13879 layer_factory.hpp:77] Creating layer conv2_2/sep
I0707 01:19:39.481065 13879 net.cpp:86] Creating Layer conv2_2/sep
I0707 01:19:39.481072 13879 net.cpp:408] conv2_2/sep <- conv2_2/dw
I0707 01:19:39.481084 13879 net.cpp:382] conv2_2/sep -> conv2_2/sep
I0707 01:19:39.483985 13879 net.cpp:124] Setting up conv2_2/sep
I0707 01:19:39.484006 13879 net.cpp:131] Top shape: 64 128 24 24 (4718592)
I0707 01:19:39.484014 13879 net.cpp:139] Memory required for data: 365691648
I0707 01:19:39.484024 13879 layer_factory.hpp:77] Creating layer conv2_2/sep/bn
I0707 01:19:39.484038 13879 net.cpp:86] Creating Layer conv2_2/sep/bn
I0707 01:19:39.484045 13879 net.cpp:408] conv2_2/sep/bn <- conv2_2/sep
I0707 01:19:39.484055 13879 net.cpp:369] conv2_2/sep/bn -> conv2_2/sep (in-place)
I0707 01:19:39.484233 13879 net.cpp:124] Setting up conv2_2/sep/bn
I0707 01:19:39.484244 13879 net.cpp:131] Top shape: 64 128 24 24 (4718592)
I0707 01:19:39.484248 13879 net.cpp:139] Memory required for data: 384566016
I0707 01:19:39.484256 13879 layer_factory.hpp:77] Creating layer conv2_2/sep/scale
I0707 01:19:39.484264 13879 net.cpp:86] Creating Layer conv2_2/sep/scale
I0707 01:19:39.484269 13879 net.cpp:408] conv2_2/sep/scale <- conv2_2/sep
I0707 01:19:39.484275 13879 net.cpp:369] conv2_2/sep/scale -> conv2_2/sep (in-place)
I0707 01:19:39.484339 13879 layer_factory.hpp:77] Creating layer conv2_2/sep/scale
I0707 01:19:39.484470 13879 net.cpp:124] Setting up conv2_2/sep/scale
I0707 01:19:39.484493 13879 net.cpp:131] Top shape: 64 128 24 24 (4718592)
I0707 01:19:39.484506 13879 net.cpp:139] Memory required for data: 403440384
I0707 01:19:39.484525 13879 layer_factory.hpp:77] Creating layer relu2_2/sep
I0707 01:19:39.484539 13879 net.cpp:86] Creating Layer relu2_2/sep
I0707 01:19:39.484553 13879 net.cpp:408] relu2_2/sep <- conv2_2/sep
I0707 01:19:39.484563 13879 net.cpp:369] relu2_2/sep -> conv2_2/sep (in-place)
I0707 01:19:39.485522 13879 net.cpp:124] Setting up relu2_2/sep
I0707 01:19:39.485533 13879 net.cpp:131] Top shape: 64 128 24 24 (4718592)
I0707 01:19:39.485538 13879 net.cpp:139] Memory required for data: 422314752
I0707 01:19:39.485549 13879 layer_factory.hpp:77] Creating layer conv3_1/dw
I0707 01:19:39.485561 13879 net.cpp:86] Creating Layer conv3_1/dw
I0707 01:19:39.485565 13879 net.cpp:408] conv3_1/dw <- conv2_2/sep
I0707 01:19:39.485585 13879 net.cpp:382] conv3_1/dw -> conv3_1/dw
I0707 01:19:39.485793 13879 net.cpp:124] Setting up conv3_1/dw
I0707 01:19:39.485802 13879 net.cpp:131] Top shape: 64 128 24 24 (4718592)
I0707 01:19:39.485806 13879 net.cpp:139] Memory required for data: 441189120
I0707 01:19:39.485819 13879 layer_factory.hpp:77] Creating layer conv3_1/dw/bn
I0707 01:19:39.485828 13879 net.cpp:86] Creating Layer conv3_1/dw/bn
I0707 01:19:39.485833 13879 net.cpp:408] conv3_1/dw/bn <- conv3_1/dw
I0707 01:19:39.485838 13879 net.cpp:369] conv3_1/dw/bn -> conv3_1/dw (in-place)
I0707 01:19:39.486042 13879 net.cpp:124] Setting up conv3_1/dw/bn
I0707 01:19:39.486052 13879 net.cpp:131] Top shape: 64 128 24 24 (4718592)
I0707 01:19:39.486057 13879 net.cpp:139] Memory required for data: 460063488
I0707 01:19:39.486071 13879 layer_factory.hpp:77] Creating layer conv3_1/dw/scale
I0707 01:19:39.486078 13879 net.cpp:86] Creating Layer conv3_1/dw/scale
I0707 01:19:39.486083 13879 net.cpp:408] conv3_1/dw/scale <- conv3_1/dw
I0707 01:19:39.486090 13879 net.cpp:369] conv3_1/dw/scale -> conv3_1/dw (in-place)
I0707 01:19:39.486129 13879 layer_factory.hpp:77] Creating layer conv3_1/dw/scale
I0707 01:19:39.486238 13879 net.cpp:124] Setting up conv3_1/dw/scale
I0707 01:19:39.486246 13879 net.cpp:131] Top shape: 64 128 24 24 (4718592)
I0707 01:19:39.486250 13879 net.cpp:139] Memory required for data: 478937856
I0707 01:19:39.486258 13879 layer_factory.hpp:77] Creating layer relu3_1/dw
I0707 01:19:39.486263 13879 net.cpp:86] Creating Layer relu3_1/dw
I0707 01:19:39.486268 13879 net.cpp:408] relu3_1/dw <- conv3_1/dw
I0707 01:19:39.486274 13879 net.cpp:369] relu3_1/dw -> conv3_1/dw (in-place)
I0707 01:19:39.486768 13879 net.cpp:124] Setting up relu3_1/dw
I0707 01:19:39.486780 13879 net.cpp:131] Top shape: 64 128 24 24 (4718592)
I0707 01:19:39.486784 13879 net.cpp:139] Memory required for data: 497812224
I0707 01:19:39.486788 13879 layer_factory.hpp:77] Creating layer conv3_1/sep
I0707 01:19:39.486799 13879 net.cpp:86] Creating Layer conv3_1/sep
I0707 01:19:39.486804 13879 net.cpp:408] conv3_1/sep <- conv3_1/dw
I0707 01:19:39.486812 13879 net.cpp:382] conv3_1/sep -> conv3_1/sep
I0707 01:19:39.489017 13879 net.cpp:124] Setting up conv3_1/sep
I0707 01:19:39.489032 13879 net.cpp:131] Top shape: 64 128 24 24 (4718592)
I0707 01:19:39.489037 13879 net.cpp:139] Memory required for data: 516686592
I0707 01:19:39.489043 13879 layer_factory.hpp:77] Creating layer conv3_1/sep/bn
I0707 01:19:39.489053 13879 net.cpp:86] Creating Layer conv3_1/sep/bn
I0707 01:19:39.489058 13879 net.cpp:408] conv3_1/sep/bn <- conv3_1/sep
I0707 01:19:39.489069 13879 net.cpp:369] conv3_1/sep/bn -> conv3_1/sep (in-place)
I0707 01:19:39.489256 13879 net.cpp:124] Setting up conv3_1/sep/bn
I0707 01:19:39.489267 13879 net.cpp:131] Top shape: 64 128 24 24 (4718592)
I0707 01:19:39.489271 13879 net.cpp:139] Memory required for data: 535560960
I0707 01:19:39.489279 13879 layer_factory.hpp:77] Creating layer conv3_1/sep/scale
I0707 01:19:39.489287 13879 net.cpp:86] Creating Layer conv3_1/sep/scale
I0707 01:19:39.489296 13879 net.cpp:408] conv3_1/sep/scale <- conv3_1/sep
I0707 01:19:39.489317 13879 net.cpp:369] conv3_1/sep/scale -> conv3_1/sep (in-place)
I0707 01:19:39.489379 13879 layer_factory.hpp:77] Creating layer conv3_1/sep/scale
I0707 01:19:39.489495 13879 net.cpp:124] Setting up conv3_1/sep/scale
I0707 01:19:39.489504 13879 net.cpp:131] Top shape: 64 128 24 24 (4718592)
I0707 01:19:39.489508 13879 net.cpp:139] Memory required for data: 554435328
I0707 01:19:39.489516 13879 layer_factory.hpp:77] Creating layer relu3_1/sep
I0707 01:19:39.489523 13879 net.cpp:86] Creating Layer relu3_1/sep
I0707 01:19:39.489531 13879 net.cpp:408] relu3_1/sep <- conv3_1/sep
I0707 01:19:39.489542 13879 net.cpp:369] relu3_1/sep -> conv3_1/sep (in-place)
I0707 01:19:39.490355 13879 net.cpp:124] Setting up relu3_1/sep
I0707 01:19:39.490370 13879 net.cpp:131] Top shape: 64 128 24 24 (4718592)
I0707 01:19:39.490373 13879 net.cpp:139] Memory required for data: 573309696
I0707 01:19:39.490378 13879 layer_factory.hpp:77] Creating layer conv3_2/dw
I0707 01:19:39.490389 13879 net.cpp:86] Creating Layer conv3_2/dw
I0707 01:19:39.490398 13879 net.cpp:408] conv3_2/dw <- conv3_1/sep
I0707 01:19:39.490408 13879 net.cpp:382] conv3_2/dw -> conv3_2/dw
I0707 01:19:39.490607 13879 net.cpp:124] Setting up conv3_2/dw
I0707 01:19:39.490617 13879 net.cpp:131] Top shape: 64 128 12 12 (1179648)
I0707 01:19:39.490622 13879 net.cpp:139] Memory required for data: 578028288
I0707 01:19:39.490628 13879 layer_factory.hpp:77] Creating layer conv3_2/dw/bn
I0707 01:19:39.490635 13879 net.cpp:86] Creating Layer conv3_2/dw/bn
I0707 01:19:39.490643 13879 net.cpp:408] conv3_2/dw/bn <- conv3_2/dw
I0707 01:19:39.490653 13879 net.cpp:369] conv3_2/dw/bn -> conv3_2/dw (in-place)
I0707 01:19:39.490836 13879 net.cpp:124] Setting up conv3_2/dw/bn
I0707 01:19:39.490845 13879 net.cpp:131] Top shape: 64 128 12 12 (1179648)
I0707 01:19:39.490849 13879 net.cpp:139] Memory required for data: 582746880
I0707 01:19:39.490857 13879 layer_factory.hpp:77] Creating layer conv3_2/dw/scale
I0707 01:19:39.490872 13879 net.cpp:86] Creating Layer conv3_2/dw/scale
I0707 01:19:39.490880 13879 net.cpp:408] conv3_2/dw/scale <- conv3_2/dw
I0707 01:19:39.490885 13879 net.cpp:369] conv3_2/dw/scale -> conv3_2/dw (in-place)
I0707 01:19:39.490929 13879 layer_factory.hpp:77] Creating layer conv3_2/dw/scale
I0707 01:19:39.491041 13879 net.cpp:124] Setting up conv3_2/dw/scale
I0707 01:19:39.491051 13879 net.cpp:131] Top shape: 64 128 12 12 (1179648)
I0707 01:19:39.491055 13879 net.cpp:139] Memory required for data: 587465472
I0707 01:19:39.491061 13879 layer_factory.hpp:77] Creating layer relu3_2/dw
I0707 01:19:39.491068 13879 net.cpp:86] Creating Layer relu3_2/dw
I0707 01:19:39.491073 13879 net.cpp:408] relu3_2/dw <- conv3_2/dw
I0707 01:19:39.491082 13879 net.cpp:369] relu3_2/dw -> conv3_2/dw (in-place)
I0707 01:19:39.491598 13879 net.cpp:124] Setting up relu3_2/dw
I0707 01:19:39.491609 13879 net.cpp:131] Top shape: 64 128 12 12 (1179648)
I0707 01:19:39.491617 13879 net.cpp:139] Memory required for data: 592184064
I0707 01:19:39.491626 13879 layer_factory.hpp:77] Creating layer conv3_2/sep
I0707 01:19:39.491637 13879 net.cpp:86] Creating Layer conv3_2/sep
I0707 01:19:39.491644 13879 net.cpp:408] conv3_2/sep <- conv3_2/dw
I0707 01:19:39.491653 13879 net.cpp:382] conv3_2/sep -> conv3_2/sep
I0707 01:19:39.495118 13879 net.cpp:124] Setting up conv3_2/sep
I0707 01:19:39.495138 13879 net.cpp:131] Top shape: 64 256 12 12 (2359296)
I0707 01:19:39.495147 13879 net.cpp:139] Memory required for data: 601621248
I0707 01:19:39.495159 13879 layer_factory.hpp:77] Creating layer conv3_2/sep/bn
I0707 01:19:39.495170 13879 net.cpp:86] Creating Layer conv3_2/sep/bn
I0707 01:19:39.495177 13879 net.cpp:408] conv3_2/sep/bn <- conv3_2/sep
I0707 01:19:39.495189 13879 net.cpp:369] conv3_2/sep/bn -> conv3_2/sep (in-place)
I0707 01:19:39.495371 13879 net.cpp:124] Setting up conv3_2/sep/bn
I0707 01:19:39.495381 13879 net.cpp:131] Top shape: 64 256 12 12 (2359296)
I0707 01:19:39.495389 13879 net.cpp:139] Memory required for data: 611058432
I0707 01:19:39.495404 13879 layer_factory.hpp:77] Creating layer conv3_2/sep/scale
I0707 01:19:39.495414 13879 net.cpp:86] Creating Layer conv3_2/sep/scale
I0707 01:19:39.495430 13879 net.cpp:408] conv3_2/sep/scale <- conv3_2/sep
I0707 01:19:39.495443 13879 net.cpp:369] conv3_2/sep/scale -> conv3_2/sep (in-place)
I0707 01:19:39.495487 13879 layer_factory.hpp:77] Creating layer conv3_2/sep/scale
I0707 01:19:39.495599 13879 net.cpp:124] Setting up conv3_2/sep/scale
I0707 01:19:39.495609 13879 net.cpp:131] Top shape: 64 256 12 12 (2359296)
I0707 01:19:39.495615 13879 net.cpp:139] Memory required for data: 620495616
I0707 01:19:39.495627 13879 layer_factory.hpp:77] Creating layer relu3_2/sep
I0707 01:19:39.495645 13879 net.cpp:86] Creating Layer relu3_2/sep
I0707 01:19:39.495652 13879 net.cpp:408] relu3_2/sep <- conv3_2/sep
I0707 01:19:39.495661 13879 net.cpp:369] relu3_2/sep -> conv3_2/sep (in-place)
I0707 01:19:39.496462 13879 net.cpp:124] Setting up relu3_2/sep
I0707 01:19:39.496475 13879 net.cpp:131] Top shape: 64 256 12 12 (2359296)
I0707 01:19:39.496481 13879 net.cpp:139] Memory required for data: 629932800
I0707 01:19:39.496493 13879 layer_factory.hpp:77] Creating layer conv4_1/dw
I0707 01:19:39.496505 13879 net.cpp:86] Creating Layer conv4_1/dw
I0707 01:19:39.496510 13879 net.cpp:408] conv4_1/dw <- conv3_2/sep
I0707 01:19:39.496518 13879 net.cpp:382] conv4_1/dw -> conv4_1/dw
I0707 01:19:39.496738 13879 net.cpp:124] Setting up conv4_1/dw
I0707 01:19:39.496749 13879 net.cpp:131] Top shape: 64 256 12 12 (2359296)
I0707 01:19:39.496757 13879 net.cpp:139] Memory required for data: 639369984
I0707 01:19:39.496767 13879 layer_factory.hpp:77] Creating layer conv4_1/dw/bn
I0707 01:19:39.496779 13879 net.cpp:86] Creating Layer conv4_1/dw/bn
I0707 01:19:39.496786 13879 net.cpp:408] conv4_1/dw/bn <- conv4_1/dw
I0707 01:19:39.496796 13879 net.cpp:369] conv4_1/dw/bn -> conv4_1/dw (in-place)
I0707 01:19:39.496971 13879 net.cpp:124] Setting up conv4_1/dw/bn
I0707 01:19:39.496981 13879 net.cpp:131] Top shape: 64 256 12 12 (2359296)
I0707 01:19:39.496989 13879 net.cpp:139] Memory required for data: 648807168
I0707 01:19:39.497004 13879 layer_factory.hpp:77] Creating layer conv4_1/dw/scale
I0707 01:19:39.497022 13879 net.cpp:86] Creating Layer conv4_1/dw/scale
I0707 01:19:39.497028 13879 net.cpp:408] conv4_1/dw/scale <- conv4_1/dw
I0707 01:19:39.497037 13879 net.cpp:369] conv4_1/dw/scale -> conv4_1/dw (in-place)
I0707 01:19:39.497102 13879 layer_factory.hpp:77] Creating layer conv4_1/dw/scale
I0707 01:19:39.497223 13879 net.cpp:124] Setting up conv4_1/dw/scale
I0707 01:19:39.497232 13879 net.cpp:131] Top shape: 64 256 12 12 (2359296)
I0707 01:19:39.497236 13879 net.cpp:139] Memory required for data: 658244352
I0707 01:19:39.497251 13879 layer_factory.hpp:77] Creating layer relu4_1/dw
I0707 01:19:39.497258 13879 net.cpp:86] Creating Layer relu4_1/dw
I0707 01:19:39.497263 13879 net.cpp:408] relu4_1/dw <- conv4_1/dw
I0707 01:19:39.497274 13879 net.cpp:369] relu4_1/dw -> conv4_1/dw (in-place)
I0707 01:19:39.497786 13879 net.cpp:124] Setting up relu4_1/dw
I0707 01:19:39.497798 13879 net.cpp:131] Top shape: 64 256 12 12 (2359296)
I0707 01:19:39.497807 13879 net.cpp:139] Memory required for data: 667681536
I0707 01:19:39.497814 13879 layer_factory.hpp:77] Creating layer conv4_1/sep
I0707 01:19:39.497838 13879 net.cpp:86] Creating Layer conv4_1/sep
I0707 01:19:39.497844 13879 net.cpp:408] conv4_1/sep <- conv4_1/dw
I0707 01:19:39.497854 13879 net.cpp:382] conv4_1/sep -> conv4_1/sep
I0707 01:19:39.500993 13879 net.cpp:124] Setting up conv4_1/sep
I0707 01:19:39.501009 13879 net.cpp:131] Top shape: 64 256 12 12 (2359296)
I0707 01:19:39.501013 13879 net.cpp:139] Memory required for data: 677118720
I0707 01:19:39.501021 13879 layer_factory.hpp:77] Creating layer conv4_1/sep/bn
I0707 01:19:39.501030 13879 net.cpp:86] Creating Layer conv4_1/sep/bn
I0707 01:19:39.501036 13879 net.cpp:408] conv4_1/sep/bn <- conv4_1/sep
I0707 01:19:39.501044 13879 net.cpp:369] conv4_1/sep/bn -> conv4_1/sep (in-place)
I0707 01:19:39.501225 13879 net.cpp:124] Setting up conv4_1/sep/bn
I0707 01:19:39.501235 13879 net.cpp:131] Top shape: 64 256 12 12 (2359296)
I0707 01:19:39.501238 13879 net.cpp:139] Memory required for data: 686555904
I0707 01:19:39.501260 13879 layer_factory.hpp:77] Creating layer conv4_1/sep/scale
I0707 01:19:39.501269 13879 net.cpp:86] Creating Layer conv4_1/sep/scale
I0707 01:19:39.501276 13879 net.cpp:408] conv4_1/sep/scale <- conv4_1/sep
I0707 01:19:39.501281 13879 net.cpp:369] conv4_1/sep/scale -> conv4_1/sep (in-place)
I0707 01:19:39.501340 13879 layer_factory.hpp:77] Creating layer conv4_1/sep/scale
I0707 01:19:39.501449 13879 net.cpp:124] Setting up conv4_1/sep/scale
I0707 01:19:39.501467 13879 net.cpp:131] Top shape: 64 256 12 12 (2359296)
I0707 01:19:39.501471 13879 net.cpp:139] Memory required for data: 695993088
I0707 01:19:39.501497 13879 layer_factory.hpp:77] Creating layer relu4_1/sep
I0707 01:19:39.501513 13879 net.cpp:86] Creating Layer relu4_1/sep
I0707 01:19:39.501518 13879 net.cpp:408] relu4_1/sep <- conv4_1/sep
I0707 01:19:39.501533 13879 net.cpp:369] relu4_1/sep -> conv4_1/sep (in-place)
I0707 01:19:39.502027 13879 net.cpp:124] Setting up relu4_1/sep
I0707 01:19:39.502040 13879 net.cpp:131] Top shape: 64 256 12 12 (2359296)
I0707 01:19:39.502044 13879 net.cpp:139] Memory required for data: 705430272
I0707 01:19:39.502048 13879 layer_factory.hpp:77] Creating layer conv4_2/dw
I0707 01:19:39.502059 13879 net.cpp:86] Creating Layer conv4_2/dw
I0707 01:19:39.502063 13879 net.cpp:408] conv4_2/dw <- conv4_1/sep
I0707 01:19:39.502070 13879 net.cpp:382] conv4_2/dw -> conv4_2/dw
I0707 01:19:39.502300 13879 net.cpp:124] Setting up conv4_2/dw
I0707 01:19:39.502311 13879 net.cpp:131] Top shape: 64 256 6 6 (589824)
I0707 01:19:39.502315 13879 net.cpp:139] Memory required for data: 707789568
I0707 01:19:39.502321 13879 layer_factory.hpp:77] Creating layer conv4_2/dw/bn
I0707 01:19:39.502327 13879 net.cpp:86] Creating Layer conv4_2/dw/bn
I0707 01:19:39.502333 13879 net.cpp:408] conv4_2/dw/bn <- conv4_2/dw
I0707 01:19:39.502339 13879 net.cpp:369] conv4_2/dw/bn -> conv4_2/dw (in-place)
I0707 01:19:39.502516 13879 net.cpp:124] Setting up conv4_2/dw/bn
I0707 01:19:39.502526 13879 net.cpp:131] Top shape: 64 256 6 6 (589824)
I0707 01:19:39.502529 13879 net.cpp:139] Memory required for data: 710148864
I0707 01:19:39.502537 13879 layer_factory.hpp:77] Creating layer conv4_2/dw/scale
I0707 01:19:39.502545 13879 net.cpp:86] Creating Layer conv4_2/dw/scale
I0707 01:19:39.502553 13879 net.cpp:408] conv4_2/dw/scale <- conv4_2/dw
I0707 01:19:39.502568 13879 net.cpp:369] conv4_2/dw/scale -> conv4_2/dw (in-place)
I0707 01:19:39.502617 13879 layer_factory.hpp:77] Creating layer conv4_2/dw/scale
I0707 01:19:39.502732 13879 net.cpp:124] Setting up conv4_2/dw/scale
I0707 01:19:39.502740 13879 net.cpp:131] Top shape: 64 256 6 6 (589824)
I0707 01:19:39.502744 13879 net.cpp:139] Memory required for data: 712508160
I0707 01:19:39.502751 13879 layer_factory.hpp:77] Creating layer relu4_2/dw
I0707 01:19:39.502758 13879 net.cpp:86] Creating Layer relu4_2/dw
I0707 01:19:39.502763 13879 net.cpp:408] relu4_2/dw <- conv4_2/dw
I0707 01:19:39.502774 13879 net.cpp:369] relu4_2/dw -> conv4_2/dw (in-place)
I0707 01:19:39.503298 13879 net.cpp:124] Setting up relu4_2/dw
I0707 01:19:39.503309 13879 net.cpp:131] Top shape: 64 256 6 6 (589824)
I0707 01:19:39.503314 13879 net.cpp:139] Memory required for data: 714867456
I0707 01:19:39.503319 13879 layer_factory.hpp:77] Creating layer conv4_2/sep
I0707 01:19:39.503329 13879 net.cpp:86] Creating Layer conv4_2/sep
I0707 01:19:39.503337 13879 net.cpp:408] conv4_2/sep <- conv4_2/dw
I0707 01:19:39.503348 13879 net.cpp:382] conv4_2/sep -> conv4_2/sep
I0707 01:19:39.508075 13879 net.cpp:124] Setting up conv4_2/sep
I0707 01:19:39.508100 13879 net.cpp:131] Top shape: 64 512 6 6 (1179648)
I0707 01:19:39.508112 13879 net.cpp:139] Memory required for data: 719586048
I0707 01:19:39.508122 13879 layer_factory.hpp:77] Creating layer conv4_2/sep/bn
I0707 01:19:39.508136 13879 net.cpp:86] Creating Layer conv4_2/sep/bn
I0707 01:19:39.508143 13879 net.cpp:408] conv4_2/sep/bn <- conv4_2/sep
I0707 01:19:39.508157 13879 net.cpp:369] conv4_2/sep/bn -> conv4_2/sep (in-place)
I0707 01:19:39.508416 13879 net.cpp:124] Setting up conv4_2/sep/bn
I0707 01:19:39.508426 13879 net.cpp:131] Top shape: 64 512 6 6 (1179648)
I0707 01:19:39.508432 13879 net.cpp:139] Memory required for data: 724304640
I0707 01:19:39.508455 13879 layer_factory.hpp:77] Creating layer conv4_2/sep/scale
I0707 01:19:39.508468 13879 net.cpp:86] Creating Layer conv4_2/sep/scale
I0707 01:19:39.508476 13879 net.cpp:408] conv4_2/sep/scale <- conv4_2/sep
I0707 01:19:39.508483 13879 net.cpp:369] conv4_2/sep/scale -> conv4_2/sep (in-place)
I0707 01:19:39.508538 13879 layer_factory.hpp:77] Creating layer conv4_2/sep/scale
I0707 01:19:39.508680 13879 net.cpp:124] Setting up conv4_2/sep/scale
I0707 01:19:39.508697 13879 net.cpp:131] Top shape: 64 512 6 6 (1179648)
I0707 01:19:39.508702 13879 net.cpp:139] Memory required for data: 729023232
I0707 01:19:39.508713 13879 layer_factory.hpp:77] Creating layer relu4_2/sep
I0707 01:19:39.508730 13879 net.cpp:86] Creating Layer relu4_2/sep
I0707 01:19:39.508751 13879 net.cpp:408] relu4_2/sep <- conv4_2/sep
I0707 01:19:39.508761 13879 net.cpp:369] relu4_2/sep -> conv4_2/sep (in-place)
I0707 01:19:39.509253 13879 net.cpp:124] Setting up relu4_2/sep
I0707 01:19:39.509263 13879 net.cpp:131] Top shape: 64 512 6 6 (1179648)
I0707 01:19:39.509271 13879 net.cpp:139] Memory required for data: 733741824
I0707 01:19:39.509287 13879 layer_factory.hpp:77] Creating layer conv5_1/dw
I0707 01:19:39.509304 13879 net.cpp:86] Creating Layer conv5_1/dw
I0707 01:19:39.509318 13879 net.cpp:408] conv5_1/dw <- conv4_2/sep
I0707 01:19:39.509333 13879 net.cpp:382] conv5_1/dw -> conv5_1/dw
I0707 01:19:39.509584 13879 net.cpp:124] Setting up conv5_1/dw
I0707 01:19:39.509595 13879 net.cpp:131] Top shape: 64 512 6 6 (1179648)
I0707 01:19:39.509603 13879 net.cpp:139] Memory required for data: 738460416
I0707 01:19:39.509616 13879 layer_factory.hpp:77] Creating layer conv5_1/dw/bn
I0707 01:19:39.509629 13879 net.cpp:86] Creating Layer conv5_1/dw/bn
I0707 01:19:39.509635 13879 net.cpp:408] conv5_1/dw/bn <- conv5_1/dw
I0707 01:19:39.509657 13879 net.cpp:369] conv5_1/dw/bn -> conv5_1/dw (in-place)
I0707 01:19:39.509850 13879 net.cpp:124] Setting up conv5_1/dw/bn
I0707 01:19:39.509860 13879 net.cpp:131] Top shape: 64 512 6 6 (1179648)
I0707 01:19:39.509868 13879 net.cpp:139] Memory required for data: 743179008
I0707 01:19:39.509891 13879 layer_factory.hpp:77] Creating layer conv5_1/dw/scale
I0707 01:19:39.509908 13879 net.cpp:86] Creating Layer conv5_1/dw/scale
I0707 01:19:39.509922 13879 net.cpp:408] conv5_1/dw/scale <- conv5_1/dw
I0707 01:19:39.509932 13879 net.cpp:369] conv5_1/dw/scale -> conv5_1/dw (in-place)
I0707 01:19:39.509982 13879 layer_factory.hpp:77] Creating layer conv5_1/dw/scale
I0707 01:19:39.510108 13879 net.cpp:124] Setting up conv5_1/dw/scale
I0707 01:19:39.510118 13879 net.cpp:131] Top shape: 64 512 6 6 (1179648)
I0707 01:19:39.510126 13879 net.cpp:139] Memory required for data: 747897600
I0707 01:19:39.510133 13879 layer_factory.hpp:77] Creating layer relu5_1/dw
I0707 01:19:39.510148 13879 net.cpp:86] Creating Layer relu5_1/dw
I0707 01:19:39.510155 13879 net.cpp:408] relu5_1/dw <- conv5_1/dw
I0707 01:19:39.510164 13879 net.cpp:369] relu5_1/dw -> conv5_1/dw (in-place)
I0707 01:19:39.510661 13879 net.cpp:124] Setting up relu5_1/dw
I0707 01:19:39.510674 13879 net.cpp:131] Top shape: 64 512 6 6 (1179648)
I0707 01:19:39.510679 13879 net.cpp:139] Memory required for data: 752616192
I0707 01:19:39.510682 13879 layer_factory.hpp:77] Creating layer conv5_1/sep
I0707 01:19:39.510692 13879 net.cpp:86] Creating Layer conv5_1/sep
I0707 01:19:39.510701 13879 net.cpp:408] conv5_1/sep <- conv5_1/dw
I0707 01:19:39.510711 13879 net.cpp:382] conv5_1/sep -> conv5_1/sep
I0707 01:19:39.515817 13879 net.cpp:124] Setting up conv5_1/sep
I0707 01:19:39.515837 13879 net.cpp:131] Top shape: 64 512 6 6 (1179648)
I0707 01:19:39.515842 13879 net.cpp:139] Memory required for data: 757334784
I0707 01:19:39.515858 13879 layer_factory.hpp:77] Creating layer conv5_1/sep/bn
I0707 01:19:39.515872 13879 net.cpp:86] Creating Layer conv5_1/sep/bn
I0707 01:19:39.515880 13879 net.cpp:408] conv5_1/sep/bn <- conv5_1/sep
I0707 01:19:39.515916 13879 net.cpp:369] conv5_1/sep/bn -> conv5_1/sep (in-place)
I0707 01:19:39.516119 13879 net.cpp:124] Setting up conv5_1/sep/bn
I0707 01:19:39.516129 13879 net.cpp:131] Top shape: 64 512 6 6 (1179648)
I0707 01:19:39.516132 13879 net.cpp:139] Memory required for data: 762053376
I0707 01:19:39.516149 13879 layer_factory.hpp:77] Creating layer conv5_1/sep/scale
I0707 01:19:39.516167 13879 net.cpp:86] Creating Layer conv5_1/sep/scale
I0707 01:19:39.516175 13879 net.cpp:408] conv5_1/sep/scale <- conv5_1/sep
I0707 01:19:39.516183 13879 net.cpp:369] conv5_1/sep/scale -> conv5_1/sep (in-place)
I0707 01:19:39.516237 13879 layer_factory.hpp:77] Creating layer conv5_1/sep/scale
I0707 01:19:39.516404 13879 net.cpp:124] Setting up conv5_1/sep/scale
I0707 01:19:39.516414 13879 net.cpp:131] Top shape: 64 512 6 6 (1179648)
I0707 01:19:39.516418 13879 net.cpp:139] Memory required for data: 766771968
I0707 01:19:39.516433 13879 layer_factory.hpp:77] Creating layer relu5_1/sep
I0707 01:19:39.516446 13879 net.cpp:86] Creating Layer relu5_1/sep
I0707 01:19:39.516451 13879 net.cpp:408] relu5_1/sep <- conv5_1/sep
I0707 01:19:39.516456 13879 net.cpp:369] relu5_1/sep -> conv5_1/sep (in-place)
I0707 01:19:39.516950 13879 net.cpp:124] Setting up relu5_1/sep
I0707 01:19:39.516961 13879 net.cpp:131] Top shape: 64 512 6 6 (1179648)
I0707 01:19:39.516965 13879 net.cpp:139] Memory required for data: 771490560
I0707 01:19:39.516978 13879 layer_factory.hpp:77] Creating layer conv5_2/dw
I0707 01:19:39.516993 13879 net.cpp:86] Creating Layer conv5_2/dw
I0707 01:19:39.516999 13879 net.cpp:408] conv5_2/dw <- conv5_1/sep
I0707 01:19:39.517009 13879 net.cpp:382] conv5_2/dw -> conv5_2/dw
I0707 01:19:39.517321 13879 net.cpp:124] Setting up conv5_2/dw
I0707 01:19:39.517331 13879 net.cpp:131] Top shape: 64 512 6 6 (1179648)
I0707 01:19:39.517335 13879 net.cpp:139] Memory required for data: 776209152
I0707 01:19:39.517349 13879 layer_factory.hpp:77] Creating layer conv5_2/dw/bn
I0707 01:19:39.517362 13879 net.cpp:86] Creating Layer conv5_2/dw/bn
I0707 01:19:39.517367 13879 net.cpp:408] conv5_2/dw/bn <- conv5_2/dw
I0707 01:19:39.517374 13879 net.cpp:369] conv5_2/dw/bn -> conv5_2/dw (in-place)
I0707 01:19:39.517582 13879 net.cpp:124] Setting up conv5_2/dw/bn
I0707 01:19:39.517598 13879 net.cpp:131] Top shape: 64 512 6 6 (1179648)
I0707 01:19:39.517603 13879 net.cpp:139] Memory required for data: 780927744
I0707 01:19:39.517623 13879 layer_factory.hpp:77] Creating layer conv5_2/dw/scale
I0707 01:19:39.517657 13879 net.cpp:86] Creating Layer conv5_2/dw/scale
I0707 01:19:39.517664 13879 net.cpp:408] conv5_2/dw/scale <- conv5_2/dw
I0707 01:19:39.517673 13879 net.cpp:369] conv5_2/dw/scale -> conv5_2/dw (in-place)
I0707 01:19:39.517733 13879 layer_factory.hpp:77] Creating layer conv5_2/dw/scale
I0707 01:19:39.517879 13879 net.cpp:124] Setting up conv5_2/dw/scale
I0707 01:19:39.517887 13879 net.cpp:131] Top shape: 64 512 6 6 (1179648)
I0707 01:19:39.517899 13879 net.cpp:139] Memory required for data: 785646336
I0707 01:19:39.517916 13879 layer_factory.hpp:77] Creating layer relu5_2/dw
I0707 01:19:39.517927 13879 net.cpp:86] Creating Layer relu5_2/dw
I0707 01:19:39.517935 13879 net.cpp:408] relu5_2/dw <- conv5_2/dw
I0707 01:19:39.517944 13879 net.cpp:369] relu5_2/dw -> conv5_2/dw (in-place)
I0707 01:19:39.518780 13879 net.cpp:124] Setting up relu5_2/dw
I0707 01:19:39.518795 13879 net.cpp:131] Top shape: 64 512 6 6 (1179648)
I0707 01:19:39.518798 13879 net.cpp:139] Memory required for data: 790364928
I0707 01:19:39.518802 13879 layer_factory.hpp:77] Creating layer conv5_2/sep
I0707 01:19:39.518811 13879 net.cpp:86] Creating Layer conv5_2/sep
I0707 01:19:39.518818 13879 net.cpp:408] conv5_2/sep <- conv5_2/dw
I0707 01:19:39.518832 13879 net.cpp:382] conv5_2/sep -> conv5_2/sep
I0707 01:19:39.524323 13879 net.cpp:124] Setting up conv5_2/sep
I0707 01:19:39.524349 13879 net.cpp:131] Top shape: 64 512 6 6 (1179648)
I0707 01:19:39.524354 13879 net.cpp:139] Memory required for data: 795083520
I0707 01:19:39.524371 13879 layer_factory.hpp:77] Creating layer conv5_2/sep/bn
I0707 01:19:39.524412 13879 net.cpp:86] Creating Layer conv5_2/sep/bn
I0707 01:19:39.524418 13879 net.cpp:408] conv5_2/sep/bn <- conv5_2/sep
I0707 01:19:39.524430 13879 net.cpp:369] conv5_2/sep/bn -> conv5_2/sep (in-place)
I0707 01:19:39.524634 13879 net.cpp:124] Setting up conv5_2/sep/bn
I0707 01:19:39.524643 13879 net.cpp:131] Top shape: 64 512 6 6 (1179648)
I0707 01:19:39.524647 13879 net.cpp:139] Memory required for data: 799802112
I0707 01:19:39.524662 13879 layer_factory.hpp:77] Creating layer conv5_2/sep/scale
I0707 01:19:39.524682 13879 net.cpp:86] Creating Layer conv5_2/sep/scale
I0707 01:19:39.524688 13879 net.cpp:408] conv5_2/sep/scale <- conv5_2/sep
I0707 01:19:39.524693 13879 net.cpp:369] conv5_2/sep/scale -> conv5_2/sep (in-place)
I0707 01:19:39.524757 13879 layer_factory.hpp:77] Creating layer conv5_2/sep/scale
I0707 01:19:39.524922 13879 net.cpp:124] Setting up conv5_2/sep/scale
I0707 01:19:39.524931 13879 net.cpp:131] Top shape: 64 512 6 6 (1179648)
I0707 01:19:39.524935 13879 net.cpp:139] Memory required for data: 804520704
I0707 01:19:39.524950 13879 layer_factory.hpp:77] Creating layer relu5_2/sep
I0707 01:19:39.524965 13879 net.cpp:86] Creating Layer relu5_2/sep
I0707 01:19:39.524969 13879 net.cpp:408] relu5_2/sep <- conv5_2/sep
I0707 01:19:39.524974 13879 net.cpp:369] relu5_2/sep -> conv5_2/sep (in-place)
I0707 01:19:39.525522 13879 net.cpp:124] Setting up relu5_2/sep
I0707 01:19:39.525534 13879 net.cpp:131] Top shape: 64 512 6 6 (1179648)
I0707 01:19:39.525538 13879 net.cpp:139] Memory required for data: 809239296
I0707 01:19:39.525550 13879 layer_factory.hpp:77] Creating layer conv5_3/dw
I0707 01:19:39.525569 13879 net.cpp:86] Creating Layer conv5_3/dw
I0707 01:19:39.525575 13879 net.cpp:408] conv5_3/dw <- conv5_2/sep
I0707 01:19:39.525584 13879 net.cpp:382] conv5_3/dw -> conv5_3/dw
I0707 01:19:39.525849 13879 net.cpp:124] Setting up conv5_3/dw
I0707 01:19:39.525859 13879 net.cpp:131] Top shape: 64 512 6 6 (1179648)
I0707 01:19:39.525863 13879 net.cpp:139] Memory required for data: 813957888
I0707 01:19:39.525876 13879 layer_factory.hpp:77] Creating layer conv5_3/dw/bn
I0707 01:19:39.525884 13879 net.cpp:86] Creating Layer conv5_3/dw/bn
I0707 01:19:39.525900 13879 net.cpp:408] conv5_3/dw/bn <- conv5_3/dw
I0707 01:19:39.525913 13879 net.cpp:369] conv5_3/dw/bn -> conv5_3/dw (in-place)
I0707 01:19:39.526144 13879 net.cpp:124] Setting up conv5_3/dw/bn
I0707 01:19:39.526152 13879 net.cpp:131] Top shape: 64 512 6 6 (1179648)
I0707 01:19:39.526157 13879 net.cpp:139] Memory required for data: 818676480
I0707 01:19:39.526165 13879 layer_factory.hpp:77] Creating layer conv5_3/dw/scale
I0707 01:19:39.526171 13879 net.cpp:86] Creating Layer conv5_3/dw/scale
I0707 01:19:39.526178 13879 net.cpp:408] conv5_3/dw/scale <- conv5_3/dw
I0707 01:19:39.526192 13879 net.cpp:369] conv5_3/dw/scale -> conv5_3/dw (in-place)
I0707 01:19:39.526237 13879 layer_factory.hpp:77] Creating layer conv5_3/dw/scale
I0707 01:19:39.526360 13879 net.cpp:124] Setting up conv5_3/dw/scale
I0707 01:19:39.526368 13879 net.cpp:131] Top shape: 64 512 6 6 (1179648)
I0707 01:19:39.526372 13879 net.cpp:139] Memory required for data: 823395072
I0707 01:19:39.526379 13879 layer_factory.hpp:77] Creating layer relu5_3/dw
I0707 01:19:39.526386 13879 net.cpp:86] Creating Layer relu5_3/dw
I0707 01:19:39.526391 13879 net.cpp:408] relu5_3/dw <- conv5_3/dw
I0707 01:19:39.526402 13879 net.cpp:369] relu5_3/dw -> conv5_3/dw (in-place)
I0707 01:19:39.527221 13879 net.cpp:124] Setting up relu5_3/dw
I0707 01:19:39.527233 13879 net.cpp:131] Top shape: 64 512 6 6 (1179648)
I0707 01:19:39.527241 13879 net.cpp:139] Memory required for data: 828113664
I0707 01:19:39.527249 13879 layer_factory.hpp:77] Creating layer conv5_3/sep
I0707 01:19:39.527266 13879 net.cpp:86] Creating Layer conv5_3/sep
I0707 01:19:39.527272 13879 net.cpp:408] conv5_3/sep <- conv5_3/dw
I0707 01:19:39.527282 13879 net.cpp:382] conv5_3/sep -> conv5_3/sep
I0707 01:19:39.531956 13879 net.cpp:124] Setting up conv5_3/sep
I0707 01:19:39.531970 13879 net.cpp:131] Top shape: 64 512 6 6 (1179648)
I0707 01:19:39.531996 13879 net.cpp:139] Memory required for data: 832832256
I0707 01:19:39.532006 13879 layer_factory.hpp:77] Creating layer conv5_3/sep/bn
I0707 01:19:39.532018 13879 net.cpp:86] Creating Layer conv5_3/sep/bn
I0707 01:19:39.532027 13879 net.cpp:408] conv5_3/sep/bn <- conv5_3/sep
I0707 01:19:39.532050 13879 net.cpp:369] conv5_3/sep/bn -> conv5_3/sep (in-place)
I0707 01:19:39.532241 13879 net.cpp:124] Setting up conv5_3/sep/bn
I0707 01:19:39.532251 13879 net.cpp:131] Top shape: 64 512 6 6 (1179648)
I0707 01:19:39.532258 13879 net.cpp:139] Memory required for data: 837550848
I0707 01:19:39.532269 13879 layer_factory.hpp:77] Creating layer conv5_3/sep/scale
I0707 01:19:39.532281 13879 net.cpp:86] Creating Layer conv5_3/sep/scale
I0707 01:19:39.532289 13879 net.cpp:408] conv5_3/sep/scale <- conv5_3/sep
I0707 01:19:39.532296 13879 net.cpp:369] conv5_3/sep/scale -> conv5_3/sep (in-place)
I0707 01:19:39.532342 13879 layer_factory.hpp:77] Creating layer conv5_3/sep/scale
I0707 01:19:39.532461 13879 net.cpp:124] Setting up conv5_3/sep/scale
I0707 01:19:39.532471 13879 net.cpp:131] Top shape: 64 512 6 6 (1179648)
I0707 01:19:39.532479 13879 net.cpp:139] Memory required for data: 842269440
I0707 01:19:39.532486 13879 layer_factory.hpp:77] Creating layer relu5_3/sep
I0707 01:19:39.532498 13879 net.cpp:86] Creating Layer relu5_3/sep
I0707 01:19:39.532505 13879 net.cpp:408] relu5_3/sep <- conv5_3/sep
I0707 01:19:39.532512 13879 net.cpp:369] relu5_3/sep -> conv5_3/sep (in-place)
I0707 01:19:39.532999 13879 net.cpp:124] Setting up relu5_3/sep
I0707 01:19:39.533010 13879 net.cpp:131] Top shape: 64 512 6 6 (1179648)
I0707 01:19:39.533017 13879 net.cpp:139] Memory required for data: 846988032
I0707 01:19:39.533025 13879 layer_factory.hpp:77] Creating layer conv5_4/dw
I0707 01:19:39.533041 13879 net.cpp:86] Creating Layer conv5_4/dw
I0707 01:19:39.533056 13879 net.cpp:408] conv5_4/dw <- conv5_3/sep
I0707 01:19:39.533072 13879 net.cpp:382] conv5_4/dw -> conv5_4/dw
I0707 01:19:39.533334 13879 net.cpp:124] Setting up conv5_4/dw
I0707 01:19:39.533344 13879 net.cpp:131] Top shape: 64 512 6 6 (1179648)
I0707 01:19:39.533351 13879 net.cpp:139] Memory required for data: 851706624
I0707 01:19:39.533368 13879 layer_factory.hpp:77] Creating layer conv5_4/dw/bn
I0707 01:19:39.533378 13879 net.cpp:86] Creating Layer conv5_4/dw/bn
I0707 01:19:39.533385 13879 net.cpp:408] conv5_4/dw/bn <- conv5_4/dw
I0707 01:19:39.533397 13879 net.cpp:369] conv5_4/dw/bn -> conv5_4/dw (in-place)
I0707 01:19:39.533601 13879 net.cpp:124] Setting up conv5_4/dw/bn
I0707 01:19:39.533612 13879 net.cpp:131] Top shape: 64 512 6 6 (1179648)
I0707 01:19:39.533617 13879 net.cpp:139] Memory required for data: 856425216
I0707 01:19:39.533629 13879 layer_factory.hpp:77] Creating layer conv5_4/dw/scale
I0707 01:19:39.533639 13879 net.cpp:86] Creating Layer conv5_4/dw/scale
I0707 01:19:39.533648 13879 net.cpp:408] conv5_4/dw/scale <- conv5_4/dw
I0707 01:19:39.533658 13879 net.cpp:369] conv5_4/dw/scale -> conv5_4/dw (in-place)
I0707 01:19:39.533717 13879 layer_factory.hpp:77] Creating layer conv5_4/dw/scale
I0707 01:19:39.533838 13879 net.cpp:124] Setting up conv5_4/dw/scale
I0707 01:19:39.533848 13879 net.cpp:131] Top shape: 64 512 6 6 (1179648)
I0707 01:19:39.533856 13879 net.cpp:139] Memory required for data: 861143808
I0707 01:19:39.533869 13879 layer_factory.hpp:77] Creating layer relu5_4/dw
I0707 01:19:39.533877 13879 net.cpp:86] Creating Layer relu5_4/dw
I0707 01:19:39.533885 13879 net.cpp:408] relu5_4/dw <- conv5_4/dw
I0707 01:19:39.533895 13879 net.cpp:369] relu5_4/dw -> conv5_4/dw (in-place)
I0707 01:19:39.534869 13879 net.cpp:124] Setting up relu5_4/dw
I0707 01:19:39.534890 13879 net.cpp:131] Top shape: 64 512 6 6 (1179648)
I0707 01:19:39.534898 13879 net.cpp:139] Memory required for data: 865862400
I0707 01:19:39.534912 13879 layer_factory.hpp:77] Creating layer conv5_4/sep
I0707 01:19:39.534929 13879 net.cpp:86] Creating Layer conv5_4/sep
I0707 01:19:39.534935 13879 net.cpp:408] conv5_4/sep <- conv5_4/dw
I0707 01:19:39.534953 13879 net.cpp:382] conv5_4/sep -> conv5_4/sep
I0707 01:19:39.540866 13879 net.cpp:124] Setting up conv5_4/sep
I0707 01:19:39.540889 13879 net.cpp:131] Top shape: 64 512 6 6 (1179648)
I0707 01:19:39.540894 13879 net.cpp:139] Memory required for data: 870580992
I0707 01:19:39.540907 13879 layer_factory.hpp:77] Creating layer conv5_4/sep/bn
I0707 01:19:39.540920 13879 net.cpp:86] Creating Layer conv5_4/sep/bn
I0707 01:19:39.540928 13879 net.cpp:408] conv5_4/sep/bn <- conv5_4/sep
I0707 01:19:39.540942 13879 net.cpp:369] conv5_4/sep/bn -> conv5_4/sep (in-place)
I0707 01:19:39.541157 13879 net.cpp:124] Setting up conv5_4/sep/bn
I0707 01:19:39.541167 13879 net.cpp:131] Top shape: 64 512 6 6 (1179648)
I0707 01:19:39.541172 13879 net.cpp:139] Memory required for data: 875299584
I0707 01:19:39.541179 13879 layer_factory.hpp:77] Creating layer conv5_4/sep/scale
I0707 01:19:39.541189 13879 net.cpp:86] Creating Layer conv5_4/sep/scale
I0707 01:19:39.541198 13879 net.cpp:408] conv5_4/sep/scale <- conv5_4/sep
I0707 01:19:39.541210 13879 net.cpp:369] conv5_4/sep/scale -> conv5_4/sep (in-place)
I0707 01:19:39.541255 13879 layer_factory.hpp:77] Creating layer conv5_4/sep/scale
I0707 01:19:39.541395 13879 net.cpp:124] Setting up conv5_4/sep/scale
I0707 01:19:39.541406 13879 net.cpp:131] Top shape: 64 512 6 6 (1179648)
I0707 01:19:39.541420 13879 net.cpp:139] Memory required for data: 880018176
I0707 01:19:39.541440 13879 layer_factory.hpp:77] Creating layer relu5_4/sep
I0707 01:19:39.541450 13879 net.cpp:86] Creating Layer relu5_4/sep
I0707 01:19:39.541455 13879 net.cpp:408] relu5_4/sep <- conv5_4/sep
I0707 01:19:39.541465 13879 net.cpp:369] relu5_4/sep -> conv5_4/sep (in-place)
I0707 01:19:39.541957 13879 net.cpp:124] Setting up relu5_4/sep
I0707 01:19:39.541968 13879 net.cpp:131] Top shape: 64 512 6 6 (1179648)
I0707 01:19:39.541983 13879 net.cpp:139] Memory required for data: 884736768
I0707 01:19:39.541991 13879 layer_factory.hpp:77] Creating layer conv5_5/dw
I0707 01:19:39.542006 13879 net.cpp:86] Creating Layer conv5_5/dw
I0707 01:19:39.542011 13879 net.cpp:408] conv5_5/dw <- conv5_4/sep
I0707 01:19:39.542037 13879 net.cpp:382] conv5_5/dw -> conv5_5/dw
I0707 01:19:39.542299 13879 net.cpp:124] Setting up conv5_5/dw
I0707 01:19:39.542309 13879 net.cpp:131] Top shape: 64 512 6 6 (1179648)
I0707 01:19:39.542316 13879 net.cpp:139] Memory required for data: 889455360
I0707 01:19:39.542326 13879 layer_factory.hpp:77] Creating layer conv5_5/dw/bn
I0707 01:19:39.542335 13879 net.cpp:86] Creating Layer conv5_5/dw/bn
I0707 01:19:39.542340 13879 net.cpp:408] conv5_5/dw/bn <- conv5_5/dw
I0707 01:19:39.542352 13879 net.cpp:369] conv5_5/dw/bn -> conv5_5/dw (in-place)
I0707 01:19:39.542542 13879 net.cpp:124] Setting up conv5_5/dw/bn
I0707 01:19:39.542552 13879 net.cpp:131] Top shape: 64 512 6 6 (1179648)
I0707 01:19:39.542557 13879 net.cpp:139] Memory required for data: 894173952
I0707 01:19:39.542577 13879 layer_factory.hpp:77] Creating layer conv5_5/dw/scale
I0707 01:19:39.542588 13879 net.cpp:86] Creating Layer conv5_5/dw/scale
I0707 01:19:39.542593 13879 net.cpp:408] conv5_5/dw/scale <- conv5_5/dw
I0707 01:19:39.542599 13879 net.cpp:369] conv5_5/dw/scale -> conv5_5/dw (in-place)
I0707 01:19:39.542644 13879 layer_factory.hpp:77] Creating layer conv5_5/dw/scale
I0707 01:19:39.542764 13879 net.cpp:124] Setting up conv5_5/dw/scale
I0707 01:19:39.542774 13879 net.cpp:131] Top shape: 64 512 6 6 (1179648)
I0707 01:19:39.542778 13879 net.cpp:139] Memory required for data: 898892544
I0707 01:19:39.542784 13879 layer_factory.hpp:77] Creating layer relu5_5/dw
I0707 01:19:39.542793 13879 net.cpp:86] Creating Layer relu5_5/dw
I0707 01:19:39.542798 13879 net.cpp:408] relu5_5/dw <- conv5_5/dw
I0707 01:19:39.542809 13879 net.cpp:369] relu5_5/dw -> conv5_5/dw (in-place)
I0707 01:19:39.543618 13879 net.cpp:124] Setting up relu5_5/dw
I0707 01:19:39.543633 13879 net.cpp:131] Top shape: 64 512 6 6 (1179648)
I0707 01:19:39.543640 13879 net.cpp:139] Memory required for data: 903611136
I0707 01:19:39.543645 13879 layer_factory.hpp:77] Creating layer conv5_5/sep
I0707 01:19:39.543674 13879 net.cpp:86] Creating Layer conv5_5/sep
I0707 01:19:39.543681 13879 net.cpp:408] conv5_5/sep <- conv5_5/dw
I0707 01:19:39.543689 13879 net.cpp:382] conv5_5/sep -> conv5_5/sep
I0707 01:19:39.548398 13879 net.cpp:124] Setting up conv5_5/sep
I0707 01:19:39.548413 13879 net.cpp:131] Top shape: 64 512 6 6 (1179648)
I0707 01:19:39.548429 13879 net.cpp:139] Memory required for data: 908329728
I0707 01:19:39.548439 13879 layer_factory.hpp:77] Creating layer conv5_5/sep/bn
I0707 01:19:39.548451 13879 net.cpp:86] Creating Layer conv5_5/sep/bn
I0707 01:19:39.548460 13879 net.cpp:408] conv5_5/sep/bn <- conv5_5/sep
I0707 01:19:39.548470 13879 net.cpp:369] conv5_5/sep/bn -> conv5_5/sep (in-place)
I0707 01:19:39.548687 13879 net.cpp:124] Setting up conv5_5/sep/bn
I0707 01:19:39.548696 13879 net.cpp:131] Top shape: 64 512 6 6 (1179648)
I0707 01:19:39.548699 13879 net.cpp:139] Memory required for data: 913048320
I0707 01:19:39.548715 13879 layer_factory.hpp:77] Creating layer conv5_5/sep/scale
I0707 01:19:39.548732 13879 net.cpp:86] Creating Layer conv5_5/sep/scale
I0707 01:19:39.548738 13879 net.cpp:408] conv5_5/sep/scale <- conv5_5/sep
I0707 01:19:39.548744 13879 net.cpp:369] conv5_5/sep/scale -> conv5_5/sep (in-place)
I0707 01:19:39.548799 13879 layer_factory.hpp:77] Creating layer conv5_5/sep/scale
I0707 01:19:39.548949 13879 net.cpp:124] Setting up conv5_5/sep/scale
I0707 01:19:39.548959 13879 net.cpp:131] Top shape: 64 512 6 6 (1179648)
I0707 01:19:39.548970 13879 net.cpp:139] Memory required for data: 917766912
I0707 01:19:39.548977 13879 layer_factory.hpp:77] Creating layer relu5_5/sep
I0707 01:19:39.548985 13879 net.cpp:86] Creating Layer relu5_5/sep
I0707 01:19:39.548988 13879 net.cpp:408] relu5_5/sep <- conv5_5/sep
I0707 01:19:39.549005 13879 net.cpp:369] relu5_5/sep -> conv5_5/sep (in-place)
I0707 01:19:39.550138 13879 net.cpp:124] Setting up relu5_5/sep
I0707 01:19:39.550151 13879 net.cpp:131] Top shape: 64 512 6 6 (1179648)
I0707 01:19:39.550155 13879 net.cpp:139] Memory required for data: 922485504
I0707 01:19:39.550160 13879 layer_factory.hpp:77] Creating layer pool6
I0707 01:19:39.550169 13879 net.cpp:86] Creating Layer pool6
I0707 01:19:39.550174 13879 net.cpp:408] pool6 <- conv5_5/sep
I0707 01:19:39.550180 13879 net.cpp:382] pool6 -> pool6
I0707 01:19:39.550724 13879 net.cpp:124] Setting up pool6
I0707 01:19:39.550736 13879 net.cpp:131] Top shape: 64 512 1 1 (32768)
I0707 01:19:39.550740 13879 net.cpp:139] Memory required for data: 922616576
I0707 01:19:39.550745 13879 layer_factory.hpp:77] Creating layer fc7-mouth
I0707 01:19:39.550755 13879 net.cpp:86] Creating Layer fc7-mouth
I0707 01:19:39.550760 13879 net.cpp:408] fc7-mouth <- pool6
I0707 01:19:39.550767 13879 net.cpp:382] fc7-mouth -> fc7-mouth
I0707 01:19:39.552915 13879 net.cpp:124] Setting up fc7-mouth
I0707 01:19:39.552928 13879 net.cpp:131] Top shape: 64 4 1 1 (256)
I0707 01:19:39.552932 13879 net.cpp:139] Memory required for data: 922617600
I0707 01:19:39.552940 13879 layer_factory.hpp:77] Creating layer fc7-mouth_fc7-mouth_0_split
I0707 01:19:39.552947 13879 net.cpp:86] Creating Layer fc7-mouth_fc7-mouth_0_split
I0707 01:19:39.552951 13879 net.cpp:408] fc7-mouth_fc7-mouth_0_split <- fc7-mouth
I0707 01:19:39.552959 13879 net.cpp:382] fc7-mouth_fc7-mouth_0_split -> fc7-mouth_fc7-mouth_0_split_0
I0707 01:19:39.552969 13879 net.cpp:382] fc7-mouth_fc7-mouth_0_split -> fc7-mouth_fc7-mouth_0_split_1
I0707 01:19:39.553016 13879 net.cpp:124] Setting up fc7-mouth_fc7-mouth_0_split
I0707 01:19:39.553025 13879 net.cpp:131] Top shape: 64 4 1 1 (256)
I0707 01:19:39.553030 13879 net.cpp:131] Top shape: 64 4 1 1 (256)
I0707 01:19:39.553033 13879 net.cpp:139] Memory required for data: 922619648
I0707 01:19:39.553038 13879 layer_factory.hpp:77] Creating layer loss
I0707 01:19:39.553045 13879 net.cpp:86] Creating Layer loss
I0707 01:19:39.553051 13879 net.cpp:408] loss <- fc7-mouth_fc7-mouth_0_split_0
I0707 01:19:39.553061 13879 net.cpp:408] loss <- clc-label_data_1_split_0
I0707 01:19:39.553073 13879 net.cpp:382] loss -> loss
…
I0707 01:19:39.555866 13879 net.cpp:296] The NetState phase (1) differed from the phase (0) specified by a rule in layer acc
I0707 01:19:39.556438 13879 net.cpp:53] Initializing net from parameters: 
name: "mouth"
state {
  phase: TEST
}
layer {
  name: "data"
  type: "ImageData"
  top: "data"
  top: "clc-label"
  include {
    phase: TEST
  }
  transform_param {
    mirror: false
    crop_size: 96
    mean_value: 104.008
    mean_value: 116.669
    mean_value: 122.675
    min_side_min: 96
    min_side_max: 128
  }
  image_data_param {
    source: "all_shuffle_val.txt"
    batch_size: 16
    shuffle: false
  }
}
layer {
  name: "conv1"
  type: "Convolution"
  bottom: "data"
  top: "conv1"
  param {
    lr_mult: 1
    decay_mult: 1
  }
  convolution_param {
    num_output: 32
    bias_term: false
    pad: 1
    kernel_size: 3
    stride: 2
    weight_filler {
      type: "msra"
    }
  }
}
layer {
  name: "conv1/bn"
  type: "BatchNorm"
  bottom: "conv1"
  top: "conv1"
  param {
    lr_mult: 0
    decay_mult: 0
  }
  param {
    lr_mult: 0
    decay_mult: 0
  }
  param {
    lr_mult: 0
    decay_mult: 0
  }
  batch_norm_param {
    use_global_stats: false
    eps: 1e-05
  }
}
layer {
  name: "conv1/scale"
  type: "Scale"
  bottom: "conv1"
  top: "conv1"
  param {
    lr_mult: 1
    decay_mult: 0
  }
  param {
    lr_mult: 1
    decay_mult: 0
  }
  scale_param {
    filler {
      value: 1
    }
    bias_term: true
    bias_filler {
      value: 0
    }
  }
}
layer {
  name: "relu1"
  type: "ReLU"
  bottom: "conv1"
  top: "conv1"
}
layer {
  name: "conv2_1/dw"
  type: "Convolution"
  bottom: "conv1"
  top: "conv2_1/dw"
  param {
    lr_mult: 1
    decay_mult: 1
  }
  convolution_param {
    num_output: 32
    bias_term: false
    pad: 1
    kernel_size: 3
    group: 32
    stride: 1
    weight_filler {
      type: "msra"
    }
    engine: CAFFE
  }
}
layer {
  name: "conv2_1/dw/bn"
  type: "BatchNorm"
  bottom: "conv2_1/dw"
  top: "conv2_1/dw"
  param {
    lr_mult: 0
    decay_mult: 0
  }
  param {
    lr_mult: 0
    decay_mult: 0
  }
  param {
    lr_mult: 0
    decay_mult: 0
  }
  batch_norm_param {
    use_global_stats: false
    eps: 1e-05
  }
}
layer {
  name: "conv2_1/dw/scale"
  type: "Scale"
  bottom: "conv2_1/dw"
  top: "conv2_1/dw"
  param {
    lr_mult: 1
    decay_mult: 0
  }
  param {
    lr_mult: 1
    decay_mult: 0
  }
  scale_param {
    filler {
      value: 1
    }
    bias_term: true
    bias_filler {
      value: 0
    }
  }
}
layer {
  name: "relu2_1/dw"
  type: "ReLU"
  bottom: "conv2_1/dw"
  top: "conv2_1/dw"
}
layer {
  name: "conv2_1/sep"
  type: "Convolution"
  bottom: "conv2_1/dw"
  top: "conv2_1/sep"
  param {
    lr_mult: 1
    decay_mult: 1
  }
  convolution_param {
    num_output: 64
    bias_term: false
    pad: 0
    kernel_size: 1
    stride: 1
    weight_filler {
      type: "msra"
    }
  }
}
layer {
  name: "conv2_1/sep/bn"
  type: "BatchNorm"
  bottom: "conv2_1/sep"
  top: "conv2_1/sep"
  param {
    lr_mult: 0
    decay_mult: 0
  }
  param {
    lr_mult: 0
    decay_mult: 0
  }
  param {
    lr_mult: 0
    decay_mult: 0
  }
  batch_norm_param {
    use_global_stats: false
    eps: 1e-05
  }
}
layer {
  name: "conv2_1/sep/scale"
  type: "Scale"
  bottom: "conv2_1/sep"
  top: "conv2_1/sep"
  param {
    lr_mult: 1
    decay_mult: 0
  }
  param {
    lr_mult: 1
    decay_mult: 0
  }
  scale_param {
    filler {
      value: 1
    }
    bias_term: true
    bias_filler {
      value: 0
    }
  }
}
layer {
  name: "relu2_1/sep"
  type: "ReLU"
  bottom: "conv2_1/sep"
  top: "conv2_1/sep"
}
layer {
  name: "conv2_2/dw"
  type: "Convolution"
  bottom: "conv2_1/sep"
  top: "conv2_2/dw"
  param {
    lr_mult: 1
    decay_mult: 1
  }
  convolution_param {
    num_output: 64
    bias_term: false
    pad: 1
    kernel_size: 3
    group: 64
    stride: 2
    weight_filler {
      type: "msra"
    }
    engine: CAFFE
  }
}
layer {
  name: "conv2_2/dw/bn"
  type: "BatchNorm"
  bottom: "conv2_2/dw"
  top: "conv2_2/dw"
  param {
    lr_mult: 0
    decay_mult: 0
  }
  param {
    lr_mult: 0
    decay_mult: 0
  }
  param {
    lr_mult: 0
    decay_mult: 0
  }
  batch_norm_param {
    use_global_stats: false
    eps: 1e-05
  }
}
layer {
  name: "conv2_2/dw/scale"
  type: "Scale"
  bottom: "conv2_2/dw"
  top: "conv2_2/dw"
  param {
    lr_mult: 1
    decay_mult: 0
  }
  param {
    lr_mult: 1
    decay_mult: 0
  }
  scale_param {
    filler {
      value: 1
    }
    bias_term: true
    bias_filler {
      value: 0
    }
  }
}
layer {
  name: "relu2_2/dw"
  type: "ReLU"
  bottom: "conv2_2/dw"
  top: "conv2_2/dw"
}
layer {
  name: "conv2_2/sep"
  type: "Convolution"
  bottom: "conv2_2/dw"
  top: "conv2_2/sep"
  param {
    lr_mult: 1
    decay_mult: 1
  }
  convolution_param {
    num_output: 128
    bias_term: false
    pad: 0
    kernel_size: 1
    stride: 1
    weight_filler {
      type: "msra"
    }
  }
}
layer {
  name: "conv2_2/sep/bn"
  type: "BatchNorm"
  bottom: "conv2_2/sep"
  top: "conv2_2/sep"
  param {
    lr_mult: 0
    decay_mult: 0
  }
  param {
    lr_mult: 0
    decay_mult: 0
  }
  param {
    lr_mult: 0
    decay_mult: 0
  }
  batch_norm_param {
    use_global_stats: false
    eps: 1e-05
  }
}
layer {
  name: "conv2_2/sep/scale"
  type: "Scale"
  bottom: "conv2_2/sep"
  top: "conv2_2/sep"
  param {
    lr_mult: 1
    decay_mult: 0
  }
  param {
    lr_mult: 1
    decay_mult: 0
  }
  scale_param {
    filler {
      value: 1
    }
    bias_term: true
    bias_filler {
      value: 0
    }
  }
}
layer {
  name: "relu2_2/sep"
  type: "ReLU"
  bottom: "conv2_2/sep"
  top: "conv2_2/sep"
}
layer {
  name: "conv3_1/dw"
  type: "Convolution"
  bottom: "conv2_2/sep"
  top: "conv3_1/dw"
  param {
    lr_mult: 1
    decay_mult: 1
  }
  convolution_param {
    num_output: 128
    bias_term: false
    pad: 1
    kernel_size: 3
    group: 128
    stride: 1
    weight_filler {
      type: "msra"
    }
    engine: CAFFE
  }
}
layer {
  name: "conv3_1/dw/bn"
  type: "BatchNorm"
  bottom: "conv3_1/dw"
  top: "conv3_1/dw"
  param {
    lr_mult: 0
    decay_mult: 0
  }
  param {
    lr_mult: 0
    decay_mult: 0
  }
  param {
    lr_mult: 0
    decay_mult: 0
  }
  batch_norm_param {
    use_global_stats: false
    eps: 1e-05
  }
}
layer {
  name: "conv3_1/dw/scale"
  type: "Scale"
  bottom: "conv3_1/dw"
  top: "conv3_1/dw"
  param {
    lr_mult: 1
    decay_mult: 0
  }
  param {
    lr_mult: 1
    decay_mult: 0
  }
  scale_param {
    filler {
      value: 1
    }
    bias_term: true
    bias_filler {
      value: 0
    }
  }
}
layer {
  name: "relu3_1/dw"
  type: "ReLU"
  bottom: "conv3_1/dw"
  top: "conv3_1/dw"
}
layer {
  name: "conv3_1/sep"
  type: "Convolution"
  bottom: "conv3_1/dw"
  top: "conv3_1/sep"
  param {
    lr_mult: 1
    decay_mult: 1
  }
  convolution_param {
    num_output: 128
    bias_term: false
    pad: 0
    kernel_size: 1
    stride: 1
    weight_filler {
      type: "msra"
    }
  }
}
layer {
  name: "conv3_1/sep/bn"
  type: "BatchNorm"
  bottom: "conv3_1/sep"
  top: "conv3_1/sep"
  param {
    lr_mult: 0
    decay_mult: 0
  }
  param {
    lr_mult: 0
    decay_mult: 0
  }
  param {
    lr_mult: 0
    decay_mult: 0
  }
  batch_norm_param {
    use_global_stats: false
    eps: 1e-05
  }
}
layer {
  name: "conv3_1/sep/scale"
  type: "Scale"
  bottom: "conv3_1/sep"
  top: "conv3_1/sep"
  param {
    lr_mult: 1
    decay_mult: 0
  }
  param {
    lr_mult: 1
    decay_mult: 0
  }
  scale_param {
    filler {
      value: 1
    }
    bias_term: true
    bias_filler {
      value: 0
    }
  }
}
layer {
  name: "relu3_1/sep"
  type: "ReLU"
  bottom: "conv3_1/sep"
  top: "conv3_1/sep"
}
layer {
  name: "conv3_2/dw"
  type: "Convolution"
  bottom: "conv3_1/sep"
  top: "conv3_2/dw"
  param {
    lr_mult: 1
    decay_mult: 1
  }
  convolution_param {
    num_output: 128
    bias_term: false
    pad: 1
    kernel_size: 3
    group: 128
    stride: 2
    weight_filler {
      type: "msra"
    }
    engine: CAFFE
  }
}
layer {
  name: "conv3_2/dw/bn"
  type: "BatchNorm"
  bottom: "conv3_2/dw"
  top: "conv3_2/dw"
  param {
    lr_mult: 0
    decay_mult: 0
  }
  param {
    lr_mult: 0
    decay_mult: 0
  }
  param {
    lr_mult: 0
    decay_mult: 0
  }
  batch_norm_param {
    use_global_stats: false
    eps: 1e-05
  }
}
layer {
  name: "conv3_2/dw/scale"
  type: "Scale"
  bottom: "conv3_2/dw"
  top: "conv3_2/dw"
  param {
    lr_mult: 1
    decay_mult: 0
  }
  param {
    lr_mult: 1
    decay_mult: 0
  }
  scale_param {
    filler {
      value: 1
    }
    bias_term: true
    bias_filler {
      value: 0
    }
  }
}
layer {
  name: "relu3_2/dw"
  type: "ReLU"
  bottom: "conv3_2/dw"
  top: "conv3_2/dw"
}
layer {
  name: "conv3_2/sep"
  type: "Convolution"
  bottom: "conv3_2/dw"
  top: "conv3_2/sep"
  param {
    lr_mult: 1
    decay_mult: 1
  }
  convolution_param {
    num_output: 256
    bias_term: false
    pad: 0
    kernel_size: 1
    stride: 1
    weight_filler {
      type: "msra"
    }
  }
}
layer {
  name: "conv3_2/sep/bn"
  type: "BatchNorm"
  bottom: "conv3_2/sep"
  top: "conv3_2/sep"
  param {
    lr_mult: 0
    decay_mult: 0
  }
  param {
    lr_mult: 0
    decay_mult: 0
  }
  param {
    lr_mult: 0
    decay_mult: 0
  }
  batch_norm_param {
    use_global_stats: false
    eps: 1e-05
  }
}
layer {
  name: "conv3_2/sep/scale"
  type: "Scale"
  bottom: "conv3_2/sep"
  top: "conv3_2/sep"
  param {
    lr_mult: 1
    decay_mult: 0
  }
  param {
    lr_mult: 1
    decay_mult: 0
  }
  scale_param {
    filler {
      value: 1
    }
    bias_term: true
    bias_filler {
      value: 0
    }
  }
}
layer {
  name: "relu3_2/sep"
  type: "ReLU"
  bottom: "conv3_2/sep"
  top: "conv3_2/sep"
}
layer {
  name: "conv4_1/dw"
  type: "Convolution"
  bottom: "conv3_2/sep"
  top: "conv4_1/dw"
  param {
    lr_mult: 1
    decay_mult: 1
  }
  convolution_param {
    num_output: 256
    bias_term: false
    pad: 1
    kernel_size: 3
    group: 256
    stride: 1
    weight_filler {
      type: "msra"
    }
    engine: CAFFE
  }
}
layer {
  name: "conv4_1/dw/bn"
  type: "BatchNorm"
  bottom: "conv4_1/dw"
  top: "conv4_1/dw"
  param {
    lr_mult: 0
    decay_mult: 0
  }
  param {
    lr_mult: 0
    decay_mult: 0
  }
  param {
    lr_mult: 0
    decay_mult: 0
  }
  batch_norm_param {
    use_global_stats: false
    eps: 1e-05
  }
}
layer {
  name: "conv4_1/dw/scale"
  type: "Scale"
  bottom: "conv4_1/dw"
  top: "conv4_1/dw"
  param {
    lr_mult: 1
    decay_mult: 0
  }
  param {
    lr_mult: 1
    decay_mult: 0
  }
  scale_param {
    filler {
      value: 1
    }
    bias_term: true
    bias_filler {
      value: 0
    }
  }
}
layer {
  name: "relu4_1/dw"
  type: "ReLU"
  bottom: "conv4_1/dw"
  top: "conv4_1/dw"
}
layer {
  name: "conv4_1/sep"
  type: "Convolution"
  bottom: "conv4_1/dw"
  top: "conv4_1/sep"
  param {
    lr_mult: 1
    decay_mult: 1
  }
  convolution_param {
    num_output: 256
    bias_term: false
    pad: 0
    kernel_size: 1
    stride: 1
    weight_filler {
      type: "msra"
    }
  }
}
layer {
  name: "conv4_1/sep/bn"
  type: "BatchNorm"
  bottom: "conv4_1/sep"
  top: "conv4_1/sep"
  param {
    lr_mult: 0
    decay_mult: 0
  }
  param {
    lr_mult: 0
    decay_mult: 0
  }
  param {
    lr_mult: 0
    decay_mult: 0
  }
  batch_norm_param {
    use_global_stats: false
    eps: 1e-05
  }
}
layer {
  name: "conv4_1/sep/scale"
  type: "Scale"
  bottom: "conv4_1/sep"
  top: "conv4_1/sep"
  param {
    lr_mult: 1
    decay_mult: 0
  }
  param {
    lr_mult: 1
    decay_mult: 0
  }
  scale_param {
    filler {
      value: 1
    }
    bias_term: true
    bias_filler {
      value: 0
    }
  }
}
layer {
  name: "relu4_1/sep"
  type: "ReLU"
  bottom: "conv4_1/sep"
  top: "conv4_1/sep"
}
layer {
  name: "conv4_2/dw"
  type: "Convolution"
  bottom: "conv4_1/sep"
  top: "conv4_2/dw"
  param {
    lr_mult: 1
    decay_mult: 1
  }
  convolution_param {
    num_output: 256
    bias_term: false
    pad: 1
    kernel_size: 3
    group: 256
    stride: 2
    weight_filler {
      type: "msra"
    }
    engine: CAFFE
  }
}
layer {
  name: "conv4_2/dw/bn"
  type: "BatchNorm"
  bottom: "conv4_2/dw"
  top: "conv4_2/dw"
  param {
    lr_mult: 0
    decay_mult: 0
  }
  param {
    lr_mult: 0
    decay_mult: 0
  }
  param {
    lr_mult: 0
    decay_mult: 0
  }
  batch_norm_param {
    use_global_stats: false
    eps: 1e-05
  }
}
layer {
  name: "conv4_2/dw/scale"
  type: "Scale"
  bottom: "conv4_2/dw"
  top: "conv4_2/dw"
  param {
    lr_mult: 1
    decay_mult: 0
  }
  param {
    lr_mult: 1
    decay_mult: 0
  }
  scale_param {
    filler {
      value: 1
    }
    bias_term: true
    bias_filler {
      value: 0
    }
  }
}
layer {
  name: "relu4_2/dw"
  type: "ReLU"
  bottom: "conv4_2/dw"
  top: "conv4_2/dw"
}
layer {
  name: "conv4_2/sep"
  type: "Convolution"
  bottom: "conv4_2/dw"
  top: "conv4_2/sep"
  param {
    lr_mult: 1
    decay_mult: 1
  }
  convolution_param {
    num_output: 512
    bias_term: false
    pad: 0
    kernel_size: 1
    stride: 1
    weight_filler {
      type: "msra"
    }
  }
}
layer {
  name: "conv4_2/sep/bn"
  type: "BatchNorm"
  bottom: "conv4_2/sep"
  top: "conv4_2/sep"
  param {
    lr_mult: 0
    decay_mult: 0
  }
  param {
    lr_mult: 0
    decay_mult: 0
  }
  param {
    lr_mult: 0
    decay_mult: 0
  }
  batch_norm_param {
    use_global_stats: false
    eps: 1e-05
  }
}
layer {
  name: "conv4_2/sep/scale"
  type: "Scale"
  bottom: "conv4_2/sep"
  top: "conv4_2/sep"
  param {
    lr_mult: 1
    decay_mult: 0
  }
  param {
    lr_mult: 1
    decay_mult: 0
  }
  scale_param {
    filler {
      value: 1
    }
    bias_term: true
    bias_filler {
      value: 0
    }
  }
}
layer {
  name: "relu4_2/sep"
  type: "ReLU"
  bottom: "conv4_2/sep"
  top: "conv4_2/sep"
}
layer {
  name: "conv5_1/dw"
  type: "Convolution"
  bottom: "conv4_2/sep"
  top: "conv5_1/dw"
  param {
    lr_mult: 1
    decay_mult: 1
  }
  convolution_param {
    num_output: 512
    bias_term: false
    pad: 1
    kernel_size: 3
    group: 512
    stride: 1
    weight_filler {
      type: "msra"
    }
    engine: CAFFE
  }
}
layer {
  name: "conv5_1/dw/bn"
  type: "BatchNorm"
  bottom: "conv5_1/dw"
  top: "conv5_1/dw"
  param {
    lr_mult: 0
    decay_mult: 0
  }
  param {
    lr_mult: 0
    decay_mult: 0
  }
  param {
    lr_mult: 0
    decay_mult: 0
  }
  batch_norm_param {
    use_global_stats: false
    eps: 1e-05
  }
}
layer {
  name: "conv5_1/dw/scale"
  type: "Scale"
  bottom: "conv5_1/dw"
  top: "conv5_1/dw"
  param {
    lr_mult: 1
    decay_mult: 0
  }
  param {
    lr_mult: 1
    decay_mult: 0
  }
  scale_param {
    filler {
      value: 1
    }
    bias_term: true
    bias_filler {
      value: 0
    }
  }
}
layer {
  name: "relu5_1/dw"
  type: "ReLU"
  bottom: "conv5_1/dw"
  top: "conv5_1/dw"
}
layer {
  name: "conv5_1/sep"
  type: "Convolution"
  bottom: "conv5_1/dw"
  top: "conv5_1/sep"
  param {
    lr_mult: 1
    decay_mult: 1
  }
  convolution_param {
    num_output: 512
    bias_term: false
    pad: 0
    kernel_size: 1
    stride: 1
    weight_filler {
      type: "msra"
    }
  }
}
layer {
  name: "conv5_1/sep/bn"
  type: "BatchNorm"
  bottom: "conv5_1/sep"
  top: "conv5_1/sep"
  param {
    lr_mult: 0
    decay_mult: 0
  }
  param {
    lr_mult: 0
    decay_mult: 0
  }
  param {
    lr_mult: 0
    decay_mult: 0
  }
  batch_norm_param {
    use_global_stats: false
    eps: 1e-05
  }
}
layer {
  name: "conv5_1/sep/scale"
  type: "Scale"
  bottom: "conv5_1/sep"
  top: "conv5_1/sep"
  param {
    lr_mult: 1
    decay_mult: 0
  }
  param {
    lr_mult: 1
    decay_mult: 0
  }
  scale_param {
    filler {
      value: 1
    }
    bias_term: true
    bias_filler {
      value: 0
    }
  }
}
layer {
  name: "relu5_1/sep"
  type: "ReLU"
  bottom: "conv5_1/sep"
  top: "conv5_1/sep"
}
layer {
  name: "conv5_2/dw"
  type: "Convolution"
  bottom: "conv5_1/sep"
  top: "conv5_2/dw"
  param {
    lr_mult: 1
    decay_mult: 1
  }
  convolution_param {
    num_output: 512
    bias_term: false
    pad: 1
    kernel_size: 3
    group: 512
    stride: 1
    weight_filler {
      type: "msra"
    }
    engine: CAFFE
  }
}
layer {
  name: "conv5_2/dw/bn"
  type: "BatchNorm"
  bottom: "conv5_2/dw"
  top: "conv5_2/dw"
  param {
    lr_mult: 0
    decay_mult: 0
  }
  param {
    lr_mult: 0
    decay_mult: 0
  }
  param {
    lr_mult: 0
    decay_mult: 0
  }
  batch_norm_param {
    use_global_stats: false
    eps: 1e-05
  }
}
layer {
  name: "conv5_2/dw/scale"
  type: "Scale"
  bottom: "conv5_2/dw"
  top: "conv5_2/dw"
  param {
    lr_mult: 1
    decay_mult: 0
  }
  param {
    lr_mult: 1
    decay_mult: 0
  }
  scale_param {
    filler {
      value: 1
    }
    bias_term: true
    bias_filler {
      value: 0
    }
  }
}
layer {
  name: "relu5_2/dw"
  type: "ReLU"
  bottom: "conv5_2/dw"
  top: "conv5_2/dw"
}
layer {
  name: "conv5_2/sep"
  type: "Convolution"
  bottom: "conv5_2/dw"
  top: "conv5_2/sep"
  param {
    lr_mult: 1
    decay_mult: 1
  }
  convolution_param {
    num_output: 512
    bias_term: false
    pad: 0
    kernel_size: 1
    stride: 1
    weight_filler {
      type: "msra"
    }
  }
}
layer {
  name: "conv5_2/sep/bn"
  type: "BatchNorm"
  bottom: "conv5_2/sep"
  top: "conv5_2/sep"
  param {
    lr_mult: 0
    decay_mult: 0
  }
  param {
    lr_mult: 0
    decay_mult: 0
  }
  param {
    lr_mult: 0
    decay_mult: 0
  }
  batch_norm_param {
    use_global_stats: false
    eps: 1e-05
  }
}
layer {
  name: "conv5_2/sep/scale"
  type: "Scale"
  bottom: "conv5_2/sep"
  top: "conv5_2/sep"
  param {
    lr_mult: 1
    decay_mult: 0
  }
  param {
    lr_mult: 1
    decay_mult: 0
  }
  scale_param {
    filler {
      value: 1
    }
    bias_term: true
    bias_filler {
      value: 0
    }
  }
}
layer {
  name: "relu5_2/sep"
  type: "ReLU"
  bottom: "conv5_2/sep"
  top: "conv5_2/sep"
}
layer {
  name: "conv5_3/dw"
  type: "Convolution"
  bottom: "conv5_2/sep"
  top: "conv5_3/dw"
  param {
    lr_mult: 1
    decay_mult: 1
  }
  convolution_param {
    num_output: 512
    bias_term: false
    pad: 1
    kernel_size: 3
    group: 512
    stride: 1
    weight_filler {
      type: "msra"
    }
    engine: CAFFE
  }
}
layer {
  name: "conv5_3/dw/bn"
  type: "BatchNorm"
  bottom: "conv5_3/dw"
  top: "conv5_3/dw"
  param {
    lr_mult: 0
    decay_mult: 0
  }
  param {
    lr_mult: 0
    decay_mult: 0
  }
  param {
    lr_mult: 0
    decay_mult: 0
  }
  batch_norm_param {
    use_global_stats: false
    eps: 1e-05
  }
}
layer {
  name: "conv5_3/dw/scale"
  type: "Scale"
  bottom: "conv5_3/dw"
  top: "conv5_3/dw"
  param {
    lr_mult: 1
    decay_mult: 0
  }
  param {
    lr_mult: 1
    decay_mult: 0
  }
  scale_param {
    filler {
      value: 1
    }
    bias_term: true
    bias_filler {
      value: 0
    }
  }
}
layer {
  name: "relu5_3/dw"
  type: "ReLU"
  bottom: "conv5_3/dw"
  top: "conv5_3/dw"
}
layer {
  name: "conv5_3/sep"
  type: "Convolution"
  bottom: "conv5_3/dw"
  top: "conv5_3/sep"
  param {
    lr_mult: 1
    decay_mult: 1
  }
  convolution_param {
    num_output: 512
    bias_term: false
    pad: 0
    kernel_size: 1
    stride: 1
    weight_filler {
      type: "msra"
    }
  }
}
layer {
  name: "conv5_3/sep/bn"
  type: "BatchNorm"
  bottom: "conv5_3/sep"
  top: "conv5_3/sep"
  param {
    lr_mult: 0
    decay_mult: 0
  }
  param {
    lr_mult: 0
    decay_mult: 0
  }
  param {
    lr_mult: 0
    decay_mult: 0
  }
  batch_norm_param {
    use_global_stats: false
    eps: 1e-05
  }
}
layer {
  name: "conv5_3/sep/scale"
  type: "Scale"
  bottom: "conv5_3/sep"
  top: "conv5_3/sep"
  param {
    lr_mult: 1
    decay_mult: 0
  }
  param {
    lr_mult: 1
    decay_mult: 0
  }
  scale_param {
    filler {
      value: 1
    }
    bias_term: true
    bias_filler {
      value: 0
    }
  }
}
layer {
  name: "relu5_3/sep"
  type: "ReLU"
  bottom: "conv5_3/sep"
  top: "conv5_3/sep"
}
layer {
  name: "conv5_4/dw"
  type: "Convolution"
  bottom: "conv5_3/sep"
  top: "conv5_4/dw"
  param {
    lr_mult: 1
    decay_mult: 1
  }
  convolution_param {
    num_output: 512
    bias_term: false
    pad: 1
    kernel_size: 3
    group: 512
    stride: 1
    weight_filler {
      type: "msra"
    }
    engine: CAFFE
  }
}
layer {
  name: "conv5_4/dw/bn"
  type: "BatchNorm"
  bottom: "conv5_4/dw"
  top: "conv5_4/dw"
  param {
    lr_mult: 0
    decay_mult: 0
  }
  param {
    lr_mult: 0
    decay_mult: 0
  }
  param {
    lr_mult: 0
    decay_mult: 0
  }
  batch_norm_param {
    use_global_stats: false
    eps: 1e-05
  }
}
layer {
  name: "conv5_4/dw/scale"
  type: "Scale"
  bottom: "conv5_4/dw"
  top: "conv5_4/dw"
  param {
    lr_mult: 1
    decay_mult: 0
  }
  param {
    lr_mult: 1
    decay_mult: 0
  }
  scale_param {
    filler {
      value: 1
    }
    bias_term: true
    bias_filler {
      value: 0
    }
  }
}
layer {
  name: "relu5_4/dw"
  type: "ReLU"
  bottom: "conv5_4/dw"
  top: "conv5_4/dw"
}
layer {
  name: "conv5_4/sep"
  type: "Convolution"
  bottom: "conv5_4/dw"
  top: "conv5_4/sep"
  param {
    lr_mult: 1
    decay_mult: 1
  }
  convolution_param {
    num_output: 512
    bias_term: false
    pad: 0
    kernel_size: 1
    stride: 1
    weight_filler {
      type: "msra"
    }
  }
}
layer {
  name: "conv5_4/sep/bn"
  type: "BatchNorm"
  bottom: "conv5_4/sep"
  top: "conv5_4/sep"
  param {
    lr_mult: 0
    decay_mult: 0
  }
  param {
    lr_mult: 0
    decay_mult: 0
  }
  param {
    lr_mult: 0
    decay_mult: 0
  }
  batch_norm_param {
    use_global_stats: false
    eps: 1e-05
  }
}
layer {
  name: "conv5_4/sep/scale"
  type: "Scale"
  bottom: "conv5_4/sep"
  top: "conv5_4/sep"
  param {
    lr_mult: 1
    decay_mult: 0
  }
  param {
    lr_mult: 1
    decay_mult: 0
  }
  scale_param {
    filler {
      value: 1
    }
    bias_term: true
    bias_filler {
      value: 0
    }
  }
}
layer {
  name: "relu5_4/sep"
  type: "ReLU"
  bottom: "conv5_4/sep"
  top: "conv5_4/sep"
}
layer {
  name: "conv5_5/dw"
  type: "Convolution"
  bottom: "conv5_4/sep"
  top: "conv5_5/dw"
  param {
    lr_mult: 1
    decay_mult: 1
  }
  convolution_param {
    num_output: 512
    bias_term: false
    pad: 1
    kernel_size: 3
    group: 512
    stride: 1
    weight_filler {
      type: "msra"
    }
    engine: CAFFE
  }
}
layer {
  name: "conv5_5/dw/bn"
  type: "BatchNorm"
  bottom: "conv5_5/dw"
  top: "conv5_5/dw"
  param {
    lr_mult: 0
    decay_mult: 0
  }
  param {
    lr_mult: 0
    decay_mult: 0
  }
  param {
    lr_mult: 0
    decay_mult: 0
  }
  batch_norm_param {
    use_global_stats: false
    eps: 1e-05
  }
}
layer {
  name: "conv5_5/dw/scale"
  type: "Scale"
  bottom: "conv5_5/dw"
  top: "conv5_5/dw"
  param {
    lr_mult: 1
    decay_mult: 0
  }
  param {
    lr_mult: 1
    decay_mult: 0
  }
  scale_param {
    filler {
      value: 1
    }
    bias_term: true
    bias_filler {
      value: 0
    }
  }
}
layer {
  name: "relu5_5/dw"
  type: "ReLU"
  bottom: "conv5_5/dw"
  top: "conv5_5/dw"
}
layer {
  name: "conv5_5/sep"
  type: "Convolution"
  bottom: "conv5_5/dw"
  top: "conv5_5/sep"
  param {
    lr_mult: 1
    decay_mult: 1
  }
  convolution_param {
    num_output: 512
    bias_term: false
    pad: 0
    kernel_size: 1
    stride: 1
    weight_filler {
      type: "msra"
    }
  }
}
layer {
  name: "conv5_5/sep/bn"
  type: "BatchNorm"
  bottom: "conv5_5/sep"
  top: "conv5_5/sep"
  param {
    lr_mult: 0
    decay_mult: 0
  }
  param {
    lr_mult: 0
    decay_mult: 0
  }
  param {
    lr_mult: 0
    decay_mult: 0
  }
  batch_norm_param {
    use_global_stats: false
    eps: 1e-05
  }
}
layer {
  name: "conv5_5/sep/scale"
  type: "Scale"
  bottom: "conv5_5/sep"
  top: "conv5_5/sep"
  param {
    lr_mult: 1
    decay_mult: 0
  }
  param {
    lr_mult: 1
    decay_mult: 0
  }
  scale_param {
    filler {
      value: 1
    }
    bias_term: true
    bias_filler {
      value: 0
    }
  }
}
layer {
  name: "relu5_5/sep"
  type: "ReLU"
  bottom: "conv5_5/sep"
  top: "conv5_5/sep"
}
layer {
  name: "pool6"
  type: "Pooling"
  bottom: "conv5_5/sep"
  top: "pool6"
  pooling_param {
    pool: AVE
    global_pooling: true
  }
}
layer {
  name: "fc7-mouth"
  type: "Convolution"
  bottom: "pool6"
  top: "fc7-mouth"
  param {
    lr_mult: 1
    decay_mult: 1
  }
  param {
    lr_mult: 2
    decay_mult: 0
  }
  convolution_param {
    num_output: 4
    kernel_size: 1
    weight_filler {
      type: "msra"
    }
    bias_filler {
      type: "constant"
      value: 0
    }
  }
}
layer {
  name: "loss"
  type: "SoftmaxWithLoss"
  bottom: "fc7-mouth"
  bottom: "clc-label"
  top: "loss"
}
layer {
  name: "acc"
  type: "Accuracy"
  bottom: "fc7-mouth"
  bottom: "clc-label"
  top: "acc"
  include {
    phase: TRAIN
  }
  include {
    phase: TEST
  }
}
I0707 01:19:39.556754 13879 layer_factory.hpp:77] Creating layer data
I0707 01:19:39.556774 13879 net.cpp:86] Creating Layer data
I0707 01:19:39.556783 13879 net.cpp:382] data -> data
I0707 01:19:39.556795 13879 net.cpp:382] data -> clc-label
I0707 01:19:39.556810 13879 image_data_layer.cpp:38] Opening file all_shuffle_val.txt
I0707 01:19:39.557421 13879 image_data_layer.cpp:63] A total of 1510 images.
I0707 01:19:39.557777 13879 image_data_layer.cpp:90] output data size: 16,3,96,96
I0707 01:19:39.564189 13879 net.cpp:124] Setting up data
I0707 01:19:39.564227 13879 net.cpp:131] Top shape: 16 3 96 96 (442368)
I0707 01:19:39.564234 13879 net.cpp:131] Top shape: 16 (16)
I0707 01:19:39.564237 13879 net.cpp:139] Memory required for data: 1769536
I0707 01:19:39.564245 13879 layer_factory.hpp:77] Creating layer clc-label_data_1_split
I0707 01:19:39.564257 13879 net.cpp:86] Creating Layer clc-label_data_1_split
I0707 01:19:39.564263 13879 net.cpp:408] clc-label_data_1_split <- clc-label
I0707 01:19:39.564271 13879 net.cpp:382] clc-label_data_1_split -> clc-label_data_1_split_0
I0707 01:19:39.564282 13879 net.cpp:382] clc-label_data_1_split -> clc-label_data_1_split_1
I0707 01:19:39.564393 13879 net.cpp:124] Setting up clc-label_data_1_split
I0707 01:19:39.564402 13879 net.cpp:131] Top shape: 16 (16)
I0707 01:19:39.564407 13879 net.cpp:131] Top shape: 16 (16)
I0707 01:19:39.564410 13879 net.cpp:139] Memory required for data: 1769664
I0707 01:19:39.564414 13879 layer_factory.hpp:77] Creating layer conv1
I0707 01:19:39.564435 13879 net.cpp:86] Creating Layer conv1
I0707 01:19:39.564440 13879 net.cpp:408] conv1 <- data
I0707 01:19:39.564450 13879 net.cpp:382] conv1 -> conv1
I0707 01:19:39.567183 13879 net.cpp:124] Setting up conv1
I0707 01:19:39.567198 13879 net.cpp:131] Top shape: 16 32 48 48 (1179648)
I0707 01:19:39.567203 13879 net.cpp:139] Memory required for data: 6488256
I0707 01:19:39.567216 13879 layer_factory.hpp:77] Creating layer conv1/bn
I0707 01:19:39.567230 13879 net.cpp:86] Creating Layer conv1/bn
I0707 01:19:39.567239 13879 net.cpp:408] conv1/bn <- conv1
I0707 01:19:39.567247 13879 net.cpp:369] conv1/bn -> conv1 (in-place)
I0707 01:19:39.567466 13879 net.cpp:124] Setting up conv1/bn
I0707 01:19:39.567476 13879 net.cpp:131] Top shape: 16 32 48 48 (1179648)
I0707 01:19:39.567481 13879 net.cpp:139] Memory required for data: 11206848
I0707 01:19:39.567517 13879 layer_factory.hpp:77] Creating layer conv1/scale
I0707 01:19:39.567528 13879 net.cpp:86] Creating Layer conv1/scale
I0707 01:19:39.567536 13879 net.cpp:408] conv1/scale <- conv1
I0707 01:19:39.567548 13879 net.cpp:369] conv1/scale -> conv1 (in-place)
I0707 01:19:39.567602 13879 layer_factory.hpp:77] Creating layer conv1/scale
I0707 01:19:39.567729 13879 net.cpp:124] Setting up conv1/scale
I0707 01:19:39.567739 13879 net.cpp:131] Top shape: 16 32 48 48 (1179648)
I0707 01:19:39.567744 13879 net.cpp:139] Memory required for data: 15925440
I0707 01:19:39.567756 13879 layer_factory.hpp:77] Creating layer relu1
I0707 01:19:39.567765 13879 net.cpp:86] Creating Layer relu1
I0707 01:19:39.567771 13879 net.cpp:408] relu1 <- conv1
I0707 01:19:39.567785 13879 net.cpp:369] relu1 -> conv1 (in-place)
I0707 01:19:39.568303 13879 net.cpp:124] Setting up relu1
I0707 01:19:39.568315 13879 net.cpp:131] Top shape: 16 32 48 48 (1179648)
I0707 01:19:39.568320 13879 net.cpp:139] Memory required for data: 20644032
I0707 01:19:39.568326 13879 layer_factory.hpp:77] Creating layer conv2_1/dw
I0707 01:19:39.568342 13879 net.cpp:86] Creating Layer conv2_1/dw
I0707 01:19:39.568349 13879 net.cpp:408] conv2_1/dw <- conv1
I0707 01:19:39.568362 13879 net.cpp:382] conv2_1/dw -> conv2_1/dw
I0707 01:19:39.568578 13879 net.cpp:124] Setting up conv2_1/dw
I0707 01:19:39.568588 13879 net.cpp:131] Top shape: 16 32 48 48 (1179648)
I0707 01:19:39.568593 13879 net.cpp:139] Memory required for data: 25362624
I0707 01:19:39.568603 13879 layer_factory.hpp:77] Creating layer conv2_1/dw/bn
I0707 01:19:39.568612 13879 net.cpp:86] Creating Layer conv2_1/dw/bn
I0707 01:19:39.568619 13879 net.cpp:408] conv2_1/dw/bn <- conv2_1/dw
I0707 01:19:39.568631 13879 net.cpp:369] conv2_1/dw/bn -> conv2_1/dw (in-place)
I0707 01:19:39.568835 13879 net.cpp:124] Setting up conv2_1/dw/bn
I0707 01:19:39.568845 13879 net.cpp:131] Top shape: 16 32 48 48 (1179648)
I0707 01:19:39.568848 13879 net.cpp:139] Memory required for data: 30081216
I0707 01:19:39.568863 13879 layer_factory.hpp:77] Creating layer conv2_1/dw/scale
I0707 01:19:39.568879 13879 net.cpp:86] Creating Layer conv2_1/dw/scale
I0707 01:19:39.568886 13879 net.cpp:408] conv2_1/dw/scale <- conv2_1/dw
I0707 01:19:39.568895 13879 net.cpp:369] conv2_1/dw/scale -> conv2_1/dw (in-place)
I0707 01:19:39.568944 13879 layer_factory.hpp:77] Creating layer conv2_1/dw/scale
I0707 01:19:39.569068 13879 net.cpp:124] Setting up conv2_1/dw/scale
I0707 01:19:39.569078 13879 net.cpp:131] Top shape: 16 32 48 48 (1179648)
I0707 01:19:39.569082 13879 net.cpp:139] Memory required for data: 34799808
I0707 01:19:39.569094 13879 layer_factory.hpp:77] Creating layer relu2_1/dw
I0707 01:19:39.569105 13879 net.cpp:86] Creating Layer relu2_1/dw
I0707 01:19:39.569113 13879 net.cpp:408] relu2_1/dw <- conv2_1/dw
I0707 01:19:39.569123 13879 net.cpp:369] relu2_1/dw -> conv2_1/dw (in-place)
I0707 01:19:39.569998 13879 net.cpp:124] Setting up relu2_1/dw
I0707 01:19:39.570013 13879 net.cpp:131] Top shape: 16 32 48 48 (1179648)
I0707 01:19:39.570017 13879 net.cpp:139] Memory required for data: 39518400
I0707 01:19:39.570025 13879 layer_factory.hpp:77] Creating layer conv2_1/sep
I0707 01:19:39.570039 13879 net.cpp:86] Creating Layer conv2_1/sep
I0707 01:19:39.570047 13879 net.cpp:408] conv2_1/sep <- conv2_1/dw
I0707 01:19:39.570060 13879 net.cpp:382] conv2_1/sep -> conv2_1/sep
I0707 01:19:39.572331 13879 net.cpp:124] Setting up conv2_1/sep
I0707 01:19:39.572347 13879 net.cpp:131] Top shape: 16 64 48 48 (2359296)
I0707 01:19:39.572352 13879 net.cpp:139] Memory required for data: 48955584
I0707 01:19:39.572369 13879 layer_factory.hpp:77] Creating layer conv2_1/sep/bn
I0707 01:19:39.572382 13879 net.cpp:86] Creating Layer conv2_1/sep/bn
I0707 01:19:39.572401 13879 net.cpp:408] conv2_1/sep/bn <- conv2_1/sep
I0707 01:19:39.572409 13879 net.cpp:369] conv2_1/sep/bn -> conv2_1/sep (in-place)
I0707 01:19:39.572633 13879 net.cpp:124] Setting up conv2_1/sep/bn
I0707 01:19:39.572643 13879 net.cpp:131] Top shape: 16 64 48 48 (2359296)
I0707 01:19:39.572646 13879 net.cpp:139] Memory required for data: 58392768
I0707 01:19:39.572671 13879 layer_factory.hpp:77] Creating layer conv2_1/sep/scale
I0707 01:19:39.572685 13879 net.cpp:86] Creating Layer conv2_1/sep/scale
I0707 01:19:39.572688 13879 net.cpp:408] conv2_1/sep/scale <- conv2_1/sep
I0707 01:19:39.572695 13879 net.cpp:369] conv2_1/sep/scale -> conv2_1/sep (in-place)
I0707 01:19:39.572744 13879 layer_factory.hpp:77] Creating layer conv2_1/sep/scale
I0707 01:19:39.572865 13879 net.cpp:124] Setting up conv2_1/sep/scale
I0707 01:19:39.572876 13879 net.cpp:131] Top shape: 16 64 48 48 (2359296)
I0707 01:19:39.572880 13879 net.cpp:139] Memory required for data: 67829952
I0707 01:19:39.572890 13879 layer_factory.hpp:77] Creating layer relu2_1/sep
I0707 01:19:39.572897 13879 net.cpp:86] Creating Layer relu2_1/sep
I0707 01:19:39.572903 13879 net.cpp:408] relu2_1/sep <- conv2_1/sep
I0707 01:19:39.572911 13879 net.cpp:369] relu2_1/sep -> conv2_1/sep (in-place)
I0707 01:19:39.573750 13879 net.cpp:124] Setting up relu2_1/sep
I0707 01:19:39.573761 13879 net.cpp:131] Top shape: 16 64 48 48 (2359296)
I0707 01:19:39.573765 13879 net.cpp:139] Memory required for data: 77267136
I0707 01:19:39.573770 13879 layer_factory.hpp:77] Creating layer conv2_2/dw
I0707 01:19:39.573783 13879 net.cpp:86] Creating Layer conv2_2/dw
I0707 01:19:39.573788 13879 net.cpp:408] conv2_2/dw <- conv2_1/sep
I0707 01:19:39.573806 13879 net.cpp:382] conv2_2/dw -> conv2_2/dw
I0707 01:19:39.574041 13879 net.cpp:124] Setting up conv2_2/dw
I0707 01:19:39.574051 13879 net.cpp:131] Top shape: 16 64 24 24 (589824)
I0707 01:19:39.574055 13879 net.cpp:139] Memory required for data: 79626432
I0707 01:19:39.574061 13879 layer_factory.hpp:77] Creating layer conv2_2/dw/bn
I0707 01:19:39.574087 13879 net.cpp:86] Creating Layer conv2_2/dw/bn
I0707 01:19:39.574092 13879 net.cpp:408] conv2_2/dw/bn <- conv2_2/dw
I0707 01:19:39.574100 13879 net.cpp:369] conv2_2/dw/bn -> conv2_2/dw (in-place)
I0707 01:19:39.574337 13879 net.cpp:124] Setting up conv2_2/dw/bn
I0707 01:19:39.574347 13879 net.cpp:131] Top shape: 16 64 24 24 (589824)
I0707 01:19:39.574350 13879 net.cpp:139] Memory required for data: 81985728
I0707 01:19:39.574358 13879 layer_factory.hpp:77] Creating layer conv2_2/dw/scale
I0707 01:19:39.574369 13879 net.cpp:86] Creating Layer conv2_2/dw/scale
I0707 01:19:39.574374 13879 net.cpp:408] conv2_2/dw/scale <- conv2_2/dw
I0707 01:19:39.574383 13879 net.cpp:369] conv2_2/dw/scale -> conv2_2/dw (in-place)
I0707 01:19:39.574430 13879 layer_factory.hpp:77] Creating layer conv2_2/dw/scale
I0707 01:19:39.574555 13879 net.cpp:124] Setting up conv2_2/dw/scale
I0707 01:19:39.574566 13879 net.cpp:131] Top shape: 16 64 24 24 (589824)
I0707 01:19:39.574571 13879 net.cpp:139] Memory required for data: 84345024
I0707 01:19:39.574578 13879 layer_factory.hpp:77] Creating layer relu2_2/dw
I0707 01:19:39.574584 13879 net.cpp:86] Creating Layer relu2_2/dw
I0707 01:19:39.574590 13879 net.cpp:408] relu2_2/dw <- conv2_2/dw
I0707 01:19:39.574596 13879 net.cpp:369] relu2_2/dw -> conv2_2/dw (in-place)
I0707 01:19:39.575497 13879 net.cpp:124] Setting up relu2_2/dw
I0707 01:19:39.575510 13879 net.cpp:131] Top shape: 16 64 24 24 (589824)
I0707 01:19:39.575515 13879 net.cpp:139] Memory required for data: 86704320
I0707 01:19:39.575522 13879 layer_factory.hpp:77] Creating layer conv2_2/sep
I0707 01:19:39.575543 13879 net.cpp:86] Creating Layer conv2_2/sep
I0707 01:19:39.575549 13879 net.cpp:408] conv2_2/sep <- conv2_2/dw
I0707 01:19:39.575561 13879 net.cpp:382] conv2_2/sep -> conv2_2/sep
I0707 01:19:39.577787 13879 net.cpp:124] Setting up conv2_2/sep
I0707 01:19:39.577801 13879 net.cpp:131] Top shape: 16 128 24 24 (1179648)
I0707 01:19:39.577806 13879 net.cpp:139] Memory required for data: 91422912
I0707 01:19:39.577817 13879 layer_factory.hpp:77] Creating layer conv2_2/sep/bn
I0707 01:19:39.577832 13879 net.cpp:86] Creating Layer conv2_2/sep/bn
I0707 01:19:39.577839 13879 net.cpp:408] conv2_2/sep/bn <- conv2_2/sep
I0707 01:19:39.577852 13879 net.cpp:369] conv2_2/sep/bn -> conv2_2/sep (in-place)
I0707 01:19:39.578058 13879 net.cpp:124] Setting up conv2_2/sep/bn
I0707 01:19:39.578078 13879 net.cpp:131] Top shape: 16 128 24 24 (1179648)
I0707 01:19:39.578083 13879 net.cpp:139] Memory required for data: 96141504
I0707 01:19:39.578096 13879 layer_factory.hpp:77] Creating layer conv2_2/sep/scale
I0707 01:19:39.578112 13879 net.cpp:86] Creating Layer conv2_2/sep/scale
I0707 01:19:39.578119 13879 net.cpp:408] conv2_2/sep/scale <- conv2_2/sep
I0707 01:19:39.578127 13879 net.cpp:369] conv2_2/sep/scale -> conv2_2/sep (in-place)
I0707 01:19:39.578178 13879 layer_factory.hpp:77] Creating layer conv2_2/sep/scale
I0707 01:19:39.578305 13879 net.cpp:124] Setting up conv2_2/sep/scale
I0707 01:19:39.578315 13879 net.cpp:131] Top shape: 16 128 24 24 (1179648)
I0707 01:19:39.578320 13879 net.cpp:139] Memory required for data: 100860096
I0707 01:19:39.578330 13879 layer_factory.hpp:77] Creating layer relu2_2/sep
I0707 01:19:39.578342 13879 net.cpp:86] Creating Layer relu2_2/sep
I0707 01:19:39.578349 13879 net.cpp:408] relu2_2/sep <- conv2_2/sep
I0707 01:19:39.578357 13879 net.cpp:369] relu2_2/sep -> conv2_2/sep (in-place)
I0707 01:19:39.579213 13879 net.cpp:124] Setting up relu2_2/sep
I0707 01:19:39.579227 13879 net.cpp:131] Top shape: 16 128 24 24 (1179648)
I0707 01:19:39.579231 13879 net.cpp:139] Memory required for data: 105578688
I0707 01:19:39.579236 13879 layer_factory.hpp:77] Creating layer conv3_1/dw
I0707 01:19:39.579246 13879 net.cpp:86] Creating Layer conv3_1/dw
I0707 01:19:39.579252 13879 net.cpp:408] conv3_1/dw <- conv2_2/sep
I0707 01:19:39.579259 13879 net.cpp:382] conv3_1/dw -> conv3_1/dw
I0707 01:19:39.579475 13879 net.cpp:124] Setting up conv3_1/dw
I0707 01:19:39.579486 13879 net.cpp:131] Top shape: 16 128 24 24 (1179648)
I0707 01:19:39.579490 13879 net.cpp:139] Memory required for data: 110297280
I0707 01:19:39.579495 13879 layer_factory.hpp:77] Creating layer conv3_1/dw/bn
I0707 01:19:39.579502 13879 net.cpp:86] Creating Layer conv3_1/dw/bn
I0707 01:19:39.579506 13879 net.cpp:408] conv3_1/dw/bn <- conv3_1/dw
I0707 01:19:39.579512 13879 net.cpp:369] conv3_1/dw/bn -> conv3_1/dw (in-place)
I0707 01:19:39.579718 13879 net.cpp:124] Setting up conv3_1/dw/bn
I0707 01:19:39.579728 13879 net.cpp:131] Top shape: 16 128 24 24 (1179648)
I0707 01:19:39.579732 13879 net.cpp:139] Memory required for data: 115015872
I0707 01:19:39.579751 13879 layer_factory.hpp:77] Creating layer conv3_1/dw/scale
I0707 01:19:39.579762 13879 net.cpp:86] Creating Layer conv3_1/dw/scale
I0707 01:19:39.579771 13879 net.cpp:408] conv3_1/dw/scale <- conv3_1/dw
I0707 01:19:39.579779 13879 net.cpp:369] conv3_1/dw/scale -> conv3_1/dw (in-place)
I0707 01:19:39.579854 13879 layer_factory.hpp:77] Creating layer conv3_1/dw/scale
I0707 01:19:39.579990 13879 net.cpp:124] Setting up conv3_1/dw/scale
I0707 01:19:39.579999 13879 net.cpp:131] Top shape: 16 128 24 24 (1179648)
I0707 01:19:39.580003 13879 net.cpp:139] Memory required for data: 119734464
I0707 01:19:39.580018 13879 layer_factory.hpp:77] Creating layer relu3_1/dw
I0707 01:19:39.580025 13879 net.cpp:86] Creating Layer relu3_1/dw
I0707 01:19:39.580029 13879 net.cpp:408] relu3_1/dw <- conv3_1/dw
I0707 01:19:39.580039 13879 net.cpp:369] relu3_1/dw -> conv3_1/dw (in-place)
I0707 01:19:39.580598 13879 net.cpp:124] Setting up relu3_1/dw
I0707 01:19:39.580610 13879 net.cpp:131] Top shape: 16 128 24 24 (1179648)
I0707 01:19:39.580615 13879 net.cpp:139] Memory required for data: 124453056
I0707 01:19:39.580619 13879 layer_factory.hpp:77] Creating layer conv3_1/sep
I0707 01:19:39.580629 13879 net.cpp:86] Creating Layer conv3_1/sep
I0707 01:19:39.580636 13879 net.cpp:408] conv3_1/sep <- conv3_1/dw
I0707 01:19:39.580643 13879 net.cpp:382] conv3_1/sep -> conv3_1/sep
I0707 01:19:39.583024 13879 net.cpp:124] Setting up conv3_1/sep
I0707 01:19:39.583039 13879 net.cpp:131] Top shape: 16 128 24 24 (1179648)
I0707 01:19:39.583043 13879 net.cpp:139] Memory required for data: 129171648
I0707 01:19:39.583050 13879 layer_factory.hpp:77] Creating layer conv3_1/sep/bn
I0707 01:19:39.583056 13879 net.cpp:86] Creating Layer conv3_1/sep/bn
I0707 01:19:39.583061 13879 net.cpp:408] conv3_1/sep/bn <- conv3_1/sep
I0707 01:19:39.583081 13879 net.cpp:369] conv3_1/sep/bn -> conv3_1/sep (in-place)
I0707 01:19:39.583292 13879 net.cpp:124] Setting up conv3_1/sep/bn
I0707 01:19:39.583302 13879 net.cpp:131] Top shape: 16 128 24 24 (1179648)
I0707 01:19:39.583307 13879 net.cpp:139] Memory required for data: 133890240
I0707 01:19:39.583320 13879 layer_factory.hpp:77] Creating layer conv3_1/sep/scale
I0707 01:19:39.583329 13879 net.cpp:86] Creating Layer conv3_1/sep/scale
I0707 01:19:39.583335 13879 net.cpp:408] conv3_1/sep/scale <- conv3_1/sep
I0707 01:19:39.583348 13879 net.cpp:369] conv3_1/sep/scale -> conv3_1/sep (in-place)
I0707 01:19:39.583396 13879 layer_factory.hpp:77] Creating layer conv3_1/sep/scale
I0707 01:19:39.583528 13879 net.cpp:124] Setting up conv3_1/sep/scale
I0707 01:19:39.583537 13879 net.cpp:131] Top shape: 16 128 24 24 (1179648)
I0707 01:19:39.583541 13879 net.cpp:139] Memory required for data: 138608832
I0707 01:19:39.583554 13879 layer_factory.hpp:77] Creating layer relu3_1/sep
I0707 01:19:39.583562 13879 net.cpp:86] Creating Layer relu3_1/sep
I0707 01:19:39.583568 13879 net.cpp:408] relu3_1/sep <- conv3_1/sep
I0707 01:19:39.583578 13879 net.cpp:369] relu3_1/sep -> conv3_1/sep (in-place)
I0707 01:19:39.584417 13879 net.cpp:124] Setting up relu3_1/sep
I0707 01:19:39.584429 13879 net.cpp:131] Top shape: 16 128 24 24 (1179648)
I0707 01:19:39.584434 13879 net.cpp:139] Memory required for data: 143327424
I0707 01:19:39.584441 13879 layer_factory.hpp:77] Creating layer conv3_2/dw
I0707 01:19:39.584457 13879 net.cpp:86] Creating Layer conv3_2/dw
I0707 01:19:39.584465 13879 net.cpp:408] conv3_2/dw <- conv3_1/sep
I0707 01:19:39.584475 13879 net.cpp:382] conv3_2/dw -> conv3_2/dw
I0707 01:19:39.584692 13879 net.cpp:124] Setting up conv3_2/dw
I0707 01:19:39.584703 13879 net.cpp:131] Top shape: 16 128 12 12 (294912)
I0707 01:19:39.584707 13879 net.cpp:139] Memory required for data: 144507072
I0707 01:19:39.584717 13879 layer_factory.hpp:77] Creating layer conv3_2/dw/bn
I0707 01:19:39.584728 13879 net.cpp:86] Creating Layer conv3_2/dw/bn
I0707 01:19:39.584736 13879 net.cpp:408] conv3_2/dw/bn <- conv3_2/dw
I0707 01:19:39.584744 13879 net.cpp:369] conv3_2/dw/bn -> conv3_2/dw (in-place)
I0707 01:19:39.584936 13879 net.cpp:124] Setting up conv3_2/dw/bn
I0707 01:19:39.584945 13879 net.cpp:131] Top shape: 16 128 12 12 (294912)
I0707 01:19:39.584949 13879 net.cpp:139] Memory required for data: 145686720
I0707 01:19:39.584962 13879 layer_factory.hpp:77] Creating layer conv3_2/dw/scale
I0707 01:19:39.584977 13879 net.cpp:86] Creating Layer conv3_2/dw/scale
I0707 01:19:39.584985 13879 net.cpp:408] conv3_2/dw/scale <- conv3_2/dw
I0707 01:19:39.584992 13879 net.cpp:369] conv3_2/dw/scale -> conv3_2/dw (in-place)
I0707 01:19:39.585059 13879 layer_factory.hpp:77] Creating layer conv3_2/dw/scale
I0707 01:19:39.585193 13879 net.cpp:124] Setting up conv3_2/dw/scale
I0707 01:19:39.585203 13879 net.cpp:131] Top shape: 16 128 12 12 (294912)
I0707 01:19:39.585207 13879 net.cpp:139] Memory required for data: 146866368
I0707 01:19:39.585213 13879 layer_factory.hpp:77] Creating layer relu3_2/dw
I0707 01:19:39.585229 13879 net.cpp:86] Creating Layer relu3_2/dw
I0707 01:19:39.585244 13879 net.cpp:408] relu3_2/dw <- conv3_2/dw
I0707 01:19:39.585253 13879 net.cpp:369] relu3_2/dw -> conv3_2/dw (in-place)
I0707 01:19:39.585770 13879 net.cpp:124] Setting up relu3_2/dw
I0707 01:19:39.585783 13879 net.cpp:131] Top shape: 16 128 12 12 (294912)
I0707 01:19:39.585786 13879 net.cpp:139] Memory required for data: 148046016
I0707 01:19:39.585794 13879 layer_factory.hpp:77] Creating layer conv3_2/sep
I0707 01:19:39.585809 13879 net.cpp:86] Creating Layer conv3_2/sep
I0707 01:19:39.585816 13879 net.cpp:408] conv3_2/sep <- conv3_2/dw
I0707 01:19:39.585827 13879 net.cpp:382] conv3_2/sep -> conv3_2/sep
I0707 01:19:39.588595 13879 net.cpp:124] Setting up conv3_2/sep
I0707 01:19:39.588608 13879 net.cpp:131] Top shape: 16 256 12 12 (589824)
I0707 01:19:39.588613 13879 net.cpp:139] Memory required for data: 150405312
I0707 01:19:39.588639 13879 layer_factory.hpp:77] Creating layer conv3_2/sep/bn
I0707 01:19:39.588651 13879 net.cpp:86] Creating Layer conv3_2/sep/bn
I0707 01:19:39.588659 13879 net.cpp:408] conv3_2/sep/bn <- conv3_2/sep
I0707 01:19:39.588670 13879 net.cpp:369] conv3_2/sep/bn -> conv3_2/sep (in-place)
I0707 01:19:39.588884 13879 net.cpp:124] Setting up conv3_2/sep/bn
I0707 01:19:39.588894 13879 net.cpp:131] Top shape: 16 256 12 12 (589824)
I0707 01:19:39.588898 13879 net.cpp:139] Memory required for data: 152764608
I0707 01:19:39.588907 13879 layer_factory.hpp:77] Creating layer conv3_2/sep/scale
I0707 01:19:39.588924 13879 net.cpp:86] Creating Layer conv3_2/sep/scale
I0707 01:19:39.588939 13879 net.cpp:408] conv3_2/sep/scale <- conv3_2/sep
I0707 01:19:39.588948 13879 net.cpp:369] conv3_2/sep/scale -> conv3_2/sep (in-place)
I0707 01:19:39.588996 13879 layer_factory.hpp:77] Creating layer conv3_2/sep/scale
I0707 01:19:39.589118 13879 net.cpp:124] Setting up conv3_2/sep/scale
I0707 01:19:39.589128 13879 net.cpp:131] Top shape: 16 256 12 12 (589824)
I0707 01:19:39.589131 13879 net.cpp:139] Memory required for data: 155123904
I0707 01:19:39.589143 13879 layer_factory.hpp:77] Creating layer relu3_2/sep
I0707 01:19:39.589152 13879 net.cpp:86] Creating Layer relu3_2/sep
I0707 01:19:39.589159 13879 net.cpp:408] relu3_2/sep <- conv3_2/sep
I0707 01:19:39.589171 13879 net.cpp:369] relu3_2/sep -> conv3_2/sep (in-place)
I0707 01:19:39.590119 13879 net.cpp:124] Setting up relu3_2/sep
I0707 01:19:39.590132 13879 net.cpp:131] Top shape: 16 256 12 12 (589824)
I0707 01:19:39.590137 13879 net.cpp:139] Memory required for data: 157483200
I0707 01:19:39.590143 13879 layer_factory.hpp:77] Creating layer conv4_1/dw
I0707 01:19:39.590160 13879 net.cpp:86] Creating Layer conv4_1/dw
I0707 01:19:39.590175 13879 net.cpp:408] conv4_1/dw <- conv3_2/sep
I0707 01:19:39.590200 13879 net.cpp:382] conv4_1/dw -> conv4_1/dw
I0707 01:19:39.590456 13879 net.cpp:124] Setting up conv4_1/dw
I0707 01:19:39.590466 13879 net.cpp:131] Top shape: 16 256 12 12 (589824)
I0707 01:19:39.590469 13879 net.cpp:139] Memory required for data: 159842496
I0707 01:19:39.590476 13879 layer_factory.hpp:77] Creating layer conv4_1/dw/bn
I0707 01:19:39.590482 13879 net.cpp:86] Creating Layer conv4_1/dw/bn
I0707 01:19:39.590487 13879 net.cpp:408] conv4_1/dw/bn <- conv4_1/dw
I0707 01:19:39.590497 13879 net.cpp:369] conv4_1/dw/bn -> conv4_1/dw (in-place)
I0707 01:19:39.590701 13879 net.cpp:124] Setting up conv4_1/dw/bn
I0707 01:19:39.590710 13879 net.cpp:131] Top shape: 16 256 12 12 (589824)
I0707 01:19:39.590715 13879 net.cpp:139] Memory required for data: 162201792
I0707 01:19:39.590729 13879 layer_factory.hpp:77] Creating layer conv4_1/dw/scale
I0707 01:19:39.590740 13879 net.cpp:86] Creating Layer conv4_1/dw/scale
I0707 01:19:39.590749 13879 net.cpp:408] conv4_1/dw/scale <- conv4_1/dw
I0707 01:19:39.590757 13879 net.cpp:369] conv4_1/dw/scale -> conv4_1/dw (in-place)
I0707 01:19:39.590813 13879 layer_factory.hpp:77] Creating layer conv4_1/dw/scale
I0707 01:19:39.590939 13879 net.cpp:124] Setting up conv4_1/dw/scale
I0707 01:19:39.590950 13879 net.cpp:131] Top shape: 16 256 12 12 (589824)
I0707 01:19:39.590958 13879 net.cpp:139] Memory required for data: 164561088
I0707 01:19:39.590970 13879 layer_factory.hpp:77] Creating layer relu4_1/dw
I0707 01:19:39.590979 13879 net.cpp:86] Creating Layer relu4_1/dw
I0707 01:19:39.590986 13879 net.cpp:408] relu4_1/dw <- conv4_1/dw
I0707 01:19:39.590993 13879 net.cpp:369] relu4_1/dw -> conv4_1/dw (in-place)
I0707 01:19:39.591502 13879 net.cpp:124] Setting up relu4_1/dw
I0707 01:19:39.591519 13879 net.cpp:131] Top shape: 16 256 12 12 (589824)
I0707 01:19:39.591524 13879 net.cpp:139] Memory required for data: 166920384
I0707 01:19:39.591528 13879 layer_factory.hpp:77] Creating layer conv4_1/sep
I0707 01:19:39.591538 13879 net.cpp:86] Creating Layer conv4_1/sep
I0707 01:19:39.591542 13879 net.cpp:408] conv4_1/sep <- conv4_1/dw
I0707 01:19:39.591549 13879 net.cpp:382] conv4_1/sep -> conv4_1/sep
I0707 01:19:39.594379 13879 net.cpp:124] Setting up conv4_1/sep
I0707 01:19:39.594403 13879 net.cpp:131] Top shape: 16 256 12 12 (589824)
I0707 01:19:39.594408 13879 net.cpp:139] Memory required for data: 169279680
I0707 01:19:39.594414 13879 layer_factory.hpp:77] Creating layer conv4_1/sep/bn
I0707 01:19:39.594434 13879 net.cpp:86] Creating Layer conv4_1/sep/bn
I0707 01:19:39.594439 13879 net.cpp:408] conv4_1/sep/bn <- conv4_1/sep
I0707 01:19:39.594455 13879 net.cpp:369] conv4_1/sep/bn -> conv4_1/sep (in-place)
I0707 01:19:39.594671 13879 net.cpp:124] Setting up conv4_1/sep/bn
I0707 01:19:39.594681 13879 net.cpp:131] Top shape: 16 256 12 12 (589824)
I0707 01:19:39.594684 13879 net.cpp:139] Memory required for data: 171638976
I0707 01:19:39.594692 13879 layer_factory.hpp:77] Creating layer conv4_1/sep/scale
I0707 01:19:39.594700 13879 net.cpp:86] Creating Layer conv4_1/sep/scale
I0707 01:19:39.594705 13879 net.cpp:408] conv4_1/sep/scale <- conv4_1/sep
I0707 01:19:39.594712 13879 net.cpp:369] conv4_1/sep/scale -> conv4_1/sep (in-place)
I0707 01:19:39.594775 13879 layer_factory.hpp:77] Creating layer conv4_1/sep/scale
I0707 01:19:39.594892 13879 net.cpp:124] Setting up conv4_1/sep/scale
I0707 01:19:39.594902 13879 net.cpp:131] Top shape: 16 256 12 12 (589824)
I0707 01:19:39.594905 13879 net.cpp:139] Memory required for data: 173998272
I0707 01:19:39.594921 13879 layer_factory.hpp:77] Creating layer relu4_1/sep
I0707 01:19:39.594928 13879 net.cpp:86] Creating Layer relu4_1/sep
I0707 01:19:39.594934 13879 net.cpp:408] relu4_1/sep <- conv4_1/sep
I0707 01:19:39.594951 13879 net.cpp:369] relu4_1/sep -> conv4_1/sep (in-place)
I0707 01:19:39.595793 13879 net.cpp:124] Setting up relu4_1/sep
I0707 01:19:39.595805 13879 net.cpp:131] Top shape: 16 256 12 12 (589824)
I0707 01:19:39.595811 13879 net.cpp:139] Memory required for data: 176357568
I0707 01:19:39.595815 13879 layer_factory.hpp:77] Creating layer conv4_2/dw
I0707 01:19:39.595826 13879 net.cpp:86] Creating Layer conv4_2/dw
I0707 01:19:39.595831 13879 net.cpp:408] conv4_2/dw <- conv4_1/sep
I0707 01:19:39.595839 13879 net.cpp:382] conv4_2/dw -> conv4_2/dw
I0707 01:19:39.596081 13879 net.cpp:124] Setting up conv4_2/dw
I0707 01:19:39.596091 13879 net.cpp:131] Top shape: 16 256 6 6 (147456)
I0707 01:19:39.596096 13879 net.cpp:139] Memory required for data: 176947392
I0707 01:19:39.596101 13879 layer_factory.hpp:77] Creating layer conv4_2/dw/bn
I0707 01:19:39.596118 13879 net.cpp:86] Creating Layer conv4_2/dw/bn
I0707 01:19:39.596124 13879 net.cpp:408] conv4_2/dw/bn <- conv4_2/dw
I0707 01:19:39.596130 13879 net.cpp:369] conv4_2/dw/bn -> conv4_2/dw (in-place)
I0707 01:19:39.596362 13879 net.cpp:124] Setting up conv4_2/dw/bn
I0707 01:19:39.596374 13879 net.cpp:131] Top shape: 16 256 6 6 (147456)
I0707 01:19:39.596379 13879 net.cpp:139] Memory required for data: 177537216
I0707 01:19:39.596386 13879 layer_factory.hpp:77] Creating layer conv4_2/dw/scale
I0707 01:19:39.596396 13879 net.cpp:86] Creating Layer conv4_2/dw/scale
I0707 01:19:39.596401 13879 net.cpp:408] conv4_2/dw/scale <- conv4_2/dw
I0707 01:19:39.596407 13879 net.cpp:369] conv4_2/dw/scale -> conv4_2/dw (in-place)
I0707 01:19:39.596451 13879 layer_factory.hpp:77] Creating layer conv4_2/dw/scale
I0707 01:19:39.596572 13879 net.cpp:124] Setting up conv4_2/dw/scale
I0707 01:19:39.596581 13879 net.cpp:131] Top shape: 16 256 6 6 (147456)
I0707 01:19:39.596585 13879 net.cpp:139] Memory required for data: 178127040
I0707 01:19:39.596592 13879 layer_factory.hpp:77] Creating layer relu4_2/dw
I0707 01:19:39.596599 13879 net.cpp:86] Creating Layer relu4_2/dw
I0707 01:19:39.596603 13879 net.cpp:408] relu4_2/dw <- conv4_2/dw
I0707 01:19:39.596611 13879 net.cpp:369] relu4_2/dw -> conv4_2/dw (in-place)
I0707 01:19:39.597112 13879 net.cpp:124] Setting up relu4_2/dw
I0707 01:19:39.597123 13879 net.cpp:131] Top shape: 16 256 6 6 (147456)
I0707 01:19:39.597128 13879 net.cpp:139] Memory required for data: 178716864
I0707 01:19:39.597133 13879 layer_factory.hpp:77] Creating layer conv4_2/sep
I0707 01:19:39.597142 13879 net.cpp:86] Creating Layer conv4_2/sep
I0707 01:19:39.597148 13879 net.cpp:408] conv4_2/sep <- conv4_2/dw
I0707 01:19:39.597167 13879 net.cpp:382] conv4_2/sep -> conv4_2/sep
I0707 01:19:39.601033 13879 net.cpp:124] Setting up conv4_2/sep
I0707 01:19:39.601048 13879 net.cpp:131] Top shape: 16 512 6 6 (294912)
I0707 01:19:39.601053 13879 net.cpp:139] Memory required for data: 179896512
I0707 01:19:39.601059 13879 layer_factory.hpp:77] Creating layer conv4_2/sep/bn
I0707 01:19:39.601069 13879 net.cpp:86] Creating Layer conv4_2/sep/bn
I0707 01:19:39.601075 13879 net.cpp:408] conv4_2/sep/bn <- conv4_2/sep
I0707 01:19:39.601083 13879 net.cpp:369] conv4_2/sep/bn -> conv4_2/sep (in-place)
I0707 01:19:39.601301 13879 net.cpp:124] Setting up conv4_2/sep/bn
I0707 01:19:39.601320 13879 net.cpp:131] Top shape: 16 512 6 6 (294912)
I0707 01:19:39.601327 13879 net.cpp:139] Memory required for data: 181076160
I0707 01:19:39.601336 13879 layer_factory.hpp:77] Creating layer conv4_2/sep/scale
I0707 01:19:39.601344 13879 net.cpp:86] Creating Layer conv4_2/sep/scale
I0707 01:19:39.601348 13879 net.cpp:408] conv4_2/sep/scale <- conv4_2/sep
I0707 01:19:39.601354 13879 net.cpp:369] conv4_2/sep/scale -> conv4_2/sep (in-place)
I0707 01:19:39.601402 13879 layer_factory.hpp:77] Creating layer conv4_2/sep/scale
I0707 01:19:39.601528 13879 net.cpp:124] Setting up conv4_2/sep/scale
I0707 01:19:39.601539 13879 net.cpp:131] Top shape: 16 512 6 6 (294912)
I0707 01:19:39.601544 13879 net.cpp:139] Memory required for data: 182255808
I0707 01:19:39.601550 13879 layer_factory.hpp:77] Creating layer relu4_2/sep
I0707 01:19:39.601558 13879 net.cpp:86] Creating Layer relu4_2/sep
I0707 01:19:39.601565 13879 net.cpp:408] relu4_2/sep <- conv4_2/sep
I0707 01:19:39.601577 13879 net.cpp:369] relu4_2/sep -> conv4_2/sep (in-place)
I0707 01:19:39.602083 13879 net.cpp:124] Setting up relu4_2/sep
I0707 01:19:39.602097 13879 net.cpp:131] Top shape: 16 512 6 6 (294912)
I0707 01:19:39.602105 13879 net.cpp:139] Memory required for data: 183435456
I0707 01:19:39.602113 13879 layer_factory.hpp:77] Creating layer conv5_1/dw
I0707 01:19:39.602126 13879 net.cpp:86] Creating Layer conv5_1/dw
I0707 01:19:39.602133 13879 net.cpp:408] conv5_1/dw <- conv4_2/sep
I0707 01:19:39.602145 13879 net.cpp:382] conv5_1/dw -> conv5_1/dw
I0707 01:19:39.602411 13879 net.cpp:124] Setting up conv5_1/dw
I0707 01:19:39.602422 13879 net.cpp:131] Top shape: 16 512 6 6 (294912)
I0707 01:19:39.602430 13879 net.cpp:139] Memory required for data: 184615104
I0707 01:19:39.602442 13879 layer_factory.hpp:77] Creating layer conv5_1/dw/bn
I0707 01:19:39.602452 13879 net.cpp:86] Creating Layer conv5_1/dw/bn
I0707 01:19:39.602459 13879 net.cpp:408] conv5_1/dw/bn <- conv5_1/dw
I0707 01:19:39.602468 13879 net.cpp:369] conv5_1/dw/bn -> conv5_1/dw (in-place)
I0707 01:19:39.602674 13879 net.cpp:124] Setting up conv5_1/dw/bn
I0707 01:19:39.602684 13879 net.cpp:131] Top shape: 16 512 6 6 (294912)
I0707 01:19:39.602690 13879 net.cpp:139] Memory required for data: 185794752
I0707 01:19:39.602704 13879 layer_factory.hpp:77] Creating layer conv5_1/dw/scale
I0707 01:19:39.602716 13879 net.cpp:86] Creating Layer conv5_1/dw/scale
I0707 01:19:39.602723 13879 net.cpp:408] conv5_1/dw/scale <- conv5_1/dw
I0707 01:19:39.602733 13879 net.cpp:369] conv5_1/dw/scale -> conv5_1/dw (in-place)
I0707 01:19:39.602779 13879 layer_factory.hpp:77] Creating layer conv5_1/dw/scale
I0707 01:19:39.602912 13879 net.cpp:124] Setting up conv5_1/dw/scale
I0707 01:19:39.602922 13879 net.cpp:131] Top shape: 16 512 6 6 (294912)
I0707 01:19:39.602929 13879 net.cpp:139] Memory required for data: 186974400
I0707 01:19:39.602941 13879 layer_factory.hpp:77] Creating layer relu5_1/dw
I0707 01:19:39.602949 13879 net.cpp:86] Creating Layer relu5_1/dw
I0707 01:19:39.602957 13879 net.cpp:408] relu5_1/dw <- conv5_1/dw
I0707 01:19:39.602970 13879 net.cpp:369] relu5_1/dw -> conv5_1/dw (in-place)
I0707 01:19:39.603621 13879 net.cpp:124] Setting up relu5_1/dw
I0707 01:19:39.603636 13879 net.cpp:131] Top shape: 16 512 6 6 (294912)
I0707 01:19:39.603642 13879 net.cpp:139] Memory required for data: 188154048
I0707 01:19:39.603649 13879 layer_factory.hpp:77] Creating layer conv5_1/sep
I0707 01:19:39.603675 13879 net.cpp:86] Creating Layer conv5_1/sep
I0707 01:19:39.603682 13879 net.cpp:408] conv5_1/sep <- conv5_1/dw
I0707 01:19:39.603693 13879 net.cpp:382] conv5_1/sep -> conv5_1/sep
I0707 01:19:39.610200 13879 net.cpp:124] Setting up conv5_1/sep
I0707 01:19:39.610226 13879 net.cpp:131] Top shape: 16 512 6 6 (294912)
I0707 01:19:39.610234 13879 net.cpp:139] Memory required for data: 189333696
I0707 01:19:39.610255 13879 layer_factory.hpp:77] Creating layer conv5_1/sep/bn
I0707 01:19:39.610271 13879 net.cpp:86] Creating Layer conv5_1/sep/bn
I0707 01:19:39.610280 13879 net.cpp:408] conv5_1/sep/bn <- conv5_1/sep
I0707 01:19:39.610294 13879 net.cpp:369] conv5_1/sep/bn -> conv5_1/sep (in-place)
I0707 01:19:39.610524 13879 net.cpp:124] Setting up conv5_1/sep/bn
I0707 01:19:39.610533 13879 net.cpp:131] Top shape: 16 512 6 6 (294912)
I0707 01:19:39.610538 13879 net.cpp:139] Memory required for data: 190513344
I0707 01:19:39.610545 13879 layer_factory.hpp:77] Creating layer conv5_1/sep/scale
I0707 01:19:39.610555 13879 net.cpp:86] Creating Layer conv5_1/sep/scale
I0707 01:19:39.610560 13879 net.cpp:408] conv5_1/sep/scale <- conv5_1/sep
I0707 01:19:39.610575 13879 net.cpp:369] conv5_1/sep/scale -> conv5_1/sep (in-place)
I0707 01:19:39.610651 13879 layer_factory.hpp:77] Creating layer conv5_1/sep/scale
I0707 01:19:39.610796 13879 net.cpp:124] Setting up conv5_1/sep/scale
I0707 01:19:39.610807 13879 net.cpp:131] Top shape: 16 512 6 6 (294912)
I0707 01:19:39.610811 13879 net.cpp:139] Memory required for data: 191692992
I0707 01:19:39.610817 13879 layer_factory.hpp:77] Creating layer relu5_1/sep
I0707 01:19:39.610824 13879 net.cpp:86] Creating Layer relu5_1/sep
I0707 01:19:39.610828 13879 net.cpp:408] relu5_1/sep <- conv5_1/sep
I0707 01:19:39.610833 13879 net.cpp:369] relu5_1/sep -> conv5_1/sep (in-place)
I0707 01:19:39.611354 13879 net.cpp:124] Setting up relu5_1/sep
I0707 01:19:39.611366 13879 net.cpp:131] Top shape: 16 512 6 6 (294912)
I0707 01:19:39.611371 13879 net.cpp:139] Memory required for data: 192872640
I0707 01:19:39.611374 13879 layer_factory.hpp:77] Creating layer conv5_2/dw
I0707 01:19:39.611385 13879 net.cpp:86] Creating Layer conv5_2/dw
I0707 01:19:39.611390 13879 net.cpp:408] conv5_2/dw <- conv5_1/sep
I0707 01:19:39.611397 13879 net.cpp:382] conv5_2/dw -> conv5_2/dw
I0707 01:19:39.611685 13879 net.cpp:124] Setting up conv5_2/dw
I0707 01:19:39.611696 13879 net.cpp:131] Top shape: 16 512 6 6 (294912)
I0707 01:19:39.611699 13879 net.cpp:139] Memory required for data: 194052288
I0707 01:19:39.611713 13879 layer_factory.hpp:77] Creating layer conv5_2/dw/bn
I0707 01:19:39.611719 13879 net.cpp:86] Creating Layer conv5_2/dw/bn
I0707 01:19:39.611724 13879 net.cpp:408] conv5_2/dw/bn <- conv5_2/dw
I0707 01:19:39.611732 13879 net.cpp:369] conv5_2/dw/bn -> conv5_2/dw (in-place)
I0707 01:19:39.611944 13879 net.cpp:124] Setting up conv5_2/dw/bn
I0707 01:19:39.611954 13879 net.cpp:131] Top shape: 16 512 6 6 (294912)
I0707 01:19:39.611958 13879 net.cpp:139] Memory required for data: 195231936
I0707 01:19:39.611974 13879 layer_factory.hpp:77] Creating layer conv5_2/dw/scale
I0707 01:19:39.611992 13879 net.cpp:86] Creating Layer conv5_2/dw/scale
I0707 01:19:39.611999 13879 net.cpp:408] conv5_2/dw/scale <- conv5_2/dw
I0707 01:19:39.612015 13879 net.cpp:369] conv5_2/dw/scale -> conv5_2/dw (in-place)
I0707 01:19:39.612066 13879 layer_factory.hpp:77] Creating layer conv5_2/dw/scale
I0707 01:19:39.612196 13879 net.cpp:124] Setting up conv5_2/dw/scale
I0707 01:19:39.612205 13879 net.cpp:131] Top shape: 16 512 6 6 (294912)
I0707 01:19:39.612210 13879 net.cpp:139] Memory required for data: 196411584
I0707 01:19:39.612216 13879 layer_factory.hpp:77] Creating layer relu5_2/dw
I0707 01:19:39.612224 13879 net.cpp:86] Creating Layer relu5_2/dw
I0707 01:19:39.612238 13879 net.cpp:408] relu5_2/dw <- conv5_2/dw
I0707 01:19:39.612244 13879 net.cpp:369] relu5_2/dw -> conv5_2/dw (in-place)
I0707 01:19:39.612758 13879 net.cpp:124] Setting up relu5_2/dw
I0707 01:19:39.612771 13879 net.cpp:131] Top shape: 16 512 6 6 (294912)
I0707 01:19:39.612790 13879 net.cpp:139] Memory required for data: 197591232
I0707 01:19:39.612795 13879 layer_factory.hpp:77] Creating layer conv5_2/sep
I0707 01:19:39.612805 13879 net.cpp:86] Creating Layer conv5_2/sep
I0707 01:19:39.612812 13879 net.cpp:408] conv5_2/sep <- conv5_2/dw
I0707 01:19:39.612818 13879 net.cpp:382] conv5_2/sep -> conv5_2/sep
I0707 01:19:39.618060 13879 net.cpp:124] Setting up conv5_2/sep
I0707 01:19:39.618083 13879 net.cpp:131] Top shape: 16 512 6 6 (294912)
I0707 01:19:39.618088 13879 net.cpp:139] Memory required for data: 198770880
I0707 01:19:39.618094 13879 layer_factory.hpp:77] Creating layer conv5_2/sep/bn
I0707 01:19:39.618111 13879 net.cpp:86] Creating Layer conv5_2/sep/bn
I0707 01:19:39.618118 13879 net.cpp:408] conv5_2/sep/bn <- conv5_2/sep
I0707 01:19:39.618132 13879 net.cpp:369] conv5_2/sep/bn -> conv5_2/sep (in-place)
I0707 01:19:39.618378 13879 net.cpp:124] Setting up conv5_2/sep/bn
I0707 01:19:39.618387 13879 net.cpp:131] Top shape: 16 512 6 6 (294912)
I0707 01:19:39.618391 13879 net.cpp:139] Memory required for data: 199950528
I0707 01:19:39.618399 13879 layer_factory.hpp:77] Creating layer conv5_2/sep/scale
I0707 01:19:39.618408 13879 net.cpp:86] Creating Layer conv5_2/sep/scale
I0707 01:19:39.618412 13879 net.cpp:408] conv5_2/sep/scale <- conv5_2/sep
I0707 01:19:39.618418 13879 net.cpp:369] conv5_2/sep/scale -> conv5_2/sep (in-place)
I0707 01:19:39.618460 13879 layer_factory.hpp:77] Creating layer conv5_2/sep/scale
I0707 01:19:39.618587 13879 net.cpp:124] Setting up conv5_2/sep/scale
I0707 01:19:39.618595 13879 net.cpp:131] Top shape: 16 512 6 6 (294912)
I0707 01:19:39.618599 13879 net.cpp:139] Memory required for data: 201130176
I0707 01:19:39.618605 13879 layer_factory.hpp:77] Creating layer relu5_2/sep
I0707 01:19:39.618611 13879 net.cpp:86] Creating Layer relu5_2/sep
I0707 01:19:39.618615 13879 net.cpp:408] relu5_2/sep <- conv5_2/sep
I0707 01:19:39.618623 13879 net.cpp:369] relu5_2/sep -> conv5_2/sep (in-place)
I0707 01:19:39.619113 13879 net.cpp:124] Setting up relu5_2/sep
I0707 01:19:39.619124 13879 net.cpp:131] Top shape: 16 512 6 6 (294912)
I0707 01:19:39.619128 13879 net.cpp:139] Memory required for data: 202309824
I0707 01:19:39.619132 13879 layer_factory.hpp:77] Creating layer conv5_3/dw
I0707 01:19:39.619143 13879 net.cpp:86] Creating Layer conv5_3/dw
I0707 01:19:39.619148 13879 net.cpp:408] conv5_3/dw <- conv5_2/sep
I0707 01:19:39.619155 13879 net.cpp:382] conv5_3/dw -> conv5_3/dw
I0707 01:19:39.619407 13879 net.cpp:124] Setting up conv5_3/dw
I0707 01:19:39.619417 13879 net.cpp:131] Top shape: 16 512 6 6 (294912)
I0707 01:19:39.619421 13879 net.cpp:139] Memory required for data: 203489472
I0707 01:19:39.619427 13879 layer_factory.hpp:77] Creating layer conv5_3/dw/bn
I0707 01:19:39.619436 13879 net.cpp:86] Creating Layer conv5_3/dw/bn
I0707 01:19:39.619439 13879 net.cpp:408] conv5_3/dw/bn <- conv5_3/dw
I0707 01:19:39.619444 13879 net.cpp:369] conv5_3/dw/bn -> conv5_3/dw (in-place)
I0707 01:19:39.619647 13879 net.cpp:124] Setting up conv5_3/dw/bn
I0707 01:19:39.619655 13879 net.cpp:131] Top shape: 16 512 6 6 (294912)
I0707 01:19:39.619659 13879 net.cpp:139] Memory required for data: 204669120
I0707 01:19:39.619668 13879 layer_factory.hpp:77] Creating layer conv5_3/dw/scale
I0707 01:19:39.619675 13879 net.cpp:86] Creating Layer conv5_3/dw/scale
I0707 01:19:39.619679 13879 net.cpp:408] conv5_3/dw/scale <- conv5_3/dw
I0707 01:19:39.619685 13879 net.cpp:369] conv5_3/dw/scale -> conv5_3/dw (in-place)
I0707 01:19:39.619742 13879 layer_factory.hpp:77] Creating layer conv5_3/dw/scale
I0707 01:19:39.619868 13879 net.cpp:124] Setting up conv5_3/dw/scale
I0707 01:19:39.619876 13879 net.cpp:131] Top shape: 16 512 6 6 (294912)
I0707 01:19:39.619880 13879 net.cpp:139] Memory required for data: 205848768
I0707 01:19:39.619886 13879 layer_factory.hpp:77] Creating layer relu5_3/dw
I0707 01:19:39.619894 13879 net.cpp:86] Creating Layer relu5_3/dw
I0707 01:19:39.619899 13879 net.cpp:408] relu5_3/dw <- conv5_3/dw
I0707 01:19:39.619904 13879 net.cpp:369] relu5_3/dw -> conv5_3/dw (in-place)
I0707 01:19:39.620788 13879 net.cpp:124] Setting up relu5_3/dw
I0707 01:19:39.620802 13879 net.cpp:131] Top shape: 16 512 6 6 (294912)
I0707 01:19:39.620806 13879 net.cpp:139] Memory required for data: 207028416
I0707 01:19:39.620811 13879 layer_factory.hpp:77] Creating layer conv5_3/sep
I0707 01:19:39.620821 13879 net.cpp:86] Creating Layer conv5_3/sep
I0707 01:19:39.620826 13879 net.cpp:408] conv5_3/sep <- conv5_3/dw
I0707 01:19:39.620833 13879 net.cpp:382] conv5_3/sep -> conv5_3/sep
I0707 01:19:39.626488 13879 net.cpp:124] Setting up conv5_3/sep
I0707 01:19:39.626507 13879 net.cpp:131] Top shape: 16 512 6 6 (294912)
I0707 01:19:39.626519 13879 net.cpp:139] Memory required for data: 208208064
I0707 01:19:39.626528 13879 layer_factory.hpp:77] Creating layer conv5_3/sep/bn
I0707 01:19:39.626538 13879 net.cpp:86] Creating Layer conv5_3/sep/bn
I0707 01:19:39.626543 13879 net.cpp:408] conv5_3/sep/bn <- conv5_3/sep
I0707 01:19:39.626560 13879 net.cpp:369] conv5_3/sep/bn -> conv5_3/sep (in-place)
I0707 01:19:39.626801 13879 net.cpp:124] Setting up conv5_3/sep/bn
I0707 01:19:39.626809 13879 net.cpp:131] Top shape: 16 512 6 6 (294912)
I0707 01:19:39.626813 13879 net.cpp:139] Memory required for data: 209387712
I0707 01:19:39.626828 13879 layer_factory.hpp:77] Creating layer conv5_3/sep/scale
I0707 01:19:39.626838 13879 net.cpp:86] Creating Layer conv5_3/sep/scale
I0707 01:19:39.626842 13879 net.cpp:408] conv5_3/sep/scale <- conv5_3/sep
I0707 01:19:39.626857 13879 net.cpp:369] conv5_3/sep/scale -> conv5_3/sep (in-place)
I0707 01:19:39.626940 13879 layer_factory.hpp:77] Creating layer conv5_3/sep/scale
I0707 01:19:39.627100 13879 net.cpp:124] Setting up conv5_3/sep/scale
I0707 01:19:39.627110 13879 net.cpp:131] Top shape: 16 512 6 6 (294912)
I0707 01:19:39.627113 13879 net.cpp:139] Memory required for data: 210567360
I0707 01:19:39.627127 13879 layer_factory.hpp:77] Creating layer relu5_3/sep
I0707 01:19:39.627135 13879 net.cpp:86] Creating Layer relu5_3/sep
I0707 01:19:39.627140 13879 net.cpp:408] relu5_3/sep <- conv5_3/sep
I0707 01:19:39.627144 13879 net.cpp:369] relu5_3/sep -> conv5_3/sep (in-place)
I0707 01:19:39.627666 13879 net.cpp:124] Setting up relu5_3/sep
I0707 01:19:39.627686 13879 net.cpp:131] Top shape: 16 512 6 6 (294912)
I0707 01:19:39.627691 13879 net.cpp:139] Memory required for data: 211747008
I0707 01:19:39.627696 13879 layer_factory.hpp:77] Creating layer conv5_4/dw
I0707 01:19:39.627705 13879 net.cpp:86] Creating Layer conv5_4/dw
I0707 01:19:39.627710 13879 net.cpp:408] conv5_4/dw <- conv5_3/sep
I0707 01:19:39.627725 13879 net.cpp:382] conv5_4/dw -> conv5_4/dw
I0707 01:19:39.628000 13879 net.cpp:124] Setting up conv5_4/dw
I0707 01:19:39.628016 13879 net.cpp:131] Top shape: 16 512 6 6 (294912)
I0707 01:19:39.628021 13879 net.cpp:139] Memory required for data: 212926656
I0707 01:19:39.628026 13879 layer_factory.hpp:77] Creating layer conv5_4/dw/bn
I0707 01:19:39.628033 13879 net.cpp:86] Creating Layer conv5_4/dw/bn
I0707 01:19:39.628037 13879 net.cpp:408] conv5_4/dw/bn <- conv5_4/dw
I0707 01:19:39.628044 13879 net.cpp:369] conv5_4/dw/bn -> conv5_4/dw (in-place)
I0707 01:19:39.628319 13879 net.cpp:124] Setting up conv5_4/dw/bn
I0707 01:19:39.628329 13879 net.cpp:131] Top shape: 16 512 6 6 (294912)
I0707 01:19:39.628334 13879 net.cpp:139] Memory required for data: 214106304
I0707 01:19:39.628341 13879 layer_factory.hpp:77] Creating layer conv5_4/dw/scale
I0707 01:19:39.628348 13879 net.cpp:86] Creating Layer conv5_4/dw/scale
I0707 01:19:39.628352 13879 net.cpp:408] conv5_4/dw/scale <- conv5_4/dw
I0707 01:19:39.628360 13879 net.cpp:369] conv5_4/dw/scale -> conv5_4/dw (in-place)
I0707 01:19:39.628401 13879 layer_factory.hpp:77] Creating layer conv5_4/dw/scale
I0707 01:19:39.628531 13879 net.cpp:124] Setting up conv5_4/dw/scale
I0707 01:19:39.628540 13879 net.cpp:131] Top shape: 16 512 6 6 (294912)
I0707 01:19:39.628545 13879 net.cpp:139] Memory required for data: 215285952
I0707 01:19:39.628551 13879 layer_factory.hpp:77] Creating layer relu5_4/dw
I0707 01:19:39.628557 13879 net.cpp:86] Creating Layer relu5_4/dw
I0707 01:19:39.628576 13879 net.cpp:408] relu5_4/dw <- conv5_4/dw
I0707 01:19:39.628583 13879 net.cpp:369] relu5_4/dw -> conv5_4/dw (in-place)
I0707 01:19:39.629446 13879 net.cpp:124] Setting up relu5_4/dw
I0707 01:19:39.629458 13879 net.cpp:131] Top shape: 16 512 6 6 (294912)
I0707 01:19:39.629462 13879 net.cpp:139] Memory required for data: 216465600
I0707 01:19:39.629467 13879 layer_factory.hpp:77] Creating layer conv5_4/sep
I0707 01:19:39.629477 13879 net.cpp:86] Creating Layer conv5_4/sep
I0707 01:19:39.629482 13879 net.cpp:408] conv5_4/sep <- conv5_4/dw
I0707 01:19:39.629490 13879 net.cpp:382] conv5_4/sep -> conv5_4/sep
I0707 01:19:39.634310 13879 net.cpp:124] Setting up conv5_4/sep
I0707 01:19:39.634325 13879 net.cpp:131] Top shape: 16 512 6 6 (294912)
I0707 01:19:39.634337 13879 net.cpp:139] Memory required for data: 217645248
I0707 01:19:39.634344 13879 layer_factory.hpp:77] Creating layer conv5_4/sep/bn
I0707 01:19:39.634351 13879 net.cpp:86] Creating Layer conv5_4/sep/bn
I0707 01:19:39.634356 13879 net.cpp:408] conv5_4/sep/bn <- conv5_4/sep
I0707 01:19:39.634371 13879 net.cpp:369] conv5_4/sep/bn -> conv5_4/sep (in-place)
I0707 01:19:39.634624 13879 net.cpp:124] Setting up conv5_4/sep/bn
I0707 01:19:39.634632 13879 net.cpp:131] Top shape: 16 512 6 6 (294912)
I0707 01:19:39.634636 13879 net.cpp:139] Memory required for data: 218824896
I0707 01:19:39.634651 13879 layer_factory.hpp:77] Creating layer conv5_4/sep/scale
I0707 01:19:39.634660 13879 net.cpp:86] Creating Layer conv5_4/sep/scale
I0707 01:19:39.634665 13879 net.cpp:408] conv5_4/sep/scale <- conv5_4/sep
I0707 01:19:39.634678 13879 net.cpp:369] conv5_4/sep/scale -> conv5_4/sep (in-place)
I0707 01:19:39.634744 13879 layer_factory.hpp:77] Creating layer conv5_4/sep/scale
I0707 01:19:39.634912 13879 net.cpp:124] Setting up conv5_4/sep/scale
I0707 01:19:39.634922 13879 net.cpp:131] Top shape: 16 512 6 6 (294912)
I0707 01:19:39.634925 13879 net.cpp:139] Memory required for data: 220004544
I0707 01:19:39.634939 13879 layer_factory.hpp:77] Creating layer relu5_4/sep
I0707 01:19:39.634946 13879 net.cpp:86] Creating Layer relu5_4/sep
I0707 01:19:39.634950 13879 net.cpp:408] relu5_4/sep <- conv5_4/sep
I0707 01:19:39.634955 13879 net.cpp:369] relu5_4/sep -> conv5_4/sep (in-place)
I0707 01:19:39.635792 13879 net.cpp:124] Setting up relu5_4/sep
I0707 01:19:39.635810 13879 net.cpp:131] Top shape: 16 512 6 6 (294912)
I0707 01:19:39.635815 13879 net.cpp:139] Memory required for data: 221184192
I0707 01:19:39.635819 13879 layer_factory.hpp:77] Creating layer conv5_5/dw
I0707 01:19:39.635830 13879 net.cpp:86] Creating Layer conv5_5/dw
I0707 01:19:39.635835 13879 net.cpp:408] conv5_5/dw <- conv5_4/sep
I0707 01:19:39.635851 13879 net.cpp:382] conv5_5/dw -> conv5_5/dw
I0707 01:19:39.636147 13879 net.cpp:124] Setting up conv5_5/dw
I0707 01:19:39.636165 13879 net.cpp:131] Top shape: 16 512 6 6 (294912)
I0707 01:19:39.636170 13879 net.cpp:139] Memory required for data: 222363840
I0707 01:19:39.636175 13879 layer_factory.hpp:77] Creating layer conv5_5/dw/bn
I0707 01:19:39.636183 13879 net.cpp:86] Creating Layer conv5_5/dw/bn
I0707 01:19:39.636186 13879 net.cpp:408] conv5_5/dw/bn <- conv5_5/dw
I0707 01:19:39.636191 13879 net.cpp:369] conv5_5/dw/bn -> conv5_5/dw (in-place)
I0707 01:19:39.636452 13879 net.cpp:124] Setting up conv5_5/dw/bn
I0707 01:19:39.636461 13879 net.cpp:131] Top shape: 16 512 6 6 (294912)
I0707 01:19:39.636466 13879 net.cpp:139] Memory required for data: 223543488
I0707 01:19:39.636487 13879 layer_factory.hpp:77] Creating layer conv5_5/dw/scale
I0707 01:19:39.636497 13879 net.cpp:86] Creating Layer conv5_5/dw/scale
I0707 01:19:39.636502 13879 net.cpp:408] conv5_5/dw/scale <- conv5_5/dw
I0707 01:19:39.636507 13879 net.cpp:369] conv5_5/dw/scale -> conv5_5/dw (in-place)
I0707 01:19:39.636551 13879 layer_factory.hpp:77] Creating layer conv5_5/dw/scale
I0707 01:19:39.636682 13879 net.cpp:124] Setting up conv5_5/dw/scale
I0707 01:19:39.636690 13879 net.cpp:131] Top shape: 16 512 6 6 (294912)
I0707 01:19:39.636694 13879 net.cpp:139] Memory required for data: 224723136
I0707 01:19:39.636713 13879 layer_factory.hpp:77] Creating layer relu5_5/dw
I0707 01:19:39.636721 13879 net.cpp:86] Creating Layer relu5_5/dw
I0707 01:19:39.636726 13879 net.cpp:408] relu5_5/dw <- conv5_5/dw
I0707 01:19:39.636731 13879 net.cpp:369] relu5_5/dw -> conv5_5/dw (in-place)
I0707 01:19:39.637594 13879 net.cpp:124] Setting up relu5_5/dw
I0707 01:19:39.637609 13879 net.cpp:131] Top shape: 16 512 6 6 (294912)
I0707 01:19:39.637614 13879 net.cpp:139] Memory required for data: 225902784
I0707 01:19:39.637617 13879 layer_factory.hpp:77] Creating layer conv5_5/sep
I0707 01:19:39.637626 13879 net.cpp:86] Creating Layer conv5_5/sep
I0707 01:19:39.637631 13879 net.cpp:408] conv5_5/sep <- conv5_5/dw
I0707 01:19:39.637640 13879 net.cpp:382] conv5_5/sep -> conv5_5/sep
I0707 01:19:39.643599 13879 net.cpp:124] Setting up conv5_5/sep
I0707 01:19:39.643625 13879 net.cpp:131] Top shape: 16 512 6 6 (294912)
I0707 01:19:39.643630 13879 net.cpp:139] Memory required for data: 227082432
I0707 01:19:39.643640 13879 layer_factory.hpp:77] Creating layer conv5_5/sep/bn
I0707 01:19:39.643652 13879 net.cpp:86] Creating Layer conv5_5/sep/bn
I0707 01:19:39.643659 13879 net.cpp:408] conv5_5/sep/bn <- conv5_5/sep
I0707 01:19:39.643669 13879 net.cpp:369] conv5_5/sep/bn -> conv5_5/sep (in-place)
I0707 01:19:39.643946 13879 net.cpp:124] Setting up conv5_5/sep/bn
I0707 01:19:39.643956 13879 net.cpp:131] Top shape: 16 512 6 6 (294912)
I0707 01:19:39.643960 13879 net.cpp:139] Memory required for data: 228262080
I0707 01:19:39.643968 13879 layer_factory.hpp:77] Creating layer conv5_5/sep/scale
I0707 01:19:39.643977 13879 net.cpp:86] Creating Layer conv5_5/sep/scale
I0707 01:19:39.643982 13879 net.cpp:408] conv5_5/sep/scale <- conv5_5/sep
I0707 01:19:39.643988 13879 net.cpp:369] conv5_5/sep/scale -> conv5_5/sep (in-place)
I0707 01:19:39.644060 13879 layer_factory.hpp:77] Creating layer conv5_5/sep/scale
I0707 01:19:39.644218 13879 net.cpp:124] Setting up conv5_5/sep/scale
I0707 01:19:39.644228 13879 net.cpp:131] Top shape: 16 512 6 6 (294912)
I0707 01:19:39.644232 13879 net.cpp:139] Memory required for data: 229441728
I0707 01:19:39.644238 13879 layer_factory.hpp:77] Creating layer relu5_5/sep
I0707 01:19:39.644246 13879 net.cpp:86] Creating Layer relu5_5/sep
I0707 01:19:39.644250 13879 net.cpp:408] relu5_5/sep <- conv5_5/sep
I0707 01:19:39.644256 13879 net.cpp:369] relu5_5/sep -> conv5_5/sep (in-place)
I0707 01:19:39.644796 13879 net.cpp:124] Setting up relu5_5/sep
I0707 01:19:39.644809 13879 net.cpp:131] Top shape: 16 512 6 6 (294912)
I0707 01:19:39.644812 13879 net.cpp:139] Memory required for data: 230621376
I0707 01:19:39.644816 13879 layer_factory.hpp:77] Creating layer pool6
I0707 01:19:39.644825 13879 net.cpp:86] Creating Layer pool6
I0707 01:19:39.644830 13879 net.cpp:408] pool6 <- conv5_5/sep
I0707 01:19:39.644837 13879 net.cpp:382] pool6 -> pool6
I0707 01:19:39.645754 13879 net.cpp:124] Setting up pool6
I0707 01:19:39.645767 13879 net.cpp:131] Top shape: 16 512 1 1 (8192)
I0707 01:19:39.645772 13879 net.cpp:139] Memory required for data: 230654144
I0707 01:19:39.645776 13879 layer_factory.hpp:77] Creating layer fc7-mouth
I0707 01:19:39.645788 13879 net.cpp:86] Creating Layer fc7-mouth
I0707 01:19:39.645793 13879 net.cpp:408] fc7-mouth <- pool6
I0707 01:19:39.645803 13879 net.cpp:382] fc7-mouth -> fc7-mouth
I0707 01:19:39.648058 13879 net.cpp:124] Setting up fc7-mouth
I0707 01:19:39.648072 13879 net.cpp:131] Top shape: 16 4 1 1 (64)
I0707 01:19:39.648075 13879 net.cpp:139] Memory required for data: 230654400
I0707 01:19:39.648082 13879 layer_factory.hpp:77] Creating layer fc7-mouth_fc7-mouth_0_split
I0707 01:19:39.648089 13879 net.cpp:86] Creating Layer fc7-mouth_fc7-mouth_0_split
I0707 01:19:39.648093 13879 net.cpp:408] fc7-mouth_fc7-mouth_0_split <- fc7-mouth
I0707 01:19:39.648102 13879 net.cpp:382] fc7-mouth_fc7-mouth_0_split -> fc7-mouth_fc7-mouth_0_split_0
I0707 01:19:39.648109 13879 net.cpp:382] fc7-mouth_fc7-mouth_0_split -> fc7-mouth_fc7-mouth_0_split_1
I0707 01:19:39.648154 13879 net.cpp:124] Setting up fc7-mouth_fc7-mouth_0_split
I0707 01:19:39.648178 13879 net.cpp:131] Top shape: 16 4 1 1 (64)
I0707 01:19:39.648183 13879 net.cpp:131] Top shape: 16 4 1 1 (64)
I0707 01:19:39.648187 13879 net.cpp:139] Memory required for data: 230654912
I0707 01:19:39.648191 13879 layer_factory.hpp:77] Creating layer loss
I0707 01:19:39.648197 13879 net.cpp:86] Creating Layer loss
I0707 01:19:39.648201 13879 net.cpp:408] loss <- fc7-mouth_fc7-mouth_0_split_0
I0707 01:19:39.648207 13879 net.cpp:408] loss <- clc-label_data_1_split_0
I0707 01:19:39.648216 13879 net.cpp:382] loss -> loss
…
