…
I0627 22:17:03.111161 19267 net.cpp:296] The NetState phase (0) differed from the phase (1) specified by a rule in layer data
I0627 22:17:03.111783 19267 net.cpp:53] Initializing net from parameters: 
name: "mouth"
state {
  phase: TRAIN
  level: 0
  stage: ""
}
layer {
  name: "data"
  type: "ImageData"
  top: "data"
  top: "clc-label"
  include {
    phase: TRAIN
  }
  transform_param {
    mirror: true
    crop_size: 48
    mean_value: 104.008
    mean_value: 116.669
    mean_value: 122.675
    min_side_min: 96
    min_side_max: 128
  }
  image_data_param {
    source: "all_shuffle_train.txt"
    batch_size: 64
    shuffle: true
  }
}
layer {
  name: "conv1"
  type: "Convolution"
  bottom: "data"
  top: "conv1"
  param {
    lr_mult: 1
    decay_mult: 1
  }
  convolution_param {
    num_output: 32
    bias_term: false
    pad: 1
    kernel_size: 3
    stride: 2
    weight_filler {
      type: "msra"
    }
  }
}
layer {
  name: "conv1/bn"
  type: "BatchNorm"
  bottom: "conv1"
  top: "conv1"
  param {
    lr_mult: 0
    decay_mult: 0
  }
  param {
    lr_mult: 0
    decay_mult: 0
  }
  param {
    lr_mult: 0
    decay_mult: 0
  }
  batch_norm_param {
    use_global_stats: false
    eps: 1e-05
  }
}
layer {
  name: "conv1/scale"
  type: "Scale"
  bottom: "conv1"
  top: "conv1"
  param {
    lr_mult: 1
    decay_mult: 0
  }
  param {
    lr_mult: 1
    decay_mult: 0
  }
  scale_param {
    filler {
      value: 1
    }
    bias_term: true
    bias_filler {
      value: 0
    }
  }
}
layer {
  name: "relu1"
  type: "ReLU"
  bottom: "conv1"
  top: "conv1"
}
layer {
  name: "conv2_1/dw"
  type: "Convolution"
  bottom: "conv1"
  top: "conv2_1/dw"
  param {
    lr_mult: 1
    decay_mult: 1
  }
  convolution_param {
    num_output: 32
    bias_term: false
    pad: 1
    kernel_size: 3
    group: 32
    stride: 1
    weight_filler {
      type: "msra"
    }
    engine: CAFFE
  }
}
layer {
  name: "conv2_1/dw/bn"
  type: "BatchNorm"
  bottom: "conv2_1/dw"
  top: "conv2_1/dw"
  param {
    lr_mult: 0
    decay_mult: 0
  }
  param {
    lr_mult: 0
    decay_mult: 0
  }
  param {
    lr_mult: 0
    decay_mult: 0
  }
  batch_norm_param {
    use_global_stats: false
    eps: 1e-05
  }
}
layer {
  name: "conv2_1/dw/scale"
  type: "Scale"
  bottom: "conv2_1/dw"
  top: "conv2_1/dw"
  param {
    lr_mult: 1
    decay_mult: 0
  }
  param {
    lr_mult: 1
    decay_mult: 0
  }
  scale_param {
    filler {
      value: 1
    }
    bias_term: true
    bias_filler {
      value: 0
    }
  }
}
layer {
  name: "relu2_1/dw"
  type: "ReLU"
  bottom: "conv2_1/dw"
  top: "conv2_1/dw"
}
layer {
  name: "conv2_1/sep"
  type: "Convolution"
  bottom: "conv2_1/dw"
  top: "conv2_1/sep"
  param {
    lr_mult: 1
    decay_mult: 1
  }
  convolution_param {
    num_output: 64
    bias_term: false
    pad: 0
    kernel_size: 1
    stride: 1
    weight_filler {
      type: "msra"
    }
  }
}
layer {
  name: "conv2_1/sep/bn"
  type: "BatchNorm"
  bottom: "conv2_1/sep"
  top: "conv2_1/sep"
  param {
    lr_mult: 0
    decay_mult: 0
  }
  param {
    lr_mult: 0
    decay_mult: 0
  }
  param {
    lr_mult: 0
    decay_mult: 0
  }
  batch_norm_param {
    use_global_stats: false
    eps: 1e-05
  }
}
layer {
  name: "conv2_1/sep/scale"
  type: "Scale"
  bottom: "conv2_1/sep"
  top: "conv2_1/sep"
  param {
    lr_mult: 1
    decay_mult: 0
  }
  param {
    lr_mult: 1
    decay_mult: 0
  }
  scale_param {
    filler {
      value: 1
    }
    bias_term: true
    bias_filler {
      value: 0
    }
  }
}
layer {
  name: "relu2_1/sep"
  type: "ReLU"
  bottom: "conv2_1/sep"
  top: "conv2_1/sep"
}
layer {
  name: "conv2_2/dw"
  type: "Convolution"
  bottom: "conv2_1/sep"
  top: "conv2_2/dw"
  param {
    lr_mult: 1
    decay_mult: 1
  }
  convolution_param {
    num_output: 64
    bias_term: false
    pad: 1
    kernel_size: 3
    group: 64
    stride: 2
    weight_filler {
      type: "msra"
    }
    engine: CAFFE
  }
}
layer {
  name: "conv2_2/dw/bn"
  type: "BatchNorm"
  bottom: "conv2_2/dw"
  top: "conv2_2/dw"
  param {
    lr_mult: 0
    decay_mult: 0
  }
  param {
    lr_mult: 0
    decay_mult: 0
  }
  param {
    lr_mult: 0
    decay_mult: 0
  }
  batch_norm_param {
    use_global_stats: false
    eps: 1e-05
  }
}
layer {
  name: "conv2_2/dw/scale"
  type: "Scale"
  bottom: "conv2_2/dw"
  top: "conv2_2/dw"
  param {
    lr_mult: 1
    decay_mult: 0
  }
  param {
    lr_mult: 1
    decay_mult: 0
  }
  scale_param {
    filler {
      value: 1
    }
    bias_term: true
    bias_filler {
      value: 0
    }
  }
}
layer {
  name: "relu2_2/dw"
  type: "ReLU"
  bottom: "conv2_2/dw"
  top: "conv2_2/dw"
}
layer {
  name: "conv2_2/sep"
  type: "Convolution"
  bottom: "conv2_2/dw"
  top: "conv2_2/sep"
  param {
    lr_mult: 1
    decay_mult: 1
  }
  convolution_param {
    num_output: 128
    bias_term: false
    pad: 0
    kernel_size: 1
    stride: 1
    weight_filler {
      type: "msra"
    }
  }
}
layer {
  name: "conv2_2/sep/bn"
  type: "BatchNorm"
  bottom: "conv2_2/sep"
  top: "conv2_2/sep"
  param {
    lr_mult: 0
    decay_mult: 0
  }
  param {
    lr_mult: 0
    decay_mult: 0
  }
  param {
    lr_mult: 0
    decay_mult: 0
  }
  batch_norm_param {
    use_global_stats: false
    eps: 1e-05
  }
}
layer {
  name: "conv2_2/sep/scale"
  type: "Scale"
  bottom: "conv2_2/sep"
  top: "conv2_2/sep"
  param {
    lr_mult: 1
    decay_mult: 0
  }
  param {
    lr_mult: 1
    decay_mult: 0
  }
  scale_param {
    filler {
      value: 1
    }
    bias_term: true
    bias_filler {
      value: 0
    }
  }
}
layer {
  name: "relu2_2/sep"
  type: "ReLU"
  bottom: "conv2_2/sep"
  top: "conv2_2/sep"
}
layer {
  name: "conv3_1/dw"
  type: "Convolution"
  bottom: "conv2_2/sep"
  top: "conv3_1/dw"
  param {
    lr_mult: 1
    decay_mult: 1
  }
  convolution_param {
    num_output: 128
    bias_term: false
    pad: 1
    kernel_size: 3
    group: 128
    stride: 1
    weight_filler {
      type: "msra"
    }
    engine: CAFFE
  }
}
layer {
  name: "conv3_1/dw/bn"
  type: "BatchNorm"
  bottom: "conv3_1/dw"
  top: "conv3_1/dw"
  param {
    lr_mult: 0
    decay_mult: 0
  }
  param {
    lr_mult: 0
    decay_mult: 0
  }
  param {
    lr_mult: 0
    decay_mult: 0
  }
  batch_norm_param {
    use_global_stats: false
    eps: 1e-05
  }
}
layer {
  name: "conv3_1/dw/scale"
  type: "Scale"
  bottom: "conv3_1/dw"
  top: "conv3_1/dw"
  param {
    lr_mult: 1
    decay_mult: 0
  }
  param {
    lr_mult: 1
    decay_mult: 0
  }
  scale_param {
    filler {
      value: 1
    }
    bias_term: true
    bias_filler {
      value: 0
    }
  }
}
layer {
  name: "relu3_1/dw"
  type: "ReLU"
  bottom: "conv3_1/dw"
  top: "conv3_1/dw"
}
layer {
  name: "conv3_1/sep"
  type: "Convolution"
  bottom: "conv3_1/dw"
  top: "conv3_1/sep"
  param {
    lr_mult: 1
    decay_mult: 1
  }
  convolution_param {
    num_output: 128
    bias_term: false
    pad: 0
    kernel_size: 1
    stride: 1
    weight_filler {
      type: "msra"
    }
  }
}
layer {
  name: "conv3_1/sep/bn"
  type: "BatchNorm"
  bottom: "conv3_1/sep"
  top: "conv3_1/sep"
  param {
    lr_mult: 0
    decay_mult: 0
  }
  param {
    lr_mult: 0
    decay_mult: 0
  }
  param {
    lr_mult: 0
    decay_mult: 0
  }
  batch_norm_param {
    use_global_stats: false
    eps: 1e-05
  }
}
layer {
  name: "conv3_1/sep/scale"
  type: "Scale"
  bottom: "conv3_1/sep"
  top: "conv3_1/sep"
  param {
    lr_mult: 1
    decay_mult: 0
  }
  param {
    lr_mult: 1
    decay_mult: 0
  }
  scale_param {
    filler {
      value: 1
    }
    bias_term: true
    bias_filler {
      value: 0
    }
  }
}
layer {
  name: "relu3_1/sep"
  type: "ReLU"
  bottom: "conv3_1/sep"
  top: "conv3_1/sep"
}
layer {
  name: "conv3_2/dw"
  type: "Convolution"
  bottom: "conv3_1/sep"
  top: "conv3_2/dw"
  param {
    lr_mult: 1
    decay_mult: 1
  }
  convolution_param {
    num_output: 128
    bias_term: false
    pad: 1
    kernel_size: 3
    group: 128
    stride: 2
    weight_filler {
      type: "msra"
    }
    engine: CAFFE
  }
}
layer {
  name: "conv3_2/dw/bn"
  type: "BatchNorm"
  bottom: "conv3_2/dw"
  top: "conv3_2/dw"
  param {
    lr_mult: 0
    decay_mult: 0
  }
  param {
    lr_mult: 0
    decay_mult: 0
  }
  param {
    lr_mult: 0
    decay_mult: 0
  }
  batch_norm_param {
    use_global_stats: false
    eps: 1e-05
  }
}
layer {
  name: "conv3_2/dw/scale"
  type: "Scale"
  bottom: "conv3_2/dw"
  top: "conv3_2/dw"
  param {
    lr_mult: 1
    decay_mult: 0
  }
  param {
    lr_mult: 1
    decay_mult: 0
  }
  scale_param {
    filler {
      value: 1
    }
    bias_term: true
    bias_filler {
      value: 0
    }
  }
}
layer {
  name: "relu3_2/dw"
  type: "ReLU"
  bottom: "conv3_2/dw"
  top: "conv3_2/dw"
}
layer {
  name: "conv3_2/sep"
  type: "Convolution"
  bottom: "conv3_2/dw"
  top: "conv3_2/sep"
  param {
    lr_mult: 1
    decay_mult: 1
  }
  convolution_param {
    num_output: 256
    bias_term: false
    pad: 0
    kernel_size: 1
    stride: 1
    weight_filler {
      type: "msra"
    }
  }
}
layer {
  name: "conv3_2/sep/bn"
  type: "BatchNorm"
  bottom: "conv3_2/sep"
  top: "conv3_2/sep"
  param {
    lr_mult: 0
    decay_mult: 0
  }
  param {
    lr_mult: 0
    decay_mult: 0
  }
  param {
    lr_mult: 0
    decay_mult: 0
  }
  batch_norm_param {
    use_global_stats: false
    eps: 1e-05
  }
}
layer {
  name: "conv3_2/sep/scale"
  type: "Scale"
  bottom: "conv3_2/sep"
  top: "conv3_2/sep"
  param {
    lr_mult: 1
    decay_mult: 0
  }
  param {
    lr_mult: 1
    decay_mult: 0
  }
  scale_param {
    filler {
      value: 1
    }
    bias_term: true
    bias_filler {
      value: 0
    }
  }
}
layer {
  name: "relu3_2/sep"
  type: "ReLU"
  bottom: "conv3_2/sep"
  top: "conv3_2/sep"
}
layer {
  name: "conv4_1/dw"
  type: "Convolution"
  bottom: "conv3_2/sep"
  top: "conv4_1/dw"
  param {
    lr_mult: 1
    decay_mult: 1
  }
  convolution_param {
    num_output: 256
    bias_term: false
    pad: 1
    kernel_size: 3
    group: 256
    stride: 1
    weight_filler {
      type: "msra"
    }
    engine: CAFFE
  }
}
layer {
  name: "conv4_1/dw/bn"
  type: "BatchNorm"
  bottom: "conv4_1/dw"
  top: "conv4_1/dw"
  param {
    lr_mult: 0
    decay_mult: 0
  }
  param {
    lr_mult: 0
    decay_mult: 0
  }
  param {
    lr_mult: 0
    decay_mult: 0
  }
  batch_norm_param {
    use_global_stats: false
    eps: 1e-05
  }
}
layer {
  name: "conv4_1/dw/scale"
  type: "Scale"
  bottom: "conv4_1/dw"
  top: "conv4_1/dw"
  param {
    lr_mult: 1
    decay_mult: 0
  }
  param {
    lr_mult: 1
    decay_mult: 0
  }
  scale_param {
    filler {
      value: 1
    }
    bias_term: true
    bias_filler {
      value: 0
    }
  }
}
layer {
  name: "relu4_1/dw"
  type: "ReLU"
  bottom: "conv4_1/dw"
  top: "conv4_1/dw"
}
layer {
  name: "conv4_1/sep"
  type: "Convolution"
  bottom: "conv4_1/dw"
  top: "conv4_1/sep"
  param {
    lr_mult: 1
    decay_mult: 1
  }
  convolution_param {
    num_output: 256
    bias_term: false
    pad: 0
    kernel_size: 1
    stride: 1
    weight_filler {
      type: "msra"
    }
  }
}
layer {
  name: "conv4_1/sep/bn"
  type: "BatchNorm"
  bottom: "conv4_1/sep"
  top: "conv4_1/sep"
  param {
    lr_mult: 0
    decay_mult: 0
  }
  param {
    lr_mult: 0
    decay_mult: 0
  }
  param {
    lr_mult: 0
    decay_mult: 0
  }
  batch_norm_param {
    use_global_stats: false
    eps: 1e-05
  }
}
layer {
  name: "conv4_1/sep/scale"
  type: "Scale"
  bottom: "conv4_1/sep"
  top: "conv4_1/sep"
  param {
    lr_mult: 1
    decay_mult: 0
  }
  param {
    lr_mult: 1
    decay_mult: 0
  }
  scale_param {
    filler {
      value: 1
    }
    bias_term: true
    bias_filler {
      value: 0
    }
  }
}
layer {
  name: "relu4_1/sep"
  type: "ReLU"
  bottom: "conv4_1/sep"
  top: "conv4_1/sep"
}
layer {
  name: "conv4_2/dw"
  type: "Convolution"
  bottom: "conv4_1/sep"
  top: "conv4_2/dw"
  param {
    lr_mult: 1
    decay_mult: 1
  }
  convolution_param {
    num_output: 256
    bias_term: false
    pad: 1
    kernel_size: 3
    group: 256
    stride: 2
    weight_filler {
      type: "msra"
    }
    engine: CAFFE
  }
}
layer {
  name: "conv4_2/dw/bn"
  type: "BatchNorm"
  bottom: "conv4_2/dw"
  top: "conv4_2/dw"
  param {
    lr_mult: 0
    decay_mult: 0
  }
  param {
    lr_mult: 0
    decay_mult: 0
  }
  param {
    lr_mult: 0
    decay_mult: 0
  }
  batch_norm_param {
    use_global_stats: false
    eps: 1e-05
  }
}
layer {
  name: "conv4_2/dw/scale"
  type: "Scale"
  bottom: "conv4_2/dw"
  top: "conv4_2/dw"
  param {
    lr_mult: 1
    decay_mult: 0
  }
  param {
    lr_mult: 1
    decay_mult: 0
  }
  scale_param {
    filler {
      value: 1
    }
    bias_term: true
    bias_filler {
      value: 0
    }
  }
}
layer {
  name: "relu4_2/dw"
  type: "ReLU"
  bottom: "conv4_2/dw"
  top: "conv4_2/dw"
}
layer {
  name: "conv4_2/sep"
  type: "Convolution"
  bottom: "conv4_2/dw"
  top: "conv4_2/sep"
  param {
    lr_mult: 1
    decay_mult: 1
  }
  convolution_param {
    num_output: 512
    bias_term: false
    pad: 0
    kernel_size: 1
    stride: 1
    weight_filler {
      type: "msra"
    }
  }
}
layer {
  name: "conv4_2/sep/bn"
  type: "BatchNorm"
  bottom: "conv4_2/sep"
  top: "conv4_2/sep"
  param {
    lr_mult: 0
    decay_mult: 0
  }
  param {
    lr_mult: 0
    decay_mult: 0
  }
  param {
    lr_mult: 0
    decay_mult: 0
  }
  batch_norm_param {
    use_global_stats: false
    eps: 1e-05
  }
}
layer {
  name: "conv4_2/sep/scale"
  type: "Scale"
  bottom: "conv4_2/sep"
  top: "conv4_2/sep"
  param {
    lr_mult: 1
    decay_mult: 0
  }
  param {
    lr_mult: 1
    decay_mult: 0
  }
  scale_param {
    filler {
      value: 1
    }
    bias_term: true
    bias_filler {
      value: 0
    }
  }
}
layer {
  name: "relu4_2/sep"
  type: "ReLU"
  bottom: "conv4_2/sep"
  top: "conv4_2/sep"
}
layer {
  name: "conv5_1/dw"
  type: "Convolution"
  bottom: "conv4_2/sep"
  top: "conv5_1/dw"
  param {
    lr_mult: 1
    decay_mult: 1
  }
  convolution_param {
    num_output: 512
    bias_term: false
    pad: 1
    kernel_size: 3
    group: 512
    stride: 1
    weight_filler {
      type: "msra"
    }
    engine: CAFFE
  }
}
layer {
  name: "conv5_1/dw/bn"
  type: "BatchNorm"
  bottom: "conv5_1/dw"
  top: "conv5_1/dw"
  param {
    lr_mult: 0
    decay_mult: 0
  }
  param {
    lr_mult: 0
    decay_mult: 0
  }
  param {
    lr_mult: 0
    decay_mult: 0
  }
  batch_norm_param {
    use_global_stats: false
    eps: 1e-05
  }
}
layer {
  name: "conv5_1/dw/scale"
  type: "Scale"
  bottom: "conv5_1/dw"
  top: "conv5_1/dw"
  param {
    lr_mult: 1
    decay_mult: 0
  }
  param {
    lr_mult: 1
    decay_mult: 0
  }
  scale_param {
    filler {
      value: 1
    }
    bias_term: true
    bias_filler {
      value: 0
    }
  }
}
layer {
  name: "relu5_1/dw"
  type: "ReLU"
  bottom: "conv5_1/dw"
  top: "conv5_1/dw"
}
layer {
  name: "conv5_1/sep"
  type: "Convolution"
  bottom: "conv5_1/dw"
  top: "conv5_1/sep"
  param {
    lr_mult: 1
    decay_mult: 1
  }
  convolution_param {
    num_output: 512
    bias_term: false
    pad: 0
    kernel_size: 1
    stride: 1
    weight_filler {
      type: "msra"
    }
  }
}
layer {
  name: "conv5_1/sep/bn"
  type: "BatchNorm"
  bottom: "conv5_1/sep"
  top: "conv5_1/sep"
  param {
    lr_mult: 0
    decay_mult: 0
  }
  param {
    lr_mult: 0
    decay_mult: 0
  }
  param {
    lr_mult: 0
    decay_mult: 0
  }
  batch_norm_param {
    use_global_stats: false
    eps: 1e-05
  }
}
layer {
  name: "conv5_1/sep/scale"
  type: "Scale"
  bottom: "conv5_1/sep"
  top: "conv5_1/sep"
  param {
    lr_mult: 1
    decay_mult: 0
  }
  param {
    lr_mult: 1
    decay_mult: 0
  }
  scale_param {
    filler {
      value: 1
    }
    bias_term: true
    bias_filler {
      value: 0
    }
  }
}
layer {
  name: "relu5_1/sep"
  type: "ReLU"
  bottom: "conv5_1/sep"
  top: "conv5_1/sep"
}
layer {
  name: "conv5_2/dw"
  type: "Convolution"
  bottom: "conv5_1/sep"
  top: "conv5_2/dw"
  param {
    lr_mult: 1
    decay_mult: 1
  }
  convolution_param {
    num_output: 512
    bias_term: false
    pad: 1
    kernel_size: 3
    group: 512
    stride: 1
    weight_filler {
      type: "msra"
    }
    engine: CAFFE
  }
}
layer {
  name: "conv5_2/dw/bn"
  type: "BatchNorm"
  bottom: "conv5_2/dw"
  top: "conv5_2/dw"
  param {
    lr_mult: 0
    decay_mult: 0
  }
  param {
    lr_mult: 0
    decay_mult: 0
  }
  param {
    lr_mult: 0
    decay_mult: 0
  }
  batch_norm_param {
    use_global_stats: false
    eps: 1e-05
  }
}
layer {
  name: "conv5_2/dw/scale"
  type: "Scale"
  bottom: "conv5_2/dw"
  top: "conv5_2/dw"
  param {
    lr_mult: 1
    decay_mult: 0
  }
  param {
    lr_mult: 1
    decay_mult: 0
  }
  scale_param {
    filler {
      value: 1
    }
    bias_term: true
    bias_filler {
      value: 0
    }
  }
}
layer {
  name: "relu5_2/dw"
  type: "ReLU"
  bottom: "conv5_2/dw"
  top: "conv5_2/dw"
}
layer {
  name: "conv5_2/sep"
  type: "Convolution"
  bottom: "conv5_2/dw"
  top: "conv5_2/sep"
  param {
    lr_mult: 1
    decay_mult: 1
  }
  convolution_param {
    num_output: 512
    bias_term: false
    pad: 0
    kernel_size: 1
    stride: 1
    weight_filler {
      type: "msra"
    }
  }
}
layer {
  name: "conv5_2/sep/bn"
  type: "BatchNorm"
  bottom: "conv5_2/sep"
  top: "conv5_2/sep"
  param {
    lr_mult: 0
    decay_mult: 0
  }
  param {
    lr_mult: 0
    decay_mult: 0
  }
  param {
    lr_mult: 0
    decay_mult: 0
  }
  batch_norm_param {
    use_global_stats: false
    eps: 1e-05
  }
}
layer {
  name: "conv5_2/sep/scale"
  type: "Scale"
  bottom: "conv5_2/sep"
  top: "conv5_2/sep"
  param {
    lr_mult: 1
    decay_mult: 0
  }
  param {
    lr_mult: 1
    decay_mult: 0
  }
  scale_param {
    filler {
      value: 1
    }
    bias_term: true
    bias_filler {
      value: 0
    }
  }
}
layer {
  name: "relu5_2/sep"
  type: "ReLU"
  bottom: "conv5_2/sep"
  top: "conv5_2/sep"
}
layer {
  name: "conv5_3/dw"
  type: "Convolution"
  bottom: "conv5_2/sep"
  top: "conv5_3/dw"
  param {
    lr_mult: 1
    decay_mult: 1
  }
  convolution_param {
    num_output: 512
    bias_term: false
    pad: 1
    kernel_size: 3
    group: 512
    stride: 1
    weight_filler {
      type: "msra"
    }
    engine: CAFFE
  }
}
layer {
  name: "conv5_3/dw/bn"
  type: "BatchNorm"
  bottom: "conv5_3/dw"
  top: "conv5_3/dw"
  param {
    lr_mult: 0
    decay_mult: 0
  }
  param {
    lr_mult: 0
    decay_mult: 0
  }
  param {
    lr_mult: 0
    decay_mult: 0
  }
  batch_norm_param {
    use_global_stats: false
    eps: 1e-05
  }
}
layer {
  name: "conv5_3/dw/scale"
  type: "Scale"
  bottom: "conv5_3/dw"
  top: "conv5_3/dw"
  param {
    lr_mult: 1
    decay_mult: 0
  }
  param {
    lr_mult: 1
    decay_mult: 0
  }
  scale_param {
    filler {
      value: 1
    }
    bias_term: true
    bias_filler {
      value: 0
    }
  }
}
layer {
  name: "relu5_3/dw"
  type: "ReLU"
  bottom: "conv5_3/dw"
  top: "conv5_3/dw"
}
layer {
  name: "conv5_3/sep"
  type: "Convolution"
  bottom: "conv5_3/dw"
  top: "conv5_3/sep"
  param {
    lr_mult: 1
    decay_mult: 1
  }
  convolution_param {
    num_output: 512
    bias_term: false
    pad: 0
    kernel_size: 1
    stride: 1
    weight_filler {
      type: "msra"
    }
  }
}
layer {
  name: "conv5_3/sep/bn"
  type: "BatchNorm"
  bottom: "conv5_3/sep"
  top: "conv5_3/sep"
  param {
    lr_mult: 0
    decay_mult: 0
  }
  param {
    lr_mult: 0
    decay_mult: 0
  }
  param {
    lr_mult: 0
    decay_mult: 0
  }
  batch_norm_param {
    use_global_stats: false
    eps: 1e-05
  }
}
layer {
  name: "conv5_3/sep/scale"
  type: "Scale"
  bottom: "conv5_3/sep"
  top: "conv5_3/sep"
  param {
    lr_mult: 1
    decay_mult: 0
  }
  param {
    lr_mult: 1
    decay_mult: 0
  }
  scale_param {
    filler {
      value: 1
    }
    bias_term: true
    bias_filler {
      value: 0
    }
  }
}
layer {
  name: "relu5_3/sep"
  type: "ReLU"
  bottom: "conv5_3/sep"
  top: "conv5_3/sep"
}
layer {
  name: "conv5_4/dw"
  type: "Convolution"
  bottom: "conv5_3/sep"
  top: "conv5_4/dw"
  param {
    lr_mult: 1
    decay_mult: 1
  }
  convolution_param {
    num_output: 512
    bias_term: false
    pad: 1
    kernel_size: 3
    group: 512
    stride: 1
    weight_filler {
      type: "msra"
    }
    engine: CAFFE
  }
}
layer {
  name: "conv5_4/dw/bn"
  type: "BatchNorm"
  bottom: "conv5_4/dw"
  top: "conv5_4/dw"
  param {
    lr_mult: 0
    decay_mult: 0
  }
  param {
    lr_mult: 0
    decay_mult: 0
  }
  param {
    lr_mult: 0
    decay_mult: 0
  }
  batch_norm_param {
    use_global_stats: false
    eps: 1e-05
  }
}
layer {
  name: "conv5_4/dw/scale"
  type: "Scale"
  bottom: "conv5_4/dw"
  top: "conv5_4/dw"
  param {
    lr_mult: 1
    decay_mult: 0
  }
  param {
    lr_mult: 1
    decay_mult: 0
  }
  scale_param {
    filler {
      value: 1
    }
    bias_term: true
    bias_filler {
      value: 0
    }
  }
}
layer {
  name: "relu5_4/dw"
  type: "ReLU"
  bottom: "conv5_4/dw"
  top: "conv5_4/dw"
}
layer {
  name: "conv5_4/sep"
  type: "Convolution"
  bottom: "conv5_4/dw"
  top: "conv5_4/sep"
  param {
    lr_mult: 1
    decay_mult: 1
  }
  convolution_param {
    num_output: 512
    bias_term: false
    pad: 0
    kernel_size: 1
    stride: 1
    weight_filler {
      type: "msra"
    }
  }
}
layer {
  name: "conv5_4/sep/bn"
  type: "BatchNorm"
  bottom: "conv5_4/sep"
  top: "conv5_4/sep"
  param {
    lr_mult: 0
    decay_mult: 0
  }
  param {
    lr_mult: 0
    decay_mult: 0
  }
  param {
    lr_mult: 0
    decay_mult: 0
  }
  batch_norm_param {
    use_global_stats: false
    eps: 1e-05
  }
}
layer {
  name: "conv5_4/sep/scale"
  type: "Scale"
  bottom: "conv5_4/sep"
  top: "conv5_4/sep"
  param {
    lr_mult: 1
    decay_mult: 0
  }
  param {
    lr_mult: 1
    decay_mult: 0
  }
  scale_param {
    filler {
      value: 1
    }
    bias_term: true
    bias_filler {
      value: 0
    }
  }
}
layer {
  name: "relu5_4/sep"
  type: "ReLU"
  bottom: "conv5_4/sep"
  top: "conv5_4/sep"
}
layer {
  name: "conv5_5/dw"
  type: "Convolution"
  bottom: "conv5_4/sep"
  top: "conv5_5/dw"
  param {
    lr_mult: 1
    decay_mult: 1
  }
  convolution_param {
    num_output: 512
    bias_term: false
    pad: 1
    kernel_size: 3
    group: 512
    stride: 1
    weight_filler {
      type: "msra"
    }
    engine: CAFFE
  }
}
layer {
  name: "conv5_5/dw/bn"
  type: "BatchNorm"
  bottom: "conv5_5/dw"
  top: "conv5_5/dw"
  param {
    lr_mult: 0
    decay_mult: 0
  }
  param {
    lr_mult: 0
    decay_mult: 0
  }
  param {
    lr_mult: 0
    decay_mult: 0
  }
  batch_norm_param {
    use_global_stats: false
    eps: 1e-05
  }
}
layer {
  name: "conv5_5/dw/scale"
  type: "Scale"
  bottom: "conv5_5/dw"
  top: "conv5_5/dw"
  param {
    lr_mult: 1
    decay_mult: 0
  }
  param {
    lr_mult: 1
    decay_mult: 0
  }
  scale_param {
    filler {
      value: 1
    }
    bias_term: true
    bias_filler {
      value: 0
    }
  }
}
layer {
  name: "relu5_5/dw"
  type: "ReLU"
  bottom: "conv5_5/dw"
  top: "conv5_5/dw"
}
layer {
  name: "conv5_5/sep"
  type: "Convolution"
  bottom: "conv5_5/dw"
  top: "conv5_5/sep"
  param {
    lr_mult: 1
    decay_mult: 1
  }
  convolution_param {
    num_output: 512
    bias_term: false
    pad: 0
    kernel_size: 1
    stride: 1
    weight_filler {
      type: "msra"
    }
  }
}
layer {
  name: "conv5_5/sep/bn"
  type: "BatchNorm"
  bottom: "conv5_5/sep"
  top: "conv5_5/sep"
  param {
    lr_mult: 0
    decay_mult: 0
  }
  param {
    lr_mult: 0
    decay_mult: 0
  }
  param {
    lr_mult: 0
    decay_mult: 0
  }
  batch_norm_param {
    use_global_stats: false
    eps: 1e-05
  }
}
layer {
  name: "conv5_5/sep/scale"
  type: "Scale"
  bottom: "conv5_5/sep"
  top: "conv5_5/sep"
  param {
    lr_mult: 1
    decay_mult: 0
  }
  param {
    lr_mult: 1
    decay_mult: 0
  }
  scale_param {
    filler {
      value: 1
    }
    bias_term: true
    bias_filler {
      value: 0
    }
  }
}
layer {
  name: "relu5_5/sep"
  type: "ReLU"
  bottom: "conv5_5/sep"
  top: "conv5_5/sep"
}
layer {
  name: "pool6"
  type: "Pooling"
  bottom: "conv5_5/sep"
  top: "pool6"
  pooling_param {
    pool: AVE
    global_pooling: true
  }
}
layer {
  name: "fc7-mouth"
  type: "Convolution"
  bottom: "pool6"
  top: "fc7-mouth"
  param {
    lr_mult: 1
    decay_mult: 1
  }
  param {
    lr_mult: 2
    decay_mult: 0
  }
  convolution_param {
    num_output: 4
    kernel_size: 1
    weight_filler {
      type: "msra"
    }
    bias_filler {
      type: "constant"
      value: 0
    }
  }
}
layer {
  name: "loss"
  type: "SoftmaxWithLoss"
  bottom: "fc7-mouth"
  bottom: "clc-label"
  top: "loss"
}
layer {
  name: "acc"
  type: "Accuracy"
  bottom: "fc7-mouth"
  bottom: "clc-label"
  top: "acc"
  include {
    phase: TRAIN
  }
  include {
    phase: TEST
  }
}
I0627 22:17:03.112211 19267 layer_factory.hpp:77] Creating layer data
I0627 22:17:03.112262 19267 net.cpp:86] Creating Layer data
I0627 22:17:03.112275 19267 net.cpp:382] data -> data
I0627 22:17:03.112301 19267 net.cpp:382] data -> clc-label
I0627 22:17:03.112377 19267 image_data_layer.cpp:38] Opening file all_shuffle_train.txt
I0627 22:17:03.117833 19267 image_data_layer.cpp:53] Shuffling data
I0627 22:17:03.119657 19267 image_data_layer.cpp:63] A total of 13596 images.
I0627 22:17:03.121471 19267 image_data_layer.cpp:90] output data size: 64,3,48,48
I0627 22:17:03.129906 19267 net.cpp:124] Setting up data
I0627 22:17:03.129935 19267 net.cpp:131] Top shape: 64 3 48 48 (442368)
I0627 22:17:03.129946 19267 net.cpp:131] Top shape: 64 (64)
I0627 22:17:03.129961 19267 net.cpp:139] Memory required for data: 1769728
I0627 22:17:03.129972 19267 layer_factory.hpp:77] Creating layer clc-label_data_1_split
I0627 22:17:03.130000 19267 net.cpp:86] Creating Layer clc-label_data_1_split
I0627 22:17:03.130020 19267 net.cpp:408] clc-label_data_1_split <- clc-label
I0627 22:17:03.130059 19267 net.cpp:382] clc-label_data_1_split -> clc-label_data_1_split_0
I0627 22:17:03.130092 19267 net.cpp:382] clc-label_data_1_split -> clc-label_data_1_split_1
I0627 22:17:03.130152 19267 net.cpp:124] Setting up clc-label_data_1_split
I0627 22:17:03.130163 19267 net.cpp:131] Top shape: 64 (64)
I0627 22:17:03.130174 19267 net.cpp:131] Top shape: 64 (64)
I0627 22:17:03.130190 19267 net.cpp:139] Memory required for data: 1770240
I0627 22:17:03.130198 19267 layer_factory.hpp:77] Creating layer conv1
I0627 22:17:03.130237 19267 net.cpp:86] Creating Layer conv1
I0627 22:17:03.130246 19267 net.cpp:408] conv1 <- data
I0627 22:17:03.130275 19267 net.cpp:382] conv1 -> conv1
I0627 22:17:03.801426 19267 net.cpp:124] Setting up conv1
I0627 22:17:03.801455 19267 net.cpp:131] Top shape: 64 32 24 24 (1179648)
I0627 22:17:03.801463 19267 net.cpp:139] Memory required for data: 6488832
I0627 22:17:03.801494 19267 layer_factory.hpp:77] Creating layer conv1/bn
I0627 22:17:03.801522 19267 net.cpp:86] Creating Layer conv1/bn
I0627 22:17:03.801533 19267 net.cpp:408] conv1/bn <- conv1
I0627 22:17:03.801548 19267 net.cpp:369] conv1/bn -> conv1 (in-place)
I0627 22:17:03.801772 19267 net.cpp:124] Setting up conv1/bn
I0627 22:17:03.801784 19267 net.cpp:131] Top shape: 64 32 24 24 (1179648)
I0627 22:17:03.801800 19267 net.cpp:139] Memory required for data: 11207424
I0627 22:17:03.801828 19267 layer_factory.hpp:77] Creating layer conv1/scale
I0627 22:17:03.801854 19267 net.cpp:86] Creating Layer conv1/scale
I0627 22:17:03.801879 19267 net.cpp:408] conv1/scale <- conv1
I0627 22:17:03.801892 19267 net.cpp:369] conv1/scale -> conv1 (in-place)
I0627 22:17:03.802013 19267 layer_factory.hpp:77] Creating layer conv1/scale
I0627 22:17:03.802176 19267 net.cpp:124] Setting up conv1/scale
I0627 22:17:03.802189 19267 net.cpp:131] Top shape: 64 32 24 24 (1179648)
I0627 22:17:03.802204 19267 net.cpp:139] Memory required for data: 15926016
I0627 22:17:03.802219 19267 layer_factory.hpp:77] Creating layer relu1
I0627 22:17:03.802248 19267 net.cpp:86] Creating Layer relu1
I0627 22:17:03.802279 19267 net.cpp:408] relu1 <- conv1
I0627 22:17:03.802292 19267 net.cpp:369] relu1 -> conv1 (in-place)
I0627 22:17:03.802834 19267 net.cpp:124] Setting up relu1
I0627 22:17:03.802847 19267 net.cpp:131] Top shape: 64 32 24 24 (1179648)
I0627 22:17:03.802879 19267 net.cpp:139] Memory required for data: 20644608
I0627 22:17:03.802887 19267 layer_factory.hpp:77] Creating layer conv2_1/dw
I0627 22:17:03.802907 19267 net.cpp:86] Creating Layer conv2_1/dw
I0627 22:17:03.802917 19267 net.cpp:408] conv2_1/dw <- conv1
I0627 22:17:03.802933 19267 net.cpp:382] conv2_1/dw -> conv2_1/dw
I0627 22:17:03.803133 19267 net.cpp:124] Setting up conv2_1/dw
I0627 22:17:03.803146 19267 net.cpp:131] Top shape: 64 32 24 24 (1179648)
I0627 22:17:03.803153 19267 net.cpp:139] Memory required for data: 25363200
I0627 22:17:03.803164 19267 layer_factory.hpp:77] Creating layer conv2_1/dw/bn
I0627 22:17:03.803179 19267 net.cpp:86] Creating Layer conv2_1/dw/bn
I0627 22:17:03.803189 19267 net.cpp:408] conv2_1/dw/bn <- conv2_1/dw
I0627 22:17:03.803203 19267 net.cpp:369] conv2_1/dw/bn -> conv2_1/dw (in-place)
I0627 22:17:03.803413 19267 net.cpp:124] Setting up conv2_1/dw/bn
I0627 22:17:03.803426 19267 net.cpp:131] Top shape: 64 32 24 24 (1179648)
I0627 22:17:03.803434 19267 net.cpp:139] Memory required for data: 30081792
I0627 22:17:03.803453 19267 layer_factory.hpp:77] Creating layer conv2_1/dw/scale
I0627 22:17:03.803472 19267 net.cpp:86] Creating Layer conv2_1/dw/scale
I0627 22:17:03.803483 19267 net.cpp:408] conv2_1/dw/scale <- conv2_1/dw
I0627 22:17:03.803495 19267 net.cpp:369] conv2_1/dw/scale -> conv2_1/dw (in-place)
I0627 22:17:03.803550 19267 layer_factory.hpp:77] Creating layer conv2_1/dw/scale
I0627 22:17:03.803694 19267 net.cpp:124] Setting up conv2_1/dw/scale
I0627 22:17:03.803710 19267 net.cpp:131] Top shape: 64 32 24 24 (1179648)
I0627 22:17:03.803721 19267 net.cpp:139] Memory required for data: 34800384
I0627 22:17:03.803735 19267 layer_factory.hpp:77] Creating layer relu2_1/dw
I0627 22:17:03.803748 19267 net.cpp:86] Creating Layer relu2_1/dw
I0627 22:17:03.803757 19267 net.cpp:408] relu2_1/dw <- conv2_1/dw
I0627 22:17:03.803769 19267 net.cpp:369] relu2_1/dw -> conv2_1/dw (in-place)
I0627 22:17:03.804651 19267 net.cpp:124] Setting up relu2_1/dw
I0627 22:17:03.804668 19267 net.cpp:131] Top shape: 64 32 24 24 (1179648)
I0627 22:17:03.804677 19267 net.cpp:139] Memory required for data: 39518976
I0627 22:17:03.804685 19267 layer_factory.hpp:77] Creating layer conv2_1/sep
I0627 22:17:03.804703 19267 net.cpp:86] Creating Layer conv2_1/sep
I0627 22:17:03.804714 19267 net.cpp:408] conv2_1/sep <- conv2_1/dw
I0627 22:17:03.804728 19267 net.cpp:382] conv2_1/sep -> conv2_1/sep
I0627 22:17:03.807886 19267 net.cpp:124] Setting up conv2_1/sep
I0627 22:17:03.807907 19267 net.cpp:131] Top shape: 64 64 24 24 (2359296)
I0627 22:17:03.807915 19267 net.cpp:139] Memory required for data: 48956160
I0627 22:17:03.807927 19267 layer_factory.hpp:77] Creating layer conv2_1/sep/bn
I0627 22:17:03.807945 19267 net.cpp:86] Creating Layer conv2_1/sep/bn
I0627 22:17:03.807955 19267 net.cpp:408] conv2_1/sep/bn <- conv2_1/sep
I0627 22:17:03.807971 19267 net.cpp:369] conv2_1/sep/bn -> conv2_1/sep (in-place)
I0627 22:17:03.808190 19267 net.cpp:124] Setting up conv2_1/sep/bn
I0627 22:17:03.808203 19267 net.cpp:131] Top shape: 64 64 24 24 (2359296)
I0627 22:17:03.808212 19267 net.cpp:139] Memory required for data: 58393344
I0627 22:17:03.808228 19267 layer_factory.hpp:77] Creating layer conv2_1/sep/scale
I0627 22:17:03.808243 19267 net.cpp:86] Creating Layer conv2_1/sep/scale
I0627 22:17:03.808252 19267 net.cpp:408] conv2_1/sep/scale <- conv2_1/sep
I0627 22:17:03.808264 19267 net.cpp:369] conv2_1/sep/scale -> conv2_1/sep (in-place)
I0627 22:17:03.808320 19267 layer_factory.hpp:77] Creating layer conv2_1/sep/scale
I0627 22:17:03.808450 19267 net.cpp:124] Setting up conv2_1/sep/scale
I0627 22:17:03.808463 19267 net.cpp:131] Top shape: 64 64 24 24 (2359296)
I0627 22:17:03.808471 19267 net.cpp:139] Memory required for data: 67830528
I0627 22:17:03.808521 19267 layer_factory.hpp:77] Creating layer relu2_1/sep
I0627 22:17:03.808537 19267 net.cpp:86] Creating Layer relu2_1/sep
I0627 22:17:03.808547 19267 net.cpp:408] relu2_1/sep <- conv2_1/sep
I0627 22:17:03.808559 19267 net.cpp:369] relu2_1/sep -> conv2_1/sep (in-place)
I0627 22:17:03.809449 19267 net.cpp:124] Setting up relu2_1/sep
I0627 22:17:03.809464 19267 net.cpp:131] Top shape: 64 64 24 24 (2359296)
I0627 22:17:03.809473 19267 net.cpp:139] Memory required for data: 77267712
I0627 22:17:03.809481 19267 layer_factory.hpp:77] Creating layer conv2_2/dw
I0627 22:17:03.809500 19267 net.cpp:86] Creating Layer conv2_2/dw
I0627 22:17:03.809510 19267 net.cpp:408] conv2_2/dw <- conv2_1/sep
I0627 22:17:03.809526 19267 net.cpp:382] conv2_2/dw -> conv2_2/dw
I0627 22:17:03.809754 19267 net.cpp:124] Setting up conv2_2/dw
I0627 22:17:03.809767 19267 net.cpp:131] Top shape: 64 64 12 12 (589824)
I0627 22:17:03.809777 19267 net.cpp:139] Memory required for data: 79627008
I0627 22:17:03.809787 19267 layer_factory.hpp:77] Creating layer conv2_2/dw/bn
I0627 22:17:03.809800 19267 net.cpp:86] Creating Layer conv2_2/dw/bn
I0627 22:17:03.809811 19267 net.cpp:408] conv2_2/dw/bn <- conv2_2/dw
I0627 22:17:03.809828 19267 net.cpp:369] conv2_2/dw/bn -> conv2_2/dw (in-place)
I0627 22:17:03.810036 19267 net.cpp:124] Setting up conv2_2/dw/bn
I0627 22:17:03.810050 19267 net.cpp:131] Top shape: 64 64 12 12 (589824)
I0627 22:17:03.810057 19267 net.cpp:139] Memory required for data: 81986304
I0627 22:17:03.810075 19267 layer_factory.hpp:77] Creating layer conv2_2/dw/scale
I0627 22:17:03.810094 19267 net.cpp:86] Creating Layer conv2_2/dw/scale
I0627 22:17:03.810103 19267 net.cpp:408] conv2_2/dw/scale <- conv2_2/dw
I0627 22:17:03.810117 19267 net.cpp:369] conv2_2/dw/scale -> conv2_2/dw (in-place)
I0627 22:17:03.810185 19267 layer_factory.hpp:77] Creating layer conv2_2/dw/scale
I0627 22:17:03.810307 19267 net.cpp:124] Setting up conv2_2/dw/scale
I0627 22:17:03.810320 19267 net.cpp:131] Top shape: 64 64 12 12 (589824)
I0627 22:17:03.810328 19267 net.cpp:139] Memory required for data: 84345600
I0627 22:17:03.810343 19267 layer_factory.hpp:77] Creating layer relu2_2/dw
I0627 22:17:03.810355 19267 net.cpp:86] Creating Layer relu2_2/dw
I0627 22:17:03.810365 19267 net.cpp:408] relu2_2/dw <- conv2_2/dw
I0627 22:17:03.810380 19267 net.cpp:369] relu2_2/dw -> conv2_2/dw (in-place)
I0627 22:17:03.810901 19267 net.cpp:124] Setting up relu2_2/dw
I0627 22:17:03.810915 19267 net.cpp:131] Top shape: 64 64 12 12 (589824)
I0627 22:17:03.810923 19267 net.cpp:139] Memory required for data: 86704896
I0627 22:17:03.810931 19267 layer_factory.hpp:77] Creating layer conv2_2/sep
I0627 22:17:03.810950 19267 net.cpp:86] Creating Layer conv2_2/sep
I0627 22:17:03.810958 19267 net.cpp:408] conv2_2/sep <- conv2_2/dw
I0627 22:17:03.810974 19267 net.cpp:382] conv2_2/sep -> conv2_2/sep
I0627 22:17:03.814364 19267 net.cpp:124] Setting up conv2_2/sep
I0627 22:17:03.814389 19267 net.cpp:131] Top shape: 64 128 12 12 (1179648)
I0627 22:17:03.814397 19267 net.cpp:139] Memory required for data: 91423488
I0627 22:17:03.814419 19267 layer_factory.hpp:77] Creating layer conv2_2/sep/bn
I0627 22:17:03.814440 19267 net.cpp:86] Creating Layer conv2_2/sep/bn
I0627 22:17:03.814450 19267 net.cpp:408] conv2_2/sep/bn <- conv2_2/sep
I0627 22:17:03.814466 19267 net.cpp:369] conv2_2/sep/bn -> conv2_2/sep (in-place)
I0627 22:17:03.814661 19267 net.cpp:124] Setting up conv2_2/sep/bn
I0627 22:17:03.814674 19267 net.cpp:131] Top shape: 64 128 12 12 (1179648)
I0627 22:17:03.814682 19267 net.cpp:139] Memory required for data: 96142080
I0627 22:17:03.814707 19267 layer_factory.hpp:77] Creating layer conv2_2/sep/scale
I0627 22:17:03.814723 19267 net.cpp:86] Creating Layer conv2_2/sep/scale
I0627 22:17:03.814754 19267 net.cpp:408] conv2_2/sep/scale <- conv2_2/sep
I0627 22:17:03.814767 19267 net.cpp:369] conv2_2/sep/scale -> conv2_2/sep (in-place)
I0627 22:17:03.814821 19267 layer_factory.hpp:77] Creating layer conv2_2/sep/scale
I0627 22:17:03.814942 19267 net.cpp:124] Setting up conv2_2/sep/scale
I0627 22:17:03.814965 19267 net.cpp:131] Top shape: 64 128 12 12 (1179648)
I0627 22:17:03.814973 19267 net.cpp:139] Memory required for data: 100860672
I0627 22:17:03.814987 19267 layer_factory.hpp:77] Creating layer relu2_2/sep
I0627 22:17:03.815003 19267 net.cpp:86] Creating Layer relu2_2/sep
I0627 22:17:03.815013 19267 net.cpp:408] relu2_2/sep <- conv2_2/sep
I0627 22:17:03.815026 19267 net.cpp:369] relu2_2/sep -> conv2_2/sep (in-place)
I0627 22:17:03.816280 19267 net.cpp:124] Setting up relu2_2/sep
I0627 22:17:03.816300 19267 net.cpp:131] Top shape: 64 128 12 12 (1179648)
I0627 22:17:03.816308 19267 net.cpp:139] Memory required for data: 105579264
I0627 22:17:03.816315 19267 layer_factory.hpp:77] Creating layer conv3_1/dw
I0627 22:17:03.816334 19267 net.cpp:86] Creating Layer conv3_1/dw
I0627 22:17:03.816346 19267 net.cpp:408] conv3_1/dw <- conv2_2/sep
I0627 22:17:03.816365 19267 net.cpp:382] conv3_1/dw -> conv3_1/dw
I0627 22:17:03.816725 19267 net.cpp:124] Setting up conv3_1/dw
I0627 22:17:03.816742 19267 net.cpp:131] Top shape: 64 128 12 12 (1179648)
I0627 22:17:03.816752 19267 net.cpp:139] Memory required for data: 110297856
I0627 22:17:03.816766 19267 layer_factory.hpp:77] Creating layer conv3_1/dw/bn
I0627 22:17:03.816781 19267 net.cpp:86] Creating Layer conv3_1/dw/bn
I0627 22:17:03.816792 19267 net.cpp:408] conv3_1/dw/bn <- conv3_1/dw
I0627 22:17:03.816808 19267 net.cpp:369] conv3_1/dw/bn -> conv3_1/dw (in-place)
I0627 22:17:03.817149 19267 net.cpp:124] Setting up conv3_1/dw/bn
I0627 22:17:03.817167 19267 net.cpp:131] Top shape: 64 128 12 12 (1179648)
I0627 22:17:03.817174 19267 net.cpp:139] Memory required for data: 115016448
I0627 22:17:03.817204 19267 layer_factory.hpp:77] Creating layer conv3_1/dw/scale
I0627 22:17:03.817224 19267 net.cpp:86] Creating Layer conv3_1/dw/scale
I0627 22:17:03.817234 19267 net.cpp:408] conv3_1/dw/scale <- conv3_1/dw
I0627 22:17:03.817245 19267 net.cpp:369] conv3_1/dw/scale -> conv3_1/dw (in-place)
I0627 22:17:03.817304 19267 layer_factory.hpp:77] Creating layer conv3_1/dw/scale
I0627 22:17:03.817469 19267 net.cpp:124] Setting up conv3_1/dw/scale
I0627 22:17:03.817481 19267 net.cpp:131] Top shape: 64 128 12 12 (1179648)
I0627 22:17:03.817486 19267 net.cpp:139] Memory required for data: 119735040
I0627 22:17:03.817492 19267 layer_factory.hpp:77] Creating layer relu3_1/dw
I0627 22:17:03.817502 19267 net.cpp:86] Creating Layer relu3_1/dw
I0627 22:17:03.817505 19267 net.cpp:408] relu3_1/dw <- conv3_1/dw
I0627 22:17:03.817512 19267 net.cpp:369] relu3_1/dw -> conv3_1/dw (in-place)
I0627 22:17:03.818018 19267 net.cpp:124] Setting up relu3_1/dw
I0627 22:17:03.818032 19267 net.cpp:131] Top shape: 64 128 12 12 (1179648)
I0627 22:17:03.818037 19267 net.cpp:139] Memory required for data: 124453632
I0627 22:17:03.818042 19267 layer_factory.hpp:77] Creating layer conv3_1/sep
I0627 22:17:03.818053 19267 net.cpp:86] Creating Layer conv3_1/sep
I0627 22:17:03.818058 19267 net.cpp:408] conv3_1/sep <- conv3_1/dw
I0627 22:17:03.818065 19267 net.cpp:382] conv3_1/sep -> conv3_1/sep
I0627 22:17:03.820328 19267 net.cpp:124] Setting up conv3_1/sep
I0627 22:17:03.820343 19267 net.cpp:131] Top shape: 64 128 12 12 (1179648)
I0627 22:17:03.820348 19267 net.cpp:139] Memory required for data: 129172224
I0627 22:17:03.820355 19267 layer_factory.hpp:77] Creating layer conv3_1/sep/bn
I0627 22:17:03.820364 19267 net.cpp:86] Creating Layer conv3_1/sep/bn
I0627 22:17:03.820370 19267 net.cpp:408] conv3_1/sep/bn <- conv3_1/sep
I0627 22:17:03.820379 19267 net.cpp:369] conv3_1/sep/bn -> conv3_1/sep (in-place)
I0627 22:17:03.820561 19267 net.cpp:124] Setting up conv3_1/sep/bn
I0627 22:17:03.820570 19267 net.cpp:131] Top shape: 64 128 12 12 (1179648)
I0627 22:17:03.820575 19267 net.cpp:139] Memory required for data: 133890816
I0627 22:17:03.820583 19267 layer_factory.hpp:77] Creating layer conv3_1/sep/scale
I0627 22:17:03.820592 19267 net.cpp:86] Creating Layer conv3_1/sep/scale
I0627 22:17:03.820597 19267 net.cpp:408] conv3_1/sep/scale <- conv3_1/sep
I0627 22:17:03.820603 19267 net.cpp:369] conv3_1/sep/scale -> conv3_1/sep (in-place)
I0627 22:17:03.820657 19267 layer_factory.hpp:77] Creating layer conv3_1/sep/scale
I0627 22:17:03.820763 19267 net.cpp:124] Setting up conv3_1/sep/scale
I0627 22:17:03.820773 19267 net.cpp:131] Top shape: 64 128 12 12 (1179648)
I0627 22:17:03.820777 19267 net.cpp:139] Memory required for data: 138609408
I0627 22:17:03.820785 19267 layer_factory.hpp:77] Creating layer relu3_1/sep
I0627 22:17:03.820792 19267 net.cpp:86] Creating Layer relu3_1/sep
I0627 22:17:03.820796 19267 net.cpp:408] relu3_1/sep <- conv3_1/sep
I0627 22:17:03.820802 19267 net.cpp:369] relu3_1/sep -> conv3_1/sep (in-place)
I0627 22:17:03.821624 19267 net.cpp:124] Setting up relu3_1/sep
I0627 22:17:03.821640 19267 net.cpp:131] Top shape: 64 128 12 12 (1179648)
I0627 22:17:03.821645 19267 net.cpp:139] Memory required for data: 143328000
I0627 22:17:03.821648 19267 layer_factory.hpp:77] Creating layer conv3_2/dw
I0627 22:17:03.821658 19267 net.cpp:86] Creating Layer conv3_2/dw
I0627 22:17:03.821662 19267 net.cpp:408] conv3_2/dw <- conv3_1/sep
I0627 22:17:03.821671 19267 net.cpp:382] conv3_2/dw -> conv3_2/dw
I0627 22:17:03.821874 19267 net.cpp:124] Setting up conv3_2/dw
I0627 22:17:03.821885 19267 net.cpp:131] Top shape: 64 128 6 6 (294912)
I0627 22:17:03.821889 19267 net.cpp:139] Memory required for data: 144507648
I0627 22:17:03.821895 19267 layer_factory.hpp:77] Creating layer conv3_2/dw/bn
I0627 22:17:03.821902 19267 net.cpp:86] Creating Layer conv3_2/dw/bn
I0627 22:17:03.821907 19267 net.cpp:408] conv3_2/dw/bn <- conv3_2/dw
I0627 22:17:03.821913 19267 net.cpp:369] conv3_2/dw/bn -> conv3_2/dw (in-place)
I0627 22:17:03.822093 19267 net.cpp:124] Setting up conv3_2/dw/bn
I0627 22:17:03.822101 19267 net.cpp:131] Top shape: 64 128 6 6 (294912)
I0627 22:17:03.822105 19267 net.cpp:139] Memory required for data: 145687296
I0627 22:17:03.822114 19267 layer_factory.hpp:77] Creating layer conv3_2/dw/scale
I0627 22:17:03.822126 19267 net.cpp:86] Creating Layer conv3_2/dw/scale
I0627 22:17:03.822132 19267 net.cpp:408] conv3_2/dw/scale <- conv3_2/dw
I0627 22:17:03.822139 19267 net.cpp:369] conv3_2/dw/scale -> conv3_2/dw (in-place)
I0627 22:17:03.822177 19267 layer_factory.hpp:77] Creating layer conv3_2/dw/scale
I0627 22:17:03.822286 19267 net.cpp:124] Setting up conv3_2/dw/scale
I0627 22:17:03.822295 19267 net.cpp:131] Top shape: 64 128 6 6 (294912)
I0627 22:17:03.822299 19267 net.cpp:139] Memory required for data: 146866944
I0627 22:17:03.822306 19267 layer_factory.hpp:77] Creating layer relu3_2/dw
I0627 22:17:03.822312 19267 net.cpp:86] Creating Layer relu3_2/dw
I0627 22:17:03.822317 19267 net.cpp:408] relu3_2/dw <- conv3_2/dw
I0627 22:17:03.822322 19267 net.cpp:369] relu3_2/dw -> conv3_2/dw (in-place)
I0627 22:17:03.823012 19267 net.cpp:124] Setting up relu3_2/dw
I0627 22:17:03.823025 19267 net.cpp:131] Top shape: 64 128 6 6 (294912)
I0627 22:17:03.823031 19267 net.cpp:139] Memory required for data: 148046592
I0627 22:17:03.823036 19267 layer_factory.hpp:77] Creating layer conv3_2/sep
I0627 22:17:03.823046 19267 net.cpp:86] Creating Layer conv3_2/sep
I0627 22:17:03.823051 19267 net.cpp:408] conv3_2/sep <- conv3_2/dw
I0627 22:17:03.823058 19267 net.cpp:382] conv3_2/sep -> conv3_2/sep
I0627 22:17:03.826323 19267 net.cpp:124] Setting up conv3_2/sep
I0627 22:17:03.826344 19267 net.cpp:131] Top shape: 64 256 6 6 (589824)
I0627 22:17:03.826349 19267 net.cpp:139] Memory required for data: 150405888
I0627 22:17:03.826356 19267 layer_factory.hpp:77] Creating layer conv3_2/sep/bn
I0627 22:17:03.826365 19267 net.cpp:86] Creating Layer conv3_2/sep/bn
I0627 22:17:03.826371 19267 net.cpp:408] conv3_2/sep/bn <- conv3_2/sep
I0627 22:17:03.826380 19267 net.cpp:369] conv3_2/sep/bn -> conv3_2/sep (in-place)
I0627 22:17:03.826565 19267 net.cpp:124] Setting up conv3_2/sep/bn
I0627 22:17:03.826573 19267 net.cpp:131] Top shape: 64 256 6 6 (589824)
I0627 22:17:03.826577 19267 net.cpp:139] Memory required for data: 152765184
I0627 22:17:03.826586 19267 layer_factory.hpp:77] Creating layer conv3_2/sep/scale
I0627 22:17:03.826593 19267 net.cpp:86] Creating Layer conv3_2/sep/scale
I0627 22:17:03.826609 19267 net.cpp:408] conv3_2/sep/scale <- conv3_2/sep
I0627 22:17:03.826618 19267 net.cpp:369] conv3_2/sep/scale -> conv3_2/sep (in-place)
I0627 22:17:03.826658 19267 layer_factory.hpp:77] Creating layer conv3_2/sep/scale
I0627 22:17:03.826766 19267 net.cpp:124] Setting up conv3_2/sep/scale
I0627 22:17:03.826776 19267 net.cpp:131] Top shape: 64 256 6 6 (589824)
I0627 22:17:03.826779 19267 net.cpp:139] Memory required for data: 155124480
I0627 22:17:03.826786 19267 layer_factory.hpp:77] Creating layer relu3_2/sep
I0627 22:17:03.826792 19267 net.cpp:86] Creating Layer relu3_2/sep
I0627 22:17:03.826797 19267 net.cpp:408] relu3_2/sep <- conv3_2/sep
I0627 22:17:03.826802 19267 net.cpp:369] relu3_2/sep -> conv3_2/sep (in-place)
I0627 22:17:03.827600 19267 net.cpp:124] Setting up relu3_2/sep
I0627 22:17:03.827613 19267 net.cpp:131] Top shape: 64 256 6 6 (589824)
I0627 22:17:03.827620 19267 net.cpp:139] Memory required for data: 157483776
I0627 22:17:03.827625 19267 layer_factory.hpp:77] Creating layer conv4_1/dw
I0627 22:17:03.827634 19267 net.cpp:86] Creating Layer conv4_1/dw
I0627 22:17:03.827641 19267 net.cpp:408] conv4_1/dw <- conv3_2/sep
I0627 22:17:03.827647 19267 net.cpp:382] conv4_1/dw -> conv4_1/dw
I0627 22:17:03.827854 19267 net.cpp:124] Setting up conv4_1/dw
I0627 22:17:03.827864 19267 net.cpp:131] Top shape: 64 256 6 6 (589824)
I0627 22:17:03.827868 19267 net.cpp:139] Memory required for data: 159843072
I0627 22:17:03.827873 19267 layer_factory.hpp:77] Creating layer conv4_1/dw/bn
I0627 22:17:03.827883 19267 net.cpp:86] Creating Layer conv4_1/dw/bn
I0627 22:17:03.827886 19267 net.cpp:408] conv4_1/dw/bn <- conv4_1/dw
I0627 22:17:03.827893 19267 net.cpp:369] conv4_1/dw/bn -> conv4_1/dw (in-place)
I0627 22:17:03.828064 19267 net.cpp:124] Setting up conv4_1/dw/bn
I0627 22:17:03.828073 19267 net.cpp:131] Top shape: 64 256 6 6 (589824)
I0627 22:17:03.828076 19267 net.cpp:139] Memory required for data: 162202368
I0627 22:17:03.828084 19267 layer_factory.hpp:77] Creating layer conv4_1/dw/scale
I0627 22:17:03.828091 19267 net.cpp:86] Creating Layer conv4_1/dw/scale
I0627 22:17:03.828095 19267 net.cpp:408] conv4_1/dw/scale <- conv4_1/dw
I0627 22:17:03.828104 19267 net.cpp:369] conv4_1/dw/scale -> conv4_1/dw (in-place)
I0627 22:17:03.828142 19267 layer_factory.hpp:77] Creating layer conv4_1/dw/scale
I0627 22:17:03.828250 19267 net.cpp:124] Setting up conv4_1/dw/scale
I0627 22:17:03.828259 19267 net.cpp:131] Top shape: 64 256 6 6 (589824)
I0627 22:17:03.828263 19267 net.cpp:139] Memory required for data: 164561664
I0627 22:17:03.828270 19267 layer_factory.hpp:77] Creating layer relu4_1/dw
I0627 22:17:03.828276 19267 net.cpp:86] Creating Layer relu4_1/dw
I0627 22:17:03.828280 19267 net.cpp:408] relu4_1/dw <- conv4_1/dw
I0627 22:17:03.828287 19267 net.cpp:369] relu4_1/dw -> conv4_1/dw (in-place)
I0627 22:17:03.828763 19267 net.cpp:124] Setting up relu4_1/dw
I0627 22:17:03.828774 19267 net.cpp:131] Top shape: 64 256 6 6 (589824)
I0627 22:17:03.828778 19267 net.cpp:139] Memory required for data: 166920960
I0627 22:17:03.828783 19267 layer_factory.hpp:77] Creating layer conv4_1/sep
I0627 22:17:03.828791 19267 net.cpp:86] Creating Layer conv4_1/sep
I0627 22:17:03.828796 19267 net.cpp:408] conv4_1/sep <- conv4_1/dw
I0627 22:17:03.828804 19267 net.cpp:382] conv4_1/sep -> conv4_1/sep
I0627 22:17:03.831991 19267 net.cpp:124] Setting up conv4_1/sep
I0627 22:17:03.832015 19267 net.cpp:131] Top shape: 64 256 6 6 (589824)
I0627 22:17:03.832022 19267 net.cpp:139] Memory required for data: 169280256
I0627 22:17:03.832033 19267 layer_factory.hpp:77] Creating layer conv4_1/sep/bn
I0627 22:17:03.832051 19267 net.cpp:86] Creating Layer conv4_1/sep/bn
I0627 22:17:03.832060 19267 net.cpp:408] conv4_1/sep/bn <- conv4_1/sep
I0627 22:17:03.832067 19267 net.cpp:369] conv4_1/sep/bn -> conv4_1/sep (in-place)
I0627 22:17:03.832248 19267 net.cpp:124] Setting up conv4_1/sep/bn
I0627 22:17:03.832258 19267 net.cpp:131] Top shape: 64 256 6 6 (589824)
I0627 22:17:03.832262 19267 net.cpp:139] Memory required for data: 171639552
I0627 22:17:03.832285 19267 layer_factory.hpp:77] Creating layer conv4_1/sep/scale
I0627 22:17:03.832295 19267 net.cpp:86] Creating Layer conv4_1/sep/scale
I0627 22:17:03.832300 19267 net.cpp:408] conv4_1/sep/scale <- conv4_1/sep
I0627 22:17:03.832307 19267 net.cpp:369] conv4_1/sep/scale -> conv4_1/sep (in-place)
I0627 22:17:03.832350 19267 layer_factory.hpp:77] Creating layer conv4_1/sep/scale
I0627 22:17:03.832456 19267 net.cpp:124] Setting up conv4_1/sep/scale
I0627 22:17:03.832465 19267 net.cpp:131] Top shape: 64 256 6 6 (589824)
I0627 22:17:03.832469 19267 net.cpp:139] Memory required for data: 173998848
I0627 22:17:03.832487 19267 layer_factory.hpp:77] Creating layer relu4_1/sep
I0627 22:17:03.832495 19267 net.cpp:86] Creating Layer relu4_1/sep
I0627 22:17:03.832499 19267 net.cpp:408] relu4_1/sep <- conv4_1/sep
I0627 22:17:03.832506 19267 net.cpp:369] relu4_1/sep -> conv4_1/sep (in-place)
I0627 22:17:03.832983 19267 net.cpp:124] Setting up relu4_1/sep
I0627 22:17:03.832995 19267 net.cpp:131] Top shape: 64 256 6 6 (589824)
I0627 22:17:03.832999 19267 net.cpp:139] Memory required for data: 176358144
I0627 22:17:03.833004 19267 layer_factory.hpp:77] Creating layer conv4_2/dw
I0627 22:17:03.833014 19267 net.cpp:86] Creating Layer conv4_2/dw
I0627 22:17:03.833020 19267 net.cpp:408] conv4_2/dw <- conv4_1/sep
I0627 22:17:03.833027 19267 net.cpp:382] conv4_2/dw -> conv4_2/dw
I0627 22:17:03.833323 19267 net.cpp:124] Setting up conv4_2/dw
I0627 22:17:03.833338 19267 net.cpp:131] Top shape: 64 256 3 3 (147456)
I0627 22:17:03.833344 19267 net.cpp:139] Memory required for data: 176947968
I0627 22:17:03.833353 19267 layer_factory.hpp:77] Creating layer conv4_2/dw/bn
I0627 22:17:03.833365 19267 net.cpp:86] Creating Layer conv4_2/dw/bn
I0627 22:17:03.833374 19267 net.cpp:408] conv4_2/dw/bn <- conv4_2/dw
I0627 22:17:03.833391 19267 net.cpp:369] conv4_2/dw/bn -> conv4_2/dw (in-place)
I0627 22:17:03.833657 19267 net.cpp:124] Setting up conv4_2/dw/bn
I0627 22:17:03.833670 19267 net.cpp:131] Top shape: 64 256 3 3 (147456)
I0627 22:17:03.833678 19267 net.cpp:139] Memory required for data: 177537792
I0627 22:17:03.833690 19267 layer_factory.hpp:77] Creating layer conv4_2/dw/scale
I0627 22:17:03.833704 19267 net.cpp:86] Creating Layer conv4_2/dw/scale
I0627 22:17:03.833714 19267 net.cpp:408] conv4_2/dw/scale <- conv4_2/dw
I0627 22:17:03.833724 19267 net.cpp:369] conv4_2/dw/scale -> conv4_2/dw (in-place)
I0627 22:17:03.833783 19267 layer_factory.hpp:77] Creating layer conv4_2/dw/scale
I0627 22:17:03.833956 19267 net.cpp:124] Setting up conv4_2/dw/scale
I0627 22:17:03.833971 19267 net.cpp:131] Top shape: 64 256 3 3 (147456)
I0627 22:17:03.833981 19267 net.cpp:139] Memory required for data: 178127616
I0627 22:17:03.833994 19267 layer_factory.hpp:77] Creating layer relu4_2/dw
I0627 22:17:03.834007 19267 net.cpp:86] Creating Layer relu4_2/dw
I0627 22:17:03.834017 19267 net.cpp:408] relu4_2/dw <- conv4_2/dw
I0627 22:17:03.834031 19267 net.cpp:369] relu4_2/dw -> conv4_2/dw (in-place)
I0627 22:17:03.834856 19267 net.cpp:124] Setting up relu4_2/dw
I0627 22:17:03.834873 19267 net.cpp:131] Top shape: 64 256 3 3 (147456)
I0627 22:17:03.834882 19267 net.cpp:139] Memory required for data: 178717440
I0627 22:17:03.834888 19267 layer_factory.hpp:77] Creating layer conv4_2/sep
I0627 22:17:03.834906 19267 net.cpp:86] Creating Layer conv4_2/sep
I0627 22:17:03.834916 19267 net.cpp:408] conv4_2/sep <- conv4_2/dw
I0627 22:17:03.834930 19267 net.cpp:382] conv4_2/sep -> conv4_2/sep
I0627 22:17:03.840937 19267 net.cpp:124] Setting up conv4_2/sep
I0627 22:17:03.840965 19267 net.cpp:131] Top shape: 64 512 3 3 (294912)
I0627 22:17:03.840970 19267 net.cpp:139] Memory required for data: 179897088
I0627 22:17:03.840981 19267 layer_factory.hpp:77] Creating layer conv4_2/sep/bn
I0627 22:17:03.840993 19267 net.cpp:86] Creating Layer conv4_2/sep/bn
I0627 22:17:03.840999 19267 net.cpp:408] conv4_2/sep/bn <- conv4_2/sep
I0627 22:17:03.841017 19267 net.cpp:369] conv4_2/sep/bn -> conv4_2/sep (in-place)
I0627 22:17:03.841264 19267 net.cpp:124] Setting up conv4_2/sep/bn
I0627 22:17:03.841296 19267 net.cpp:131] Top shape: 64 512 3 3 (294912)
I0627 22:17:03.841301 19267 net.cpp:139] Memory required for data: 181076736
I0627 22:17:03.841310 19267 layer_factory.hpp:77] Creating layer conv4_2/sep/scale
I0627 22:17:03.841320 19267 net.cpp:86] Creating Layer conv4_2/sep/scale
I0627 22:17:03.841333 19267 net.cpp:408] conv4_2/sep/scale <- conv4_2/sep
I0627 22:17:03.841341 19267 net.cpp:369] conv4_2/sep/scale -> conv4_2/sep (in-place)
I0627 22:17:03.841400 19267 layer_factory.hpp:77] Creating layer conv4_2/sep/scale
I0627 22:17:03.841521 19267 net.cpp:124] Setting up conv4_2/sep/scale
I0627 22:17:03.841531 19267 net.cpp:131] Top shape: 64 512 3 3 (294912)
I0627 22:17:03.841534 19267 net.cpp:139] Memory required for data: 182256384
I0627 22:17:03.841540 19267 layer_factory.hpp:77] Creating layer relu4_2/sep
I0627 22:17:03.841547 19267 net.cpp:86] Creating Layer relu4_2/sep
I0627 22:17:03.841552 19267 net.cpp:408] relu4_2/sep <- conv4_2/sep
I0627 22:17:03.841559 19267 net.cpp:369] relu4_2/sep -> conv4_2/sep (in-place)
I0627 22:17:03.842043 19267 net.cpp:124] Setting up relu4_2/sep
I0627 22:17:03.842054 19267 net.cpp:131] Top shape: 64 512 3 3 (294912)
I0627 22:17:03.842058 19267 net.cpp:139] Memory required for data: 183436032
I0627 22:17:03.842062 19267 layer_factory.hpp:77] Creating layer conv5_1/dw
I0627 22:17:03.842075 19267 net.cpp:86] Creating Layer conv5_1/dw
I0627 22:17:03.842082 19267 net.cpp:408] conv5_1/dw <- conv4_2/sep
I0627 22:17:03.842089 19267 net.cpp:382] conv5_1/dw -> conv5_1/dw
I0627 22:17:03.842327 19267 net.cpp:124] Setting up conv5_1/dw
I0627 22:17:03.842337 19267 net.cpp:131] Top shape: 64 512 3 3 (294912)
I0627 22:17:03.842341 19267 net.cpp:139] Memory required for data: 184615680
I0627 22:17:03.842347 19267 layer_factory.hpp:77] Creating layer conv5_1/dw/bn
I0627 22:17:03.842355 19267 net.cpp:86] Creating Layer conv5_1/dw/bn
I0627 22:17:03.842360 19267 net.cpp:408] conv5_1/dw/bn <- conv5_1/dw
I0627 22:17:03.842365 19267 net.cpp:369] conv5_1/dw/bn -> conv5_1/dw (in-place)
I0627 22:17:03.842537 19267 net.cpp:124] Setting up conv5_1/dw/bn
I0627 22:17:03.842547 19267 net.cpp:131] Top shape: 64 512 3 3 (294912)
I0627 22:17:03.842551 19267 net.cpp:139] Memory required for data: 185795328
I0627 22:17:03.842558 19267 layer_factory.hpp:77] Creating layer conv5_1/dw/scale
I0627 22:17:03.842567 19267 net.cpp:86] Creating Layer conv5_1/dw/scale
I0627 22:17:03.842572 19267 net.cpp:408] conv5_1/dw/scale <- conv5_1/dw
I0627 22:17:03.842578 19267 net.cpp:369] conv5_1/dw/scale -> conv5_1/dw (in-place)
I0627 22:17:03.842614 19267 layer_factory.hpp:77] Creating layer conv5_1/dw/scale
I0627 22:17:03.842725 19267 net.cpp:124] Setting up conv5_1/dw/scale
I0627 22:17:03.842734 19267 net.cpp:131] Top shape: 64 512 3 3 (294912)
I0627 22:17:03.842738 19267 net.cpp:139] Memory required for data: 186974976
I0627 22:17:03.842744 19267 layer_factory.hpp:77] Creating layer relu5_1/dw
I0627 22:17:03.842752 19267 net.cpp:86] Creating Layer relu5_1/dw
I0627 22:17:03.842757 19267 net.cpp:408] relu5_1/dw <- conv5_1/dw
I0627 22:17:03.842762 19267 net.cpp:369] relu5_1/dw -> conv5_1/dw (in-place)
I0627 22:17:03.843259 19267 net.cpp:124] Setting up relu5_1/dw
I0627 22:17:03.843272 19267 net.cpp:131] Top shape: 64 512 3 3 (294912)
I0627 22:17:03.843277 19267 net.cpp:139] Memory required for data: 188154624
I0627 22:17:03.843291 19267 layer_factory.hpp:77] Creating layer conv5_1/sep
I0627 22:17:03.843300 19267 net.cpp:86] Creating Layer conv5_1/sep
I0627 22:17:03.843307 19267 net.cpp:408] conv5_1/sep <- conv5_1/dw
I0627 22:17:03.843313 19267 net.cpp:382] conv5_1/sep -> conv5_1/sep
I0627 22:17:03.848476 19267 net.cpp:124] Setting up conv5_1/sep
I0627 22:17:03.848495 19267 net.cpp:131] Top shape: 64 512 3 3 (294912)
I0627 22:17:03.848498 19267 net.cpp:139] Memory required for data: 189334272
I0627 22:17:03.848515 19267 layer_factory.hpp:77] Creating layer conv5_1/sep/bn
I0627 22:17:03.848526 19267 net.cpp:86] Creating Layer conv5_1/sep/bn
I0627 22:17:03.848531 19267 net.cpp:408] conv5_1/sep/bn <- conv5_1/sep
I0627 22:17:03.848541 19267 net.cpp:369] conv5_1/sep/bn -> conv5_1/sep (in-place)
I0627 22:17:03.848767 19267 net.cpp:124] Setting up conv5_1/sep/bn
I0627 22:17:03.848776 19267 net.cpp:131] Top shape: 64 512 3 3 (294912)
I0627 22:17:03.848781 19267 net.cpp:139] Memory required for data: 190513920
I0627 22:17:03.848798 19267 layer_factory.hpp:77] Creating layer conv5_1/sep/scale
I0627 22:17:03.848807 19267 net.cpp:86] Creating Layer conv5_1/sep/scale
I0627 22:17:03.848812 19267 net.cpp:408] conv5_1/sep/scale <- conv5_1/sep
I0627 22:17:03.848819 19267 net.cpp:369] conv5_1/sep/scale -> conv5_1/sep (in-place)
I0627 22:17:03.848883 19267 layer_factory.hpp:77] Creating layer conv5_1/sep/scale
I0627 22:17:03.849010 19267 net.cpp:124] Setting up conv5_1/sep/scale
I0627 22:17:03.849021 19267 net.cpp:131] Top shape: 64 512 3 3 (294912)
I0627 22:17:03.849026 19267 net.cpp:139] Memory required for data: 191693568
I0627 22:17:03.849033 19267 layer_factory.hpp:77] Creating layer relu5_1/sep
I0627 22:17:03.849041 19267 net.cpp:86] Creating Layer relu5_1/sep
I0627 22:17:03.849046 19267 net.cpp:408] relu5_1/sep <- conv5_1/sep
I0627 22:17:03.849052 19267 net.cpp:369] relu5_1/sep -> conv5_1/sep (in-place)
I0627 22:17:03.849563 19267 net.cpp:124] Setting up relu5_1/sep
I0627 22:17:03.849577 19267 net.cpp:131] Top shape: 64 512 3 3 (294912)
I0627 22:17:03.849583 19267 net.cpp:139] Memory required for data: 192873216
I0627 22:17:03.849587 19267 layer_factory.hpp:77] Creating layer conv5_2/dw
I0627 22:17:03.849597 19267 net.cpp:86] Creating Layer conv5_2/dw
I0627 22:17:03.849602 19267 net.cpp:408] conv5_2/dw <- conv5_1/sep
I0627 22:17:03.849611 19267 net.cpp:382] conv5_2/dw -> conv5_2/dw
I0627 22:17:03.849854 19267 net.cpp:124] Setting up conv5_2/dw
I0627 22:17:03.849865 19267 net.cpp:131] Top shape: 64 512 3 3 (294912)
I0627 22:17:03.849869 19267 net.cpp:139] Memory required for data: 194052864
I0627 22:17:03.849874 19267 layer_factory.hpp:77] Creating layer conv5_2/dw/bn
I0627 22:17:03.849881 19267 net.cpp:86] Creating Layer conv5_2/dw/bn
I0627 22:17:03.849886 19267 net.cpp:408] conv5_2/dw/bn <- conv5_2/dw
I0627 22:17:03.849892 19267 net.cpp:369] conv5_2/dw/bn -> conv5_2/dw (in-place)
I0627 22:17:03.850070 19267 net.cpp:124] Setting up conv5_2/dw/bn
I0627 22:17:03.850080 19267 net.cpp:131] Top shape: 64 512 3 3 (294912)
I0627 22:17:03.850083 19267 net.cpp:139] Memory required for data: 195232512
I0627 22:17:03.850091 19267 layer_factory.hpp:77] Creating layer conv5_2/dw/scale
I0627 22:17:03.850108 19267 net.cpp:86] Creating Layer conv5_2/dw/scale
I0627 22:17:03.850113 19267 net.cpp:408] conv5_2/dw/scale <- conv5_2/dw
I0627 22:17:03.850123 19267 net.cpp:369] conv5_2/dw/scale -> conv5_2/dw (in-place)
I0627 22:17:03.850172 19267 layer_factory.hpp:77] Creating layer conv5_2/dw/scale
I0627 22:17:03.850292 19267 net.cpp:124] Setting up conv5_2/dw/scale
I0627 22:17:03.850303 19267 net.cpp:131] Top shape: 64 512 3 3 (294912)
I0627 22:17:03.850307 19267 net.cpp:139] Memory required for data: 196412160
I0627 22:17:03.850314 19267 layer_factory.hpp:77] Creating layer relu5_2/dw
I0627 22:17:03.850322 19267 net.cpp:86] Creating Layer relu5_2/dw
I0627 22:17:03.850327 19267 net.cpp:408] relu5_2/dw <- conv5_2/dw
I0627 22:17:03.850332 19267 net.cpp:369] relu5_2/dw -> conv5_2/dw (in-place)
I0627 22:17:03.851172 19267 net.cpp:124] Setting up relu5_2/dw
I0627 22:17:03.851186 19267 net.cpp:131] Top shape: 64 512 3 3 (294912)
I0627 22:17:03.851191 19267 net.cpp:139] Memory required for data: 197591808
I0627 22:17:03.851195 19267 layer_factory.hpp:77] Creating layer conv5_2/sep
I0627 22:17:03.851204 19267 net.cpp:86] Creating Layer conv5_2/sep
I0627 22:17:03.851208 19267 net.cpp:408] conv5_2/sep <- conv5_2/dw
I0627 22:17:03.851219 19267 net.cpp:382] conv5_2/sep -> conv5_2/sep
I0627 22:17:03.856922 19267 net.cpp:124] Setting up conv5_2/sep
I0627 22:17:03.856945 19267 net.cpp:131] Top shape: 64 512 3 3 (294912)
I0627 22:17:03.856957 19267 net.cpp:139] Memory required for data: 198771456
I0627 22:17:03.856966 19267 layer_factory.hpp:77] Creating layer conv5_2/sep/bn
I0627 22:17:03.856979 19267 net.cpp:86] Creating Layer conv5_2/sep/bn
I0627 22:17:03.857010 19267 net.cpp:408] conv5_2/sep/bn <- conv5_2/sep
I0627 22:17:03.857030 19267 net.cpp:369] conv5_2/sep/bn -> conv5_2/sep (in-place)
I0627 22:17:03.857256 19267 net.cpp:124] Setting up conv5_2/sep/bn
I0627 22:17:03.857266 19267 net.cpp:131] Top shape: 64 512 3 3 (294912)
I0627 22:17:03.857271 19267 net.cpp:139] Memory required for data: 199951104
I0627 22:17:03.857288 19267 layer_factory.hpp:77] Creating layer conv5_2/sep/scale
I0627 22:17:03.857298 19267 net.cpp:86] Creating Layer conv5_2/sep/scale
I0627 22:17:03.857306 19267 net.cpp:408] conv5_2/sep/scale <- conv5_2/sep
I0627 22:17:03.857317 19267 net.cpp:369] conv5_2/sep/scale -> conv5_2/sep (in-place)
I0627 22:17:03.857372 19267 layer_factory.hpp:77] Creating layer conv5_2/sep/scale
I0627 22:17:03.857515 19267 net.cpp:124] Setting up conv5_2/sep/scale
I0627 22:17:03.857525 19267 net.cpp:131] Top shape: 64 512 3 3 (294912)
I0627 22:17:03.857529 19267 net.cpp:139] Memory required for data: 201130752
I0627 22:17:03.857544 19267 layer_factory.hpp:77] Creating layer relu5_2/sep
I0627 22:17:03.857553 19267 net.cpp:86] Creating Layer relu5_2/sep
I0627 22:17:03.857558 19267 net.cpp:408] relu5_2/sep <- conv5_2/sep
I0627 22:17:03.857568 19267 net.cpp:369] relu5_2/sep -> conv5_2/sep (in-place)
I0627 22:17:03.858126 19267 net.cpp:124] Setting up relu5_2/sep
I0627 22:17:03.858139 19267 net.cpp:131] Top shape: 64 512 3 3 (294912)
I0627 22:17:03.858144 19267 net.cpp:139] Memory required for data: 202310400
I0627 22:17:03.858155 19267 layer_factory.hpp:77] Creating layer conv5_3/dw
I0627 22:17:03.858167 19267 net.cpp:86] Creating Layer conv5_3/dw
I0627 22:17:03.858173 19267 net.cpp:408] conv5_3/dw <- conv5_2/sep
I0627 22:17:03.858186 19267 net.cpp:382] conv5_3/dw -> conv5_3/dw
I0627 22:17:03.858441 19267 net.cpp:124] Setting up conv5_3/dw
I0627 22:17:03.858451 19267 net.cpp:131] Top shape: 64 512 3 3 (294912)
I0627 22:17:03.858456 19267 net.cpp:139] Memory required for data: 203490048
I0627 22:17:03.858470 19267 layer_factory.hpp:77] Creating layer conv5_3/dw/bn
I0627 22:17:03.858476 19267 net.cpp:86] Creating Layer conv5_3/dw/bn
I0627 22:17:03.858481 19267 net.cpp:408] conv5_3/dw/bn <- conv5_3/dw
I0627 22:17:03.858492 19267 net.cpp:369] conv5_3/dw/bn -> conv5_3/dw (in-place)
I0627 22:17:03.858691 19267 net.cpp:124] Setting up conv5_3/dw/bn
I0627 22:17:03.858701 19267 net.cpp:131] Top shape: 64 512 3 3 (294912)
I0627 22:17:03.858705 19267 net.cpp:139] Memory required for data: 204669696
I0627 22:17:03.858721 19267 layer_factory.hpp:77] Creating layer conv5_3/dw/scale
I0627 22:17:03.858729 19267 net.cpp:86] Creating Layer conv5_3/dw/scale
I0627 22:17:03.858733 19267 net.cpp:408] conv5_3/dw/scale <- conv5_3/dw
I0627 22:17:03.858745 19267 net.cpp:369] conv5_3/dw/scale -> conv5_3/dw (in-place)
I0627 22:17:03.858796 19267 layer_factory.hpp:77] Creating layer conv5_3/dw/scale
I0627 22:17:03.858937 19267 net.cpp:124] Setting up conv5_3/dw/scale
I0627 22:17:03.858945 19267 net.cpp:131] Top shape: 64 512 3 3 (294912)
I0627 22:17:03.858958 19267 net.cpp:139] Memory required for data: 205849344
I0627 22:17:03.858969 19267 layer_factory.hpp:77] Creating layer relu5_3/dw
I0627 22:17:03.858979 19267 net.cpp:86] Creating Layer relu5_3/dw
I0627 22:17:03.859000 19267 net.cpp:408] relu5_3/dw <- conv5_3/dw
I0627 22:17:03.859009 19267 net.cpp:369] relu5_3/dw -> conv5_3/dw (in-place)
I0627 22:17:03.859863 19267 net.cpp:124] Setting up relu5_3/dw
I0627 22:17:03.859874 19267 net.cpp:131] Top shape: 64 512 3 3 (294912)
I0627 22:17:03.859879 19267 net.cpp:139] Memory required for data: 207028992
I0627 22:17:03.859884 19267 layer_factory.hpp:77] Creating layer conv5_3/sep
I0627 22:17:03.859894 19267 net.cpp:86] Creating Layer conv5_3/sep
I0627 22:17:03.859905 19267 net.cpp:408] conv5_3/sep <- conv5_3/dw
I0627 22:17:03.859920 19267 net.cpp:382] conv5_3/sep -> conv5_3/sep
I0627 22:17:03.864825 19267 net.cpp:124] Setting up conv5_3/sep
I0627 22:17:03.864847 19267 net.cpp:131] Top shape: 64 512 3 3 (294912)
I0627 22:17:03.864854 19267 net.cpp:139] Memory required for data: 208208640
I0627 22:17:03.864887 19267 layer_factory.hpp:77] Creating layer conv5_3/sep/bn
I0627 22:17:03.864904 19267 net.cpp:86] Creating Layer conv5_3/sep/bn
I0627 22:17:03.864912 19267 net.cpp:408] conv5_3/sep/bn <- conv5_3/sep
I0627 22:17:03.864928 19267 net.cpp:369] conv5_3/sep/bn -> conv5_3/sep (in-place)
I0627 22:17:03.865131 19267 net.cpp:124] Setting up conv5_3/sep/bn
I0627 22:17:03.865141 19267 net.cpp:131] Top shape: 64 512 3 3 (294912)
I0627 22:17:03.865146 19267 net.cpp:139] Memory required for data: 209388288
I0627 22:17:03.865161 19267 layer_factory.hpp:77] Creating layer conv5_3/sep/scale
I0627 22:17:03.865175 19267 net.cpp:86] Creating Layer conv5_3/sep/scale
I0627 22:17:03.865181 19267 net.cpp:408] conv5_3/sep/scale <- conv5_3/sep
I0627 22:17:03.865200 19267 net.cpp:369] conv5_3/sep/scale -> conv5_3/sep (in-place)
I0627 22:17:03.865249 19267 layer_factory.hpp:77] Creating layer conv5_3/sep/scale
I0627 22:17:03.865419 19267 net.cpp:124] Setting up conv5_3/sep/scale
I0627 22:17:03.865432 19267 net.cpp:131] Top shape: 64 512 3 3 (294912)
I0627 22:17:03.865439 19267 net.cpp:139] Memory required for data: 210567936
I0627 22:17:03.865453 19267 layer_factory.hpp:77] Creating layer relu5_3/sep
I0627 22:17:03.865468 19267 net.cpp:86] Creating Layer relu5_3/sep
I0627 22:17:03.865478 19267 net.cpp:408] relu5_3/sep <- conv5_3/sep
I0627 22:17:03.865485 19267 net.cpp:369] relu5_3/sep -> conv5_3/sep (in-place)
I0627 22:17:03.866060 19267 net.cpp:124] Setting up relu5_3/sep
I0627 22:17:03.866072 19267 net.cpp:131] Top shape: 64 512 3 3 (294912)
I0627 22:17:03.866076 19267 net.cpp:139] Memory required for data: 211747584
I0627 22:17:03.866080 19267 layer_factory.hpp:77] Creating layer conv5_4/dw
I0627 22:17:03.866093 19267 net.cpp:86] Creating Layer conv5_4/dw
I0627 22:17:03.866099 19267 net.cpp:408] conv5_4/dw <- conv5_3/sep
I0627 22:17:03.866108 19267 net.cpp:382] conv5_4/dw -> conv5_4/dw
I0627 22:17:03.866359 19267 net.cpp:124] Setting up conv5_4/dw
I0627 22:17:03.866369 19267 net.cpp:131] Top shape: 64 512 3 3 (294912)
I0627 22:17:03.866375 19267 net.cpp:139] Memory required for data: 212927232
I0627 22:17:03.866381 19267 layer_factory.hpp:77] Creating layer conv5_4/dw/bn
I0627 22:17:03.866387 19267 net.cpp:86] Creating Layer conv5_4/dw/bn
I0627 22:17:03.866394 19267 net.cpp:408] conv5_4/dw/bn <- conv5_4/dw
I0627 22:17:03.866401 19267 net.cpp:369] conv5_4/dw/bn -> conv5_4/dw (in-place)
I0627 22:17:03.866585 19267 net.cpp:124] Setting up conv5_4/dw/bn
I0627 22:17:03.866595 19267 net.cpp:131] Top shape: 64 512 3 3 (294912)
I0627 22:17:03.866598 19267 net.cpp:139] Memory required for data: 214106880
I0627 22:17:03.866606 19267 layer_factory.hpp:77] Creating layer conv5_4/dw/scale
I0627 22:17:03.866614 19267 net.cpp:86] Creating Layer conv5_4/dw/scale
I0627 22:17:03.866618 19267 net.cpp:408] conv5_4/dw/scale <- conv5_4/dw
I0627 22:17:03.866626 19267 net.cpp:369] conv5_4/dw/scale -> conv5_4/dw (in-place)
I0627 22:17:03.866663 19267 layer_factory.hpp:77] Creating layer conv5_4/dw/scale
I0627 22:17:03.866781 19267 net.cpp:124] Setting up conv5_4/dw/scale
I0627 22:17:03.866791 19267 net.cpp:131] Top shape: 64 512 3 3 (294912)
I0627 22:17:03.866794 19267 net.cpp:139] Memory required for data: 215286528
I0627 22:17:03.866801 19267 layer_factory.hpp:77] Creating layer relu5_4/dw
I0627 22:17:03.866807 19267 net.cpp:86] Creating Layer relu5_4/dw
I0627 22:17:03.866812 19267 net.cpp:408] relu5_4/dw <- conv5_4/dw
I0627 22:17:03.866817 19267 net.cpp:369] relu5_4/dw -> conv5_4/dw (in-place)
I0627 22:17:03.867751 19267 net.cpp:124] Setting up relu5_4/dw
I0627 22:17:03.867765 19267 net.cpp:131] Top shape: 64 512 3 3 (294912)
I0627 22:17:03.867769 19267 net.cpp:139] Memory required for data: 216466176
I0627 22:17:03.867774 19267 layer_factory.hpp:77] Creating layer conv5_4/sep
I0627 22:17:03.867785 19267 net.cpp:86] Creating Layer conv5_4/sep
I0627 22:17:03.867791 19267 net.cpp:408] conv5_4/sep <- conv5_4/dw
I0627 22:17:03.867800 19267 net.cpp:382] conv5_4/sep -> conv5_4/sep
I0627 22:17:03.874397 19267 net.cpp:124] Setting up conv5_4/sep
I0627 22:17:03.874441 19267 net.cpp:131] Top shape: 64 512 3 3 (294912)
I0627 22:17:03.874455 19267 net.cpp:139] Memory required for data: 217645824
I0627 22:17:03.874465 19267 layer_factory.hpp:77] Creating layer conv5_4/sep/bn
I0627 22:17:03.874477 19267 net.cpp:86] Creating Layer conv5_4/sep/bn
I0627 22:17:03.874483 19267 net.cpp:408] conv5_4/sep/bn <- conv5_4/sep
I0627 22:17:03.874493 19267 net.cpp:369] conv5_4/sep/bn -> conv5_4/sep (in-place)
I0627 22:17:03.874704 19267 net.cpp:124] Setting up conv5_4/sep/bn
I0627 22:17:03.874714 19267 net.cpp:131] Top shape: 64 512 3 3 (294912)
I0627 22:17:03.874718 19267 net.cpp:139] Memory required for data: 218825472
I0627 22:17:03.874734 19267 layer_factory.hpp:77] Creating layer conv5_4/sep/scale
I0627 22:17:03.874743 19267 net.cpp:86] Creating Layer conv5_4/sep/scale
I0627 22:17:03.874748 19267 net.cpp:408] conv5_4/sep/scale <- conv5_4/sep
I0627 22:17:03.874755 19267 net.cpp:369] conv5_4/sep/scale -> conv5_4/sep (in-place)
I0627 22:17:03.874804 19267 layer_factory.hpp:77] Creating layer conv5_4/sep/scale
I0627 22:17:03.874938 19267 net.cpp:124] Setting up conv5_4/sep/scale
I0627 22:17:03.874948 19267 net.cpp:131] Top shape: 64 512 3 3 (294912)
I0627 22:17:03.874951 19267 net.cpp:139] Memory required for data: 220005120
I0627 22:17:03.874966 19267 layer_factory.hpp:77] Creating layer relu5_4/sep
I0627 22:17:03.874974 19267 net.cpp:86] Creating Layer relu5_4/sep
I0627 22:17:03.874977 19267 net.cpp:408] relu5_4/sep <- conv5_4/sep
I0627 22:17:03.874985 19267 net.cpp:369] relu5_4/sep -> conv5_4/sep (in-place)
I0627 22:17:03.875504 19267 net.cpp:124] Setting up relu5_4/sep
I0627 22:17:03.875514 19267 net.cpp:131] Top shape: 64 512 3 3 (294912)
I0627 22:17:03.875519 19267 net.cpp:139] Memory required for data: 221184768
I0627 22:17:03.875522 19267 layer_factory.hpp:77] Creating layer conv5_5/dw
I0627 22:17:03.875532 19267 net.cpp:86] Creating Layer conv5_5/dw
I0627 22:17:03.875537 19267 net.cpp:408] conv5_5/dw <- conv5_4/sep
I0627 22:17:03.875545 19267 net.cpp:382] conv5_5/dw -> conv5_5/dw
I0627 22:17:03.875819 19267 net.cpp:124] Setting up conv5_5/dw
I0627 22:17:03.875829 19267 net.cpp:131] Top shape: 64 512 3 3 (294912)
I0627 22:17:03.875833 19267 net.cpp:139] Memory required for data: 222364416
I0627 22:17:03.875839 19267 layer_factory.hpp:77] Creating layer conv5_5/dw/bn
I0627 22:17:03.875846 19267 net.cpp:86] Creating Layer conv5_5/dw/bn
I0627 22:17:03.875851 19267 net.cpp:408] conv5_5/dw/bn <- conv5_5/dw
I0627 22:17:03.875867 19267 net.cpp:369] conv5_5/dw/bn -> conv5_5/dw (in-place)
I0627 22:17:03.876057 19267 net.cpp:124] Setting up conv5_5/dw/bn
I0627 22:17:03.876067 19267 net.cpp:131] Top shape: 64 512 3 3 (294912)
I0627 22:17:03.876071 19267 net.cpp:139] Memory required for data: 223544064
I0627 22:17:03.876091 19267 layer_factory.hpp:77] Creating layer conv5_5/dw/scale
I0627 22:17:03.876111 19267 net.cpp:86] Creating Layer conv5_5/dw/scale
I0627 22:17:03.876117 19267 net.cpp:408] conv5_5/dw/scale <- conv5_5/dw
I0627 22:17:03.876123 19267 net.cpp:369] conv5_5/dw/scale -> conv5_5/dw (in-place)
I0627 22:17:03.876164 19267 layer_factory.hpp:77] Creating layer conv5_5/dw/scale
I0627 22:17:03.876278 19267 net.cpp:124] Setting up conv5_5/dw/scale
I0627 22:17:03.876288 19267 net.cpp:131] Top shape: 64 512 3 3 (294912)
I0627 22:17:03.876292 19267 net.cpp:139] Memory required for data: 224723712
I0627 22:17:03.876298 19267 layer_factory.hpp:77] Creating layer relu5_5/dw
I0627 22:17:03.876307 19267 net.cpp:86] Creating Layer relu5_5/dw
I0627 22:17:03.876313 19267 net.cpp:408] relu5_5/dw <- conv5_5/dw
I0627 22:17:03.876318 19267 net.cpp:369] relu5_5/dw -> conv5_5/dw (in-place)
I0627 22:17:03.877167 19267 net.cpp:124] Setting up relu5_5/dw
I0627 22:17:03.877182 19267 net.cpp:131] Top shape: 64 512 3 3 (294912)
I0627 22:17:03.877193 19267 net.cpp:139] Memory required for data: 225903360
I0627 22:17:03.877198 19267 layer_factory.hpp:77] Creating layer conv5_5/sep
I0627 22:17:03.877209 19267 net.cpp:86] Creating Layer conv5_5/sep
I0627 22:17:03.877215 19267 net.cpp:408] conv5_5/sep <- conv5_5/dw
I0627 22:17:03.877233 19267 net.cpp:382] conv5_5/sep -> conv5_5/sep
I0627 22:17:03.882089 19267 net.cpp:124] Setting up conv5_5/sep
I0627 22:17:03.882109 19267 net.cpp:131] Top shape: 64 512 3 3 (294912)
I0627 22:17:03.882122 19267 net.cpp:139] Memory required for data: 227083008
I0627 22:17:03.882129 19267 layer_factory.hpp:77] Creating layer conv5_5/sep/bn
I0627 22:17:03.882140 19267 net.cpp:86] Creating Layer conv5_5/sep/bn
I0627 22:17:03.882146 19267 net.cpp:408] conv5_5/sep/bn <- conv5_5/sep
I0627 22:17:03.882153 19267 net.cpp:369] conv5_5/sep/bn -> conv5_5/sep (in-place)
I0627 22:17:03.882349 19267 net.cpp:124] Setting up conv5_5/sep/bn
I0627 22:17:03.882359 19267 net.cpp:131] Top shape: 64 512 3 3 (294912)
I0627 22:17:03.882364 19267 net.cpp:139] Memory required for data: 228262656
I0627 22:17:03.882371 19267 layer_factory.hpp:77] Creating layer conv5_5/sep/scale
I0627 22:17:03.882383 19267 net.cpp:86] Creating Layer conv5_5/sep/scale
I0627 22:17:03.882388 19267 net.cpp:408] conv5_5/sep/scale <- conv5_5/sep
I0627 22:17:03.882397 19267 net.cpp:369] conv5_5/sep/scale -> conv5_5/sep (in-place)
I0627 22:17:03.882450 19267 layer_factory.hpp:77] Creating layer conv5_5/sep/scale
I0627 22:17:03.882571 19267 net.cpp:124] Setting up conv5_5/sep/scale
I0627 22:17:03.882581 19267 net.cpp:131] Top shape: 64 512 3 3 (294912)
I0627 22:17:03.882587 19267 net.cpp:139] Memory required for data: 229442304
I0627 22:17:03.882594 19267 layer_factory.hpp:77] Creating layer relu5_5/sep
I0627 22:17:03.882601 19267 net.cpp:86] Creating Layer relu5_5/sep
I0627 22:17:03.882606 19267 net.cpp:408] relu5_5/sep <- conv5_5/sep
I0627 22:17:03.882616 19267 net.cpp:369] relu5_5/sep -> conv5_5/sep (in-place)
I0627 22:17:03.883471 19267 net.cpp:124] Setting up relu5_5/sep
I0627 22:17:03.883484 19267 net.cpp:131] Top shape: 64 512 3 3 (294912)
I0627 22:17:03.883491 19267 net.cpp:139] Memory required for data: 230621952
I0627 22:17:03.883494 19267 layer_factory.hpp:77] Creating layer pool6
I0627 22:17:03.883502 19267 net.cpp:86] Creating Layer pool6
I0627 22:17:03.883507 19267 net.cpp:408] pool6 <- conv5_5/sep
I0627 22:17:03.883517 19267 net.cpp:382] pool6 -> pool6
I0627 22:17:03.885164 19267 net.cpp:124] Setting up pool6
I0627 22:17:03.885177 19267 net.cpp:131] Top shape: 64 512 1 1 (32768)
I0627 22:17:03.885188 19267 net.cpp:139] Memory required for data: 230753024
I0627 22:17:03.885195 19267 layer_factory.hpp:77] Creating layer fc7-mouth
I0627 22:17:03.885206 19267 net.cpp:86] Creating Layer fc7-mouth
I0627 22:17:03.885212 19267 net.cpp:408] fc7-mouth <- pool6
I0627 22:17:03.885219 19267 net.cpp:382] fc7-mouth -> fc7-mouth
I0627 22:17:03.887694 19267 net.cpp:124] Setting up fc7-mouth
I0627 22:17:03.887715 19267 net.cpp:131] Top shape: 64 4 1 1 (256)
I0627 22:17:03.887720 19267 net.cpp:139] Memory required for data: 230754048
I0627 22:17:03.887729 19267 layer_factory.hpp:77] Creating layer fc7-mouth_fc7-mouth_0_split
I0627 22:17:03.887737 19267 net.cpp:86] Creating Layer fc7-mouth_fc7-mouth_0_split
I0627 22:17:03.887743 19267 net.cpp:408] fc7-mouth_fc7-mouth_0_split <- fc7-mouth
I0627 22:17:03.887751 19267 net.cpp:382] fc7-mouth_fc7-mouth_0_split -> fc7-mouth_fc7-mouth_0_split_0
I0627 22:17:03.887760 19267 net.cpp:382] fc7-mouth_fc7-mouth_0_split -> fc7-mouth_fc7-mouth_0_split_1
I0627 22:17:03.887812 19267 net.cpp:124] Setting up fc7-mouth_fc7-mouth_0_split
I0627 22:17:03.887821 19267 net.cpp:131] Top shape: 64 4 1 1 (256)
I0627 22:17:03.887826 19267 net.cpp:131] Top shape: 64 4 1 1 (256)
I0627 22:17:03.887838 19267 net.cpp:139] Memory required for data: 230756096
I0627 22:17:03.887842 19267 layer_factory.hpp:77] Creating layer loss
I0627 22:17:03.887850 19267 net.cpp:86] Creating Layer loss
I0627 22:17:03.887853 19267 net.cpp:408] loss <- fc7-mouth_fc7-mouth_0_split_0
I0627 22:17:03.887859 19267 net.cpp:408] loss <- clc-label_data_1_split_0
I0627 22:17:03.887868 19267 net.cpp:382] loss -> loss
…
