…
I0629 21:11:48.387477  5231 net.cpp:296] The NetState phase (0) differed from the phase (1) specified by a rule in layer data
I0629 21:11:48.388144  5231 net.cpp:53] Initializing net from parameters: 
name: "mouth"
state {
  phase: TRAIN
  level: 0
  stage: ""
}
layer {
  name: "data"
  type: "ImageData"
  top: "data"
  top: "clc-label"
  include {
    phase: TRAIN
  }
  transform_param {
    mirror: true
    crop_size: 96
    mean_value: 104.008
    mean_value: 116.669
    mean_value: 122.675
    min_side_min: 96
    min_side_max: 128
  }
  image_data_param {
    source: "all_shuffle_train.txt"
    batch_size: 64
    shuffle: true
  }
}
layer {
  name: "conv1"
  type: "Convolution"
  bottom: "data"
  top: "conv1"
  param {
    lr_mult: 1
    decay_mult: 1
  }
  convolution_param {
    num_output: 32
    bias_term: false
    pad: 1
    kernel_size: 3
    stride: 2
    weight_filler {
      type: "msra"
    }
  }
}
layer {
  name: "conv1/bn"
  type: "BatchNorm"
  bottom: "conv1"
  top: "conv1"
  param {
    lr_mult: 0
    decay_mult: 0
  }
  param {
    lr_mult: 0
    decay_mult: 0
  }
  param {
    lr_mult: 0
    decay_mult: 0
  }
  batch_norm_param {
    use_global_stats: false
    eps: 1e-05
  }
}
layer {
  name: "conv1/scale"
  type: "Scale"
  bottom: "conv1"
  top: "conv1"
  param {
    lr_mult: 1
    decay_mult: 0
  }
  param {
    lr_mult: 1
    decay_mult: 0
  }
  scale_param {
    filler {
      value: 1
    }
    bias_term: true
    bias_filler {
      value: 0
    }
  }
}
layer {
  name: "relu1"
  type: "ReLU"
  bottom: "conv1"
  top: "conv1"
}
layer {
  name: "conv2_1/dw"
  type: "Convolution"
  bottom: "conv1"
  top: "conv2_1/dw"
  param {
    lr_mult: 1
    decay_mult: 1
  }
  convolution_param {
    num_output: 32
    bias_term: false
    pad: 1
    kernel_size: 3
    group: 32
    stride: 1
    weight_filler {
      type: "msra"
    }
    engine: CAFFE
  }
}
layer {
  name: "conv2_1/dw/bn"
  type: "BatchNorm"
  bottom: "conv2_1/dw"
  top: "conv2_1/dw"
  param {
    lr_mult: 0
    decay_mult: 0
  }
  param {
    lr_mult: 0
    decay_mult: 0
  }
  param {
    lr_mult: 0
    decay_mult: 0
  }
  batch_norm_param {
    use_global_stats: false
    eps: 1e-05
  }
}
layer {
  name: "conv2_1/dw/scale"
  type: "Scale"
  bottom: "conv2_1/dw"
  top: "conv2_1/dw"
  param {
    lr_mult: 1
    decay_mult: 0
  }
  param {
    lr_mult: 1
    decay_mult: 0
  }
  scale_param {
    filler {
      value: 1
    }
    bias_term: true
    bias_filler {
      value: 0
    }
  }
}
layer {
  name: "relu2_1/dw"
  type: "ReLU"
  bottom: "conv2_1/dw"
  top: "conv2_1/dw"
}
layer {
  name: "conv2_1/sep"
  type: "Convolution"
  bottom: "conv2_1/dw"
  top: "conv2_1/sep"
  param {
    lr_mult: 1
    decay_mult: 1
  }
  convolution_param {
    num_output: 64
    bias_term: false
    pad: 0
    kernel_size: 1
    stride: 1
    weight_filler {
      type: "msra"
    }
  }
}
layer {
  name: "conv2_1/sep/bn"
  type: "BatchNorm"
  bottom: "conv2_1/sep"
  top: "conv2_1/sep"
  param {
    lr_mult: 0
    decay_mult: 0
  }
  param {
    lr_mult: 0
    decay_mult: 0
  }
  param {
    lr_mult: 0
    decay_mult: 0
  }
  batch_norm_param {
    use_global_stats: false
    eps: 1e-05
  }
}
layer {
  name: "conv2_1/sep/scale"
  type: "Scale"
  bottom: "conv2_1/sep"
  top: "conv2_1/sep"
  param {
    lr_mult: 1
    decay_mult: 0
  }
  param {
    lr_mult: 1
    decay_mult: 0
  }
  scale_param {
    filler {
      value: 1
    }
    bias_term: true
    bias_filler {
      value: 0
    }
  }
}
layer {
  name: "relu2_1/sep"
  type: "ReLU"
  bottom: "conv2_1/sep"
  top: "conv2_1/sep"
}
layer {
  name: "conv2_2/dw"
  type: "Convolution"
  bottom: "conv2_1/sep"
  top: "conv2_2/dw"
  param {
    lr_mult: 1
    decay_mult: 1
  }
  convolution_param {
    num_output: 64
    bias_term: false
    pad: 1
    kernel_size: 3
    group: 64
    stride: 2
    weight_filler {
      type: "msra"
    }
    engine: CAFFE
  }
}
layer {
  name: "conv2_2/dw/bn"
  type: "BatchNorm"
  bottom: "conv2_2/dw"
  top: "conv2_2/dw"
  param {
    lr_mult: 0
    decay_mult: 0
  }
  param {
    lr_mult: 0
    decay_mult: 0
  }
  param {
    lr_mult: 0
    decay_mult: 0
  }
  batch_norm_param {
    use_global_stats: false
    eps: 1e-05
  }
}
layer {
  name: "conv2_2/dw/scale"
  type: "Scale"
  bottom: "conv2_2/dw"
  top: "conv2_2/dw"
  param {
    lr_mult: 1
    decay_mult: 0
  }
  param {
    lr_mult: 1
    decay_mult: 0
  }
  scale_param {
    filler {
      value: 1
    }
    bias_term: true
    bias_filler {
      value: 0
    }
  }
}
layer {
  name: "relu2_2/dw"
  type: "ReLU"
  bottom: "conv2_2/dw"
  top: "conv2_2/dw"
}
layer {
  name: "conv2_2/sep"
  type: "Convolution"
  bottom: "conv2_2/dw"
  top: "conv2_2/sep"
  param {
    lr_mult: 1
    decay_mult: 1
  }
  convolution_param {
    num_output: 128
    bias_term: false
    pad: 0
    kernel_size: 1
    stride: 1
    weight_filler {
      type: "msra"
    }
  }
}
layer {
  name: "conv2_2/sep/bn"
  type: "BatchNorm"
  bottom: "conv2_2/sep"
  top: "conv2_2/sep"
  param {
    lr_mult: 0
    decay_mult: 0
  }
  param {
    lr_mult: 0
    decay_mult: 0
  }
  param {
    lr_mult: 0
    decay_mult: 0
  }
  batch_norm_param {
    use_global_stats: false
    eps: 1e-05
  }
}
layer {
  name: "conv2_2/sep/scale"
  type: "Scale"
  bottom: "conv2_2/sep"
  top: "conv2_2/sep"
  param {
    lr_mult: 1
    decay_mult: 0
  }
  param {
    lr_mult: 1
    decay_mult: 0
  }
  scale_param {
    filler {
      value: 1
    }
    bias_term: true
    bias_filler {
      value: 0
    }
  }
}
layer {
  name: "relu2_2/sep"
  type: "ReLU"
  bottom: "conv2_2/sep"
  top: "conv2_2/sep"
}
layer {
  name: "conv3_1/dw"
  type: "Convolution"
  bottom: "conv2_2/sep"
  top: "conv3_1/dw"
  param {
    lr_mult: 1
    decay_mult: 1
  }
  convolution_param {
    num_output: 128
    bias_term: false
    pad: 1
    kernel_size: 3
    group: 128
    stride: 1
    weight_filler {
      type: "msra"
    }
    engine: CAFFE
  }
}
layer {
  name: "conv3_1/dw/bn"
  type: "BatchNorm"
  bottom: "conv3_1/dw"
  top: "conv3_1/dw"
  param {
    lr_mult: 0
    decay_mult: 0
  }
  param {
    lr_mult: 0
    decay_mult: 0
  }
  param {
    lr_mult: 0
    decay_mult: 0
  }
  batch_norm_param {
    use_global_stats: false
    eps: 1e-05
  }
}
layer {
  name: "conv3_1/dw/scale"
  type: "Scale"
  bottom: "conv3_1/dw"
  top: "conv3_1/dw"
  param {
    lr_mult: 1
    decay_mult: 0
  }
  param {
    lr_mult: 1
    decay_mult: 0
  }
  scale_param {
    filler {
      value: 1
    }
    bias_term: true
    bias_filler {
      value: 0
    }
  }
}
layer {
  name: "relu3_1/dw"
  type: "ReLU"
  bottom: "conv3_1/dw"
  top: "conv3_1/dw"
}
layer {
  name: "conv3_1/sep"
  type: "Convolution"
  bottom: "conv3_1/dw"
  top: "conv3_1/sep"
  param {
    lr_mult: 1
    decay_mult: 1
  }
  convolution_param {
    num_output: 128
    bias_term: false
    pad: 0
    kernel_size: 1
    stride: 1
    weight_filler {
      type: "msra"
    }
  }
}
layer {
  name: "conv3_1/sep/bn"
  type: "BatchNorm"
  bottom: "conv3_1/sep"
  top: "conv3_1/sep"
  param {
    lr_mult: 0
    decay_mult: 0
  }
  param {
    lr_mult: 0
    decay_mult: 0
  }
  param {
    lr_mult: 0
    decay_mult: 0
  }
  batch_norm_param {
    use_global_stats: false
    eps: 1e-05
  }
}
layer {
  name: "conv3_1/sep/scale"
  type: "Scale"
  bottom: "conv3_1/sep"
  top: "conv3_1/sep"
  param {
    lr_mult: 1
    decay_mult: 0
  }
  param {
    lr_mult: 1
    decay_mult: 0
  }
  scale_param {
    filler {
      value: 1
    }
    bias_term: true
    bias_filler {
      value: 0
    }
  }
}
layer {
  name: "relu3_1/sep"
  type: "ReLU"
  bottom: "conv3_1/sep"
  top: "conv3_1/sep"
}
layer {
  name: "conv3_2/dw"
  type: "Convolution"
  bottom: "conv3_1/sep"
  top: "conv3_2/dw"
  param {
    lr_mult: 1
    decay_mult: 1
  }
  convolution_param {
    num_output: 128
    bias_term: false
    pad: 1
    kernel_size: 3
    group: 128
    stride: 2
    weight_filler {
      type: "msra"
    }
    engine: CAFFE
  }
}
layer {
  name: "conv3_2/dw/bn"
  type: "BatchNorm"
  bottom: "conv3_2/dw"
  top: "conv3_2/dw"
  param {
    lr_mult: 0
    decay_mult: 0
  }
  param {
    lr_mult: 0
    decay_mult: 0
  }
  param {
    lr_mult: 0
    decay_mult: 0
  }
  batch_norm_param {
    use_global_stats: false
    eps: 1e-05
  }
}
layer {
  name: "conv3_2/dw/scale"
  type: "Scale"
  bottom: "conv3_2/dw"
  top: "conv3_2/dw"
  param {
    lr_mult: 1
    decay_mult: 0
  }
  param {
    lr_mult: 1
    decay_mult: 0
  }
  scale_param {
    filler {
      value: 1
    }
    bias_term: true
    bias_filler {
      value: 0
    }
  }
}
layer {
  name: "relu3_2/dw"
  type: "ReLU"
  bottom: "conv3_2/dw"
  top: "conv3_2/dw"
}
layer {
  name: "conv3_2/sep"
  type: "Convolution"
  bottom: "conv3_2/dw"
  top: "conv3_2/sep"
  param {
    lr_mult: 1
    decay_mult: 1
  }
  convolution_param {
    num_output: 256
    bias_term: false
    pad: 0
    kernel_size: 1
    stride: 1
    weight_filler {
      type: "msra"
    }
  }
}
layer {
  name: "conv3_2/sep/bn"
  type: "BatchNorm"
  bottom: "conv3_2/sep"
  top: "conv3_2/sep"
  param {
    lr_mult: 0
    decay_mult: 0
  }
  param {
    lr_mult: 0
    decay_mult: 0
  }
  param {
    lr_mult: 0
    decay_mult: 0
  }
  batch_norm_param {
    use_global_stats: false
    eps: 1e-05
  }
}
layer {
  name: "conv3_2/sep/scale"
  type: "Scale"
  bottom: "conv3_2/sep"
  top: "conv3_2/sep"
  param {
    lr_mult: 1
    decay_mult: 0
  }
  param {
    lr_mult: 1
    decay_mult: 0
  }
  scale_param {
    filler {
      value: 1
    }
    bias_term: true
    bias_filler {
      value: 0
    }
  }
}
layer {
  name: "relu3_2/sep"
  type: "ReLU"
  bottom: "conv3_2/sep"
  top: "conv3_2/sep"
}
layer {
  name: "conv4_1/dw"
  type: "Convolution"
  bottom: "conv3_2/sep"
  top: "conv4_1/dw"
  param {
    lr_mult: 1
    decay_mult: 1
  }
  convolution_param {
    num_output: 256
    bias_term: false
    pad: 1
    kernel_size: 3
    group: 256
    stride: 1
    weight_filler {
      type: "msra"
    }
    engine: CAFFE
  }
}
layer {
  name: "conv4_1/dw/bn"
  type: "BatchNorm"
  bottom: "conv4_1/dw"
  top: "conv4_1/dw"
  param {
    lr_mult: 0
    decay_mult: 0
  }
  param {
    lr_mult: 0
    decay_mult: 0
  }
  param {
    lr_mult: 0
    decay_mult: 0
  }
  batch_norm_param {
    use_global_stats: false
    eps: 1e-05
  }
}
layer {
  name: "conv4_1/dw/scale"
  type: "Scale"
  bottom: "conv4_1/dw"
  top: "conv4_1/dw"
  param {
    lr_mult: 1
    decay_mult: 0
  }
  param {
    lr_mult: 1
    decay_mult: 0
  }
  scale_param {
    filler {
      value: 1
    }
    bias_term: true
    bias_filler {
      value: 0
    }
  }
}
layer {
  name: "relu4_1/dw"
  type: "ReLU"
  bottom: "conv4_1/dw"
  top: "conv4_1/dw"
}
layer {
  name: "conv4_1/sep"
  type: "Convolution"
  bottom: "conv4_1/dw"
  top: "conv4_1/sep"
  param {
    lr_mult: 1
    decay_mult: 1
  }
  convolution_param {
    num_output: 256
    bias_term: false
    pad: 0
    kernel_size: 1
    stride: 1
    weight_filler {
      type: "msra"
    }
  }
}
layer {
  name: "conv4_1/sep/bn"
  type: "BatchNorm"
  bottom: "conv4_1/sep"
  top: "conv4_1/sep"
  param {
    lr_mult: 0
    decay_mult: 0
  }
  param {
    lr_mult: 0
    decay_mult: 0
  }
  param {
    lr_mult: 0
    decay_mult: 0
  }
  batch_norm_param {
    use_global_stats: false
    eps: 1e-05
  }
}
layer {
  name: "conv4_1/sep/scale"
  type: "Scale"
  bottom: "conv4_1/sep"
  top: "conv4_1/sep"
  param {
    lr_mult: 1
    decay_mult: 0
  }
  param {
    lr_mult: 1
    decay_mult: 0
  }
  scale_param {
    filler {
      value: 1
    }
    bias_term: true
    bias_filler {
      value: 0
    }
  }
}
layer {
  name: "relu4_1/sep"
  type: "ReLU"
  bottom: "conv4_1/sep"
  top: "conv4_1/sep"
}
layer {
  name: "conv4_2/dw"
  type: "Convolution"
  bottom: "conv4_1/sep"
  top: "conv4_2/dw"
  param {
    lr_mult: 1
    decay_mult: 1
  }
  convolution_param {
    num_output: 256
    bias_term: false
    pad: 1
    kernel_size: 3
    group: 256
    stride: 2
    weight_filler {
      type: "msra"
    }
    engine: CAFFE
  }
}
layer {
  name: "conv4_2/dw/bn"
  type: "BatchNorm"
  bottom: "conv4_2/dw"
  top: "conv4_2/dw"
  param {
    lr_mult: 0
    decay_mult: 0
  }
  param {
    lr_mult: 0
    decay_mult: 0
  }
  param {
    lr_mult: 0
    decay_mult: 0
  }
  batch_norm_param {
    use_global_stats: false
    eps: 1e-05
  }
}
layer {
  name: "conv4_2/dw/scale"
  type: "Scale"
  bottom: "conv4_2/dw"
  top: "conv4_2/dw"
  param {
    lr_mult: 1
    decay_mult: 0
  }
  param {
    lr_mult: 1
    decay_mult: 0
  }
  scale_param {
    filler {
      value: 1
    }
    bias_term: true
    bias_filler {
      value: 0
    }
  }
}
layer {
  name: "relu4_2/dw"
  type: "ReLU"
  bottom: "conv4_2/dw"
  top: "conv4_2/dw"
}
layer {
  name: "conv4_2/sep"
  type: "Convolution"
  bottom: "conv4_2/dw"
  top: "conv4_2/sep"
  param {
    lr_mult: 1
    decay_mult: 1
  }
  convolution_param {
    num_output: 512
    bias_term: false
    pad: 0
    kernel_size: 1
    stride: 1
    weight_filler {
      type: "msra"
    }
  }
}
layer {
  name: "conv4_2/sep/bn"
  type: "BatchNorm"
  bottom: "conv4_2/sep"
  top: "conv4_2/sep"
  param {
    lr_mult: 0
    decay_mult: 0
  }
  param {
    lr_mult: 0
    decay_mult: 0
  }
  param {
    lr_mult: 0
    decay_mult: 0
  }
  batch_norm_param {
    use_global_stats: false
    eps: 1e-05
  }
}
layer {
  name: "conv4_2/sep/scale"
  type: "Scale"
  bottom: "conv4_2/sep"
  top: "conv4_2/sep"
  param {
    lr_mult: 1
    decay_mult: 0
  }
  param {
    lr_mult: 1
    decay_mult: 0
  }
  scale_param {
    filler {
      value: 1
    }
    bias_term: true
    bias_filler {
      value: 0
    }
  }
}
layer {
  name: "relu4_2/sep"
  type: "ReLU"
  bottom: "conv4_2/sep"
  top: "conv4_2/sep"
}
layer {
  name: "conv5_1/dw"
  type: "Convolution"
  bottom: "conv4_2/sep"
  top: "conv5_1/dw"
  param {
    lr_mult: 1
    decay_mult: 1
  }
  convolution_param {
    num_output: 512
    bias_term: false
    pad: 1
    kernel_size: 3
    group: 512
    stride: 1
    weight_filler {
      type: "msra"
    }
    engine: CAFFE
  }
}
layer {
  name: "conv5_1/dw/bn"
  type: "BatchNorm"
  bottom: "conv5_1/dw"
  top: "conv5_1/dw"
  param {
    lr_mult: 0
    decay_mult: 0
  }
  param {
    lr_mult: 0
    decay_mult: 0
  }
  param {
    lr_mult: 0
    decay_mult: 0
  }
  batch_norm_param {
    use_global_stats: false
    eps: 1e-05
  }
}
layer {
  name: "conv5_1/dw/scale"
  type: "Scale"
  bottom: "conv5_1/dw"
  top: "conv5_1/dw"
  param {
    lr_mult: 1
    decay_mult: 0
  }
  param {
    lr_mult: 1
    decay_mult: 0
  }
  scale_param {
    filler {
      value: 1
    }
    bias_term: true
    bias_filler {
      value: 0
    }
  }
}
layer {
  name: "relu5_1/dw"
  type: "ReLU"
  bottom: "conv5_1/dw"
  top: "conv5_1/dw"
}
layer {
  name: "conv5_1/sep"
  type: "Convolution"
  bottom: "conv5_1/dw"
  top: "conv5_1/sep"
  param {
    lr_mult: 1
    decay_mult: 1
  }
  convolution_param {
    num_output: 512
    bias_term: false
    pad: 0
    kernel_size: 1
    stride: 1
    weight_filler {
      type: "msra"
    }
  }
}
layer {
  name: "conv5_1/sep/bn"
  type: "BatchNorm"
  bottom: "conv5_1/sep"
  top: "conv5_1/sep"
  param {
    lr_mult: 0
    decay_mult: 0
  }
  param {
    lr_mult: 0
    decay_mult: 0
  }
  param {
    lr_mult: 0
    decay_mult: 0
  }
  batch_norm_param {
    use_global_stats: false
    eps: 1e-05
  }
}
layer {
  name: "conv5_1/sep/scale"
  type: "Scale"
  bottom: "conv5_1/sep"
  top: "conv5_1/sep"
  param {
    lr_mult: 1
    decay_mult: 0
  }
  param {
    lr_mult: 1
    decay_mult: 0
  }
  scale_param {
    filler {
      value: 1
    }
    bias_term: true
    bias_filler {
      value: 0
    }
  }
}
layer {
  name: "relu5_1/sep"
  type: "ReLU"
  bottom: "conv5_1/sep"
  top: "conv5_1/sep"
}
layer {
  name: "conv5_2/dw"
  type: "Convolution"
  bottom: "conv5_1/sep"
  top: "conv5_2/dw"
  param {
    lr_mult: 1
    decay_mult: 1
  }
  convolution_param {
    num_output: 512
    bias_term: false
    pad: 1
    kernel_size: 3
    group: 512
    stride: 1
    weight_filler {
      type: "msra"
    }
    engine: CAFFE
  }
}
layer {
  name: "conv5_2/dw/bn"
  type: "BatchNorm"
  bottom: "conv5_2/dw"
  top: "conv5_2/dw"
  param {
    lr_mult: 0
    decay_mult: 0
  }
  param {
    lr_mult: 0
    decay_mult: 0
  }
  param {
    lr_mult: 0
    decay_mult: 0
  }
  batch_norm_param {
    use_global_stats: false
    eps: 1e-05
  }
}
layer {
  name: "conv5_2/dw/scale"
  type: "Scale"
  bottom: "conv5_2/dw"
  top: "conv5_2/dw"
  param {
    lr_mult: 1
    decay_mult: 0
  }
  param {
    lr_mult: 1
    decay_mult: 0
  }
  scale_param {
    filler {
      value: 1
    }
    bias_term: true
    bias_filler {
      value: 0
    }
  }
}
layer {
  name: "relu5_2/dw"
  type: "ReLU"
  bottom: "conv5_2/dw"
  top: "conv5_2/dw"
}
layer {
  name: "conv5_2/sep"
  type: "Convolution"
  bottom: "conv5_2/dw"
  top: "conv5_2/sep"
  param {
    lr_mult: 1
    decay_mult: 1
  }
  convolution_param {
    num_output: 512
    bias_term: false
    pad: 0
    kernel_size: 1
    stride: 1
    weight_filler {
      type: "msra"
    }
  }
}
layer {
  name: "conv5_2/sep/bn"
  type: "BatchNorm"
  bottom: "conv5_2/sep"
  top: "conv5_2/sep"
  param {
    lr_mult: 0
    decay_mult: 0
  }
  param {
    lr_mult: 0
    decay_mult: 0
  }
  param {
    lr_mult: 0
    decay_mult: 0
  }
  batch_norm_param {
    use_global_stats: false
    eps: 1e-05
  }
}
layer {
  name: "conv5_2/sep/scale"
  type: "Scale"
  bottom: "conv5_2/sep"
  top: "conv5_2/sep"
  param {
    lr_mult: 1
    decay_mult: 0
  }
  param {
    lr_mult: 1
    decay_mult: 0
  }
  scale_param {
    filler {
      value: 1
    }
    bias_term: true
    bias_filler {
      value: 0
    }
  }
}
layer {
  name: "relu5_2/sep"
  type: "ReLU"
  bottom: "conv5_2/sep"
  top: "conv5_2/sep"
}
layer {
  name: "conv5_3/dw"
  type: "Convolution"
  bottom: "conv5_2/sep"
  top: "conv5_3/dw"
  param {
    lr_mult: 1
    decay_mult: 1
  }
  convolution_param {
    num_output: 512
    bias_term: false
    pad: 1
    kernel_size: 3
    group: 512
    stride: 1
    weight_filler {
      type: "msra"
    }
    engine: CAFFE
  }
}
layer {
  name: "conv5_3/dw/bn"
  type: "BatchNorm"
  bottom: "conv5_3/dw"
  top: "conv5_3/dw"
  param {
    lr_mult: 0
    decay_mult: 0
  }
  param {
    lr_mult: 0
    decay_mult: 0
  }
  param {
    lr_mult: 0
    decay_mult: 0
  }
  batch_norm_param {
    use_global_stats: false
    eps: 1e-05
  }
}
layer {
  name: "conv5_3/dw/scale"
  type: "Scale"
  bottom: "conv5_3/dw"
  top: "conv5_3/dw"
  param {
    lr_mult: 1
    decay_mult: 0
  }
  param {
    lr_mult: 1
    decay_mult: 0
  }
  scale_param {
    filler {
      value: 1
    }
    bias_term: true
    bias_filler {
      value: 0
    }
  }
}
layer {
  name: "relu5_3/dw"
  type: "ReLU"
  bottom: "conv5_3/dw"
  top: "conv5_3/dw"
}
layer {
  name: "conv5_3/sep"
  type: "Convolution"
  bottom: "conv5_3/dw"
  top: "conv5_3/sep"
  param {
    lr_mult: 1
    decay_mult: 1
  }
  convolution_param {
    num_output: 512
    bias_term: false
    pad: 0
    kernel_size: 1
    stride: 1
    weight_filler {
      type: "msra"
    }
  }
}
layer {
  name: "conv5_3/sep/bn"
  type: "BatchNorm"
  bottom: "conv5_3/sep"
  top: "conv5_3/sep"
  param {
    lr_mult: 0
    decay_mult: 0
  }
  param {
    lr_mult: 0
    decay_mult: 0
  }
  param {
    lr_mult: 0
    decay_mult: 0
  }
  batch_norm_param {
    use_global_stats: false
    eps: 1e-05
  }
}
layer {
  name: "conv5_3/sep/scale"
  type: "Scale"
  bottom: "conv5_3/sep"
  top: "conv5_3/sep"
  param {
    lr_mult: 1
    decay_mult: 0
  }
  param {
    lr_mult: 1
    decay_mult: 0
  }
  scale_param {
    filler {
      value: 1
    }
    bias_term: true
    bias_filler {
      value: 0
    }
  }
}
layer {
  name: "relu5_3/sep"
  type: "ReLU"
  bottom: "conv5_3/sep"
  top: "conv5_3/sep"
}
layer {
  name: "conv5_4/dw"
  type: "Convolution"
  bottom: "conv5_3/sep"
  top: "conv5_4/dw"
  param {
    lr_mult: 1
    decay_mult: 1
  }
  convolution_param {
    num_output: 512
    bias_term: false
    pad: 1
    kernel_size: 3
    group: 512
    stride: 1
    weight_filler {
      type: "msra"
    }
    engine: CAFFE
  }
}
layer {
  name: "conv5_4/dw/bn"
  type: "BatchNorm"
  bottom: "conv5_4/dw"
  top: "conv5_4/dw"
  param {
    lr_mult: 0
    decay_mult: 0
  }
  param {
    lr_mult: 0
    decay_mult: 0
  }
  param {
    lr_mult: 0
    decay_mult: 0
  }
  batch_norm_param {
    use_global_stats: false
    eps: 1e-05
  }
}
layer {
  name: "conv5_4/dw/scale"
  type: "Scale"
  bottom: "conv5_4/dw"
  top: "conv5_4/dw"
  param {
    lr_mult: 1
    decay_mult: 0
  }
  param {
    lr_mult: 1
    decay_mult: 0
  }
  scale_param {
    filler {
      value: 1
    }
    bias_term: true
    bias_filler {
      value: 0
    }
  }
}
layer {
  name: "relu5_4/dw"
  type: "ReLU"
  bottom: "conv5_4/dw"
  top: "conv5_4/dw"
}
layer {
  name: "conv5_4/sep"
  type: "Convolution"
  bottom: "conv5_4/dw"
  top: "conv5_4/sep"
  param {
    lr_mult: 1
    decay_mult: 1
  }
  convolution_param {
    num_output: 512
    bias_term: false
    pad: 0
    kernel_size: 1
    stride: 1
    weight_filler {
      type: "msra"
    }
  }
}
layer {
  name: "conv5_4/sep/bn"
  type: "BatchNorm"
  bottom: "conv5_4/sep"
  top: "conv5_4/sep"
  param {
    lr_mult: 0
    decay_mult: 0
  }
  param {
    lr_mult: 0
    decay_mult: 0
  }
  param {
    lr_mult: 0
    decay_mult: 0
  }
  batch_norm_param {
    use_global_stats: false
    eps: 1e-05
  }
}
layer {
  name: "conv5_4/sep/scale"
  type: "Scale"
  bottom: "conv5_4/sep"
  top: "conv5_4/sep"
  param {
    lr_mult: 1
    decay_mult: 0
  }
  param {
    lr_mult: 1
    decay_mult: 0
  }
  scale_param {
    filler {
      value: 1
    }
    bias_term: true
    bias_filler {
      value: 0
    }
  }
}
layer {
  name: "relu5_4/sep"
  type: "ReLU"
  bottom: "conv5_4/sep"
  top: "conv5_4/sep"
}
layer {
  name: "conv5_5/dw"
  type: "Convolution"
  bottom: "conv5_4/sep"
  top: "conv5_5/dw"
  param {
    lr_mult: 1
    decay_mult: 1
  }
  convolution_param {
    num_output: 512
    bias_term: false
    pad: 1
    kernel_size: 3
    group: 512
    stride: 1
    weight_filler {
      type: "msra"
    }
    engine: CAFFE
  }
}
layer {
  name: "conv5_5/dw/bn"
  type: "BatchNorm"
  bottom: "conv5_5/dw"
  top: "conv5_5/dw"
  param {
    lr_mult: 0
    decay_mult: 0
  }
  param {
    lr_mult: 0
    decay_mult: 0
  }
  param {
    lr_mult: 0
    decay_mult: 0
  }
  batch_norm_param {
    use_global_stats: false
    eps: 1e-05
  }
}
layer {
  name: "conv5_5/dw/scale"
  type: "Scale"
  bottom: "conv5_5/dw"
  top: "conv5_5/dw"
  param {
    lr_mult: 1
    decay_mult: 0
  }
  param {
    lr_mult: 1
    decay_mult: 0
  }
  scale_param {
    filler {
      value: 1
    }
    bias_term: true
    bias_filler {
      value: 0
    }
  }
}
layer {
  name: "relu5_5/dw"
  type: "ReLU"
  bottom: "conv5_5/dw"
  top: "conv5_5/dw"
}
layer {
  name: "conv5_5/sep"
  type: "Convolution"
  bottom: "conv5_5/dw"
  top: "conv5_5/sep"
  param {
    lr_mult: 1
    decay_mult: 1
  }
  convolution_param {
    num_output: 512
    bias_term: false
    pad: 0
    kernel_size: 1
    stride: 1
    weight_filler {
      type: "msra"
    }
  }
}
layer {
  name: "conv5_5/sep/bn"
  type: "BatchNorm"
  bottom: "conv5_5/sep"
  top: "conv5_5/sep"
  param {
    lr_mult: 0
    decay_mult: 0
  }
  param {
    lr_mult: 0
    decay_mult: 0
  }
  param {
    lr_mult: 0
    decay_mult: 0
  }
  batch_norm_param {
    use_global_stats: false
    eps: 1e-05
  }
}
layer {
  name: "conv5_5/sep/scale"
  type: "Scale"
  bottom: "conv5_5/sep"
  top: "conv5_5/sep"
  param {
    lr_mult: 1
    decay_mult: 0
  }
  param {
    lr_mult: 1
    decay_mult: 0
  }
  scale_param {
    filler {
      value: 1
    }
    bias_term: true
    bias_filler {
      value: 0
    }
  }
}
layer {
  name: "relu5_5/sep"
  type: "ReLU"
  bottom: "conv5_5/sep"
  top: "conv5_5/sep"
}
layer {
  name: "pool6"
  type: "Pooling"
  bottom: "conv5_5/sep"
  top: "pool6"
  pooling_param {
    pool: AVE
    global_pooling: true
  }
}
layer {
  name: "fc7-mouth"
  type: "Convolution"
  bottom: "pool6"
  top: "fc7-mouth"
  param {
    lr_mult: 1
    decay_mult: 1
  }
  param {
    lr_mult: 2
    decay_mult: 0
  }
  convolution_param {
    num_output: 4
    kernel_size: 1
    weight_filler {
      type: "msra"
    }
    bias_filler {
      type: "constant"
      value: 0
    }
  }
}
layer {
  name: "loss"
  type: "SoftmaxWithLoss"
  bottom: "fc7-mouth"
  bottom: "clc-label"
  top: "loss"
}
layer {
  name: "acc"
  type: "Accuracy"
  bottom: "fc7-mouth"
  bottom: "clc-label"
  top: "acc"
  include {
    phase: TRAIN
  }
  include {
    phase: TEST
  }
}
I0629 21:11:48.388718  5231 layer_factory.hpp:77] Creating layer data
I0629 21:11:48.388763  5231 net.cpp:86] Creating Layer data
I0629 21:11:48.388774  5231 net.cpp:382] data -> data
I0629 21:11:48.388798  5231 net.cpp:382] data -> clc-label
I0629 21:11:48.388860  5231 image_data_layer.cpp:38] Opening file all_shuffle_train.txt
I0629 21:11:48.394604  5231 image_data_layer.cpp:53] Shuffling data
I0629 21:11:48.396342  5231 image_data_layer.cpp:63] A total of 13596 images.
I0629 21:11:48.405526  5231 image_data_layer.cpp:90] output data size: 64,3,96,96
I0629 21:11:48.428918  5231 net.cpp:124] Setting up data
I0629 21:11:48.428966  5231 net.cpp:131] Top shape: 64 3 96 96 (1769472)
I0629 21:11:48.428972  5231 net.cpp:131] Top shape: 64 (64)
I0629 21:11:48.428977  5231 net.cpp:139] Memory required for data: 7078144
I0629 21:11:48.428987  5231 layer_factory.hpp:77] Creating layer clc-label_data_1_split
I0629 21:11:48.429005  5231 net.cpp:86] Creating Layer clc-label_data_1_split
I0629 21:11:48.429018  5231 net.cpp:408] clc-label_data_1_split <- clc-label
I0629 21:11:48.429038  5231 net.cpp:382] clc-label_data_1_split -> clc-label_data_1_split_0
I0629 21:11:48.429054  5231 net.cpp:382] clc-label_data_1_split -> clc-label_data_1_split_1
I0629 21:11:48.429113  5231 net.cpp:124] Setting up clc-label_data_1_split
I0629 21:11:48.429123  5231 net.cpp:131] Top shape: 64 (64)
I0629 21:11:48.429133  5231 net.cpp:131] Top shape: 64 (64)
I0629 21:11:48.429141  5231 net.cpp:139] Memory required for data: 7078656
I0629 21:11:48.429147  5231 layer_factory.hpp:77] Creating layer conv1
I0629 21:11:48.429177  5231 net.cpp:86] Creating Layer conv1
I0629 21:11:48.429193  5231 net.cpp:408] conv1 <- data
I0629 21:11:48.429206  5231 net.cpp:382] conv1 -> conv1
I0629 21:11:53.840523  5231 net.cpp:124] Setting up conv1
I0629 21:11:53.849099  5231 net.cpp:131] Top shape: 64 32 48 48 (4718592)
I0629 21:11:53.849109  5231 net.cpp:139] Memory required for data: 25953024
I0629 21:11:53.856276  5231 layer_factory.hpp:77] Creating layer conv1/bn
I0629 21:11:53.858530  5231 net.cpp:86] Creating Layer conv1/bn
I0629 21:11:53.858539  5231 net.cpp:408] conv1/bn <- conv1
I0629 21:11:53.858549  5231 net.cpp:369] conv1/bn -> conv1 (in-place)
I0629 21:11:53.868865  5231 net.cpp:124] Setting up conv1/bn
I0629 21:11:53.868892  5231 net.cpp:131] Top shape: 64 32 48 48 (4718592)
I0629 21:11:53.868897  5231 net.cpp:139] Memory required for data: 44827392
I0629 21:11:53.868921  5231 layer_factory.hpp:77] Creating layer conv1/scale
I0629 21:11:53.871536  5231 net.cpp:86] Creating Layer conv1/scale
I0629 21:11:53.871546  5231 net.cpp:408] conv1/scale <- conv1
I0629 21:11:53.871554  5231 net.cpp:369] conv1/scale -> conv1 (in-place)
I0629 21:11:53.873440  5231 layer_factory.hpp:77] Creating layer conv1/scale
I0629 21:11:53.876530  5231 net.cpp:124] Setting up conv1/scale
I0629 21:11:53.876543  5231 net.cpp:131] Top shape: 64 32 48 48 (4718592)
I0629 21:11:53.876547  5231 net.cpp:139] Memory required for data: 63701760
I0629 21:11:53.876565  5231 layer_factory.hpp:77] Creating layer relu1
I0629 21:11:53.879509  5231 net.cpp:86] Creating Layer relu1
I0629 21:11:53.879516  5231 net.cpp:408] relu1 <- conv1
I0629 21:11:53.879523  5231 net.cpp:369] relu1 -> conv1 (in-place)
I0629 21:11:53.883924  5231 net.cpp:124] Setting up relu1
I0629 21:11:53.883944  5231 net.cpp:131] Top shape: 64 32 48 48 (4718592)
I0629 21:11:53.883947  5231 net.cpp:139] Memory required for data: 82576128
I0629 21:11:53.883952  5231 layer_factory.hpp:77] Creating layer conv2_1/dw
I0629 21:11:53.883970  5231 net.cpp:86] Creating Layer conv2_1/dw
I0629 21:11:53.883977  5231 net.cpp:408] conv2_1/dw <- conv1
I0629 21:11:53.883989  5231 net.cpp:382] conv2_1/dw -> conv2_1/dw
I0629 21:11:53.894727  5231 net.cpp:124] Setting up conv2_1/dw
I0629 21:11:53.894752  5231 net.cpp:131] Top shape: 64 32 48 48 (4718592)
I0629 21:11:53.894757  5231 net.cpp:139] Memory required for data: 101450496
I0629 21:11:53.894769  5231 layer_factory.hpp:77] Creating layer conv2_1/dw/bn
I0629 21:11:53.894785  5231 net.cpp:86] Creating Layer conv2_1/dw/bn
I0629 21:11:53.894793  5231 net.cpp:408] conv2_1/dw/bn <- conv2_1/dw
I0629 21:11:53.894807  5231 net.cpp:369] conv2_1/dw/bn -> conv2_1/dw (in-place)
I0629 21:11:53.894990  5231 net.cpp:124] Setting up conv2_1/dw/bn
I0629 21:11:53.895001  5231 net.cpp:131] Top shape: 64 32 48 48 (4718592)
I0629 21:11:53.895009  5231 net.cpp:139] Memory required for data: 120324864
I0629 21:11:53.895026  5231 layer_factory.hpp:77] Creating layer conv2_1/dw/scale
I0629 21:11:53.895042  5231 net.cpp:86] Creating Layer conv2_1/dw/scale
I0629 21:11:53.895048  5231 net.cpp:408] conv2_1/dw/scale <- conv2_1/dw
I0629 21:11:53.895058  5231 net.cpp:369] conv2_1/dw/scale -> conv2_1/dw (in-place)
I0629 21:11:53.895102  5231 layer_factory.hpp:77] Creating layer conv2_1/dw/scale
I0629 21:11:53.895211  5231 net.cpp:124] Setting up conv2_1/dw/scale
I0629 21:11:53.895221  5231 net.cpp:131] Top shape: 64 32 48 48 (4718592)
I0629 21:11:53.895229  5231 net.cpp:139] Memory required for data: 139199232
I0629 21:11:53.895242  5231 layer_factory.hpp:77] Creating layer relu2_1/dw
I0629 21:11:53.895254  5231 net.cpp:86] Creating Layer relu2_1/dw
I0629 21:11:53.895262  5231 net.cpp:408] relu2_1/dw <- conv2_1/dw
I0629 21:11:53.895270  5231 net.cpp:369] relu2_1/dw -> conv2_1/dw (in-place)
I0629 21:11:53.896256  5231 net.cpp:124] Setting up relu2_1/dw
I0629 21:11:53.896270  5231 net.cpp:131] Top shape: 64 32 48 48 (4718592)
I0629 21:11:53.896275  5231 net.cpp:139] Memory required for data: 158073600
I0629 21:11:53.896282  5231 layer_factory.hpp:77] Creating layer conv2_1/sep
I0629 21:11:53.896301  5231 net.cpp:86] Creating Layer conv2_1/sep
I0629 21:11:53.896307  5231 net.cpp:408] conv2_1/sep <- conv2_1/dw
I0629 21:11:53.896318  5231 net.cpp:382] conv2_1/sep -> conv2_1/sep
I0629 21:11:53.999881  5231 net.cpp:124] Setting up conv2_1/sep
I0629 21:11:53.999914  5231 net.cpp:131] Top shape: 64 64 48 48 (9437184)
I0629 21:11:53.999919  5231 net.cpp:139] Memory required for data: 195822336
I0629 21:11:53.999935  5231 layer_factory.hpp:77] Creating layer conv2_1/sep/bn
I0629 21:11:53.999955  5231 net.cpp:86] Creating Layer conv2_1/sep/bn
I0629 21:11:53.999963  5231 net.cpp:408] conv2_1/sep/bn <- conv2_1/sep
I0629 21:11:53.999979  5231 net.cpp:369] conv2_1/sep/bn -> conv2_1/sep (in-place)
I0629 21:11:54.000165  5231 net.cpp:124] Setting up conv2_1/sep/bn
I0629 21:11:54.000175  5231 net.cpp:131] Top shape: 64 64 48 48 (9437184)
I0629 21:11:54.000183  5231 net.cpp:139] Memory required for data: 233571072
I0629 21:11:54.000198  5231 layer_factory.hpp:77] Creating layer conv2_1/sep/scale
I0629 21:11:54.000212  5231 net.cpp:86] Creating Layer conv2_1/sep/scale
I0629 21:11:54.000218  5231 net.cpp:408] conv2_1/sep/scale <- conv2_1/sep
I0629 21:11:54.000227  5231 net.cpp:369] conv2_1/sep/scale -> conv2_1/sep (in-place)
I0629 21:11:54.000273  5231 layer_factory.hpp:77] Creating layer conv2_1/sep/scale
I0629 21:11:54.000383  5231 net.cpp:124] Setting up conv2_1/sep/scale
I0629 21:11:54.000393  5231 net.cpp:131] Top shape: 64 64 48 48 (9437184)
I0629 21:11:54.000401  5231 net.cpp:139] Memory required for data: 271319808
I0629 21:11:54.000440  5231 layer_factory.hpp:77] Creating layer relu2_1/sep
I0629 21:11:54.000452  5231 net.cpp:86] Creating Layer relu2_1/sep
I0629 21:11:54.000459  5231 net.cpp:408] relu2_1/sep <- conv2_1/sep
I0629 21:11:54.000469  5231 net.cpp:369] relu2_1/sep -> conv2_1/sep (in-place)
I0629 21:11:54.001417  5231 net.cpp:124] Setting up relu2_1/sep
I0629 21:11:54.001433  5231 net.cpp:131] Top shape: 64 64 48 48 (9437184)
I0629 21:11:54.001442  5231 net.cpp:139] Memory required for data: 309068544
I0629 21:11:54.001451  5231 layer_factory.hpp:77] Creating layer conv2_2/dw
I0629 21:11:54.001468  5231 net.cpp:86] Creating Layer conv2_2/dw
I0629 21:11:54.001475  5231 net.cpp:408] conv2_2/dw <- conv2_1/sep
I0629 21:11:54.001485  5231 net.cpp:382] conv2_2/dw -> conv2_2/dw
I0629 21:11:54.001719  5231 net.cpp:124] Setting up conv2_2/dw
I0629 21:11:54.001731  5231 net.cpp:131] Top shape: 64 64 24 24 (2359296)
I0629 21:11:54.001739  5231 net.cpp:139] Memory required for data: 318505728
I0629 21:11:54.001750  5231 layer_factory.hpp:77] Creating layer conv2_2/dw/bn
I0629 21:11:54.001762  5231 net.cpp:86] Creating Layer conv2_2/dw/bn
I0629 21:11:54.001770  5231 net.cpp:408] conv2_2/dw/bn <- conv2_2/dw
I0629 21:11:54.001780  5231 net.cpp:369] conv2_2/dw/bn -> conv2_2/dw (in-place)
I0629 21:11:54.001960  5231 net.cpp:124] Setting up conv2_2/dw/bn
I0629 21:11:54.001971  5231 net.cpp:131] Top shape: 64 64 24 24 (2359296)
I0629 21:11:54.001974  5231 net.cpp:139] Memory required for data: 327942912
I0629 21:11:54.001982  5231 layer_factory.hpp:77] Creating layer conv2_2/dw/scale
I0629 21:11:54.001994  5231 net.cpp:86] Creating Layer conv2_2/dw/scale
I0629 21:11:54.001998  5231 net.cpp:408] conv2_2/dw/scale <- conv2_2/dw
I0629 21:11:54.002004  5231 net.cpp:369] conv2_2/dw/scale -> conv2_2/dw (in-place)
I0629 21:11:54.002044  5231 layer_factory.hpp:77] Creating layer conv2_2/dw/scale
I0629 21:11:54.002177  5231 net.cpp:124] Setting up conv2_2/dw/scale
I0629 21:11:54.002187  5231 net.cpp:131] Top shape: 64 64 24 24 (2359296)
I0629 21:11:54.002190  5231 net.cpp:139] Memory required for data: 337380096
I0629 21:11:54.002204  5231 layer_factory.hpp:77] Creating layer relu2_2/dw
I0629 21:11:54.002213  5231 net.cpp:86] Creating Layer relu2_2/dw
I0629 21:11:54.002218  5231 net.cpp:408] relu2_2/dw <- conv2_2/dw
I0629 21:11:54.002223  5231 net.cpp:369] relu2_2/dw -> conv2_2/dw (in-place)
I0629 21:11:54.002707  5231 net.cpp:124] Setting up relu2_2/dw
I0629 21:11:54.002717  5231 net.cpp:131] Top shape: 64 64 24 24 (2359296)
I0629 21:11:54.002723  5231 net.cpp:139] Memory required for data: 346817280
I0629 21:11:54.002735  5231 layer_factory.hpp:77] Creating layer conv2_2/sep
I0629 21:11:54.002746  5231 net.cpp:86] Creating Layer conv2_2/sep
I0629 21:11:54.002753  5231 net.cpp:408] conv2_2/sep <- conv2_2/dw
I0629 21:11:54.002761  5231 net.cpp:382] conv2_2/sep -> conv2_2/sep
I0629 21:11:54.005838  5231 net.cpp:124] Setting up conv2_2/sep
I0629 21:11:54.005859  5231 net.cpp:131] Top shape: 64 128 24 24 (4718592)
I0629 21:11:54.005864  5231 net.cpp:139] Memory required for data: 365691648
I0629 21:11:54.005880  5231 layer_factory.hpp:77] Creating layer conv2_2/sep/bn
I0629 21:11:54.005894  5231 net.cpp:86] Creating Layer conv2_2/sep/bn
I0629 21:11:54.005900  5231 net.cpp:408] conv2_2/sep/bn <- conv2_2/sep
I0629 21:11:54.005924  5231 net.cpp:369] conv2_2/sep/bn -> conv2_2/sep (in-place)
I0629 21:11:54.006109  5231 net.cpp:124] Setting up conv2_2/sep/bn
I0629 21:11:54.006119  5231 net.cpp:131] Top shape: 64 128 24 24 (4718592)
I0629 21:11:54.006122  5231 net.cpp:139] Memory required for data: 384566016
I0629 21:11:54.006130  5231 layer_factory.hpp:77] Creating layer conv2_2/sep/scale
I0629 21:11:54.006140  5231 net.cpp:86] Creating Layer conv2_2/sep/scale
I0629 21:11:54.006145  5231 net.cpp:408] conv2_2/sep/scale <- conv2_2/sep
I0629 21:11:54.006151  5231 net.cpp:369] conv2_2/sep/scale -> conv2_2/sep (in-place)
I0629 21:11:54.006191  5231 layer_factory.hpp:77] Creating layer conv2_2/sep/scale
I0629 21:11:54.006314  5231 net.cpp:124] Setting up conv2_2/sep/scale
I0629 21:11:54.006335  5231 net.cpp:131] Top shape: 64 128 24 24 (4718592)
I0629 21:11:54.006340  5231 net.cpp:139] Memory required for data: 403440384
I0629 21:11:54.006356  5231 layer_factory.hpp:77] Creating layer relu2_2/sep
I0629 21:11:54.006364  5231 net.cpp:86] Creating Layer relu2_2/sep
I0629 21:11:54.006369  5231 net.cpp:408] relu2_2/sep <- conv2_2/sep
I0629 21:11:54.006376  5231 net.cpp:369] relu2_2/sep -> conv2_2/sep (in-place)
I0629 21:11:54.007242  5231 net.cpp:124] Setting up relu2_2/sep
I0629 21:11:54.007256  5231 net.cpp:131] Top shape: 64 128 24 24 (4718592)
I0629 21:11:54.007262  5231 net.cpp:139] Memory required for data: 422314752
I0629 21:11:54.007266  5231 layer_factory.hpp:77] Creating layer conv3_1/dw
I0629 21:11:54.007294  5231 net.cpp:86] Creating Layer conv3_1/dw
I0629 21:11:54.007302  5231 net.cpp:408] conv3_1/dw <- conv2_2/sep
I0629 21:11:54.007308  5231 net.cpp:382] conv3_1/dw -> conv3_1/dw
I0629 21:11:54.007510  5231 net.cpp:124] Setting up conv3_1/dw
I0629 21:11:54.007520  5231 net.cpp:131] Top shape: 64 128 24 24 (4718592)
I0629 21:11:54.007526  5231 net.cpp:139] Memory required for data: 441189120
I0629 21:11:54.007532  5231 layer_factory.hpp:77] Creating layer conv3_1/dw/bn
I0629 21:11:54.007540  5231 net.cpp:86] Creating Layer conv3_1/dw/bn
I0629 21:11:54.007546  5231 net.cpp:408] conv3_1/dw/bn <- conv3_1/dw
I0629 21:11:54.007552  5231 net.cpp:369] conv3_1/dw/bn -> conv3_1/dw (in-place)
I0629 21:11:54.007726  5231 net.cpp:124] Setting up conv3_1/dw/bn
I0629 21:11:54.007736  5231 net.cpp:131] Top shape: 64 128 24 24 (4718592)
I0629 21:11:54.007740  5231 net.cpp:139] Memory required for data: 460063488
I0629 21:11:54.007755  5231 layer_factory.hpp:77] Creating layer conv3_1/dw/scale
I0629 21:11:54.007763  5231 net.cpp:86] Creating Layer conv3_1/dw/scale
I0629 21:11:54.007768  5231 net.cpp:408] conv3_1/dw/scale <- conv3_1/dw
I0629 21:11:54.007774  5231 net.cpp:369] conv3_1/dw/scale -> conv3_1/dw (in-place)
I0629 21:11:54.007814  5231 layer_factory.hpp:77] Creating layer conv3_1/dw/scale
I0629 21:11:54.007921  5231 net.cpp:124] Setting up conv3_1/dw/scale
I0629 21:11:54.007932  5231 net.cpp:131] Top shape: 64 128 24 24 (4718592)
I0629 21:11:54.007937  5231 net.cpp:139] Memory required for data: 478937856
I0629 21:11:54.007944  5231 layer_factory.hpp:77] Creating layer relu3_1/dw
I0629 21:11:54.007951  5231 net.cpp:86] Creating Layer relu3_1/dw
I0629 21:11:54.007957  5231 net.cpp:408] relu3_1/dw <- conv3_1/dw
I0629 21:11:54.007962  5231 net.cpp:369] relu3_1/dw -> conv3_1/dw (in-place)
I0629 21:11:54.008452  5231 net.cpp:124] Setting up relu3_1/dw
I0629 21:11:54.008466  5231 net.cpp:131] Top shape: 64 128 24 24 (4718592)
I0629 21:11:54.008469  5231 net.cpp:139] Memory required for data: 497812224
I0629 21:11:54.008476  5231 layer_factory.hpp:77] Creating layer conv3_1/sep
I0629 21:11:54.008488  5231 net.cpp:86] Creating Layer conv3_1/sep
I0629 21:11:54.008494  5231 net.cpp:408] conv3_1/sep <- conv3_1/dw
I0629 21:11:54.008502  5231 net.cpp:382] conv3_1/sep -> conv3_1/sep
I0629 21:11:54.010756  5231 net.cpp:124] Setting up conv3_1/sep
I0629 21:11:54.010771  5231 net.cpp:131] Top shape: 64 128 24 24 (4718592)
I0629 21:11:54.010776  5231 net.cpp:139] Memory required for data: 516686592
I0629 21:11:54.010782  5231 layer_factory.hpp:77] Creating layer conv3_1/sep/bn
I0629 21:11:54.010790  5231 net.cpp:86] Creating Layer conv3_1/sep/bn
I0629 21:11:54.010797  5231 net.cpp:408] conv3_1/sep/bn <- conv3_1/sep
I0629 21:11:54.010802  5231 net.cpp:369] conv3_1/sep/bn -> conv3_1/sep (in-place)
I0629 21:11:54.010985  5231 net.cpp:124] Setting up conv3_1/sep/bn
I0629 21:11:54.010995  5231 net.cpp:131] Top shape: 64 128 24 24 (4718592)
I0629 21:11:54.010999  5231 net.cpp:139] Memory required for data: 535560960
I0629 21:11:54.011008  5231 layer_factory.hpp:77] Creating layer conv3_1/sep/scale
I0629 21:11:54.011016  5231 net.cpp:86] Creating Layer conv3_1/sep/scale
I0629 21:11:54.011021  5231 net.cpp:408] conv3_1/sep/scale <- conv3_1/sep
I0629 21:11:54.011027  5231 net.cpp:369] conv3_1/sep/scale -> conv3_1/sep (in-place)
I0629 21:11:54.011080  5231 layer_factory.hpp:77] Creating layer conv3_1/sep/scale
I0629 21:11:54.011184  5231 net.cpp:124] Setting up conv3_1/sep/scale
I0629 21:11:54.011193  5231 net.cpp:131] Top shape: 64 128 24 24 (4718592)
I0629 21:11:54.011198  5231 net.cpp:139] Memory required for data: 554435328
I0629 21:11:54.011204  5231 layer_factory.hpp:77] Creating layer relu3_1/sep
I0629 21:11:54.011211  5231 net.cpp:86] Creating Layer relu3_1/sep
I0629 21:11:54.011215  5231 net.cpp:408] relu3_1/sep <- conv3_1/sep
I0629 21:11:54.011222  5231 net.cpp:369] relu3_1/sep -> conv3_1/sep (in-place)
I0629 21:11:54.012018  5231 net.cpp:124] Setting up relu3_1/sep
I0629 21:11:54.012032  5231 net.cpp:131] Top shape: 64 128 24 24 (4718592)
I0629 21:11:54.012037  5231 net.cpp:139] Memory required for data: 573309696
I0629 21:11:54.012040  5231 layer_factory.hpp:77] Creating layer conv3_2/dw
I0629 21:11:54.012050  5231 net.cpp:86] Creating Layer conv3_2/dw
I0629 21:11:54.012056  5231 net.cpp:408] conv3_2/dw <- conv3_1/sep
I0629 21:11:54.012064  5231 net.cpp:382] conv3_2/dw -> conv3_2/dw
I0629 21:11:54.012253  5231 net.cpp:124] Setting up conv3_2/dw
I0629 21:11:54.012262  5231 net.cpp:131] Top shape: 64 128 12 12 (1179648)
I0629 21:11:54.012267  5231 net.cpp:139] Memory required for data: 578028288
I0629 21:11:54.012274  5231 layer_factory.hpp:77] Creating layer conv3_2/dw/bn
I0629 21:11:54.012280  5231 net.cpp:86] Creating Layer conv3_2/dw/bn
I0629 21:11:54.012285  5231 net.cpp:408] conv3_2/dw/bn <- conv3_2/dw
I0629 21:11:54.012292  5231 net.cpp:369] conv3_2/dw/bn -> conv3_2/dw (in-place)
I0629 21:11:54.012464  5231 net.cpp:124] Setting up conv3_2/dw/bn
I0629 21:11:54.012472  5231 net.cpp:131] Top shape: 64 128 12 12 (1179648)
I0629 21:11:54.012476  5231 net.cpp:139] Memory required for data: 582746880
I0629 21:11:54.012485  5231 layer_factory.hpp:77] Creating layer conv3_2/dw/scale
I0629 21:11:54.012496  5231 net.cpp:86] Creating Layer conv3_2/dw/scale
I0629 21:11:54.012501  5231 net.cpp:408] conv3_2/dw/scale <- conv3_2/dw
I0629 21:11:54.012507  5231 net.cpp:369] conv3_2/dw/scale -> conv3_2/dw (in-place)
I0629 21:11:54.012544  5231 layer_factory.hpp:77] Creating layer conv3_2/dw/scale
I0629 21:11:54.012645  5231 net.cpp:124] Setting up conv3_2/dw/scale
I0629 21:11:54.012655  5231 net.cpp:131] Top shape: 64 128 12 12 (1179648)
I0629 21:11:54.012658  5231 net.cpp:139] Memory required for data: 587465472
I0629 21:11:54.012665  5231 layer_factory.hpp:77] Creating layer relu3_2/dw
I0629 21:11:54.012673  5231 net.cpp:86] Creating Layer relu3_2/dw
I0629 21:11:54.012678  5231 net.cpp:408] relu3_2/dw <- conv3_2/dw
I0629 21:11:54.012683  5231 net.cpp:369] relu3_2/dw -> conv3_2/dw (in-place)
I0629 21:11:54.013200  5231 net.cpp:124] Setting up relu3_2/dw
I0629 21:11:54.013222  5231 net.cpp:131] Top shape: 64 128 12 12 (1179648)
I0629 21:11:54.013227  5231 net.cpp:139] Memory required for data: 592184064
I0629 21:11:54.013231  5231 layer_factory.hpp:77] Creating layer conv3_2/sep
I0629 21:11:54.013239  5231 net.cpp:86] Creating Layer conv3_2/sep
I0629 21:11:54.013244  5231 net.cpp:408] conv3_2/sep <- conv3_2/dw
I0629 21:11:54.013253  5231 net.cpp:382] conv3_2/sep -> conv3_2/sep
I0629 21:11:54.016767  5231 net.cpp:124] Setting up conv3_2/sep
I0629 21:11:54.016783  5231 net.cpp:131] Top shape: 64 256 12 12 (2359296)
I0629 21:11:54.016788  5231 net.cpp:139] Memory required for data: 601621248
I0629 21:11:54.016794  5231 layer_factory.hpp:77] Creating layer conv3_2/sep/bn
I0629 21:11:54.016806  5231 net.cpp:86] Creating Layer conv3_2/sep/bn
I0629 21:11:54.016813  5231 net.cpp:408] conv3_2/sep/bn <- conv3_2/sep
I0629 21:11:54.016819  5231 net.cpp:369] conv3_2/sep/bn -> conv3_2/sep (in-place)
I0629 21:11:54.016997  5231 net.cpp:124] Setting up conv3_2/sep/bn
I0629 21:11:54.017007  5231 net.cpp:131] Top shape: 64 256 12 12 (2359296)
I0629 21:11:54.017012  5231 net.cpp:139] Memory required for data: 611058432
I0629 21:11:54.017020  5231 layer_factory.hpp:77] Creating layer conv3_2/sep/scale
I0629 21:11:54.017029  5231 net.cpp:86] Creating Layer conv3_2/sep/scale
I0629 21:11:54.017045  5231 net.cpp:408] conv3_2/sep/scale <- conv3_2/sep
I0629 21:11:54.017051  5231 net.cpp:369] conv3_2/sep/scale -> conv3_2/sep (in-place)
I0629 21:11:54.017092  5231 layer_factory.hpp:77] Creating layer conv3_2/sep/scale
I0629 21:11:54.017225  5231 net.cpp:124] Setting up conv3_2/sep/scale
I0629 21:11:54.017238  5231 net.cpp:131] Top shape: 64 256 12 12 (2359296)
I0629 21:11:54.017242  5231 net.cpp:139] Memory required for data: 620495616
I0629 21:11:54.017249  5231 layer_factory.hpp:77] Creating layer relu3_2/sep
I0629 21:11:54.017256  5231 net.cpp:86] Creating Layer relu3_2/sep
I0629 21:11:54.017259  5231 net.cpp:408] relu3_2/sep <- conv3_2/sep
I0629 21:11:54.017266  5231 net.cpp:369] relu3_2/sep -> conv3_2/sep (in-place)
I0629 21:11:54.018069  5231 net.cpp:124] Setting up relu3_2/sep
I0629 21:11:54.018079  5231 net.cpp:131] Top shape: 64 256 12 12 (2359296)
I0629 21:11:54.018083  5231 net.cpp:139] Memory required for data: 629932800
I0629 21:11:54.018087  5231 layer_factory.hpp:77] Creating layer conv4_1/dw
I0629 21:11:54.018098  5231 net.cpp:86] Creating Layer conv4_1/dw
I0629 21:11:54.018102  5231 net.cpp:408] conv4_1/dw <- conv3_2/sep
I0629 21:11:54.018111  5231 net.cpp:382] conv4_1/dw -> conv4_1/dw
I0629 21:11:54.018317  5231 net.cpp:124] Setting up conv4_1/dw
I0629 21:11:54.018326  5231 net.cpp:131] Top shape: 64 256 12 12 (2359296)
I0629 21:11:54.018329  5231 net.cpp:139] Memory required for data: 639369984
I0629 21:11:54.018334  5231 layer_factory.hpp:77] Creating layer conv4_1/dw/bn
I0629 21:11:54.018342  5231 net.cpp:86] Creating Layer conv4_1/dw/bn
I0629 21:11:54.018345  5231 net.cpp:408] conv4_1/dw/bn <- conv4_1/dw
I0629 21:11:54.018352  5231 net.cpp:369] conv4_1/dw/bn -> conv4_1/dw (in-place)
I0629 21:11:54.018522  5231 net.cpp:124] Setting up conv4_1/dw/bn
I0629 21:11:54.018529  5231 net.cpp:131] Top shape: 64 256 12 12 (2359296)
I0629 21:11:54.018532  5231 net.cpp:139] Memory required for data: 648807168
I0629 21:11:54.018540  5231 layer_factory.hpp:77] Creating layer conv4_1/dw/scale
I0629 21:11:54.018548  5231 net.cpp:86] Creating Layer conv4_1/dw/scale
I0629 21:11:54.018551  5231 net.cpp:408] conv4_1/dw/scale <- conv4_1/dw
I0629 21:11:54.018558  5231 net.cpp:369] conv4_1/dw/scale -> conv4_1/dw (in-place)
I0629 21:11:54.018594  5231 layer_factory.hpp:77] Creating layer conv4_1/dw/scale
I0629 21:11:54.018693  5231 net.cpp:124] Setting up conv4_1/dw/scale
I0629 21:11:54.018700  5231 net.cpp:131] Top shape: 64 256 12 12 (2359296)
I0629 21:11:54.018704  5231 net.cpp:139] Memory required for data: 658244352
I0629 21:11:54.018712  5231 layer_factory.hpp:77] Creating layer relu4_1/dw
I0629 21:11:54.018718  5231 net.cpp:86] Creating Layer relu4_1/dw
I0629 21:11:54.018721  5231 net.cpp:408] relu4_1/dw <- conv4_1/dw
I0629 21:11:54.018726  5231 net.cpp:369] relu4_1/dw -> conv4_1/dw (in-place)
I0629 21:11:54.019208  5231 net.cpp:124] Setting up relu4_1/dw
I0629 21:11:54.019217  5231 net.cpp:131] Top shape: 64 256 12 12 (2359296)
I0629 21:11:54.019222  5231 net.cpp:139] Memory required for data: 667681536
I0629 21:11:54.019225  5231 layer_factory.hpp:77] Creating layer conv4_1/sep
I0629 21:11:54.019235  5231 net.cpp:86] Creating Layer conv4_1/sep
I0629 21:11:54.019239  5231 net.cpp:408] conv4_1/sep <- conv4_1/dw
I0629 21:11:54.019248  5231 net.cpp:382] conv4_1/sep -> conv4_1/sep
I0629 21:11:54.022248  5231 net.cpp:124] Setting up conv4_1/sep
I0629 21:11:54.022260  5231 net.cpp:131] Top shape: 64 256 12 12 (2359296)
I0629 21:11:54.022264  5231 net.cpp:139] Memory required for data: 677118720
I0629 21:11:54.022270  5231 layer_factory.hpp:77] Creating layer conv4_1/sep/bn
I0629 21:11:54.022277  5231 net.cpp:86] Creating Layer conv4_1/sep/bn
I0629 21:11:54.022281  5231 net.cpp:408] conv4_1/sep/bn <- conv4_1/sep
I0629 21:11:54.022289  5231 net.cpp:369] conv4_1/sep/bn -> conv4_1/sep (in-place)
I0629 21:11:54.022464  5231 net.cpp:124] Setting up conv4_1/sep/bn
I0629 21:11:54.022471  5231 net.cpp:131] Top shape: 64 256 12 12 (2359296)
I0629 21:11:54.022475  5231 net.cpp:139] Memory required for data: 686555904
I0629 21:11:54.022493  5231 layer_factory.hpp:77] Creating layer conv4_1/sep/scale
I0629 21:11:54.022503  5231 net.cpp:86] Creating Layer conv4_1/sep/scale
I0629 21:11:54.022507  5231 net.cpp:408] conv4_1/sep/scale <- conv4_1/sep
I0629 21:11:54.022513  5231 net.cpp:369] conv4_1/sep/scale -> conv4_1/sep (in-place)
I0629 21:11:54.022552  5231 layer_factory.hpp:77] Creating layer conv4_1/sep/scale
I0629 21:11:54.022655  5231 net.cpp:124] Setting up conv4_1/sep/scale
I0629 21:11:54.022662  5231 net.cpp:131] Top shape: 64 256 12 12 (2359296)
I0629 21:11:54.022666  5231 net.cpp:139] Memory required for data: 695993088
I0629 21:11:54.022683  5231 layer_factory.hpp:77] Creating layer relu4_1/sep
I0629 21:11:54.022691  5231 net.cpp:86] Creating Layer relu4_1/sep
I0629 21:11:54.022694  5231 net.cpp:408] relu4_1/sep <- conv4_1/sep
I0629 21:11:54.022701  5231 net.cpp:369] relu4_1/sep -> conv4_1/sep (in-place)
I0629 21:11:54.023175  5231 net.cpp:124] Setting up relu4_1/sep
I0629 21:11:54.023185  5231 net.cpp:131] Top shape: 64 256 12 12 (2359296)
I0629 21:11:54.023188  5231 net.cpp:139] Memory required for data: 705430272
I0629 21:11:54.023192  5231 layer_factory.hpp:77] Creating layer conv4_2/dw
I0629 21:11:54.023202  5231 net.cpp:86] Creating Layer conv4_2/dw
I0629 21:11:54.023207  5231 net.cpp:408] conv4_2/dw <- conv4_1/sep
I0629 21:11:54.023216  5231 net.cpp:382] conv4_2/dw -> conv4_2/dw
I0629 21:11:54.023422  5231 net.cpp:124] Setting up conv4_2/dw
I0629 21:11:54.023429  5231 net.cpp:131] Top shape: 64 256 6 6 (589824)
I0629 21:11:54.023433  5231 net.cpp:139] Memory required for data: 707789568
I0629 21:11:54.023438  5231 layer_factory.hpp:77] Creating layer conv4_2/dw/bn
I0629 21:11:54.023447  5231 net.cpp:86] Creating Layer conv4_2/dw/bn
I0629 21:11:54.023452  5231 net.cpp:408] conv4_2/dw/bn <- conv4_2/dw
I0629 21:11:54.023458  5231 net.cpp:369] conv4_2/dw/bn -> conv4_2/dw (in-place)
I0629 21:11:54.023631  5231 net.cpp:124] Setting up conv4_2/dw/bn
I0629 21:11:54.023638  5231 net.cpp:131] Top shape: 64 256 6 6 (589824)
I0629 21:11:54.023643  5231 net.cpp:139] Memory required for data: 710148864
I0629 21:11:54.023649  5231 layer_factory.hpp:77] Creating layer conv4_2/dw/scale
I0629 21:11:54.023658  5231 net.cpp:86] Creating Layer conv4_2/dw/scale
I0629 21:11:54.023663  5231 net.cpp:408] conv4_2/dw/scale <- conv4_2/dw
I0629 21:11:54.023669  5231 net.cpp:369] conv4_2/dw/scale -> conv4_2/dw (in-place)
I0629 21:11:54.023705  5231 layer_factory.hpp:77] Creating layer conv4_2/dw/scale
I0629 21:11:54.023810  5231 net.cpp:124] Setting up conv4_2/dw/scale
I0629 21:11:54.023818  5231 net.cpp:131] Top shape: 64 256 6 6 (589824)
I0629 21:11:54.023823  5231 net.cpp:139] Memory required for data: 712508160
I0629 21:11:54.023828  5231 layer_factory.hpp:77] Creating layer relu4_2/dw
I0629 21:11:54.023834  5231 net.cpp:86] Creating Layer relu4_2/dw
I0629 21:11:54.023838  5231 net.cpp:408] relu4_2/dw <- conv4_2/dw
I0629 21:11:54.023844  5231 net.cpp:369] relu4_2/dw -> conv4_2/dw (in-place)
I0629 21:11:54.024355  5231 net.cpp:124] Setting up relu4_2/dw
I0629 21:11:54.024364  5231 net.cpp:131] Top shape: 64 256 6 6 (589824)
I0629 21:11:54.024369  5231 net.cpp:139] Memory required for data: 714867456
I0629 21:11:54.024372  5231 layer_factory.hpp:77] Creating layer conv4_2/sep
I0629 21:11:54.024382  5231 net.cpp:86] Creating Layer conv4_2/sep
I0629 21:11:54.024386  5231 net.cpp:408] conv4_2/sep <- conv4_2/dw
I0629 21:11:54.024394  5231 net.cpp:382] conv4_2/sep -> conv4_2/sep
I0629 21:11:54.028962  5231 net.cpp:124] Setting up conv4_2/sep
I0629 21:11:54.028976  5231 net.cpp:131] Top shape: 64 512 6 6 (1179648)
I0629 21:11:54.028981  5231 net.cpp:139] Memory required for data: 719586048
I0629 21:11:54.028988  5231 layer_factory.hpp:77] Creating layer conv4_2/sep/bn
I0629 21:11:54.028998  5231 net.cpp:86] Creating Layer conv4_2/sep/bn
I0629 21:11:54.029003  5231 net.cpp:408] conv4_2/sep/bn <- conv4_2/sep
I0629 21:11:54.029011  5231 net.cpp:369] conv4_2/sep/bn -> conv4_2/sep (in-place)
I0629 21:11:54.029250  5231 net.cpp:124] Setting up conv4_2/sep/bn
I0629 21:11:54.029259  5231 net.cpp:131] Top shape: 64 512 6 6 (1179648)
I0629 21:11:54.029263  5231 net.cpp:139] Memory required for data: 724304640
I0629 21:11:54.029271  5231 layer_factory.hpp:77] Creating layer conv4_2/sep/scale
I0629 21:11:54.029280  5231 net.cpp:86] Creating Layer conv4_2/sep/scale
I0629 21:11:54.029284  5231 net.cpp:408] conv4_2/sep/scale <- conv4_2/sep
I0629 21:11:54.029290  5231 net.cpp:369] conv4_2/sep/scale -> conv4_2/sep (in-place)
I0629 21:11:54.029327  5231 layer_factory.hpp:77] Creating layer conv4_2/sep/scale
I0629 21:11:54.029438  5231 net.cpp:124] Setting up conv4_2/sep/scale
I0629 21:11:54.029445  5231 net.cpp:131] Top shape: 64 512 6 6 (1179648)
I0629 21:11:54.029449  5231 net.cpp:139] Memory required for data: 729023232
I0629 21:11:54.029456  5231 layer_factory.hpp:77] Creating layer relu4_2/sep
I0629 21:11:54.029462  5231 net.cpp:86] Creating Layer relu4_2/sep
I0629 21:11:54.029466  5231 net.cpp:408] relu4_2/sep <- conv4_2/sep
I0629 21:11:54.029472  5231 net.cpp:369] relu4_2/sep -> conv4_2/sep (in-place)
I0629 21:11:54.029959  5231 net.cpp:124] Setting up relu4_2/sep
I0629 21:11:54.029969  5231 net.cpp:131] Top shape: 64 512 6 6 (1179648)
I0629 21:11:54.029973  5231 net.cpp:139] Memory required for data: 733741824
I0629 21:11:54.029978  5231 layer_factory.hpp:77] Creating layer conv5_1/dw
I0629 21:11:54.029987  5231 net.cpp:86] Creating Layer conv5_1/dw
I0629 21:11:54.029992  5231 net.cpp:408] conv5_1/dw <- conv4_2/sep
I0629 21:11:54.029999  5231 net.cpp:382] conv5_1/dw -> conv5_1/dw
I0629 21:11:54.030230  5231 net.cpp:124] Setting up conv5_1/dw
I0629 21:11:54.030238  5231 net.cpp:131] Top shape: 64 512 6 6 (1179648)
I0629 21:11:54.030242  5231 net.cpp:139] Memory required for data: 738460416
I0629 21:11:54.030248  5231 layer_factory.hpp:77] Creating layer conv5_1/dw/bn
I0629 21:11:54.030256  5231 net.cpp:86] Creating Layer conv5_1/dw/bn
I0629 21:11:54.030261  5231 net.cpp:408] conv5_1/dw/bn <- conv5_1/dw
I0629 21:11:54.030267  5231 net.cpp:369] conv5_1/dw/bn -> conv5_1/dw (in-place)
I0629 21:11:54.030439  5231 net.cpp:124] Setting up conv5_1/dw/bn
I0629 21:11:54.030447  5231 net.cpp:131] Top shape: 64 512 6 6 (1179648)
I0629 21:11:54.030452  5231 net.cpp:139] Memory required for data: 743179008
I0629 21:11:54.030458  5231 layer_factory.hpp:77] Creating layer conv5_1/dw/scale
I0629 21:11:54.030467  5231 net.cpp:86] Creating Layer conv5_1/dw/scale
I0629 21:11:54.030472  5231 net.cpp:408] conv5_1/dw/scale <- conv5_1/dw
I0629 21:11:54.030477  5231 net.cpp:369] conv5_1/dw/scale -> conv5_1/dw (in-place)
I0629 21:11:54.030511  5231 layer_factory.hpp:77] Creating layer conv5_1/dw/scale
I0629 21:11:54.030618  5231 net.cpp:124] Setting up conv5_1/dw/scale
I0629 21:11:54.030625  5231 net.cpp:131] Top shape: 64 512 6 6 (1179648)
I0629 21:11:54.030629  5231 net.cpp:139] Memory required for data: 747897600
I0629 21:11:54.030637  5231 layer_factory.hpp:77] Creating layer relu5_1/dw
I0629 21:11:54.030642  5231 net.cpp:86] Creating Layer relu5_1/dw
I0629 21:11:54.030647  5231 net.cpp:408] relu5_1/dw <- conv5_1/dw
I0629 21:11:54.030653  5231 net.cpp:369] relu5_1/dw -> conv5_1/dw (in-place)
I0629 21:11:54.031131  5231 net.cpp:124] Setting up relu5_1/dw
I0629 21:11:54.031141  5231 net.cpp:131] Top shape: 64 512 6 6 (1179648)
I0629 21:11:54.031144  5231 net.cpp:139] Memory required for data: 752616192
I0629 21:11:54.031148  5231 layer_factory.hpp:77] Creating layer conv5_1/sep
I0629 21:11:54.031158  5231 net.cpp:86] Creating Layer conv5_1/sep
I0629 21:11:54.031162  5231 net.cpp:408] conv5_1/sep <- conv5_1/dw
I0629 21:11:54.031173  5231 net.cpp:382] conv5_1/sep -> conv5_1/sep
I0629 21:11:54.036211  5231 net.cpp:124] Setting up conv5_1/sep
I0629 21:11:54.036222  5231 net.cpp:131] Top shape: 64 512 6 6 (1179648)
I0629 21:11:54.036227  5231 net.cpp:139] Memory required for data: 757334784
I0629 21:11:54.036233  5231 layer_factory.hpp:77] Creating layer conv5_1/sep/bn
I0629 21:11:54.036242  5231 net.cpp:86] Creating Layer conv5_1/sep/bn
I0629 21:11:54.036257  5231 net.cpp:408] conv5_1/sep/bn <- conv5_1/sep
I0629 21:11:54.036263  5231 net.cpp:369] conv5_1/sep/bn -> conv5_1/sep (in-place)
I0629 21:11:54.036447  5231 net.cpp:124] Setting up conv5_1/sep/bn
I0629 21:11:54.036454  5231 net.cpp:131] Top shape: 64 512 6 6 (1179648)
I0629 21:11:54.036458  5231 net.cpp:139] Memory required for data: 762053376
I0629 21:11:54.036466  5231 layer_factory.hpp:77] Creating layer conv5_1/sep/scale
I0629 21:11:54.036473  5231 net.cpp:86] Creating Layer conv5_1/sep/scale
I0629 21:11:54.036478  5231 net.cpp:408] conv5_1/sep/scale <- conv5_1/sep
I0629 21:11:54.036484  5231 net.cpp:369] conv5_1/sep/scale -> conv5_1/sep (in-place)
I0629 21:11:54.036521  5231 layer_factory.hpp:77] Creating layer conv5_1/sep/scale
I0629 21:11:54.036628  5231 net.cpp:124] Setting up conv5_1/sep/scale
I0629 21:11:54.036635  5231 net.cpp:131] Top shape: 64 512 6 6 (1179648)
I0629 21:11:54.036639  5231 net.cpp:139] Memory required for data: 766771968
I0629 21:11:54.036646  5231 layer_factory.hpp:77] Creating layer relu5_1/sep
I0629 21:11:54.036653  5231 net.cpp:86] Creating Layer relu5_1/sep
I0629 21:11:54.036656  5231 net.cpp:408] relu5_1/sep <- conv5_1/sep
I0629 21:11:54.036664  5231 net.cpp:369] relu5_1/sep -> conv5_1/sep (in-place)
I0629 21:11:54.037142  5231 net.cpp:124] Setting up relu5_1/sep
I0629 21:11:54.037151  5231 net.cpp:131] Top shape: 64 512 6 6 (1179648)
I0629 21:11:54.037155  5231 net.cpp:139] Memory required for data: 771490560
I0629 21:11:54.037159  5231 layer_factory.hpp:77] Creating layer conv5_2/dw
I0629 21:11:54.037178  5231 net.cpp:86] Creating Layer conv5_2/dw
I0629 21:11:54.037187  5231 net.cpp:408] conv5_2/dw <- conv5_1/sep
I0629 21:11:54.037196  5231 net.cpp:382] conv5_2/dw -> conv5_2/dw
I0629 21:11:54.037437  5231 net.cpp:124] Setting up conv5_2/dw
I0629 21:11:54.037446  5231 net.cpp:131] Top shape: 64 512 6 6 (1179648)
I0629 21:11:54.037449  5231 net.cpp:139] Memory required for data: 776209152
I0629 21:11:54.037456  5231 layer_factory.hpp:77] Creating layer conv5_2/dw/bn
I0629 21:11:54.037463  5231 net.cpp:86] Creating Layer conv5_2/dw/bn
I0629 21:11:54.037467  5231 net.cpp:408] conv5_2/dw/bn <- conv5_2/dw
I0629 21:11:54.037473  5231 net.cpp:369] conv5_2/dw/bn -> conv5_2/dw (in-place)
I0629 21:11:54.037647  5231 net.cpp:124] Setting up conv5_2/dw/bn
I0629 21:11:54.037655  5231 net.cpp:131] Top shape: 64 512 6 6 (1179648)
I0629 21:11:54.037658  5231 net.cpp:139] Memory required for data: 780927744
I0629 21:11:54.037667  5231 layer_factory.hpp:77] Creating layer conv5_2/dw/scale
I0629 21:11:54.037681  5231 net.cpp:86] Creating Layer conv5_2/dw/scale
I0629 21:11:54.037685  5231 net.cpp:408] conv5_2/dw/scale <- conv5_2/dw
I0629 21:11:54.037691  5231 net.cpp:369] conv5_2/dw/scale -> conv5_2/dw (in-place)
I0629 21:11:54.037726  5231 layer_factory.hpp:77] Creating layer conv5_2/dw/scale
I0629 21:11:54.037835  5231 net.cpp:124] Setting up conv5_2/dw/scale
I0629 21:11:54.037843  5231 net.cpp:131] Top shape: 64 512 6 6 (1179648)
I0629 21:11:54.037847  5231 net.cpp:139] Memory required for data: 785646336
I0629 21:11:54.037854  5231 layer_factory.hpp:77] Creating layer relu5_2/dw
I0629 21:11:54.037860  5231 net.cpp:86] Creating Layer relu5_2/dw
I0629 21:11:54.037864  5231 net.cpp:408] relu5_2/dw <- conv5_2/dw
I0629 21:11:54.037870  5231 net.cpp:369] relu5_2/dw -> conv5_2/dw (in-place)
I0629 21:11:54.038682  5231 net.cpp:124] Setting up relu5_2/dw
I0629 21:11:54.038693  5231 net.cpp:131] Top shape: 64 512 6 6 (1179648)
I0629 21:11:54.038697  5231 net.cpp:139] Memory required for data: 790364928
I0629 21:11:54.038702  5231 layer_factory.hpp:77] Creating layer conv5_2/sep
I0629 21:11:54.038712  5231 net.cpp:86] Creating Layer conv5_2/sep
I0629 21:11:54.038717  5231 net.cpp:408] conv5_2/sep <- conv5_2/dw
I0629 21:11:54.038724  5231 net.cpp:382] conv5_2/sep -> conv5_2/sep
I0629 21:11:54.044438  5231 net.cpp:124] Setting up conv5_2/sep
I0629 21:11:54.044454  5231 net.cpp:131] Top shape: 64 512 6 6 (1179648)
I0629 21:11:54.044458  5231 net.cpp:139] Memory required for data: 795083520
I0629 21:11:54.044466  5231 layer_factory.hpp:77] Creating layer conv5_2/sep/bn
I0629 21:11:54.044489  5231 net.cpp:86] Creating Layer conv5_2/sep/bn
I0629 21:11:54.044494  5231 net.cpp:408] conv5_2/sep/bn <- conv5_2/sep
I0629 21:11:54.044502  5231 net.cpp:369] conv5_2/sep/bn -> conv5_2/sep (in-place)
I0629 21:11:54.044687  5231 net.cpp:124] Setting up conv5_2/sep/bn
I0629 21:11:54.044699  5231 net.cpp:131] Top shape: 64 512 6 6 (1179648)
I0629 21:11:54.044705  5231 net.cpp:139] Memory required for data: 799802112
I0629 21:11:54.044720  5231 layer_factory.hpp:77] Creating layer conv5_2/sep/scale
I0629 21:11:54.044733  5231 net.cpp:86] Creating Layer conv5_2/sep/scale
I0629 21:11:54.044740  5231 net.cpp:408] conv5_2/sep/scale <- conv5_2/sep
I0629 21:11:54.044754  5231 net.cpp:369] conv5_2/sep/scale -> conv5_2/sep (in-place)
I0629 21:11:54.044793  5231 layer_factory.hpp:77] Creating layer conv5_2/sep/scale
I0629 21:11:54.044905  5231 net.cpp:124] Setting up conv5_2/sep/scale
I0629 21:11:54.044912  5231 net.cpp:131] Top shape: 64 512 6 6 (1179648)
I0629 21:11:54.044916  5231 net.cpp:139] Memory required for data: 804520704
I0629 21:11:54.044924  5231 layer_factory.hpp:77] Creating layer relu5_2/sep
I0629 21:11:54.044929  5231 net.cpp:86] Creating Layer relu5_2/sep
I0629 21:11:54.044934  5231 net.cpp:408] relu5_2/sep <- conv5_2/sep
I0629 21:11:54.044940  5231 net.cpp:369] relu5_2/sep -> conv5_2/sep (in-place)
I0629 21:11:54.045506  5231 net.cpp:124] Setting up relu5_2/sep
I0629 21:11:54.045516  5231 net.cpp:131] Top shape: 64 512 6 6 (1179648)
I0629 21:11:54.045521  5231 net.cpp:139] Memory required for data: 809239296
I0629 21:11:54.045524  5231 layer_factory.hpp:77] Creating layer conv5_3/dw
I0629 21:11:54.045536  5231 net.cpp:86] Creating Layer conv5_3/dw
I0629 21:11:54.045539  5231 net.cpp:408] conv5_3/dw <- conv5_2/sep
I0629 21:11:54.045548  5231 net.cpp:382] conv5_3/dw -> conv5_3/dw
I0629 21:11:54.045785  5231 net.cpp:124] Setting up conv5_3/dw
I0629 21:11:54.045794  5231 net.cpp:131] Top shape: 64 512 6 6 (1179648)
I0629 21:11:54.045797  5231 net.cpp:139] Memory required for data: 813957888
I0629 21:11:54.045804  5231 layer_factory.hpp:77] Creating layer conv5_3/dw/bn
I0629 21:11:54.045809  5231 net.cpp:86] Creating Layer conv5_3/dw/bn
I0629 21:11:54.045814  5231 net.cpp:408] conv5_3/dw/bn <- conv5_3/dw
I0629 21:11:54.045820  5231 net.cpp:369] conv5_3/dw/bn -> conv5_3/dw (in-place)
I0629 21:11:54.045997  5231 net.cpp:124] Setting up conv5_3/dw/bn
I0629 21:11:54.046005  5231 net.cpp:131] Top shape: 64 512 6 6 (1179648)
I0629 21:11:54.046008  5231 net.cpp:139] Memory required for data: 818676480
I0629 21:11:54.046016  5231 layer_factory.hpp:77] Creating layer conv5_3/dw/scale
I0629 21:11:54.046022  5231 net.cpp:86] Creating Layer conv5_3/dw/scale
I0629 21:11:54.046027  5231 net.cpp:408] conv5_3/dw/scale <- conv5_3/dw
I0629 21:11:54.046034  5231 net.cpp:369] conv5_3/dw/scale -> conv5_3/dw (in-place)
I0629 21:11:54.046068  5231 layer_factory.hpp:77] Creating layer conv5_3/dw/scale
I0629 21:11:54.046180  5231 net.cpp:124] Setting up conv5_3/dw/scale
I0629 21:11:54.046187  5231 net.cpp:131] Top shape: 64 512 6 6 (1179648)
I0629 21:11:54.046191  5231 net.cpp:139] Memory required for data: 823395072
I0629 21:11:54.046197  5231 layer_factory.hpp:77] Creating layer relu5_3/dw
I0629 21:11:54.046203  5231 net.cpp:86] Creating Layer relu5_3/dw
I0629 21:11:54.046207  5231 net.cpp:408] relu5_3/dw <- conv5_3/dw
I0629 21:11:54.046212  5231 net.cpp:369] relu5_3/dw -> conv5_3/dw (in-place)
I0629 21:11:54.047027  5231 net.cpp:124] Setting up relu5_3/dw
I0629 21:11:54.047039  5231 net.cpp:131] Top shape: 64 512 6 6 (1179648)
I0629 21:11:54.047044  5231 net.cpp:139] Memory required for data: 828113664
I0629 21:11:54.047049  5231 layer_factory.hpp:77] Creating layer conv5_3/sep
I0629 21:11:54.047058  5231 net.cpp:86] Creating Layer conv5_3/sep
I0629 21:11:54.047062  5231 net.cpp:408] conv5_3/sep <- conv5_3/dw
I0629 21:11:54.047070  5231 net.cpp:382] conv5_3/sep -> conv5_3/sep
I0629 21:11:54.051776  5231 net.cpp:124] Setting up conv5_3/sep
I0629 21:11:54.051787  5231 net.cpp:131] Top shape: 64 512 6 6 (1179648)
I0629 21:11:54.051803  5231 net.cpp:139] Memory required for data: 832832256
I0629 21:11:54.051810  5231 layer_factory.hpp:77] Creating layer conv5_3/sep/bn
I0629 21:11:54.051820  5231 net.cpp:86] Creating Layer conv5_3/sep/bn
I0629 21:11:54.051825  5231 net.cpp:408] conv5_3/sep/bn <- conv5_3/sep
I0629 21:11:54.051829  5231 net.cpp:369] conv5_3/sep/bn -> conv5_3/sep (in-place)
I0629 21:11:54.052014  5231 net.cpp:124] Setting up conv5_3/sep/bn
I0629 21:11:54.052022  5231 net.cpp:131] Top shape: 64 512 6 6 (1179648)
I0629 21:11:54.052026  5231 net.cpp:139] Memory required for data: 837550848
I0629 21:11:54.052034  5231 layer_factory.hpp:77] Creating layer conv5_3/sep/scale
I0629 21:11:54.052042  5231 net.cpp:86] Creating Layer conv5_3/sep/scale
I0629 21:11:54.052047  5231 net.cpp:408] conv5_3/sep/scale <- conv5_3/sep
I0629 21:11:54.052054  5231 net.cpp:369] conv5_3/sep/scale -> conv5_3/sep (in-place)
I0629 21:11:54.052089  5231 layer_factory.hpp:77] Creating layer conv5_3/sep/scale
I0629 21:11:54.052201  5231 net.cpp:124] Setting up conv5_3/sep/scale
I0629 21:11:54.052209  5231 net.cpp:131] Top shape: 64 512 6 6 (1179648)
I0629 21:11:54.052212  5231 net.cpp:139] Memory required for data: 842269440
I0629 21:11:54.052219  5231 layer_factory.hpp:77] Creating layer relu5_3/sep
I0629 21:11:54.052225  5231 net.cpp:86] Creating Layer relu5_3/sep
I0629 21:11:54.052229  5231 net.cpp:408] relu5_3/sep <- conv5_3/sep
I0629 21:11:54.052237  5231 net.cpp:369] relu5_3/sep -> conv5_3/sep (in-place)
I0629 21:11:54.052717  5231 net.cpp:124] Setting up relu5_3/sep
I0629 21:11:54.052727  5231 net.cpp:131] Top shape: 64 512 6 6 (1179648)
I0629 21:11:54.052731  5231 net.cpp:139] Memory required for data: 846988032
I0629 21:11:54.052736  5231 layer_factory.hpp:77] Creating layer conv5_4/dw
I0629 21:11:54.052745  5231 net.cpp:86] Creating Layer conv5_4/dw
I0629 21:11:54.052749  5231 net.cpp:408] conv5_4/dw <- conv5_3/sep
I0629 21:11:54.052757  5231 net.cpp:382] conv5_4/dw -> conv5_4/dw
I0629 21:11:54.052990  5231 net.cpp:124] Setting up conv5_4/dw
I0629 21:11:54.052999  5231 net.cpp:131] Top shape: 64 512 6 6 (1179648)
I0629 21:11:54.053002  5231 net.cpp:139] Memory required for data: 851706624
I0629 21:11:54.053007  5231 layer_factory.hpp:77] Creating layer conv5_4/dw/bn
I0629 21:11:54.053014  5231 net.cpp:86] Creating Layer conv5_4/dw/bn
I0629 21:11:54.053019  5231 net.cpp:408] conv5_4/dw/bn <- conv5_4/dw
I0629 21:11:54.053025  5231 net.cpp:369] conv5_4/dw/bn -> conv5_4/dw (in-place)
I0629 21:11:54.053228  5231 net.cpp:124] Setting up conv5_4/dw/bn
I0629 21:11:54.053236  5231 net.cpp:131] Top shape: 64 512 6 6 (1179648)
I0629 21:11:54.053241  5231 net.cpp:139] Memory required for data: 856425216
I0629 21:11:54.053248  5231 layer_factory.hpp:77] Creating layer conv5_4/dw/scale
I0629 21:11:54.053256  5231 net.cpp:86] Creating Layer conv5_4/dw/scale
I0629 21:11:54.053259  5231 net.cpp:408] conv5_4/dw/scale <- conv5_4/dw
I0629 21:11:54.053267  5231 net.cpp:369] conv5_4/dw/scale -> conv5_4/dw (in-place)
I0629 21:11:54.053303  5231 layer_factory.hpp:77] Creating layer conv5_4/dw/scale
I0629 21:11:54.053411  5231 net.cpp:124] Setting up conv5_4/dw/scale
I0629 21:11:54.053421  5231 net.cpp:131] Top shape: 64 512 6 6 (1179648)
I0629 21:11:54.053424  5231 net.cpp:139] Memory required for data: 861143808
I0629 21:11:54.053431  5231 layer_factory.hpp:77] Creating layer relu5_4/dw
I0629 21:11:54.053437  5231 net.cpp:86] Creating Layer relu5_4/dw
I0629 21:11:54.053442  5231 net.cpp:408] relu5_4/dw <- conv5_4/dw
I0629 21:11:54.053447  5231 net.cpp:369] relu5_4/dw -> conv5_4/dw (in-place)
I0629 21:11:54.054289  5231 net.cpp:124] Setting up relu5_4/dw
I0629 21:11:54.054302  5231 net.cpp:131] Top shape: 64 512 6 6 (1179648)
I0629 21:11:54.054306  5231 net.cpp:139] Memory required for data: 865862400
I0629 21:11:54.054311  5231 layer_factory.hpp:77] Creating layer conv5_4/sep
I0629 21:11:54.054322  5231 net.cpp:86] Creating Layer conv5_4/sep
I0629 21:11:54.054327  5231 net.cpp:408] conv5_4/sep <- conv5_4/dw
I0629 21:11:54.054343  5231 net.cpp:382] conv5_4/sep -> conv5_4/sep
I0629 21:11:54.060269  5231 net.cpp:124] Setting up conv5_4/sep
I0629 21:11:54.060289  5231 net.cpp:131] Top shape: 64 512 6 6 (1179648)
I0629 21:11:54.060294  5231 net.cpp:139] Memory required for data: 870580992
I0629 21:11:54.060302  5231 layer_factory.hpp:77] Creating layer conv5_4/sep/bn
I0629 21:11:54.060312  5231 net.cpp:86] Creating Layer conv5_4/sep/bn
I0629 21:11:54.060317  5231 net.cpp:408] conv5_4/sep/bn <- conv5_4/sep
I0629 21:11:54.060325  5231 net.cpp:369] conv5_4/sep/bn -> conv5_4/sep (in-place)
I0629 21:11:54.060531  5231 net.cpp:124] Setting up conv5_4/sep/bn
I0629 21:11:54.060540  5231 net.cpp:131] Top shape: 64 512 6 6 (1179648)
I0629 21:11:54.060545  5231 net.cpp:139] Memory required for data: 875299584
I0629 21:11:54.060554  5231 layer_factory.hpp:77] Creating layer conv5_4/sep/scale
I0629 21:11:54.060561  5231 net.cpp:86] Creating Layer conv5_4/sep/scale
I0629 21:11:54.060566  5231 net.cpp:408] conv5_4/sep/scale <- conv5_4/sep
I0629 21:11:54.060575  5231 net.cpp:369] conv5_4/sep/scale -> conv5_4/sep (in-place)
I0629 21:11:54.060613  5231 layer_factory.hpp:77] Creating layer conv5_4/sep/scale
I0629 21:11:54.060730  5231 net.cpp:124] Setting up conv5_4/sep/scale
I0629 21:11:54.060739  5231 net.cpp:131] Top shape: 64 512 6 6 (1179648)
I0629 21:11:54.060742  5231 net.cpp:139] Memory required for data: 880018176
I0629 21:11:54.060750  5231 layer_factory.hpp:77] Creating layer relu5_4/sep
I0629 21:11:54.060756  5231 net.cpp:86] Creating Layer relu5_4/sep
I0629 21:11:54.060760  5231 net.cpp:408] relu5_4/sep <- conv5_4/sep
I0629 21:11:54.060765  5231 net.cpp:369] relu5_4/sep -> conv5_4/sep (in-place)
I0629 21:11:54.061276  5231 net.cpp:124] Setting up relu5_4/sep
I0629 21:11:54.061286  5231 net.cpp:131] Top shape: 64 512 6 6 (1179648)
I0629 21:11:54.061290  5231 net.cpp:139] Memory required for data: 884736768
I0629 21:11:54.061295  5231 layer_factory.hpp:77] Creating layer conv5_5/dw
I0629 21:11:54.061306  5231 net.cpp:86] Creating Layer conv5_5/dw
I0629 21:11:54.061311  5231 net.cpp:408] conv5_5/dw <- conv5_4/sep
I0629 21:11:54.061318  5231 net.cpp:382] conv5_5/dw -> conv5_5/dw
I0629 21:11:54.061570  5231 net.cpp:124] Setting up conv5_5/dw
I0629 21:11:54.061579  5231 net.cpp:131] Top shape: 64 512 6 6 (1179648)
I0629 21:11:54.061583  5231 net.cpp:139] Memory required for data: 889455360
I0629 21:11:54.061589  5231 layer_factory.hpp:77] Creating layer conv5_5/dw/bn
I0629 21:11:54.061595  5231 net.cpp:86] Creating Layer conv5_5/dw/bn
I0629 21:11:54.061600  5231 net.cpp:408] conv5_5/dw/bn <- conv5_5/dw
I0629 21:11:54.061605  5231 net.cpp:369] conv5_5/dw/bn -> conv5_5/dw (in-place)
I0629 21:11:54.061796  5231 net.cpp:124] Setting up conv5_5/dw/bn
I0629 21:11:54.061805  5231 net.cpp:131] Top shape: 64 512 6 6 (1179648)
I0629 21:11:54.061808  5231 net.cpp:139] Memory required for data: 894173952
I0629 21:11:54.061832  5231 layer_factory.hpp:77] Creating layer conv5_5/dw/scale
I0629 21:11:54.061841  5231 net.cpp:86] Creating Layer conv5_5/dw/scale
I0629 21:11:54.061846  5231 net.cpp:408] conv5_5/dw/scale <- conv5_5/dw
I0629 21:11:54.061852  5231 net.cpp:369] conv5_5/dw/scale -> conv5_5/dw (in-place)
I0629 21:11:54.061893  5231 layer_factory.hpp:77] Creating layer conv5_5/dw/scale
I0629 21:11:54.062006  5231 net.cpp:124] Setting up conv5_5/dw/scale
I0629 21:11:54.062014  5231 net.cpp:131] Top shape: 64 512 6 6 (1179648)
I0629 21:11:54.062018  5231 net.cpp:139] Memory required for data: 898892544
I0629 21:11:54.062026  5231 layer_factory.hpp:77] Creating layer relu5_5/dw
I0629 21:11:54.062031  5231 net.cpp:86] Creating Layer relu5_5/dw
I0629 21:11:54.062036  5231 net.cpp:408] relu5_5/dw <- conv5_5/dw
I0629 21:11:54.062043  5231 net.cpp:369] relu5_5/dw -> conv5_5/dw (in-place)
I0629 21:11:54.062911  5231 net.cpp:124] Setting up relu5_5/dw
I0629 21:11:54.062922  5231 net.cpp:131] Top shape: 64 512 6 6 (1179648)
I0629 21:11:54.062927  5231 net.cpp:139] Memory required for data: 903611136
I0629 21:11:54.062930  5231 layer_factory.hpp:77] Creating layer conv5_5/sep
I0629 21:11:54.062961  5231 net.cpp:86] Creating Layer conv5_5/sep
I0629 21:11:54.062968  5231 net.cpp:408] conv5_5/sep <- conv5_5/dw
I0629 21:11:54.062978  5231 net.cpp:382] conv5_5/sep -> conv5_5/sep
I0629 21:11:54.067957  5231 net.cpp:124] Setting up conv5_5/sep
I0629 21:11:54.067975  5231 net.cpp:131] Top shape: 64 512 6 6 (1179648)
I0629 21:11:54.067981  5231 net.cpp:139] Memory required for data: 908329728
I0629 21:11:54.067988  5231 layer_factory.hpp:77] Creating layer conv5_5/sep/bn
I0629 21:11:54.067997  5231 net.cpp:86] Creating Layer conv5_5/sep/bn
I0629 21:11:54.068002  5231 net.cpp:408] conv5_5/sep/bn <- conv5_5/sep
I0629 21:11:54.068011  5231 net.cpp:369] conv5_5/sep/bn -> conv5_5/sep (in-place)
I0629 21:11:54.068212  5231 net.cpp:124] Setting up conv5_5/sep/bn
I0629 21:11:54.068220  5231 net.cpp:131] Top shape: 64 512 6 6 (1179648)
I0629 21:11:54.068224  5231 net.cpp:139] Memory required for data: 913048320
I0629 21:11:54.068233  5231 layer_factory.hpp:77] Creating layer conv5_5/sep/scale
I0629 21:11:54.068243  5231 net.cpp:86] Creating Layer conv5_5/sep/scale
I0629 21:11:54.068248  5231 net.cpp:408] conv5_5/sep/scale <- conv5_5/sep
I0629 21:11:54.068254  5231 net.cpp:369] conv5_5/sep/scale -> conv5_5/sep (in-place)
I0629 21:11:54.068295  5231 layer_factory.hpp:77] Creating layer conv5_5/sep/scale
I0629 21:11:54.068419  5231 net.cpp:124] Setting up conv5_5/sep/scale
I0629 21:11:54.068428  5231 net.cpp:131] Top shape: 64 512 6 6 (1179648)
I0629 21:11:54.068433  5231 net.cpp:139] Memory required for data: 917766912
I0629 21:11:54.068439  5231 layer_factory.hpp:77] Creating layer relu5_5/sep
I0629 21:11:54.068445  5231 net.cpp:86] Creating Layer relu5_5/sep
I0629 21:11:54.068449  5231 net.cpp:408] relu5_5/sep <- conv5_5/sep
I0629 21:11:54.068455  5231 net.cpp:369] relu5_5/sep -> conv5_5/sep (in-place)
I0629 21:11:54.069648  5231 net.cpp:124] Setting up relu5_5/sep
I0629 21:11:54.069658  5231 net.cpp:131] Top shape: 64 512 6 6 (1179648)
I0629 21:11:54.069664  5231 net.cpp:139] Memory required for data: 922485504
I0629 21:11:54.069667  5231 layer_factory.hpp:77] Creating layer pool6
I0629 21:11:54.069675  5231 net.cpp:86] Creating Layer pool6
I0629 21:11:54.069679  5231 net.cpp:408] pool6 <- conv5_5/sep
I0629 21:11:54.069689  5231 net.cpp:382] pool6 -> pool6
I0629 21:11:54.273298  5231 net.cpp:124] Setting up pool6
I0629 21:11:54.273337  5231 net.cpp:131] Top shape: 64 512 1 1 (32768)
I0629 21:11:54.273342  5231 net.cpp:139] Memory required for data: 922616576
I0629 21:11:54.273350  5231 layer_factory.hpp:77] Creating layer fc7-mouth
I0629 21:11:54.273371  5231 net.cpp:86] Creating Layer fc7-mouth
I0629 21:11:54.273378  5231 net.cpp:408] fc7-mouth <- pool6
I0629 21:11:54.273391  5231 net.cpp:382] fc7-mouth -> fc7-mouth
I0629 21:11:54.278862  5231 net.cpp:124] Setting up fc7-mouth
I0629 21:11:54.278875  5231 net.cpp:131] Top shape: 64 4 1 1 (256)
I0629 21:11:54.278879  5231 net.cpp:139] Memory required for data: 922617600
I0629 21:11:54.278888  5231 layer_factory.hpp:77] Creating layer fc7-mouth_fc7-mouth_0_split
I0629 21:11:54.278898  5231 net.cpp:86] Creating Layer fc7-mouth_fc7-mouth_0_split
I0629 21:11:54.278903  5231 net.cpp:408] fc7-mouth_fc7-mouth_0_split <- fc7-mouth
I0629 21:11:54.278909  5231 net.cpp:382] fc7-mouth_fc7-mouth_0_split -> fc7-mouth_fc7-mouth_0_split_0
I0629 21:11:54.278923  5231 net.cpp:382] fc7-mouth_fc7-mouth_0_split -> fc7-mouth_fc7-mouth_0_split_1
I0629 21:11:54.278964  5231 net.cpp:124] Setting up fc7-mouth_fc7-mouth_0_split
I0629 21:11:54.278971  5231 net.cpp:131] Top shape: 64 4 1 1 (256)
I0629 21:11:54.278975  5231 net.cpp:131] Top shape: 64 4 1 1 (256)
I0629 21:11:54.278980  5231 net.cpp:139] Memory required for data: 922619648
I0629 21:11:54.278983  5231 layer_factory.hpp:77] Creating layer loss
I0629 21:11:54.281517  5231 net.cpp:86] Creating Layer loss
I0629 21:11:54.281524  5231 net.cpp:408] loss <- fc7-mouth_fc7-mouth_0_split_0
I0629 21:11:54.281529  5231 net.cpp:408] loss <- clc-label_data_1_split_0
I0629 21:11:54.281535  5231 net.cpp:382] loss -> loss
…
